checkpoints/GMF_Epoch3_HR0.1427_NDCG0.1419.model (torch, 250015 bytes, 3 tensors)

embedding_user.weight f4 [51, 32]
-0.7766927 -0.16181083 1.367514 -1.4327915 -2.3741765 -1.2163076 1.1506675 0.46614507
-0.8485128 0.19376077 -0.9392449 -0.9545815 1.1213506 0.06533632 1.4332275 -0.6306692
-1.1452886 -0.9707528 0.48716953 0.84142107 0.06030769 -0.19106911 1.0313134 0.10123435
-1.5201832 1.8862389 -0.15123762 1.4724295 0.40784296 -0.030205693 1.3582095 1.122317
-2.1446981 0.89226305 1.1650351 1.1635479 -2.03715 -0.96956974 -1.9504762 0.8493591
-0.21638928 -1.2244011 -0.32557625 -0.6377629 -1.4628793 -0.56554556 1.081465 -3.787927
-2.5024672 1.8567827 2.2656996 -0.6375352 0.401112 -0.37900823 -0.3115749 0.04792321
-1.180813 1.6008577 0.04907545 -0.99843717 -0.8246857 -0.13701172 2.7224393 0.3250804
0.40734807 0.07221441 -0.7302925 0.22546035 1.2410871 0.6989435 0.5277954 1.0686189
-1.0926497 0.036881473 1.2071958 -1.4796118 0.47384924 1.2514424 1.3067422 -0.69060993
-0.012277431 -1.3177941 0.46932465 0.66734046 0.33191836 -1.8660634 -0.6161045 0.48009303
-0.48348418 0.5200371 0.75960815 -0.8188528 -0.5946933 1.1059874 -0.09883619 0.6855451
-0.59680766 -1.5710996 1.4421723 0.57415295 -0.24438448 0.019903902 -0.031022253 0.79944974
-0.40608877 -0.39257523 -0.9749098 1.2296047 -1.492009 0.19452548 0.6956671 0.03698226
-2.0825064 0.57062227 -1.1640377 -0.9345296 -1.7863781 0.01424322 1.1828995 -0.38608673
-0.2713025 0.9465457 1.7340659 1.0275174 0.9204993 1.1681299 -0.41726696 -1.189385
-2.0839539 -0.6378072 0.8565617 0.11836165 -1.988194 -2.2267804 0.26399073 -0.28401726
2.2209518 3.2583442 0.7618856 0.13537993 -0.071269765 -0.31257588 -0.22587371 0.6456769
2.782422 3.2269225 -1.7826678 3.917013 3.8635943 -3.124426 0.562804 -0.46881053
-0.7131375 -0.8412687 1.2724388 -0.26243347 -0.088509806 -1.3144239 0.47301075 0.29083765
-0.8544872 1.0781015 -0.0029259794 0.3388412 -0.367894 1.1047637 -1.8451076 -1.8696586
-0.7871734 2.357273 -0.7502925 -1.235528 -0.009729249 -0.8828884 0.49915877 -1.6032697
1.586265 0.3375856 -2.50907 1.2345899 -1.1052439 -0.1802601 -0.41320613 0.74692345
-0.8317453 1.4064323 -0.57384396 0.43040487 2.0445795 1.0859115 -0.44201916 1.6156023
-1.357562 -0.13851996 0.63391477 0.73439497 0.6107964 1.0297378 0.14701311 -0.3327558
-0.36524135 -1.0333831 -0.5751245 0.57922405 0.6102054 -0.33998585 -2.082088 -1.2241026
-1.0365106 0.81097734 -1.1651709 0.71205175 0.34579107 -1.3099331 -2.071342 0.23564355
0.8181884 -0.16750528 0.044457387 -0.21920885 -0.120495826 0.4022905 1.3010637 -1.4250984
-0.3620891 2.78213 -1.1259589 -1.4563191 -0.4791448 0.13860804 1.2261548 -0.8454633
-0.18730187 2.42089 1.0301104 -3.2116716 -1.4500523 0.489239 -0.10061362 0.83757037
-2.6445186 2.9631789 -1.4092691 -0.4000482 -0.21801735 1.6191965 0.8268974 -1.2448334
-1.3050787 1.0189388 1.2564036 -1.2367159 2.1413198 -0.04191855 -0.08831233 1.3365499
00000000: 55d5 46bf bdb1 25be b30a af3f b665 b7bf
00000010: 82f2 17c0 f8af 9bbf 1349 933f 91aa ee3e
00000020: 2338 59bf 3969 463e 5b72 70bf 745f 74bf
00000030: 6b88 8f3f 0ccf 853d 0074 b73f 8973 21bf
00000040: d198 92bf 4183 78bf 496e f93e 5f67 573f
00000050: 3205 773d 9fa7 43be 1402 843f f453 cf3d
00000060: 5d95 c2bf 4770 f13f 09de 1abe 9278 bc3f
00000070: cbd0 d03e ee71 f7bc cfd9 ad3f 15a8 8f3f
00000080: bc42 09c0 5a6b 643f df1f 953f 23ef 943f
00000090: aa60 02c0 b935 78bf 34a9 f9bf 996f 593f
000000a0: 2795 5dbe 2db9 9cbf eeb1 a6be 6e44 23bf
000000b0: a13f bbbf 98c7 10bf 726d 8a3f 656d 72c0
000000c0: 6c28 20c0 0eab ed3f 3901 1140 8235 23bf
000000d0: 8d5e cd3e 5e0d c2be bf86 9fbe 214b 443d
000000e0: e124 97bf e8e8 cc3f 5703 493d 9499 7fbf
000000f0: 9a1e 53bf cd4c 0cbe 723c 2e40 f070 a63e
00000100: ed8f d03e 26e5 933d 73f4 3abf 14df 663e
00000110: f1db 9e3f f6ed 323f 991d 073f 81c8 883f
00000120: f2db 8bbf 0711 173d 6485 9a3f eb63 bdbf
00000130: 5e9c f23e 442f a03f 5443 a73f d0cb 30bf
00000140: 4727 49bc 7aad a8bf 524b f03e d3d6 2a3f
00000150: 34f1 a93e 2adb eebf 06b9 1dbf c1ce f53e
00000160: 3d8b f7be 2721 053f ae75 423f 56a0 51bf
00000170: d23d 18bf ff90 8d3f a16a cabd e27f 2f3f
00000180: 63c8 18bf cb19 c9bf 1a99 b83f b0fb 123f
00000190: ed3f 7abe 820d a33c 6122 febc bda8 4c3f
000001a0: deea cfbe 9fff c8be b093 79bf b063 9d3f
000001b0: 27fa bebf b031 473e 3d17 323f b67a 173d
000001c0: c947 05c0 4d14 123f 30ff 94bf 553d 6fbf
000001d0: 0aa8 e4bf 655c 693c 4069 973f 29ad c5be
000001e0: 29e8 8abe d250 723f dff5 dd3f b185 833f
000001f0: d8a5 6b3f 4885 953f 04a4 d5be c53d 98bf
00000200: 805f 05c0 5547 23bf a147 5b3f 9867 f23d
00000210: 247d febf 9283 0ec0 cb29 873e b66a 91be
00000220: 1324 0e40 b688 5040 ef0a 433f 09a1 0a3e
00000230: e2f5 91bd f209 a0be 704b 67be 154b 253f
00000240: 3413 3240 e685 4e40 752e e4bf 57b0 7a40
00000250: 2145 7740 98f6 47c0 ec13 103f ef07 f0be
00000260: 2e90 36bf 635d 57bf 46df a23f ae5d 86be
00000270: a144 b5bd 0b3f a8bf 772e f23e ace8 943e
00000280: acbf 5abf 3bff 893f cac1 3fbb 987c ad3e
00000290: 9a5c bcbe e668 8d3f 7c2c ecbf f950 efbf
000002a0: 3284 49bf 90dd 1640 2b13 40bf c825 9ebf
000002b0: 6e67 1fbc f904 62bf bd91 ff3e f137 cdbf
000002c0: bb0a cb3f 05d8 ac3e 9a94 20c0 0b07 9e3f
000002d0: a278 8dbf 1b96 38be c18f d3be 6036 3f3f
000002e0: 43ed 54bf f905 b43f 70e7 12bf 075e dc3e
000002f0: 64da 0240 26ff 8a3f 5650 e2be 0ecc ce3f
00000300: 97c4 adbf 2dd8 0dbe 3d48 223f 4f01 3c3f
00000310: 275d 1c3f 73ce 833f 9b8a 163e f85e aabe
00000320: ea00 bbbe e645 84bf 5c3b 13bf 0748 143f
00000330: 6c36 1c3f a012 aebe ee40 05c0 65af 9cbf
00000340: 61ac 84bf 369c 4f3f 5224 95bf 0649 363f
00000350: 870b b13e e3ab a7bf de90 04c0 8b4c 713e
00000360: cc74 513f 8186 2bbe f318 363d 4978 60be
00000370: 84c6 f6bd 05f9 cd3e 4189 a63f a069 b6bf
00000380: be63 b9be 6b0e 3240 6c1f 90bf aa68 babf
00000390: 7852 f5be 44ef 0d3e a4f2 9c3f 4870 58bf
000003a0: 10cc 3fbe ddef 1a40 a8da 833f 078c 4dc0
000003b0: 509b b9bf 897d fa3e 830e cebd 036b 563f
000003c0: cb3f 29c0 b9a4 3d40 ee62 b4bf 1ed3 ccbe
000003d0: f13f 5fbe d541 cf3f 8caf 533f b356 9fbf
000003e0: d20c a7bf 966c 823f d5d1 a03f b54c 9ebf
000003f0: 620b 0940 c9b2 2bbd 18dd b4bd 1114 ab3f

embedding_item.weight f4 [1889, 32]
-1.443443 -0.5841524 -0.9385413 -0.5787824 -0.9645388 -1.2647681 -1.3780272 -1.4807521
0.14314836 -1.4641861 -0.9927268 1.6195815 2.362194 0.4198851 0.87988746 -2.5262177
-3.1470711 0.74495876 0.49783885 -1.2100588 1.3468145 -0.044132672 1.4200485 -1.9413443
1.3762144 1.0949228 -0.4680168 0.9743834 -0.37659284 -0.38792107 0.74980336 -1.0244023
0.9238237 -1.7429463 -1.000428 0.5427823 0.22408274 0.4154137 -1.3604705 -0.29653093
0.10867175 0.7570263 -1.3451763 -0.7100488 1.7297821 -1.8074251 -2.0830264 0.5276359
0.4505251 -0.57852334 -0.84630287 0.016143061 -2.115406 1.8380187 -0.057135496 -1.1969992
0.43627 2.677745 0.4719609 0.5158346 -0.17179291 -0.050489146 -0.64370465 0.838948
1.1985164 -1.4360274 0.7857246 -0.06815265 2.0020647 -1.8793299 1.1680511 -0.23812735
-0.3434216 1.9623415 0.56851417 0.81766605 0.090947285 0.28694212 -0.5979031 0.7417824
0.7946534 -3.0836475 -0.2313842 -0.9570075 2.0321088 -2.2486567 1.3017598 -2.324539
0.14482018 0.8812956 1.2141997 1.188105 0.52849704 2.7901242 0.24744344 0.4104395
0.0071868673 0.6894078 0.043562606 -0.136376 0.042059615 -1.5332843 0.21342658 0.13339451
1.9806812 1.7175121 -0.6339928 1.7578797 -0.017830014 -2.056931 -0.5646203 -0.48497197
0.43853357 0.13177042 -0.046916083 -0.21694207 0.4551449 -1.1155758 -0.66700375 1.3117088
-3.1559749 -0.11559137 -2.770735 0.14978738 2.8706515 -3.0245807 0.22685528 1.3134187
-0.8400005 2.1225617 0.18261217 1.4540995 1.1568735 -1.6076231 -1.2578863 -0.16919331
0.3793703 0.33139297 1.7065963 -0.69898266 0.33397046 4.0239043 -3.021337 0.74483854
-0.5148461 -1.8516526 0.54547316 0.43129236 -0.46544793 -0.29310545 -0.35871193 -0.47826505
0.12931143 0.36848217 0.81007075 -0.2111305 0.6638742 -2.7419534 -0.5500598 1.3411626
0.5123392 -0.7132857 -0.7193881 -1.0192086 -0.4319168 1.8247268 0.066084296 -1.169129
1.9997355 1.7760477 -0.97600615 0.3774721 -0.4558284 2.3220375 -1.8280118 0.50071746
-0.114500344 1.0969727 -0.78651726 -0.24643436 -0.39683363 1.0670176 -0.7188658 0.88485396
-0.95245683 2.4710536 -1.5529722 -0.553714 0.056540973 0.05493213 0.93254167 -0.5756747
-0.47034484 -0.5780615 -1.2660589 -2.2617514 0.22592996 1.5668482 -0.42049205 0.60832304
0.32960302 -1.6417167 0.98474437 -0.33920312 1.9100913 -2.771871 0.23404229 0.32330343
0.43930689 -2.1560862 -1.0574406 -0.80111235 -1.1783165 -0.40118295 0.28456786 0.53866166
-0.04084316 0.94679624 1.1031718 -1.2533746 0.26934037 0.06901238 -1.2224278 -0.14907919
-3.0737195 1.2998325 -2.244367 -1.2882758 0.977402 0.4891828 -0.62525505 0.82955927
0.5360572 2.2186825 -0.14471717 0.26938018 -1.7232038 0.830276 0.16715682 -1.5882711
-0.65853393 -1.3730772 -0.43276623 0.50147045 0.38257387 0.99432373 -1.3308156 0.37144566
-0.47303593 0.35354182 0.077407435 0.57293504 0.71818435 -0.017716765 -2.522213 -1.2993989
00000000: bdc2 b8bf 038b 15bf 3e44 70bf 152b 14bf
00000010: 04ec 76bf ece3 a1bf 3263 b0bf 4989 bdbf
00000020: 7c95 123e 736a bbbf 5823 7ebf 724e cf3f
00000030: 302e 1740 2efb d63e 4e40 613f 8dad 21c0
00000040: 9d69 49c0 9eb5 3e3f bce4 fe3e 35e3 9abf
00000050: 6b64 ac3f 76c4 34bd 26c4 b53f f87d f8bf
00000060: cb27 b03f 6e26 8c3f e69f efbe 3171 793f
00000070: c7d0 c0be 979d c6be 1df3 3f3f 9d1f 83bf
00000080: b67f 6c3f dd18 dfbf 060e 80bf c8f3 0a3f
00000090: f275 653e 1bb1 d43e e623 aebf e7d2 97be
000000a0: 4b8f de3d 7acc 413f bd2e acbf c2c5 35bf
000000b0: 8069 dd3f b559 e7bf 4e50 05c0 2513 073f
000000c0: 3aab e63e 1b1a 14bf 4ea7 58bf 743e 843c
000000d0: d062 07c0 3244 eb3f e906 6abd 4537 99bf
000000e0: c85e df3e 2d60 2b40 dca4 f13e bd0d 043f
000000f0: 7bea 2fbe b5cd 4ebd d4c9 24bf 4cc5 563f
00000100: fc68 993f bfcf b7bf 3f25 493f 9e93 8bbd
00000110: d421 0040 e28d f0bf b382 953f a8d7 73be
00000120: f5d4 afbe 022e fb3f 258a 113f 9052 513f
00000130: 9242 ba3d 14ea 923e 2d10 19bf 74e5 3d3f
00000140: 686e 4b3f 7b5a 45c0 fbef 6cbe 72fe 74bf
00000150: 120e 0240 fee9 0fc0 11a0 a63f 3fc5 14c0
00000160: be4b 143e 979c 613f e56a 9b3f d313 983f
00000170: 954b 073f 6591 3240 d061 7d3e 2025 d23e
00000180: d07f eb3b 087d 303f b46e 323d 26a6 0bbe
00000190: b446 2c3d a942 c4bf 7f8c 5a3e 9298 083e
000001a0: f686 fd3f 70d7 db3f 5a4d 22bf 3402 e13f
000001b0: 4010 92bc c2a4 03c0 f58a 10bf 3f4e f8be
000001c0: 7987 e03e d3ee 063e 142b 40bd 1026 5ebe
000001d0: c108 e93e 30cb 8ebf c2c0 2abf 13e6 a73f
000001e0: 7efb 49c0 2bbb ecbd b953 31c0 dd61 193e
000001f0: c1b8 3740 bb92 41c0 c04c 683e 1b1e a83f
00000200: 460a 57bf 0dd8 0740 affe 3a3e ef1f ba3f
00000210: 6e14 943f 98c6 cdbf 6b02 a1bf 0341 2dbe
00000220: d33c c23e 57ac a93e bf71 da3f 87f0 32bf
00000230: 2dfe aa3e d3c3 8040 965d 41c0 bdad 3e3f
00000240: f4cc 03bf f402 edbf 21a4 0b3f 5ad2 dc3e
00000250: 314f eebe eb11 96be 17a9 b7be 28df f4be
00000260: 376a 043e b2a9 bc3e cc60 4f3f 9832 58be
00000270: a9f3 293f 2a7c 2fc0 b8d0 0cbf 37ab ab3f
00000280: a928 033f e499 36bf d229 38bf 6d75 82bf
00000290: 3324 ddbe a690 e93f 3457 873d 05a6 95bf
000002a0: 55f7 ff3f 8855 e33f 8adb 79bf 0644 c13e
000002b0: 5762 e9be 439c 1440 4afc e9bf 052f 003f
000002c0: 287f eabd 9a69 8c3f 3259 49bf 4a59 7cbe
000002d0: c72d cbbe 0894 883f 9707 38bf ca85 623f
000002e0: 36d4 73bf be25 1e40 cbc7 c6bf 33c0 0dbf
000002f0: 8297 673d 8300 613d 0dbb 6e3f 6b5f 13bf
00000300: 0ad1 f0be d7fb 13bf 380e a2bf 89c0 10c0
00000310: 2f5a 673e 7b8e c83f bc4a d7be 0fbb 1b3f
00000320: bac1 a83e c623 d2bf 3518 7c3f 08ac adbe
00000330: df7d f43f 5666 31c0 c8a8 6f3e 0788 a53e
00000340: d5ec e03e 51fd 09c0 375a 87bf b315 4dbf
00000350: 13d3 96bf da67 cdbe e1b2 913e bbe5 093f
00000360: 284b 27bd 3d61 723f bc34 8d3f 946e a0bf
00000370: fbe6 893e 5d56 8d3d 8478 9cbf 37a8 18be
00000380: d2b7 44c0 e960 a63f b5a3 0fc0 39e6 a4bf
00000390: 0437 7a3f 2b76 fa3e b710 20bf ff5d 543f
000003a0: 0b3b 093f e5fe 0d40 bd30 14be 33ec 893e
000003b0: f191 dcbf f88c 543f 282b 2b3e 784c cbbf
000003c0: ae95 28bf fec0 afbf 8993 ddbe 5e60 003f
000003d0: b9e0 c33e 008c 7e3f 2a58 aabf 202e be3e
000003e0: c431 f2be 6f03 b53e ca87 9e3d dfab 123f
000003f0: eeda 373f c022 91bc f06b 21c0 b452 a6bf

affine_output.weight f4 [1, 32]
2.0245836 -2.2128463 -2.4179447 2.1761844 -1.989947 -2.299112 -2.3879418 2.19289
-2.5075545 2.1232631 -2.1386778 -2.3688731 2.4725792 2.4218762 -2.231729 2.0588803
2.2576613 2.701083 2.0805597 1.7966326 2.1230938 3.0025554 2.515649 -2.3623147
2.666563 2.5950375 2.865342 2.537132 2.3531501 -2.3410323 2.3434238 2.4299068
00000000: c792 0140 469f 0dc0 9bbf 1ac0 9b46 0b40
00000010: 95b6 febf a724 13c0 0ad4 18c0 4f58 0c40
00000020: c67b 20c0 8be3 0740 19e0 08c0 9e9b 17c0
00000030: bd3e 1e40 0500 1b40 a6d4 0ec0 b2c4 0340
00000040: 867d 1040 8bde 2c40 e427 0540 0ff8 e53f
00000050: c5e0 0740 de29 4040 6500 2140 2a30 17c0
00000060: f8a8 2a40 1815 2640 c361 3740 5f60 2240
00000070: 039a 1640 79d3 15c0 a8fa 1540 9883 1b40
