checkpoints/GMF_Epoch6_HR0.1457_NDCG0.1450.model (torch, 250015 bytes, 3 tensors)

embedding_user.weight f4 [51, 32]
00000000: ac97 48bf ddfe 24be 394c b13f e862 b8bf
00000010: da20 18c0 ad61 9dbf 5f95 943f 24a0 ef3e
00000020: 0b61 5cbf 5094 4a3e e671 73bf 224f 75bf
00000030: 2390 913f 2cd2 7c3d f658 b93f a10a 21bf
00000040: 61b9 93bf ab31 79bf a178 f83e 44c7 583f
00000050: c2b1 763d 0104 43be fcee 843f c377 cc3d
00000060: 07ba c3bf 945e f33f ce7a 24be 4ad4 bd3f
00000070: 6666 cb3e 7cdc 02bd 5ae0 ae3f 9e34 903f
00000080: 127d 09c0 37d2 653f a068 953f 592b 953f
00000090: c161 02c0 3858 78bf 15ef fabf aa44 593f
000000a0: 58ba 5ebe af08 9dbf 6cb9 a6be 1612 24bf
000000b0: dc6c bcbf add7 10bf bed9 8a3f 8de2 72c0
000000c0: 6494 20c0 8941 ee3f 4648 1140 d0b2 22bf
000000d0: a1ff cd3e 7c76 c3be f988 9ebe e767 4a3d
000000e0: 201b 97bf 0c77 cd3f 88e7 3e3d 2886 80bf
000000f0: 48b2 53bf bfca 0dbe a2b2 2e40 2b50 a53e
00000100: 053b d83e 88f3 8a3d fd4f 41bf 8f01 603e
00000110: 7ff0 9f3f ef3b 343f b1f8 0a3f 3bd8 8a3f
00000120: 013d 8cbf 8d58 f43c c312 9c3f d60f c0bf
00000130: 4eec f73e 661f a33f 273d a93f b840 30bf
00000140: 4a83 5cbc 5053 aabf 372e f93e 53a8 2d3f
00000150: 9f13 ac3e ecb6 f2bf f59e 1dbf 5799 f73e
00000160: 7145 f7be dbe9 063f 18f7 443f 54fe 53bf
00000170: 98d6 1bbf 0c48 8f3f 9eae cdbd 33ae 2e3f
00000180: 4f0e 1cbf 15b1 cabf 2fda ba3f c405 183f
00000190: c911 86be 8605 d13b 5958 06bd fecb 503f
000001a0: 06d6 cabe 5df5 cfbe 7879 79bf 0595 9f3f
000001b0: 91e5 c1bf b21b 543e d4e8 363f 5753 723d
000001c0: da19 06c0 4b17 143f 05b5 95bf aca0 70bf
000001d0: 48c2 e4bf 25ea 813c 62d4 993f 9f9b cbbe
000001e0: 0810 92be 1c18 763f 95fa e03f a112 863f
000001f0: 823a 6c3f f58f 963f ef9a e2be 7671 99bf
00000200: 019c 05c0 7463 23bf 287e 5b3f e979 eb3d
00000210: ed94 febf 33f3 0ec0 ad53 863e 2b05 91be
00000220: 2771 0e40 f7d3 5040 c1f2 423f 5683 0b3e
00000230: 8d55 99bd 489b a0be df62 65be 1978 263f
00000240: 9032 3240 5d00 4f40 fe29 e4bf 24e9 7a40
00000250: 5d94 7740 c85c 48c0 b3f0 0f3f e447 efbe
00000260: 0369 37bf 7c1a 57bf d4a8 a33f 76d5 87be
00000270: 8a7f c2bd 7efd a7bf c697 f23e 798c 953e
00000280: 24d8 5bbf 584b 8a3f a02d bcbb ca08 ad3e
00000290: 6287 bdbe ca31 8d3f 42ba ecbf 115f f0bf
000002a0: 63ec 49bf f94b 1740 5761 40bf 3118 9fbf
000002b0: 15df 88bc 211f 63bf 7ab8 013f f161 cdbf
000002c0: 3440 cb3f 283d af3e d2f2 20c0 a15b 9e3f
000002d0: 1400 8ebf c2ef 3bbe a36c d5be 35b9 3f3f
000002e0: 4ad2 56bf 78b4 b43f 9f66 13bf 20b5 dc3e
000002f0: bd28 0340 d64f 8b3f 1c83 e3be 7765 cf3f
00000300: 5b75 b2bf 40c5 14be 8e4d 253f ad24 403f
00000310: 3e82 1f3f 3ca3 853f 11c1 203e 206e b0be
00000320: e329 bfbe ab20 86bf ae52 16bf c77e 163f
00000330: 494b 1e3f 69ad b0be 69ac 07c0 8c6c 9ebf
00000340: f86d 87bf ab30 563f 0a6f 98bf 23f3 383f
00000350: 9a1d b53e af68 abbf 79d1 05c0 d3c7 813e
00000360: d2fc 573f 661d 2ebe 9c98 503d e8c6 65be
00000370: 4967 f8bd 9287 d53e 76e6 a93f 575a babf
00000380: c12f bbbe 7ad8 3240 e400 91bf 4c2b bbbf
00000390: c9be f6be c4b1 0f3e 37ef 9d3f c284 59bf
000003a0: 5c0a 44be d727 1b40 80a7 833f 5829 4ec0
000003b0: a18b babf 6f42 fe3e b221 cabd 9f70 583f
000003c0: 4ebc 29c0 a630 3e40 1c5f b4bf 07e1 ccbe
000003d0: 4ccf 5bbe 4f6a d03f f102 553f a4cf 9fbf
000003e0: f78f a7bf 4afd 833f c19a a13f 61d1 9ebf
000003f0: 05c7 0840 d470 32bd bd72 abbd 85c9 ab3f
-0.7835643 -0.16112848 1.3851386 -1.4405184 -2.377005 -1.2295433 1.1608084 0.46801865
-0.86085576 0.19783139 -0.9509567 -0.9582387 1.1372112 0.061723873 1.4480274 -0.62906843
-1.1540948 -0.9734141 0.48529533 0.84679055 0.060228117 -0.19044496 1.0385432 0.0998378
-1.5291146 1.9013238 -0.16062471 1.483041 0.3972656 -0.03194855 1.3662217 1.1266057
-2.1482587 0.8977389 1.1672554 1.1653854 -2.0372164 -0.9700961 -1.9604212 0.848704
-0.21750772 -1.2268275 -0.3256334 -0.64090097 -1.4720721 -0.56579095 1.08477 -3.7950776
-2.509057 1.861375 2.2700362 -0.63554096 0.40234092 -0.38176334 -0.30963877 0.049415495
-1.1805153 1.6051955 0.046607524 -1.0040941 -0.8269391 -0.13846873 2.729653 0.32287726
0.42232528 0.06784731 -0.7551268 0.21875595 1.2495269 0.7040395 0.5428572 1.0847238
-1.0956117 0.02982738 1.2193226 -1.5004833 0.48422474 1.2743957 1.3221787 -0.6884875
-0.013459036 -1.3306675 0.48668072 0.6783497 0.3360872 -1.8962073 -0.61570674 0.48359177
-0.48295167 0.52700585 0.76939535 -0.8280995 -0.6087432 1.1193862 -0.10043071 0.68234557
-0.60959333 -1.5835291 1.4597834 0.593838 -0.26185444 0.0063788323 -0.0327991 0.8156127
-0.39616412 -0.40616885 -0.9745097 1.2467352 -1.5148183 0.2071369 0.7144902 0.05916151
-2.0953279 0.5784804 -1.1695868 -0.93995166 -1.787179 0.01585872 1.2017939 -0.39767167
-0.28527856 0.9613054 1.7576472 1.0474435 0.92276776 1.1762682 -0.4425883 -1.198775
-2.0876467 -0.6382363 0.85739374 0.11497862 -1.9889199 -2.2335937 0.26235715 -0.28324255
2.2256563 3.2629373 0.76151663 0.1362432 -0.07487021 -0.3136847 -0.22400998 0.65027004
2.784336 3.2343972 -1.7825315 3.9204798 3.8684304 -3.130663 0.5622665 -0.46734536
-0.7164461 -0.84024787 1.2785897 -0.26530045 -0.094969824 -1.3124235 0.4738142 0.29208735
-0.8587668 1.0804243 -0.0057427436 0.33795768 -0.3701735 1.103082 -1.8494341 -1.8779012
-0.7887632 2.364012 -0.7514853 -1.2429258 -0.016707936 -0.88719374 0.50672114 -1.6045514
1.5878968 0.34226346 -2.5148206 1.2371713 -1.1093774 -0.18353179 -0.41684446 0.7489198
-0.83914626 1.4117575 -0.5757846 0.43106937 2.0493615 1.0883739 -0.44435966 1.620284
-1.3942064 -0.1452837 0.64571464 0.7505596 0.6230811 1.044044 0.15698649 -0.3445902
-0.37336645 -1.047872 -0.5871991 0.58787197 0.61833626 -0.345073 -2.119898 -1.2376876
-1.0580435 0.8366801 -1.1908886 0.72246 0.35374147 -1.3391322 -2.0909102 0.25347766
0.8437015 -0.17003402 0.05092679 -0.22439158 -0.12129075 0.41704994 1.3273456 -1.455882
-0.3655987 2.7944627 -1.1328397 -1.4622588 -0.48192433 0.14032656 1.2338628 -0.849682
-0.19144577 2.4243066 1.0285492 -3.2212734 -1.4573861 0.4966006 -0.09869708 0.84546846
-2.6521182 2.9717193 -1.4091525 -0.40015432 -0.21465796 1.6282443 0.83207613 -1.2485242
-1.309081 1.0311673 1.2625352 -1.2407647 2.1371472 -0.043564633 -0.08371494 1.3420874

embedding_item.weight f4 [1889, 32]
00000000: 0b22 b9bf a593 16bf 8777 70bf 3cf4 14bf
00000010: bdc7 76bf 48cc a1bf a02e b0bf 40c4 bdbf
00000020: 9016 113e 0e36 bbbf 668c 7dbf 9201 cf3f
00000030: 342c 1740 e953 d73e fabf 613f 67b3 21c0
00000040: 8b67 49c0 1a5d 3e3f 516b 003f b9d4 9abf
00000050: bde3 ac3f 4b95 2abd 94fd b53f 5b87 f8bf
00000060: 3f91 b03f 2feb 8b3f 165b efbe 6dd9 793f
00000070: e734 c2be e8e9 c6be e237 403f d8fd 82bf
00000080: a5a0 6c3f d41a dfbf 29f9 7fbf 9bd1 0a3f
00000090: 889d 653e d2b0 d43e db31 aebf 99fe 97be
000000a0: 8b20 dd3d 8aaf 413f 3e2f acbf e3c4 35bf
000000b0: 277a dd3f 8468 e7bf 534e 05c0 0136 073f
000000c0: 61f5 e63e 2238 14bf 82e0 58bf ea52 863c
000000d0: cc64 07c0 2353 eb3f 0af0 6abd 743e 99bf
000000e0: 4aa5 df3e 5c5c 2b40 b549 f13e 3d29 043f
000000f0: 5b90 2fbe 0927 4ebd f7fb 24bf 35a2 563f
00000100: 14a5 993f 9809 b8bf 7de3 493f 840b 94bd
00000110: 9027 0040 ffce f0bf 0361 953f 398f 74be
00000120: 0f51 b2be d706 fb3f 66a5 103f 1535 513f
00000130: 37f3 b13d 08e4 923e 074d 18bf b994 3d3f
00000140: fdfc 4b3f 7978 45c0 3948 6bbe 5d9b 75bf
00000150: 22f5 0140 f0ca 0fc0 9d00 a73f 0ff3 14c0
00000160: ffb4 163e 0e3d 613f 1436 9b3f 9df1 973f
00000170: e068 063f 1be9 3240 5cd3 773e 1dad cf3e
00000180: 501f 1d3c db48 303f 5fda 403d 1773 10be
00000190: 19fc 2f3d 1941 c4bf 8f5a 5b3e af67 053e
000001a0: 50ca fd3f 210c dc3f 58fc 23bf 4bac e03f
000001b0: 4eab acbc 82dd 03c0 d9ba 0fbf 33ee fbbe
000001c0: 6982 e03e 2b6e 063e 5e94 3dbd 0667 59be
000001d0: 46e6 e93e 0148 8ebf 5576 29bf 440d a83f
000001e0: aa14 4ac0 b5ba efbd 0df1 31c0 fe9c 1f3e
000001f0: bde2 3740 e862 41c0 b5c5 623e eda8 a83f
00000200: 7a53 56bf 65b8 0740 69a6 3b3e 5612 ba3f
00000210: f2e0 933f bd0e cebf be40 a1bf 0acc 2fbe
00000220: a247 c03e f937 a73e e992 da3f 6c56 34bf
00000230: 7c49 ac3e d8e5 8040 2090 41c0 d5db 3e3f
00000240: 30e0 03bf dc3d edbf ad8d 0b3f 606c dd3e
00000250: b2a2 ebbe d715 96be 3aaa b6be d715 f7be
00000260: 2add 0c3e 3829 bb3e 5baa 4e3f bf71 56be
00000270: 38b3 293f 4f66 2fc0 b0cd 0ebf cfc7 ab3f
00000280: 1d28 033f 9fbd 36bf ae39 38bf 098f 82bf
00000290: c73e ddbe a089 e93f c3ca 853d 5da7 95bf
000002a0: d4fe ff3f 2548 e33f ce14 7abf e1ef c03e
000002b0: 2d7c e9be ab97 1440 c8fc e9bf 0138 003f
000002c0: b53d eabd 5b66 8c3f b16c 49bf 6748 7cbe
000002d0: 4be6 cabe 05a8 883f 84f2 37bf 657c 623f
000002e0: fa95 73bf 3729 1e40 a4f4 c6bf b3be 0dbf
000002f0: ef26 6a3d ca34 663d 89c2 6e3f d46e 13bf
00000300: cdb4 f0be bf74 14bf 8f20 a2bf 40c8 10c0
00000310: 11f8 643e 4a89 c83f a122 d7be ddff 1b3f
00000320: 4acf a73e 7e22 d2bf cc41 7c3f 1785 aebe
00000330: e5d2 f43f 295a 31c0 76ad 713e ea43 a63e
00000340: 7a13 e13e 4910 0ac0 8557 87bf a9ff 4cbf
00000350: 629a 96bf e210 cebe 094c 923e 0d02 0a3f
00000360: 2486 2bbd ab86 723f 05f4 8c3f a868 a0bf
00000370: 2837 8a3e d4db 8f3d 1ead 9cbf b078 1abe
00000380: 1fbf 44c0 425f a63f ec7d 0fc0 87e5 a4bf
00000390: e44c 7a3f 07ee fb3e 7864 20bf 4149 543f
000003a0: 7a05 0a3f 7906 0e40 959a 15be 9955 8a3e
000003b0: 7dc6 dcbf 5366 553f 1d76 2d3e 2b66 cbbf
000003c0: 3fe0 27bf 950e b0bf 4bec ddbe 3a55 003f
000003d0: cd03 c63e d719 7f3f d807 abbf 64ab bf3e
000003e0: 5e67 eebe d176 b63e 1fb9 9d3d 694b 123f
000003f0: 7819 373f b40b 1cbc c370 21c0 b999 a6bf
-1.4463514 -0.5881904 -0.93932384 -0.5818517 -0.96398526 -1.2640467 -1.3764229 -1.4825516
0.14168763 -1.4625871 -0.99042356 1.6172354 2.362073 0.42056206 0.8818356 -2.5265749
-3.1469448 0.7436081 0.5016375 -1.2096168 1.3507 -0.041646283 1.4218011 -1.9416307
1.3794326 1.0931147 -0.4674918 0.9759739 -0.37930986 -0.3885033 0.7508527 -1.0233717
0.92432624 -1.7430062 -0.99989563 0.5422608 0.22423375 0.41541153 -1.3608965 -0.2968643
0.10797223 0.75658476 -1.3451917 -0.7100355 1.7302903 -1.8078771 -2.0829055 0.5281678
0.45109084 -0.5789815 -0.8471757 0.016396958 -2.1155272 1.8384746 -0.057357825 -1.1972184
0.43680793 2.6775122 0.47126547 0.51625425 -0.17144911 -0.050330196 -0.6444697 0.8384126
1.2003503 -1.4377928 0.78862745 -0.07228759 2.0024147 -1.881317 1.1670231 -0.2388276
-0.34827468 1.9611462 0.5650238 0.8172162 0.08688968 0.286896 -0.59492534 0.7405506
0.79682904 -3.085478 -0.2297677 -0.9594019 2.0305867 -2.2467613 1.3047062 -2.3273351
0.14717482 0.8798379 1.2125878 1.187061 0.52503777 2.7954776 0.24201721 0.40561762
0.009589985 0.6886117 0.047083255 -0.14106403 0.04296503 -1.5332366 0.21421264 0.13027833
1.9827366 1.7191201 -0.6405692 1.755258 -0.021077778 -2.0603948 -0.5614448 -0.4920517
0.43849495 0.13127963 -0.046284072 -0.21230707 0.45683497 -1.1115724 -0.66196185 1.3129048
-3.1575112 -0.117055334 -2.7803376 0.15587232 2.873214 -3.0216618 0.22145732 1.3176552
-0.83721125 2.1206295 0.18325199 1.4536846 1.1553023 -1.6098248 -1.2597883 -0.17167678
0.37554651 0.3265989 1.7076083 -0.7044437 0.33649814 4.028057 -3.0244217 0.7455419
-0.5151396 -1.8534503 0.54513055 0.43246746 -0.46022564 -0.29313537 -0.35676748 -0.4825885
0.13756242 0.36554885 0.8072869 -0.20941828 0.6628909 -2.7406194 -0.55782604 1.3420352
0.51233083 -0.7138309 -0.7196301 -1.0199901 -0.43211958 1.8245125 0.06532814 -1.16917
1.9999642 1.7756392 -0.97687995 0.37683013 -0.4560255 2.321757 -1.8280268 0.50085455
-0.11437551 1.0968736 -0.78681475 -0.24636994 -0.39628825 1.0676275 -0.71854424 0.8847106
-0.9515072 2.4712656 -1.5543408 -0.5536911 0.057166036 0.056202687 0.9326559 -0.57590985
-0.4701294 -0.5799064 -1.2666186 -2.2622223 0.22360255 1.5666897 -0.42018607 0.6093729
0.32775337 -1.6416776 0.985379 -0.34085914 1.912686 -2.771128 0.23601326 0.3247369
0.43960172 -2.157244 -1.0573584 -0.80077606 -1.1765864 -0.40247256 0.28573635 0.5390938
-0.041875973 0.94736737 1.1011969 -1.2531939 0.26995206 0.07024351 -1.2240331 -0.15085101
-3.074165 1.299782 -2.2420607 -1.2882546 0.97773576 0.49205038 -0.62653303 0.82924277
0.53914607 2.219145 -0.1460975 0.2701843 -1.7248074 0.8335926 0.16939588 -1.5890554
-0.6557655 -1.375445 -0.4334434 0.50130045 0.38674775 0.99648803 -1.3361769 0.37435448
-0.46563238 0.35637525 0.07701325 0.57146317 0.7152324 -0.009524275 -2.5225074 -1.3015662

affine_output.weight f4 [1, 32]
00000000: 99f8 0a40 6266 17c0 0a8c 23c0 ce54 1440
00000010: c74b 07c0 9bb5 1bc0 80f7 22c0 7803 1640
00000020: 3f56 29c0 d44f 1140 5a20 11c0 3691 21c0
00000030: 9e76 2740 5ce4 2340 ef1b 18c0 8bea 0c40
00000040: 9079 1a40 3d43 3640 0d82 0e40 acba f63f
00000050: 2766 1040 62f0 4a40 8995 2b40 03fb 20c0
00000060: 5408 3640 093e 2f40 ad77 4240 a359 2c40
00000070: 90d2 1f40 ce09 20c0 3ff7 1f40 d525 2540
2.1714232 -2.365624 -2.5554223 2.317676 -2.114 -2.4329593 -2.5463562 2.3439617
-2.645889 2.2704973 -2.2675996 -2.524488 2.6166148 2.560813 -2.376705 2.2018154
2.4136696 2.847854 2.2266877 1.9275718 2.256235 3.1709218 2.681002 -2.5153205
2.8442583 2.7381613 3.0385544 2.692971 2.4972267 -2.5005984 2.4994657 2.580434
