checkpoints/GMF_Epoch5_HR0.1458_NDCG0.1450.model (torch, 250015 bytes, 3 tensors)

embedding_user.weight f4 [51, 32]
0	0xbf484617	-0.7823195
1	0xbe251cdd	-0.16124292
2	0x3fb0dddc	1.3817706
3	0xbfb83208	-1.4390268
4	0xc018154e	-2.3763003
5	0xbf9d0bc3	-1.2269214
6	0x3f9459da	1.158992
7	0x3eef651f	0.46756837
8	0xbf5bbdf5	-0.85836726
9	0x3e49eb91	0.19718768
10	0xbf72df32	-0.9487182
11	0xbf7526b2	-0.9576217
12	0x3f912fd4	1.1342721
13	0x3d7f7221	0.0623647
14	0x3fb8fa60	1.4451408
15	0xbf211dac	-0.629359
16	0xbf9381f2	-1.1524031
17	0xbf78fd83	-0.9726183
18	0x3ef8a707	0.48564932
19	0x3f5885bc	0.8457906
20	0x3d77c08e	0.06048637
21	0xbe42f59b	-0.19039004
22	0x3f84c12a	1.0371449
23	0x3dcd103b	0.10012861
24	0xbfc382c5	-1.5274283
25	0x3ff302b4	1.89852
26	0xbe22cbaa	-0.15898004
27	0x3fbd92b5	1.4810396
28	0x3ecc54ca	0.3990844
29	0xbd01b3a0	-0.031665444
30	0x3faeae4e	1.3646944
31	0x3f90107c	1.1255031
32	0xc0097544	-2.1477823
33	0x3f659179	0.896751
34	0x3f9558f3	1.166777
35	0x3f951de8	1.1649752
36	0xc0026220	-2.037239
37	0xbf785102	-0.9699861
38	0xbffab37b	-1.9586023
39	0x3f594ece	0.8488587
40	0xbe5e8c8c	-0.21733302
41	0xbf9cfb1d	-1.2264134
42	0xbea6b649	-0.32560948
43	0xbf23e979	-0.64028126
44	0xbfbc330c	-1.4703078
45	0xbf10d042	-0.56567776
46	0x3f8ac52d	1.0841423
47	0xc072d1f5	-3.7940648
48	0xc020835b	-2.5080173
49	0x3fee23ff	1.8604735
50	0x40113ed2	2.2694592
51	0xbf22cbb7	-0.63592094
52	0x3ecddb5e	0.40206426
53	0xbec332c3	-0.38124666
54	0xbe9eb4c2	-0.30997282
55	0x3d493781	0.0491252
56	0xbf971adc	-1.1805072
57	0x3fcd5c2e	1.6043756
58	0x3d406c65	0.046978373
59	0xbf8061d2	-1.0029852
60	0xbf5391b7	-0.8264422
61	0xbe0d8cbb	-0.13823216
62	0x402ea069	2.7285407
63	0x3ea58db3	0.3233467
64	0x3ed6a67c	0.41923892
65	0x3d8d473d	0.06898353
66	0xbf40376d	-0.75084573
67	0x3e614737	0.21999823
68	0x3f9fbeb5	1.2480074
69	0x3f33d348	0.70244265
70	0x3f0a41b2	0.54006493
71	0x3f8a8014	1.0820336
72	0xbf8c3945	-1.0954977
73	0x3cfba2da	0.030717302
74	0x3f9bc95b	1.2170824
75	0xbfbf9a49	-1.4968959
76	0x3ef706e2	0.4824744
77	0x3fa295fb	1.270202
78	0x3fa8dd47	1.3192528
79	0xbf305a53	-0.68887824
80	0xbc575ed9	-0.013145172
81	0xbfaa0c00	-1.3284912
82	0x3ef77201	0.48329166
83	0x3f2d0a2e	0.6759366
84	0x3eabb6f3	0.33538017
85	0xbff204ee	-1.8907754
86	0xbf1da44f	-0.6157884
87	0x3ef76569	0.48319557
88	0xbef732c6	-0.48280925
89	0x3f06a08b	0.5258872
90	0x3f447653	0.7674305
91	0xbf53a034	-0.82666326
92	0xbf1b3559	-0.6062828
93	0x3f8ef2a2	1.1167796
94	0xbdcd2dd7	-0.10018509
95	0x3f2eced4	0.68284345
96	0xbf1bb744	-0.60826516
97	0xbfca7565	-1.5817076
98	0x3fba6bf2	1.4564192
99	0x3f1698e0	0.5882702
100	0xbe83cc94	-0.25742018
101	0x3c4aab78	0.012369983
102	0xbd097c18	-0.03356561
103	0x3f501568	0.81282663
104	0xbeccda70	-0.40010405
105	0xbece0fc6	-0.4024641
106	0xbf796240	-0.9741554
107	0x3f9f1456	1.2428081
108	0xbfc16489	-1.5108806
109	0x3e521ef2	0.20519617
110	0x3f35dc7b	0.7103955
111	0x3d5d5919	0.05404005
112	0xc005d418	-2.0910702
113	0x3f136408	0.5757451
114	0xbf95a047	-1.1689538
115	0xbf70a0b9	-0.93995243
116	0xbfe4ce59	-1.7875472
117	0x3c6f9063	0.014621827
118	0x3f995e50	1.1981907
119	0xbecaf656	-0.39641064
120	0xbe908d77	-0.2823293
121	0x3f759be5	0.95941
122	0x3fe08cbb	1.7542948
123	0x3f858c49	1.0433437
124	0x3f6bc883	0.9210283
125	0x3f9676b6	1.1754978
126	0xbedf5b24	-0.43624222
127	0xbf99111f	-1.195835
128	0xc005947b	-2.0871875
129	0xbf236377	-0.63823646
130	0x3f5b705b	0.85718316
131	0x3decc364	0.11560705
132	0xbffe8ee2	-1.9887354
133	0xc00edf0d	-2.232364
134	0x3e867cf6	0.26267213
135	0xbe91198e	-0.2833981
136	0x400e6226	2.2247405
137	0x4050c961	3.2622912
138	0x3f42f82e	0.7615994
139	0x3e0b5873	0.1360796
140	0xbd980c3a	-0.07424207
141	0xbea07c65	-0.31344905
142	0xbe65c331	-0.22437741
143	0x3f263e59	0.64938885
144	0x4032309b	2.7842166
145	0x404ee90e	3.2329745
146	0xbfe42a52	-1.7825415
147	0x407ae455	3.9201863
148	0x4077860b	3.8675563
149	0xc0484b94	-3.129613
150	0x3f0ff63b	0.5623509
151	0xbeef7161	-0.4676619
152	0xbf374138	-0.7158389
153	0xbf5727d4	-0.8404515
154	0x3fa38475	1.2774798
155	0xbe878a3b	-0.2647265
156	0xbdbfc9a4	-0.09364632
157	0xbfa80981	-1.31279
158	0x3ef28593	0.47367534
159	0x3e9577c0	0.29192924
160	0xbf5ba2a1	-0.85795027
161	0x3f8a3bf5	1.0799547
162	0xbbab6940	-0.0052310526
163	0x3ead1ceb	0.33811125
164	0xbebd4fa5	-0.36974826
165	0x3f8d3a73	1.1033462
166	0xbfec9fac	-1.8486228
167	0xbff02c96	-1.8763607
168	0xbf49d792	-0.7884456
169	0x401738dd	2.3628457
170	0xbf40513a	-0.7512394
171	0xbf9eeb34	-1.2415528
172	0xbc7c2f36	-0.015392115
173	0xbf62e6f5	-0.8863366
174	0x3f01579e	0.5052432
175	0xbfcd5a43	-1.6043171
176	0x3fcb36dc	1.5876117
177	0x3eaec51f	0.34134766
178	0xc020e1e3	-2.513787
179	0x3f9e4c8b	1.2367109
180	0xbf8de6be	-1.1086042
181	0xbe3b475f	-0.18288945
182	0xbed51042	-0.41613966
183	0x3f3f9fbe	0.7485312
184	0xbf5672ad	-0.8376873
185	0x3fb49229	1.4107105
186	0xbf134f0c	-0.5754249
187	0x3edca400	0.43093872
188	0x400319a6	2.0484405
189	0x3f8b4109	1.0879222
190	0xbee34444	-0.4438802
191	0x3fcf4743	1.6193622
192	0xbfb17a2f	-1.3865412
193	0xbe13cbc4	-0.14433199
194	0x3f24fcd0	0.6444826
195	0x3f40265f	0.7505855
196	0x3f1fa75e	0.6236476
197	0x3f8595b9	1.0436317
198	0x3e201e25	0.15636499
199	0xbeaf07db	-0.3418568
200	0xbebdcda8	-0.37070966
201	0xbf85d45f	-1.0455436
202	0xbf15aeb1	-0.5846968
203	0x3f161285	0.5862201
204	0x3f1e519d	0.6184328
205	0xbeafaeb5	-0.34312978
206	0xc0073363	-2.1125114
207	0xbf9e3568	-1.2360048
208	0xbf86e60a	-1.0538952
209	0x3f558588	0.8340688
210	0xbf97e2e2	-1.1866114
211	0x3f38980b	0.72107
212	0x3eb46f20	0.35241032
213	0xbfab1654	-1.3366189
214	0xc005a4cd	-2.0881836
215	0x3e7eebf6	0.248947
216	0x3f571a33	0.8402435
217	0xbe2f2a5f	-0.17106007
218	0x3d518240	0.051149607
219	0xbe65c5af	-0.22438692
220	0xbdf5fdc0	-0.120112896
221	0x3ed3c878	0.41363883
222	0x3fa943e0	1.3223839
223	0xbfb9f592	-1.4528067
224	0xbebadf5e	-0.3649854
225	0x4032b5a9	2.7923377
226	0xbf90d74f	-1.1315707
227	0xbfbb09d4	-1.4612374
228	0xbef67323	-0.48134717
229	0x3e0f55d1	0.1399758
230	0x3f9dc1f2	1.2324812
231	0xbf5953ec	-0.8489368
232	0xbe43435d	-0.19068666
233	0x401b1fe9	2.4238226
234	0x3f83adff	1.0287474
235	0xc04e0c27	-3.2194917
236	0xbfba5d38	-1.4559698
237	0x3efd93d4	0.49526846
238	0xbdcafd04	-0.0991154
239	0x3f580d5c	0.84395385
240	0xc029a6cb	-2.6508052
241	0x403e15c1	2.9700778
242	0xbfb45fdb	-1.4091753
243	0xbeccdb51	-0.40011075
244	0xbe5c673b	-0.21523754
245	0x3fd030cf	1.6264895
246	0x3f54cc92	0.8312465
247	0xbf9fb641	-1.2477494
248	0xbfa76fa2	-1.3080943
249	0x3f83b100	1.0288391
250	0x3fa16edc	1.2611957
251	0xbf9eb997	-1.2400388
252	0x4008d2ea	2.1378732
253	0xbd3173cb	-0.04332332
254	0xbdad6d79	-0.08468146
255	0x3faba4e0	1.3409691

embedding_item.weight f4 [1889, 32]
0	0xbfb9101a	-1.4458039
1	0xbf165f3c	-0.58739066
2	0xbf706de1	-0.9391766
3	0xbf14cb9c	-0.58123183
4	0xbf76cfd2	-0.9641086
5	0xbfa1d120	-1.2641945
6	0xbfb03887	-1.3767251
7	0xbfbdb9b3	-1.4822296
8	0x3e11625c	0.14197677
9	0xbfbb4099	-1.4629089
10	0xbf7daa15	-0.9908765
11	0x3fcf10c2	1.6176989
12	0x40172cb1	2.3621027
13	0x3ed74256	0.42042798
14	0x3f61a65a	0.8814446
15	0xc021b180	-2.5264587
16	0xc0496838	-3.146986
17	0x3f3e6e42	0.7438699
18	0x3f00392c	0.5008724
19	0xbf9ad858	-1.2097273
20	0x3faccb15	1.3499476
21	0xbd2c8c26	-0.042125843
22	0x3fb5f1ea	1.4214451
23	0xbff8870f	-1.9416217
24	0x3fb07dd2	1.3788397
25	0x3f8bf5d4	1.0934396
26	0xbeef6602	-0.46757513
27	0x3f79c3f6	0.9756464
28	0xbec1f016	-0.37878484
29	0xbec6da05	-0.3883821
30	0x3f4028ce	0.75062263
31	0xbf8304b9	-1.0235816
32	0x3f6c9b6d	0.9242466
33	0xbfdf1ab7	-1.7430028
34	0xbf80002f	-1.0000056
35	0x3f0ad70e	0.542344
36	0x3e65941d	0.22419782
37	0x3ed4b12f	0.4154143
38	0xbfae3057	-1.3608502
39	0xbe97f6d4	-0.29680502
40	0x3ddd6a5d	0.10811303
41	0x3f41b4a1	0.7566624
42	0xbfac2f3f	-1.3451918
43	0xbf35c623	-0.7100546
44	0x3fdd7778	1.7302084
45	0xbfe7654b	-1.8077787
46	0xc0054e54	-2.0829058
47	0x3f0730c7	0.52808803
48	0x3ee6e5fd	0.45097342
49	0xbf143318	-0.5789046
50	0xbf58d626	-0.84701765
51	0x3c85fcba	0.016355861
52	0xc00764c8	-2.1155262
53	0x3feb507c	1.8383937
54	0xbd6ac03f	-0.057312246
55	0xbf993e47	-1.197213
56	0x3edf9b56	0.436732
57	0x402b5c72	2.6775174
58	0x3ef1552c	0.47135293
59	0x3f0424d3	0.5161869
60	0xbe2f9da9	-0.17149986
61	0xbd4e3cca	-0.05035094
62	0xbf24f563	-0.6443693
63	0x3f56a832	0.83850396
64	0x3f999a87	1.2000283
65	0xbfb7feed	-1.4374672
66	0x3f49c141	0.7881051
67	0xbd92664e	-0.07148419
68	0x400025a7	2.002298
69	0xbff0c4f5	-1.8810107
70	0x3f956a3c	1.1673045
71	0xbe7474ad	-0.23872633
72	0xbeb1d6e4	-0.3473426
73	0x3ffb0d52	1.961344
74	0x3f10ceee	0.5656575
75	0x3f51392e	0.81727874
76	0x3db39292	0.087681904
77	0x3e92e86e	0.28692955
78	0xbf186e9c	-0.59543777
79	0x3f3da244	0.7407572
80	0x3f4be15a	0.79640734
81	0xc0457509	-3.0852683
82	0xbe6b9d55	-0.23009236
83	0xbf757d74	-0.9589455
84	0x4001f9d9	2.0308745
85	0xc00fd086	-2.2471023
86	0x3fa6eb80	1.3040619
87	0xc014ea2d	-2.326793
88	0x3e16521c	0.1467976
89	0x3f614a14	0.8800366
90	0x3f9b4123	1.2129253
91	0x3f97fa5b	1.1873277
92	0x3f069421	0.52569777
93	0x4032dba5	2.794656
94	0x3e78de3a	0.24303523
95	0x3ed023e8	0.40652394
96	0x3c1ca1f1	0.009560094
97	0x3f30667d	0.68906385
98	0x3d3fb469	0.046802912
99	0xbe0f9a68	-0.14023745
100	0x3d303ebf	0.04302859
101	0xbfc438ca	-1.5329831
102	0x3e5b9ed0	0.21447301
103	0x3e05dfc6	0.13073644
104	0x3ffdc22e	1.9824884
105	0x3fdc0d8f	1.7191638
106	0xbf23c04d	-0.639653
107	0x3fe0c5c6	1.7560356
108	0xbca83b93	-0.02053622
109	0xc003d32e	-2.0597644
110	0xbf0fde5d	-0.56198674
111	0xbefb687b	-0.4910315
112	0x3ee09ff7	0.43872043
113	0x3e0679dd	0.13132425
114	0xbd3c4a4e	-0.0459693
115	0xbe5a9d43	-0.21349053
116	0x3ee9765d	0.45598117
117	0xbf8e5e3f	-1.1122512
118	0xbf298577	-0.66219276
119	0x3fa81567	1.3131531
120	0xc04a1671	-3.1576197
121	0xbdeead58	-0.116541564
122	0xc031cf5e	-2.7782817
123	0x3e1e3eb3	0.15453605
124	0x4037e46b	2.8733165
125	0xc041690f	-3.0220373
126	0x3e638111	0.22217204
127	0x3fa898e2	1.3171656
128	0xbf56782d	-0.83777124
129	0x4007bf22	2.1210408
130	0x3e3b8219	0.18311347
131	0x3fba1419	1.4537383
132	0x3f93e9c4	1.1555715
133	0xbfce01e3	-1.6094326
134	0xbfa135b7	-1.2594517
135	0xbe2f4c66	-0.17118987
136	0x3ec0a61c	0.3762673
137	0x3ea7b1ae	0.32752746
138	0x3fda8c6a	1.7074101
139	0xbf341097	-0.70337814
140	0x3eac0873	0.33600196
141	0x4080e011	4.027352
142	0xc0418641	-3.0238192
143	0x3f3ed0fe	0.74537647
144	0xbf03dfbf	-0.51513284
145	0xbfed3295	-1.8531061
146	0x3f0b90f5	0.5451806
147	0x3edd4d60	0.43223095
148	0xbeec258b	-0.46122393
149	0xbe961878	-0.29315543
150	0xbeb6dda9	-0.35715988
151	0xbef6abef	-0.4817805
152	0x3e0b40ed	0.13598986
153	0x3ebb6f2e	0.3660826
154	0x3f4eccb0	0.8078108
155	0xbe56c016	-0.20971712
156	0x3f29bf0d	0.66307145
157	0xc02f6a2b	-2.740855
158	0xbf0e6d79	-0.5563579
159	0x3fabc1bd	1.3418499
160	0x3f03297f	0.51235193
161	0xbf36b95d	-0.7137659
162	0xbf38377d	-0.7195967
163	0xbf828b64	-1.0198789
164	0xbedd3a21	-0.4320841
165	0x3fe98acb	1.8245481
166	0x3d861917	0.06547754
167	0xbf95a75d	-1.16917
168	0x3ffffe76	1.999953
169	0x3fe348ff	1.7756652
170	0xbf7a0b0a	-0.97673094
171	0x3ec0ffdc	0.37695205
172	0xbee97879	-0.45599726
173	0x401497c8	2.321764
174	0xbfe9fc1a	-1.828006
175	0x3f003726	0.5008415
176	0xbdea4d57	-0.11440533
177	0x3f8c67af	1.0969142
178	0xbf4968fc	-0.7867582
179	0xbe7c49bc	-0.24637502
180	0xbecaf303	-0.39638528
181	0x3f88a56e	1.0675485
182	0xbf37f68d	-0.7186058
183	0x3f627cb1	0.88471514
184	0xbf73a15e	-0.951681
185	0x401e2930	2.471264
186	0xbfc6ef2c	-1.554174
187	0xbf0dbec0	-0.55369186
188	0x3d69a726	0.05704417
189	0x3d652af1	0.055949155
190	0x3f6ebff7	0.93261665
191	0xbf136d96	-0.5758909
192	0xbef0b9aa	-0.4701665
193	0xbf145ed9	-0.57957226
194	0xbfa21cd0	-1.2665043
195	0xc010c818	-2.2622128
196	0x3e656b0c	0.22404116
197	0x3fc88956	1.5666912
198	0xbed72c6c	-0.4202608
199	0x3f1bf2c9	0.60917336
200	0x3ea7fafe	0.3280868
201	0xbfd222a1	-1.6416818
202	0x3f7c391e	0.98524654
203	0xbeae5e15	-0.34056154
204	0x3ff4c4c1	1.9122545
205	0xc0315b33	-2.7711914
206	0x3e714bf7	0.23564135
207	0x3ea6240e	0.32449383
208	0x3ee109a0	0.43952656
209	0xc00a0e22	-2.1571126
210	0xbf8758cb	-1.0573972
211	0xbf4d025d	-0.8008173
212	0xbf96a38e	-1.1768663
213	0xbecdf22b	-0.40223822
214	0x3e92308f	0.28552672
215	0x3f09fcba	0.53901255
216	0xbd2ac0d1	-0.04168779
217	0x3f727f55	0.94725543
218	0x3f8cfdee	1.1014993
219	0xbfa06984	-1.2532201
220	0x3e8a2af1	0.26985887
221	0x3d8f6668	0.07001954
222	0xbf9ca559	-1.223796
223	0xbe1a24a3	-0.15053038
224	0xc044bdc8	-3.0740833
225	0x3fa65fae	1.2997949
226	0xc00f849b	-2.2424686
227	0xbfa4e6ba	-1.2882912
228	0x3f7a487f	0.9776687
229	0x3efba8cf	0.49152228
230	0xbf20560b	-0.6263129
231	0x3f544d4d	0.8293045
232	0x3f09e0f8	0.538589
233	0x400e0530	2.2190666
234	0xbe15585a	-0.14584485
235	0x3e8a431c	0.27004325
236	0xbfdcbc3c	-1.7244945
237	0x3f553daa	0.83297217
238	0x3e2d0a22	0.16898397
239	0xbfcb61a0	-1.5889168
240	0xbf280455	-0.6563161
241	0xbfb00126	-1.375035
242	0xbedddc35	-0.43332067
243	0x3f00589f	0.50135225
244	0x3ec5a144	0.38599598
245	0x3f7f004f	0.99609846
246	0xbfaae755	-1.3351847
247	0x3ebf658d	0.37382165
248	0xbeef1955	-0.46699014
249	0x3eb63455	0.355868
250	0x3d9de1a5	0.07709054
251	0x3f125af4	0.57170033
252	0x3f373f3d	0.7158087
253	0xbc34db79	-0.0110386545
254	0xc0217031	-2.5224726
255	0xbfa68e56	-1.3012187

affine_output.weight f4 [1, 32]
0	0x400975d0	2.1478157
1	0xc015d0c9	-2.3408682
2	0xc021ede5	-2.530145
3	0x4012ba30	2.292614
4	0xc0060508	-2.094057
5	0xc01a4804	-2.4106455
6	0xc021418d	-2.519626
7	0x40145384	2.3175974
8	0xc027d38c	-2.6222868
9	0x400fb43a	2.2453752
10	0xc00f9eca	-2.2440667
11	0xc01fc1f8	-2.496214
12	0x4025e6da	2.592215
13	0x40225934	2.5366945
14	0xc0166588	-2.349947
15	0x400b52ad	2.1769211
16	0x4018c708	2.387148
17	0x403477b0	2.8198051
18	0x400ce9bb	2.2017658
19	0x3ff3c47d	1.9044338
20	0x400ef3ea	2.2336373
21	0x4048f5ef	3.1400106
22	0x4029d59b	2.6536624
23	0xc01f67d9	-2.4907134
24	0x40343ef7	2.816343
25	0x402d8540	2.711258
26	0x40409936	3.0093513
27	0x402a9581	2.665375
28	0x401e62a0	2.4747696
29	0xc01e88b6	-2.4770942
30	0x401e2b57	2.4713953
31	0x40237db2	2.5545468
