checkpoints/GMF_Epoch9_HR0.1479_NDCG0.1472.model (torch, 250015 bytes, 3 tensors)

embedding_user.weight f4 [51, 32]
0	0xbf49303a	-0.7858921
1	0xbe24f085	-0.16107376
2	0x3fb21bbd	1.3914715
3	0xbfb8bf5b	-1.4433397
4	0xc0183634	-2.3783083
5	0xbf9e0508	-1.2345285
6	0x3f9505a3	1.1642345
7	0x3ef01a29	0.4689496
8	0xbf5d9843	-0.8656046
9	0x3e4bc634	0.19899827
10	0xbf7480c9	-0.9550901
11	0xbf75997d	-0.9593733
12	0x3f924454	1.1427102
13	0x3d7835fe	0.060598366
14	0x3fba08df	1.4533957
15	0xbf20ea24	-0.6285727
16	0xbf941fd8	-1.1572218
17	0xbf79a11a	-0.97511446
18	0x3ef82e7a	0.4847296
19	0x3f594417	0.8486952
20	0x3d73bcb1	0.059506122
21	0xbe435ae3	-0.1907764
22	0x3f854a88	1.041337
23	0x3dcb46f5	0.09925643
24	0xbfc4286b	-1.5324835
25	0x3ff407d8	1.9064894
26	0xbe277e39	-0.16356744
27	0x3fbe4fac	1.4868064
28	0x3ec9d5ce	0.39420933
29	0xbd049993	-0.032373022
30	0x3faf3e8c	1.3690963
31	0x3f9081cf	1.1289614
32	0xc0098463	-2.1487052
33	0x3f664b1d	0.89958364
34	0x3f95891d	1.1682469
35	0x3f954176	1.1660602
36	0xc0025e4c	-2.0370054
37	0xbf7865a6	-0.97030103
38	0xbffb5b3b	-1.9637216
39	0x3f593004	0.8483889
40	0xbe5f0ee0	-0.21783018
41	0xbf9d22d8	-1.2276258
42	0xbea6b98e	-0.32563442
43	0xbf246199	-0.6421142
44	0xbfbcd947	-1.4753808
45	0xbf10e7f5	-0.5660394
46	0x3f8afd6f	1.0858592
47	0xc072ef7b	-3.7958667
48	0xc020a718	-2.5101986
49	0x3fee794f	1.863077
50	0x401151af	2.2706106
51	0xbf228354	-0.6348164
52	0x3ece5204	0.40296948
53	0xbec3efa3	-0.38268766
54	0xbe9e3a48	-0.3090384
55	0x3d4c8894	0.04993494
56	0xbf971bc6	-1.1805351
57	0x3fcda504	1.6065984
58	0x3d3c8353	0.046023678
59	0xbf80ca00	-1.0061646
60	0xbf53f84a	-0.82800734
61	0xbe0e3649	-0.13887896
62	0x402ec6fc	2.730895
63	0x3ea4d25e	0.32191747
64	0x3edb1718	0.42791057
65	0x3d86838b	0.065680586
66	0xbf4345a8	-0.7627816
67	0x3e5ddb4e	0.2166569
68	0x3fa051a4	1.2524915
69	0x3f3509b3	0.70717925
70	0x3f0c4be3	0.54803294
71	0x3f8b76a1	1.0895578
72	0xbf8c4411	-1.0958272
73	0x3ce6dae3	0.028180545
74	0x3f9c996c	1.2234321
75	0xbfc0e6a5	-1.5070387
76	0x3ef9a263	0.48756704
77	0x3fa41b65	1.282086
78	0x3fa9f342	1.3277361
79	0xbf302032	-0.68799126
80	0xbc661a2e	-0.014044328
81	0xbfaad90a	-1.3347485
82	0x3efc5df1	0.49290422
83	0x3f2ec5e4	0.6827071
84	0x3eacd722	0.33757883
85	0xbff3fe50	-1.9061985
86	0xbf1dab77	-0.6158976
87	0x3ef8002a	0.48437625
88	0xbef773d2	-0.4833055
89	0x3f07855d	0.5293787
90	0x3f45f417	0.77325577
91	0xbf54aabe	-0.8307303
92	0xbf1d0aec	-0.6134479
93	0x3f8fefef	1.1245097
94	0xbdce7b4f	-0.10082113
95	0x3f2e8fa5	0.68187934
96	0xbf1d392f	-0.6141538
97	0xbfcb6ee1	-1.5893213
98	0x3fbb5e49	1.4638149
99	0x3f17e817	0.59338516
100	0xbe87e004	-0.26538098
101	0x3bc5590a	0.006022577
102	0xbd0738ed	-0.033013273
103	0x3f520efd	0.8205412
104	0xbecaa78f	-0.39580962
105	0xbecff9ae	-0.40620178
106	0xbf79989b	-0.9749848
107	0x3f9fe489	1.2491618
108	0xbfc20c86	-1.5160072
109	0x3e568eed	0.2095296
110	0x3f381e08	0.71920824
111	0x3d7b8dd9	0.061414573
112	0xc0064248	-2.0977955
113	0x3f155671	0.58335024
114	0xbf957af4	-1.1678147
115	0xbf705d04	-0.9389193
116	0xbfe52ae1	-1.7903711
117	0x3c923b07	0.017850412
118	0x3f9a3031	1.2045957
119	0xbecc0dd2	-0.39854294
120	0xbe95689f	-0.29181382
121	0x3f780d58	0.9689536
122	0x3fe1948d	1.7623459
123	0x3f863890	1.0486012
124	0x3f6d4236	0.92679155
125	0x3f970916	1.1799648
126	0xbee38e1e	-0.44444364
127	0xbf9975be	-1.1989057
128	0xc005a014	-2.0878954
129	0xbf2361d0	-0.63821125
130	0x3f5b98b7	0.857799
131	0x3de90925	0.11378697
132	0xbffe9beb	-1.9891332
133	0xc00f1111	-2.2354167
134	0x3e860784	0.2617761
135	0xbe90da94	-0.28291762
136	0x400e8b25	2.2272427
137	0x4050ddb2	3.2635312
138	0x3f42e54b	0.76131123
139	0x3e0bd675	0.13656028
140	0xbd9bb0ba	-0.07602067
141	0xbea0dab5	-0.3141686
142	0xbe649c78	-0.22325313
143	0x3f26e64f	0.65195173
144	0x4032329d	2.7843392
145	0x404f229b	3.2364872
146	0xbfe429ce	-1.7825258
147	0x407ae9a5	3.9205105
148	0x4077a8cc	3.8696775
149	0xc0486c57	-3.1316125
150	0x3f0fe9d0	0.56216145
151	0xbeeef97c	-0.46674716
152	0xbf37b65f	-0.7176265
153	0xbf5700db	-0.8398568
154	0x3fa3e8da	1.2805436
155	0xbe88659b	-0.2664002
156	0xbdc7bed8	-0.097531974
157	0xbfa7eb09	-1.3118602
158	0x3ef2bb50	0.47408533
159	0x3e95b531	0.292398
160	0xbf5c393f	-0.8602485
161	0x3f8a6656	1.081248
162	0xbbd96ff1	-0.006635659
163	0x3eaceb47	0.33773252
164	0xbebdefaa	-0.37096912
165	0x3f8d2597	1.1027097
166	0xbfeced05	-1.8509833
167	0xbff0b9ae	-1.8806665
168	0xbf4a173e	-0.78941715
169	0x40176b6f	2.3659322
170	0xbf407be6	-0.75189054
171	0xbf9f6de6	-1.2455413
172	0xbc9d743d	-0.019220466
173	0xbf638798	-0.88878775
174	0x3f02720e	0.50955284
175	0xbfcd6f25	-1.6049544
176	0x3fcb4f59	1.588359
177	0x3eb020d9	0.3440006
178	0xc0210b12	-2.5163007
179	0x3f9e7380	1.2378998
180	0xbf8e2ef4	-1.1108079
181	0xbe3d4852	-0.1848462
182	0xbed62419	-0.41824415
183	0x3f3fea7f	0.7496719
184	0xbf578b22	-0.84196675
185	0x3fb4f3ed	1.413694
186	0xbf138e7b	-0.5763928
187	0x3edcd2cc	0.43129575
188	0x40034229	2.050913
189	0x3f8b6d46	1.0892723
190	0xbee4010c	-0.4453205
191	0x3fcf9e61	1.6220208
192	0xbfb4379f	-1.4079474
193	0xbe16cfdd	-0.14727731
194	0x3f25fec4	0.64841866
195	0x3f4057b9	0.75133854
196	0x3f1f491f	0.6222095
197	0x3f85b98a	1.0447247
198	0x3e221d80	0.15831566
199	0xbeb317af	-0.34979007
200	0xbec16ae2	-0.37776858
201	0xbf86ac86	-1.05214
202	0xbf17806d	-0.5918034
203	0x3f173863	0.59070414
204	0x3f1e4b7b	0.61833924
205	0xbeb2816d	-0.3486437
206	0xc0087e85	-2.1327221
207	0xbf9ecaa9	-1.2405597
208	0xbf8867ab	-1.0656637
209	0x3f576717	0.8414168
210	0xbf9969dd	-1.1985432
211	0x3f39a060	0.7251034
212	0x3eb66c26	0.35629386
213	0xbfac0c2b	-1.3441213
214	0xc00631a7	-2.0967805
215	0x3e85e474	0.26150858
216	0x3f5998a2	0.84998524
217	0xbe2c6b46	-0.16837797
218	0x3d508dbe	0.050916426
219	0xbe663803	-0.22482304
220	0xbdfc41bb	-0.123172246
221	0x3ed8ca3b	0.4234179
222	0x3fab0cf3	1.3363327
223	0xbfbb16a2	-1.4616282
224	0xbebbd417	-0.3668525
225	0x40331650	2.7982368
226	0xbf914baf	-1.1351222
227	0xbfbb6a9b	-1.4641908
228	0xbef74461	-0.48294356
229	0x3e106684	0.14101607
230	0x3f9e3d66	1.2362487
231	0xbf59d8f1	-0.8509665
232	0xbe457d32	-0.1928604
233	0x401b3247	2.4249437
234	0x3f839e9f	1.0282782
235	0xc04e5993	-3.2242172
236	0xbfbada9e	-1.4597967
237	0x3eff8825	0.49908558
238	0xbdc890d4	-0.09793249
239	0x3f5926a2	0.84824574
240	0xc029e1b4	-2.6544008
241	0x403e5b35	2.9743168
242	0xbfb45e9e	-1.4091375
243	0xbeccf028	-0.40026975
244	0xbe5af00f	-0.21380638
245	0x3fd0cdba	1.6312783
246	0x3f557399	0.83379513
247	0xbf9ffde5	-1.2499357
248	0xbfa7d004	-1.3110356
249	0x3f848742	1.0353777
250	0x3fa1efea	1.2651341
251	0xbf9efe01	-1.2421266
252	0x4008b347	2.1359422
253	0xbd334fa2	-0.043777116
254	0xbda81900	-0.08207893
255	0x3fac0c03	1.3441166

embedding_item.weight f4 [1889, 32]
0	0xbfb94539	-1.447425
1	0xbf16fc8c	-0.58979106
2	0xbf708926	-0.9395927
3	0xbf154568	-0.5830903
4	0xbf76b5e3	-0.9637129
5	0xbfa1c1aa	-1.2637227
6	0xbfb01d5e	-1.3758962
7	0xbfbdd7ea	-1.4831517
8	0x3e108223	0.14112143
9	0xbfbb20d7	-1.4619397
10	0xbf7d50e8	-0.9895158
11	0x3fcee42f	1.6163386
12	0x40172a57	2.3619592
13	0x3ed7782a	0.42083865
14	0x3f61f371	0.8826209
15	0xc021b87d	-2.5268853
16	0xc04965a7	-3.1468294
17	0x3f3e3c3f	0.7431068
18	0x3f00d015	0.5031751
19	0xbf9acc8b	-1.2093672
20	0x3fad1365	1.3521544
21	0xbd2692bf	-0.04066729
22	0x3fb6152a	1.4225209
23	0xbff88772	-1.9416335
24	0x3fb0b8bf	1.380638
25	0x3f8bd5e7	1.0924653
26	0xbeef463c	-0.46733272
27	0x3f7a078e	0.9766778
28	0xbec2bb9c	-0.3803376
29	0xbec70edc	-0.38878524
30	0x3f40588e	0.75135124
31	0xbf82f029	-1.0229541
32	0x3f6ca9e5	0.9244674
33	0xbfdf1adf	-1.7430075
34	0xbf7fecaa	-0.99970496
35	0x3f0aca34	0.5421479
36	0x3e65b0ce	0.22430727
37	0x3ed4af4f	0.4154
38	0xbfae33ba	-1.3609536
39	0xbe980a56	-0.29695386
40	0x3ddc9240	0.107700825
41	0x3f41a47d	0.75641614
42	0xbfac2f3e	-1.3451917
43	0xbf35c190	-0.7099848
44	0x3fdd7bf3	1.7303451
45	0xbfe76ebc	-1.8080668
46	0xc0054e53	-2.0829055
47	0x3f073f4b	0.5283095
48	0x3ee711af	0.4513068
49	0xbf144207	-0.5791325
50	0xbf58f30c	-0.8474586
51	0x3c86e414	0.016466178
52	0xc00764cc	-2.1155272
53	0x3feb57ac	1.838613
54	0xbd6b49e4	-0.057443514
55	0xbf993e80	-1.1972198
56	0x3edfb5cb	0.43693385
57	0x402b5c56	2.6775107
58	0x3ef13b4c	0.47115552
59	0x3f042e24	0.51632905
60	0xbe2f7bf9	-0.17137136
61	0xbd4e0c58	-0.05030474
62	0xbf2507a0	-0.6446476
63	0x3f569743	0.8382456
64	0x3f99b503	1.2008365
65	0xbfb81e1e	-1.4384191
66	0x3f4a239c	0.78960586
67	0xbd973e3d	-0.07384918
68	0x40002dc5	2.0027936
69	0xbff0dfca	-1.8818295
70	0x3f95478a	1.1662457
71	0xbe74c496	-0.23903117
72	0xbeb33e96	-0.35008687
73	0x3ffafb76	1.960799
74	0x3f105700	0.5638275
75	0x3f51343f	0.81720346
76	0x3daec685	0.08533958
77	0x3e92d953	0.2868143
78	0xbf18112f	-0.5940122
79	0x3f3d80ab	0.74024457
80	0x3f4c3281	0.7976456
81	0xc0457ced	-3.0857499
82	0xbe6aa4eb	-0.22914474
83	0xbf75d790	-0.9603205
84	0x4001ecf4	2.0300875
85	0xc00fc1e7	-2.2462099
86	0x3fa72f2b	1.306127
87	0xc0150409	-2.3283713
88	0x3e1769da	0.14786473
89	0x3f612c7f	0.8795852
90	0x3f9b2197	1.2119626
91	0x3f97da38	1.186347
92	0x3f06133d	0.52373105
93	0x4032fd24	2.7967005
94	0x3e75caff	0.24003218
95	0x3ecec9fa	0.4038847
96	0x3c1e1faa	0.009651104
97	0x3f301137	0.6877627
98	0x3d42e18a	0.047578372
99	0xbe120fd4	-0.1426385
100	0x3d2f89f1	0.04285616
101	0xbfc44e96	-1.5336483
102	0x3e5adf7e	0.21374318
103	0x3e048ffa	0.12945548
104	0x3ffdd52e	1.9830682
105	0x3fdc0785	1.7189795
106	0xbf24683d	-0.64221555
107	0x3fe07f03	1.7538761
108	0xbcb47393	-0.022027766
109	0xc003ef8b	-2.0614955
110	0xbf0f75dd	-0.5603922
111	0xbefce2bb	-0.49391732
112	0x3ee04642	0.43803602
113	0x3e0654eb	0.13118331
114	0xbd3fee6f	-0.046858247
115	0xbe572189	-0.21008886
116	0x3eeab361	0.4583998
117	0xbf8e1eef	-1.110319
118	0xbf295a52	-0.6615344
119	0x3fa7fdf8	1.312438
120	0xc04a10e5	-3.1572812
121	0xbdf1a9f4	-0.11799994
122	0xc0322c06	-2.783937
123	0x3e2219ae	0.15830109
124	0x4037de10	2.8729286
125	0xc0415740	-3.0209503
126	0x3e6169ce	0.22013018
127	0x3fa8c6fd	1.3185726
128	0xbf560fd0	-0.8361788
129	0x4007accb	2.1199214
130	0x3e3be8aa	0.18350473
131	0x3fba0ea5	1.4535719
132	0x3f93d1f2	1.1548445
133	0xbfce2438	-1.6104803
134	0xbfa15461	-1.2603875
135	0xbe30b91b	-0.17258112
136	0x3ebf9851	0.37420896
137	0x3ea65960	0.32490063
138	0x3fda9db4	1.7079377
139	0xbf34d4ec	-0.70637393
140	0x3eacc154	0.33741248
141	0x4080ed6a	4.028981
142	0xc041a152	-3.0254712
143	0x3f3ef250	0.7458849
144	0xbf03e1a5	-0.5151618
145	0xbfed5123	-1.8540386
146	0x3f0b859f	0.54500765
147	0x3edda2ea	0.43288356
148	0xbeeab0da	-0.45838052
149	0xbe96127f	-0.29310986
150	0xbeb64da0	-0.35606098
151	0xbef7dab9	-0.4840906
152	0x3e0fe30c	0.14051455
153	0x3ebaa1c0	0.3645153
154	0x3f4e6cf2	0.8063499
155	0xbe55da8b	-0.20884149
156	0x3f299b71	0.6625281
157	0xc02f613c	-2.7403097
158	0xbf0f805d	-0.5605524
159	0x3fabd251	1.3423558
160	0x3f0325d1	0.5122958
161	0xbf36c25c	-0.7139032
162	0xbf383b5a	-0.71965563
163	0xbf82912d	-1.0200554
164	0xbedd4640	-0.4321766
165	0x3fe988fa	1.8244927
166	0x3d85381f	0.06504845
167	0xbf95a75d	-1.16917
168	0x3ffffeec	1.9999671
169	0x3fe347f4	1.7756333
170	0xbf7a22fd	-0.9770964
171	0x3ec0d4ae	0.37662262
172	0xbee982d1	-0.45607617
173	0x401497aa	2.3217568
174	0xbfe9fd72	-1.828047
175	0x3f0036ec	0.50083804
176	0xbdea1cb8	-0.11431259
177	0x3f8c63db	1.0967973
178	0xbf497307	-0.7869114
179	0xbe7c4ab3	-0.2463787
180	0xbecad1b3	-0.39613113
181	0x3f88a971	1.067671
182	0xbf37eb48	-0.71843386
183	0x3f627ca6	0.8847145
184	0xbf738298	-0.95121145
185	0x401e2937	2.4712656
186	0xbfc6f8d9	-1.5544692
187	0xbf0dbf95	-0.55370456
188	0x3d6b1c4e	0.05740004
189	0x3d682d8f	0.056684073
190	0x3f6ec5aa	0.9327036
191	0xbf136fe1	-0.5759259
192	0xbef0acf7	-0.47006962
193	0xbf149e73	-0.58054274
194	0xbfa226e7	-1.2668122
195	0xc010c845	-2.2622235
196	0x3e641d59	0.2227682
197	0x3fc88946	1.5666893
198	0xbed70faa	-0.42004138
199	0x3f1c1999	0.6097656
200	0x3ea77f50	0.3271432
201	0xbfd22272	-1.6416762
202	0x3f7c5014	0.9855969
203	0xbeaecd8f	-0.34141204
204	0x3ff4e9f8	1.9133902
205	0xc03159e4	-2.7711115
206	0x3e72673a	0.2367219
207	0x3ea67cd4	0.3251711
208	0x3ee12a19	0.4397743
209	0xc00a1190	-2.157322
210	0xbf8751e1	-1.0571862
211	0xbf4cfbad	-0.80071527
212	0xbf968ad5	-1.1761118
213	0xbece4c06	-0.40292376
214	0x3e927ca8	0.2861073
215	0x3f0a0d91	0.5392695
216	0xbd2ced85	-0.042218704
217	0x3f7293bb	0.9475667
218	0x3f8ce354	1.1006875
219	0xbfa06631	-1.2531186
220	0x3e8a49eb	0.2700952
221	0x3d90b752	0.070662156
222	0xbf9cb91d	-1.2243992
223	0xbe1b1600	-0.15145111
224	0xc044c13c	-3.074294
225	0x3fa65c10	1.2996845
226	0xc00f7300	-2.241394
227	0xbfa4e31a	-1.2881806
228	0x3f7a54fc	0.97785926
229	0x3efc69af	0.4929938
230	0xbf207e56	-0.62692773
231	0x3f5443d2	0.82915986
232	0x3f0a465c	0.5401361
233	0x400e08ab	2.219279
234	0xbe161098	-0.14654768
235	0x3e8a75af	0.2704291
236	0xbfdcd978	-1.7253866
237	0x3f55afb9	0.83471256
238	0x3e2e3cf8	0.17015445
239	0xbfcb6c05	-1.589234
240	0xbf279e79	-0.65476185
241	0xbfb02632	-1.3761656
242	0xbede099f	-0.43366715
243	0x3f004e20	0.5011921
244	0x3ec6b51b	0.38810048
245	0x3f7f4746	0.9971813
246	0xbfab4456	-1.338023
247	0x3ec02a32	0.37532192
248	0xbeed275b	-0.46319088
249	0x3eb6f0aa	0.35730487
250	0x3d9d6e0a	0.07687004
251	0x3f123113	0.5710613
252	0x3f36d1a9	0.71413666
253	0xbbddf3de	-0.006773456
254	0xc0217159	-2.5225432
255	0xbfa6ac26	-1.3021286

affine_output.weight f4 [1, 32]
0	0x400dd27c	2.215972
1	0xc01a3e9f	-2.410072
2	0xc02660be	-2.5996547
3	0x40170cdc	2.3601599
4	0xc009c0a4	-2.1523829
5	0xc01e5daf	-2.474468
6	0xc0262af4	-2.5963717
7	0x401900fb	2.3906848
8	0xc02c32ee	-2.6906085
9	0x4013d8c5	2.3101056
10	0xc013ca80	-2.3092346
11	0xc024978c	-2.5717497
12	0x402a330b	2.6593654
13	0x4026d916	2.6069999
14	0xc01b1dc2	-2.4236913
15	0x400fae34	2.2450075
16	0x401d3687	2.456453
17	0x4039a74c	2.900836
18	0x401131ef	2.2686727
19	0x3ffbe2c7	1.9678582
20	0x4012cf8c	2.2939177
21	0x404e6adb	3.225272
22	0x402ea34f	2.7287176
23	0xc023d200	-2.5596924
24	0x40393a2e	2.894176
25	0x40328a05	2.789674
26	0x4045c481	3.0901186
27	0x402f71be	2.7413173
28	0x4022216c	2.53329
29	0xc022b893	-2.5425155
30	0x4023007d	2.5469048
31	0x4028086c	2.625514
