checkpoints/GMF_Epoch2_HR0.1287_NDCG0.1271.model (torch, 250015 bytes, 3 tensors)

embedding_user.weight f4 [51, 32]
0	0xbf3657fc	-0.71228004
1	0xbe1e5230	-0.1546104
2	0x3fa4e3ff	1.2882079
3	0xbfb1f847	-1.3903893
4	0xc01388ec	-2.305232
5	0xbf952620	-1.165226
6	0x3f8b74c8	1.0895014
7	0x3ee2708b	0.44226488
8	0xbf4b41e1	-0.793974
9	0x3e2d8d70	0.16948485
10	0xbf6401b9	-0.8906513
11	0xbf68be86	-0.90915716
12	0x3f846372	1.0342848
13	0x3d576985	0.052590866
14	0x3faffd1a	1.3749115
15	0xbf1d4ffc	-0.6145017
16	0xbf8efdc6	-1.1171196
17	0xbf6c4cf5	-0.9230493
18	0x3ef56e92	0.4793592
19	0x3f4c80b0	0.7988386
20	0x3d4e9358	0.050433487
21	0xbe26c9ed	-0.16287966
22	0x3f7d5e06	0.98971593
23	0x3dd3cb28	0.10341483
24	0xbfb971d5	-1.4487864
25	0x3fe64a96	1.7991512
26	0xbe084047	-0.1330577
27	0x3fb0d4cc	1.381494
28	0x3ed59fac	0.41723382
29	0xbc370db6	-0.011172703
30	0x3fa528fe	1.2903135
31	0x3f898b94	1.0745721
32	0xc00558dd	-2.0835488
33	0x3f5dcf7c	0.8664472
34	0x3f9047f3	1.1271957
35	0x3f925fa6	1.143544
36	0xbfffe2e1	-1.9991113
37	0xbf738cc4	-0.95136666
38	0xbfee32b0	-1.8609219
39	0x3f55b906	0.8348545
40	0xbe649c76	-0.2232531
41	0xbf98f0d2	-1.1948493
42	0xbea7edc2	-0.32798582
43	0xbf1f3fc8	-0.622067
44	0xbfb6b638	-1.4274359
45	0xbf10599e	-0.56386745
46	0x3f86fa5f	1.0545157
47	0xc06db2fa	-3.7140489
48	0xc01d4b53	-2.4577224
49	0x3feacdf4	1.8344102
50	0x400dfa23	2.2183921
51	0xbf19c117	-0.60060257
52	0x3eca2325	0.39479938
53	0xbeb7d4a0	-0.35904408
54	0xbe9bf0ce	-0.30457157
55	0x3d204cf1	0.039135877
56	0xbf90e430	-1.1319637
57	0x3fc7a1ae	1.5596216
58	0x3d303a24	0.043024197
59	0xbf76b05b	-0.9636285
60	0xbf4d2e95	-0.80149204
61	0xbdff5f70	-0.12469375
62	0x4028e4ab	2.6389568
63	0x3ea04e00	0.3130951
64	0x3ebbcaf3	0.36678275
65	0x3dabe8bc	0.08394
66	0xbf22673f	-0.6343879
67	0x3e7ddcb6	0.24791226
68	0x3f94bce4	1.1620145
69	0x3f26c042	0.6513711
70	0x3ef93ed4	0.48680747
71	0x3f755ee2	0.95847905
72	0xbf82db9e	-1.0223272
73	0x3cf4b6d0	0.029872328
74	0x3f90b097	1.1303891
75	0xbfaaf455	-1.3355814
76	0x3edea09e	0.43481916
77	0x3f931a50	1.1492405
78	0x3f992c29	1.1966602
79	0xbf2a66ac	-0.66562915
80	0xbc14160f	-0.009038462
81	0xbf9b4b7c	-1.2132411
82	0x3ec53492	0.3851667
83	0x3f1d0fbe	0.61352146
84	0x3e91334b	0.28359446
85	0xbfd9f564	-1.7028012
86	0xbf0e96da	-0.5569893
87	0x3ed6696a	0.418773
88	0xbee4daf8	-0.4469831
89	0x3ef30067	0.47461244
90	0x3f2f09a6	0.683741
91	0xbf3c847c	-0.73639655
92	0xbf07cead	-0.5304974
93	0x3f7a282d	0.97717553
94	0xbdd31d58	-0.10308331
95	0x3f2058d1	0.62635523
96	0xbf0cf6bc	-0.55063987
97	0xbfc23b4f	-1.517435
98	0x3fb09022	1.3793986
99	0x3f0775ae	0.5291394
100	0xbe5e9f67	-0.21740495
101	0x3ce9acca	0.028524775
102	0xba8ab64a	-0.0010582891
103	0x3f3b0c62	0.7306577
104	0xbee021f8	-0.43775916
105	0xbebdf3b7	-0.37100002
106	0xbf7ca24e	-0.9868516
107	0x3f976406	1.18274
108	0xbfb81025	-1.4379927
109	0x3e1c9c6a	0.15294042
110	0x3f2220ae	0.63331115
111	0xbc660ef9	-0.014041656
112	0xc002f58c	-2.046237
113	0x3f0c3a5c	0.5477655
114	0xbf945bde	-1.1590536
115	0xbf6c80cb	-0.9238402
116	0xbfe4494f	-1.7834872
117	0x3d00a74d	0.03140955
118	0x3f8f6507	1.1202706
119	0xbea1276c	-0.3147539
120	0xbe49ad01	-0.19694902
121	0x3f642015	0.89111453
122	0x3fd2f2d7	1.6480359
123	0x3f75b4ea	0.9597918
124	0x3f66a9d0	0.90102863
125	0x3f90d1b5	1.1313998
126	0xbebdde5f	-0.37083718
127	0xbf9430a4	-1.1577344
128	0xc0018b76	-2.024137
129	0xbf1fc01d	-0.62402517
130	0x3f5c5344	0.86064553
131	0x3df3c80f	0.119033925
132	0xbffc9895	-1.9734064
133	0xc00c21a5	-2.1895535
134	0x3e84b4cb	0.25919184
135	0xbe893e10	-0.26805162
136	0x400e3ba3	2.22239
137	0x404c41ed	3.1915238
138	0x3f44e999	0.7691894
139	0x3e0ee5d1	0.13954856
140	0xbd47c1a8	-0.04876867
141	0xbe9fe488	-0.31229043
142	0xbe69d734	-0.22836
143	0x3f1f7eff	0.62303156
144	0x4030dae5	2.7633603
145	0x404c1b8f	3.189182
146	0xbfe2b45b	-1.771129
147	0x4075cf13	3.8407638
148	0x4073c49f	3.8088758
149	0xc0469d6a	-3.1033578
150	0x3f1052b7	0.5637621
151	0xbee5eb85	-0.4490625
152	0xbf32843b	-0.6973302
153	0xbf56943a	-0.83819926
154	0x3f9e83a9	1.238393
155	0xbe84e34a	-0.25954658
156	0xbda68acd	-0.08131943
157	0xbfa74736	-1.3068607
158	0x3eebeae4	0.46077645
159	0x3e8e0f36	0.2774598
160	0xbf51c074	-0.81934285
161	0x3f87cf85	1.0610205
162	0x3c23f67a	0.010007495
163	0x3eaa95f2	0.33317524
164	0xbeb6b60f	-0.35685775
165	0x3f89cc2e	1.0765436
166	0xbfe50ac2	-1.7893908
167	0xbfe95502	-1.8229067
168	0xbf4501dd	-0.7695597
169	0x401304cb	2.2971675
170	0xbf3a3bf0	-0.7274771
171	0xbf97b1ac	-1.1851096
172	0x3c255c82	0.010092856
173	0xbf5e17aa	-0.8675486
174	0x3ef593bb	0.47964272
175	0xbfc89e13	-1.567324
176	0x3fc6a122	1.5517924
177	0x3ea0c738	0.31401992
178	0xc01dc8ea	-2.4653878
179	0x3f9a8c5c	1.2074084
180	0xbf8a0d95	-1.0785395
181	0xbe1b1437	-0.1514443
182	0xbeced7ec	-0.4039911
183	0x3f3758b3	0.7161972
184	0xbf4e7ac4	-0.80656075
185	0x3fafe679	1.374221
186	0xbf10d404	-0.5657351
187	0x3ed05610	0.4069066
188	0x400038b9	2.003462
189	0x3f85db39	1.0457526
190	0xbedb473b	-0.42827782
191	0x3fc905e0	1.5704918
192	0xbf9c38a2	-1.2204783
193	0xbde2602c	-0.110534996
194	0x3f132b07	0.5748753
195	0x3f2800ce	0.6562623
196	0x3f10bd61	0.5653897
197	0x3f79220e	0.9731759
198	0x3e126955	0.14297993
199	0xbe922ede	-0.28551382
200	0xbe99cfd1	-0.30041364
201	0xbf78af3c	-0.97142386
202	0xbf0411c5	-0.51589614
203	0x3f0458c0	0.5169792
204	0x3f0e19f3	0.55508345
205	0xbe99c2c0	-0.30031395
206	0xbffac908	-1.95926
207	0xbf8fe8a9	-1.1242877
208	0xbf760a34	-0.9610932
209	0x3f33b397	0.7019591
210	0xbf8835ba	-1.0641396
211	0x3f25161f	0.6448688
212	0x3eb2bd23	0.34909925
213	0xbf981902	-1.1882632
214	0xbffa0014	-1.9531274
215	0x3e4540cc	0.19263
216	0x3f3b82d5	0.7324651
217	0xbe323328	-0.17402327
218	0x3c1d3335	0.009594728
219	0xbe33b007	-0.17547618
220	0xbded5405	-0.11588291
221	0x3ec17d34	0.37790835
222	0x3f94f8f2	1.1638472
223	0xbfa7418f	-1.3066882
224	0xbeae41db	-0.3403462
225	0x402bc6ae	2.6840014
226	0xbf8aad41	-1.0834123
227	0xbfb62220	-1.4229164
228	0xbef8974b	-0.48552927
229	0x3dfbc4fc	0.12293431
230	0x3f94fc3c	1.1639476
231	0xbf51538a	-0.81768095
232	0xbe3b7d8c	-0.18309611
233	0x40171e64	2.36123
234	0x3f8508f4	1.0393357
235	0xc0465e61	-3.0995104
236	0xbfb3e7e6	-1.4055145
237	0x3ee9b1d4	0.45643485
238	0xbde4bbea	-0.11168654
239	0x3f4b061b	0.7930619
240	0xc0257ec1	-2.5858614
241	0x403ab706	2.9174209
242	0xbfb312ca	-1.3990109
243	0xbed2ebd0	-0.41195536
244	0xbe6bf308	-0.23041928
245	0x3fc9c380	1.5762787
246	0x3f54e47a	0.8316113
247	0xbf9a3f80	-1.2050629
248	0xbfa5cf1b	-1.2953829
249	0x3f782f5f	0.9694728
250	0x3f9babab	1.2161764
251	0xbf974cbf	-1.1820296
252	0x40066e72	2.100491
253	0xbd4976ca	-0.04918555
254	0xbdc9a728	-0.09846336
255	0x3fa44584	1.2833714

embedding_item.weight f4 [1889, 32]
0	0xbfb59c09	-1.4188243
1	0xbf0fd129	-0.5617853
2	0xbf6e9f1f	-0.9321155
3	0xbf0d467f	-0.55185694
4	0xbf78e42e	-0.97223175
5	0xbfa265b4	-1.2687287
6	0xbfb16f1f	-1.3862036
7	0xbfbb15f7	-1.4616078
8	0x3e13671a	0.14394799
9	0xbfbddde3	-1.483334
10	0xbf819b3a	-1.0125496
11	0x3fcfcb55	1.6233927
12	0x40175fd1	2.3652232
13	0x3ed87966	0.4228012
14	0x3f5c788f	0.8612146
15	0xc020d14d	-2.5127747
16	0xc048fd4b	-3.1404598
17	0x3f3fca62	0.74918187
18	0x3eefce79	0.46837214
19	0xbf9bcd7c	-1.2172084
20	0x3fa8230d	1.3135697
21	0xbd886b73	-0.06661119
22	0x3fb4f4ba	1.4137185
23	0xbff8be2f	-1.943304
24	0x3fadbedc	1.3573871
25	0x3f8d982f	1.1062068
26	0xbef49c0f	-0.47775313
27	0x3f74ffac	0.95702624
28	0xbeb50918	-0.353585
29	0xbec08e84	-0.3760873
30	0x3f3ca029	0.73681885
31	0xbf841fb7	-1.0322179
32	0x3f6b5b60	0.919363
33	0xbfdea598	-1.7394285
34	0xbf807a74	-1.003737
35	0x3f0c29c8	0.54751253
36	0x3e655692	0.22396305
37	0x3ed44628	0.41459775
38	0xbfad4beb	-1.3538793
39	0xbe96e489	-0.29471233
40	0x3de78b44	0.1130586
41	0x3f42627d	0.7593153
42	0xbfac0c0f	-1.344118
43	0xbf353398	-0.7078185
44	0x3fdd1668	1.7272463
45	0xbfe72545	-1.8058249
46	0xc0058030	-2.085949
47	0x3f04e57d	0.5191267
48	0x3ee52bc3	0.4475995
49	0xbf12b365	-0.57304984
50	0xbf567953	-0.83778876
51	0x3c674183	0.01411474
52	0xc0072b2d	-2.1120102
53	0x3feaf4cd	1.8355957
54	0xbd6ae33b	-0.05734561
55	0xbf987882	-1.1911776
56	0x3edbfad6	0.4296481
57	0x402b9df6	2.6815162
58	0x3ef4fcea	0.47849208
59	0x3f038123	0.5136892
60	0xbe331dd3	-0.17491846
61	0xbd5a3de1	-0.05328167
62	0xbf229129	-0.63502747
63	0x3f57d8dc	0.84315276
64	0x3f97eb1b	1.1868623
65	0xbfb58bf1	-1.4183332
66	0x3f47ece8	0.78095865
67	0xbd165201	-0.0366993
68	0x3ffcded3	1.97555
69	0xbfef3239	-1.8687202
70	0x3f971f55	1.1806437
71	0xbe6462a4	-0.22303253
72	0xbea1c4f7	-0.31595585
73	0x3ffa13db	1.953731
74	0x3f157ede	0.5839671
75	0x3f4b6764	0.79454637
76	0x3dccf935	0.1000847
77	0x3e961664	0.29313958
78	0xbf19d026	-0.60083234
79	0x3f4078b2	0.75184166
80	0x3f484f2d	0.7824581
81	0xc0447509	-3.0696433
82	0xbe663594	-0.22481376
83	0xbf72fe44	-0.9491923
84	0x4002886c	2.0395765
85	0xc0109e4a	-2.2596612
86	0x3fa2b6c2	1.2712023
87	0xc01398ee	-2.306209
88	0x3e0fef86	0.14056215
89	0x3f602c02	0.8756715
90	0x3f9c8cf6	1.2230518
91	0x3f964854	1.1740823
92	0x3f09db02	0.53849804
93	0x402fd65a	2.747458
94	0x3e8da383	0.27663812
95	0x3ed8012c	0.42188394
96	0xbcf721e3	-0.030167526
97	0x3f2e2beb	0.68035764
98	0x3b513a72	0.0031925705
99	0xbe05feaa	-0.13085428
100	0x3d595024	0.053054944
101	0xbfc6b587	-1.5524148
102	0x3e4c37b6	0.19943127
103	0x3e133ac9	0.14377894
104	0x3ff9f006	1.9526374
105	0x3fd9712c	1.6987662
106	0xbf188341	-0.5957528
107	0x3fdd55de	1.729183
108	0xbbc80c6b	-0.006104996
109	0xc004d9b5	-2.0757878
110	0xbf148ae0	-0.58024406
111	0xbedc0c4c	-0.42978132
112	0x3edbba7c	0.42915714
113	0x3e1f699a	0.15567628
114	0xbda63ca4	-0.08117035
115	0xbe568f80	-0.20953178
116	0x3ef25678	0.47331595
117	0xbf8ce09f	-1.1006049
118	0xbf36b9c4	-0.71377206
119	0x3fa4589b	1.283954
120	0xc0474267	-3.1134279
121	0xbe0de0b5	-0.1385525
122	0xc0306c0a	-2.7565942
123	0x3e07ff08	0.1328088
124	0x403458f7	2.81793
125	0xc040f7bd	-3.0151207
126	0x3e8324f9	0.25614145
127	0x3fa13acc	1.2596068
128	0xbf5930a0	-0.8483982
129	0x4006adbb	2.1043537
130	0x3e394bc8	0.18095315
131	0x3fbabdfb	1.4589227
132	0x3f947205	1.1597296
133	0xbfcbdc31	-1.5926572
134	0xbfa086dd	-1.2541157
135	0xbe242ab3	-0.16031913
136	0x3ec61175	0.38685194
137	0x3eb47ca6	0.3525135
138	0x3fd964e5	1.6983916
139	0xbf2e9afd	-0.68205243
140	0x3eae04c6	0.33988017
141	0x40800560	4.000656
142	0xc0403d9e	-3.0037608
143	0x3f3f80a0	0.7480564
144	0xbf012eed	-0.5046223
145	0xbfebad45	-1.8412253
146	0x3f0cbbc9	0.5497404
147	0x3ed9812e	0.4248137
148	0xbef4a658	-0.4778316
149	0xbe973f81	-0.29540637
150	0xbeb9eb4e	-0.36312336
151	0xbeed8c89	-0.46396282
152	0x3db77281	0.08957387
153	0x3ec35d52	0.38157135
154	0x3f4fd424	0.81183076
155	0xbe618068	-0.2202164
156	0x3f2bc1c3	0.6709253
157	0xc02f4b95	-2.7389882
158	0xbf05f600	-0.5232849
159	0x3faa4be0	1.3304405
160	0x3f0295ab	0.51009625
161	0xbf354230	-0.7080412
162	0xbf37ac58	-0.7174735
163	0xbf82014c	-1.0156646
164	0xbedca3b8	-0.43093657
165	0x3fe991d9	1.8247634
166	0x3d8f57c7	0.06999164
167	0xbf9567c0	-1.1672287
168	0x3fffbb88	1.9979105
169	0x3fe3af2b	1.7787832
170	0xbf7910b7	-0.9729113
171	0x3ec26639	0.37968615
172	0xbee8b49a	-0.45450288
173	0x4014ca64	2.324853
174	0xbfea0d9a	-1.8285401
175	0x3eff8058	0.49902606
176	0xbde9947f	-0.114052765
177	0x3f8c62c1	1.0967637
178	0xbf48ed06	-0.7848667
179	0xbe7dffc7	-0.24804603
180	0xbecc56dd	-0.3991002
181	0x3f8854f7	1.0650929
182	0xbf3860fd	-0.7202299
183	0x3f636171	0.8882056
184	0xbf752b2e	-0.9576901
185	0x401de411	2.467045
186	0xbfc5a1a2	-1.5439951
187	0xbf0d5058	-0.5520072
188	0x3d5dba09	0.054132495
189	0x3d45ee4a	0.048322953
190	0x3f6eb689	0.93247277
191	0xbf129bc4	-0.5726893
192	0xbef3ae6b	-0.47594008
193	0xbf13cf95	-0.5773862
194	0xbfa17bf5	-1.2615954
195	0xc0100b8e	-2.2507052
196	0x3e6edb2e	0.23325798
197	0x3fc78537	1.5587529
198	0xbed3e86c	-0.4138826
199	0x3f1ae5b1	0.6050673
200	0x3eae8640	0.340868
201	0xbfd1616f	-1.6357859
202	0x3f7c330b	0.98515385
203	0xbea7bac9	-0.32759693
204	0x3ff21806	1.8913581
205	0xc0313566	-2.7688842
206	0x3e68b87b	0.22726624
207	0x3ea102b0	0.31447363
208	0x3ee16539	0.4402254
209	0xc009b830	-2.151867
210	0xbf869984	-1.0515599
211	0xbf4ec049	-0.80762154
212	0xbf974997	-1.1819333
213	0xbec5e56a	-0.38651592
214	0x3e8acba0	0.2710848
215	0x3f0938b1	0.5360213
216	0xbce19a1c	-0.027539305
217	0x3f725f6c	0.9467685
218	0x3f8dbe2b	1.107366
219	0xbf9fecc3	-1.2494129
220	0x3e891ca8	0.26779675
221	0x3d888efa	0.066678956
222	0xbf9b9e8d	-1.2157761
223	0xbe0b5cae	-0.13609573
224	0xc0444726	-3.0668426
225	0x3fa77466	1.3082397
226	0xc010f1ed	-2.264766
227	0xbfa4647c	-1.2843165
228	0x3f757ddd	0.9589518
229	0x3ee9c659	0.4565914
230	0xbf19e1cb	-0.6011016
231	0x3f5356e3	0.82554454
232	0x3f015577	0.50521034
233	0x400e078c	2.2192106
234	0xbe04cd62	-0.12968972
235	0x3e8285c9	0.25492695
236	0xbfda598b	-1.7058576
237	0x3f4d7e49	0.8027082
238	0x3e1c90af	0.15289567
239	0xbfca8f62	-1.5825007
240	0xbf2d9d6b	-0.67818326
241	0xbfac470e	-1.3459184
242	0xbede4c13	-0.43417415
243	0x3f00be5f	0.50290483
244	0x3eb11304	0.3458482
245	0x3f7a6166	0.9780487
246	0xbfa532f6	-1.2906177
247	0x3eb1b283	0.34706506
248	0xbf050546	-0.5196117
249	0x3ea1332a	0.31484348
250	0x3db161b3	0.08661213
251	0x3f140ce5	0.57832175
252	0x3f3dc76d	0.74132425
253	0xbd990f00	-0.07473564
254	0xc0212df6	-2.5184302
255	0xbfa454ed	-1.2838417

affine_output.weight f4 [1, 32]
0	0x3fda7f52	1.7070105
1	0xbfeb5737	-1.8385991
2	0xc005025b	-2.0782688
3	0x3fe7bc0a	1.810426
4	0xbfd0e527	-1.6319932
5	0xbff53641	-1.9157182
6	0xc00355d4	-2.0521135
7	0x3fed44b2	1.8536589
8	0xc006cec3	-2.1063697
9	0x3fdff401	1.7496339
10	0xbfe67dd0	-1.8007145
11	0xc002869f	-2.0394666
12	0x40043ffc	2.0664053
13	0x4003e08c	2.0605803
14	0xbfed5ab4	-1.8543305
15	0x3fda9d4d	1.7079254
16	0x3fee4845	1.8615805
17	0x4011b05b	2.276389
18	0x3fdae222	1.710026
19	0x3fbd72f8	1.4800711
20	0x3fdf047b	1.7423242
21	0x402423ba	2.5646806
22	0x4006a337	2.1037118
23	0xbffea3d1	-1.9893743
24	0x400d9d2e	2.2127185
25	0x400e395b	2.2222507
26	0x401c295c	2.4400244
27	0x400ca260	2.1974106
28	0x3ffbea99	1.9680969
29	0xbff97903	-1.9490055
30	0x3ffc110e	1.9692705
31	0x40024384	2.0353708
