checkpoints/GMF_Epoch7_HR0.1459_NDCG0.1452.model (torch, 250015 bytes, 3 tensors)

embedding_user.weight f4 [51, 32]
000000 2c d6 48 bf f5 f1 24 be 4e a0 b1 3f db 87 b8 bf
       -0.784518 -0.16107924 1.3877046 -1.441646
000010 80 29 18 c0 82 a3 9d bf ef c2 94 3f de ce ef 3e
       -2.377533 -1.2315524 1.1621989 0.46837515
000020 66 de 5c bf 64 12 4b 3e 8d df 73 bf 09 6d 75 bf
       -0.86276853 0.19831234 -0.95262986 -0.958695
000030 fb d8 91 3f 2c ed 7a 3d f0 9f b9 3f 0a fd 20 bf
       1.1394342 0.06126134 1.4501934 -0.62886107
000040 4b e3 93 bf aa 5b 79 bf ac 5a f8 3e 6f f9 58 3f
       -1.1553739 -0.97405493 0.48506677 0.84755605
000050 1f b1 75 3d 96 1e 43 be 03 14 85 3f 2f 00 cc 3d
       0.05998337 -0.19054636 1.0396732 0.099609725
000060 d3 e5 c3 bf 16 a4 f3 3f 0e b8 25 be 0c 06 be 3f
       -1.5304512 1.903445 -0.16183493 1.4845595
000070 1d bb ca 3e ea a7 03 bd 54 06 af 3f 14 52 90 3f
       0.3959588 -0.032142557 1.3673806 1.1275048
000080 6d 81 09 c0 63 03 66 3f 58 75 95 3f be 34 95 3f
       -2.1485245 0.8984892 1.1676435 1.1656721
000090 ba 60 02 c0 b6 5d 78 bf 1d 1c fb bf 1c 3d 59 3f
       -2.0371537 -0.9701799 -1.9617954 0.8485887
0000a0 64 dd 5e be 5e 13 9d bf f3 b8 a6 be c2 31 24 bf
       -0.21764141 -1.2271535 -0.3256298 -0.64138424
0000b0 4e 99 bc bf 26 de 10 bf a3 e8 8a 3f ef ea 72 c0
       -1.4734285 -0.5658897 1.0852245 -3.7955892
0000c0 4d 9e 20 c0 f2 57 ee 3f 6f 4d 11 40 d0 9f 22 bf
       -2.509662 1.8620589 2.2703512 -0.63525105
0000d0 8d 1e ce 3e 46 a7 c3 be d8 68 9e be 14 46 4b 3d
       0.40257683 -0.38213557 -0.30939364 0.04962738
0000e0 85 1b 97 bf 74 8a cd 3f 74 e1 3d 3d 89 a2 80 bf
       -1.1805273 1.6057878 0.046357587 -1.0049602
0000f0 04 cd 53 bf 0d f7 0d be 79 bd 2e 40 25 1f a5 3e
       -0.82734704 -0.13863774 2.7303145 0.32250324
000100 37 66 d9 3e fa 2a 89 3d 38 1e 42 bf 90 16 5f 3e
       0.42460796 0.0669765 -0.7582736 0.2178595
000110 34 17 a0 3f ce 8d 34 3f 0d 82 0b 3f 14 19 8b 3f
       1.2507081 0.70528877 0.54495317 1.0867028
000120 8b 3f 8c bf 6f f3 ee 3c ff 49 9c 3f 09 67 c0 bf
       -1.0956892 0.029168813 1.2210082 -1.5031444
000130 87 9f f8 3e 09 86 a3 3f 23 87 a9 3f 4a 31 30 bf
       0.4855921 1.2775279 1.3244365 -0.6882521
000140 f2 7f 60 bc 4f 89 aa bf 77 7b fa 3e f8 1b 2e 3f
       -0.01370238 -1.3323153 0.4892232 0.68011427
000150 f8 60 ac 3e ab 3b f3 bf 39 a0 1d bf 05 c0 f7 3e
       0.3366773 -1.9002584 -0.61572605 0.48388687
000160 b1 56 f7 be f8 27 07 3f 6f 5b 45 3f 1e 44 54 bf
       -0.48308328 0.5279536 0.7709264 -0.8291644
000170 9d 53 1c bf a7 8a 8f 3f 28 02 ce bd 67 9e 2e 3f
       -0.61065084 1.1214188 -0.10059005 0.6821045
000180 fb a2 1c bf 16 ea ca bf ca 14 bb 3f 7e 11 18 3f
       -0.6118619 -1.5852687 1.4615719 0.5940169
000190 c7 3d 87 be c6 ce b5 3b 75 13 06 bd 86 5b 51 3f
       -0.2641432 0.005548331 -0.0327334 0.8178028
0001a0 67 be ca be 77 f2 d0 be 6a 59 79 bf f9 cf 9f 3f
       -0.3959839 -0.40809986 -0.9740206 1.2485343
0001b0 01 1d c2 bf 71 23 54 3e 52 a1 37 3f 19 08 7c 3d
       -1.5165101 0.20716645 0.7173053 0.06153116
0001c0 56 36 06 c0 21 bc 14 3f 18 83 95 bf f0 92 70 bf
       -2.0970664 0.5809956 -1.1680632 -0.9397421
0001d0 bd d4 e4 bf 8c 30 84 3c 78 f7 99 3f 12 4b cb be
       -1.7877423 0.01613643 1.2028646 -0.39705712
0001e0 e9 17 94 be 3e bd 76 3f 05 65 e1 3f cb 47 86 3f
       -0.28924492 0.9638251 1.7608954 1.049066
0001f0 06 dd 6c 3f 1d a7 96 3f d3 90 e3 be ae 62 99 bf
       0.92524755 1.1769749 -0.4444643 -1.198324
000200 7d 9e 05 c0 64 62 23 bf da 88 5b 3f e2 80 ea 3d
       -2.0877984 -0.6382201 0.85755694 0.11450364
000210 85 98 fe bf f8 00 0f c0 4f 35 86 3e e6 f4 90 be
       -1.9890295 -2.2344341 0.26212546 -0.28311843
000220 3e 7c 0e 40 48 d9 50 40 ab ed 42 3f 82 a3 0b 3e
       2.2263331 3.2632618 0.761439 0.13636592
000230 82 4a 9a bd 24 b4 a0 be 7c 16 65 be 99 a4 26 3f
       -0.075337425 -0.31387436 -0.22371858 0.65094906
000240 ed 32 32 40 4e 10 4f 40 c5 29 e4 bf 2c ea 7a 40
       2.7843583 3.2353702 -1.7825247 3.9205427
000250 3b 9e 77 40 13 66 48 c0 aa ed 0f 3f dc 27 ef be
       3.8690326 -3.13123 0.5622202 -0.46710098
000260 6c 87 37 bf 12 10 57 bf 37 c3 a3 3f 69 0f 88 be
       -0.7169101 -0.84008896 1.279395 -0.26574257
000270 ca 9b c4 bd 58 f5 a7 bf 24 a5 f2 3e e1 9a 95 3e
       -0.09600027 -1.3121748 0.47391617 0.29219726
000280 e3 ff 5b bf de 56 8a 3f 17 a4 c8 bb be fc ac 3e
       -0.8593733 1.080776 -0.0061230767 0.33786577
000290 f1 b1 bd be 81 2c 8d 3f cd ce ec bf 49 84 f0 bf
       -0.3704982 1.1029207 -1.850061 -1.879037
0002a0 df fc 49 bf 5c 59 17 40 80 6c 40 bf 35 3a 9f bf
       -0.78901476 2.364829 -0.7516556 -1.2439638
0002b0 a1 1e 91 bc 2b 49 63 bf de 02 02 3f 45 67 cd bf
       -0.0177148 -0.8878352 0.50785625 -1.604714
0002c0 e4 46 cb 3f 8b 98 af 3e e7 fd 20 c0 20 66 9e 3f
       1.5881009 0.3429607 -2.515497 1.2374916
0002d0 63 13 8e bf df 75 3c be 53 b4 d5 be cd cc 3f 3f
       -1.1099666 -0.18404339 -0.4173914 0.74921876
0002e0 eb 1b 57 bf 82 ce b4 3f bd 77 13 bf c6 c1 dc 3e
       -0.84026974 1.4125521 -0.5760458 0.43116587
0002f0 bb 33 03 40 24 5c 8b 3f 43 b5 e3 be a2 7c cf 3f
       2.0500324 1.0887494 -0.4447423 1.620991
000300 05 2d b3 bf 45 97 15 be 3d 92 25 3f ed 32 40 3f
       -1.3998114 -0.14608486 0.64676267 0.75077707
000310 39 68 1f 3f 74 ac 85 3f 3f 44 21 3e 4c 81 b1 be
       0.62268406 1.0443254 0.1574869 -0.34668958
000320 f1 18 c0 be 87 58 86 bf 9b cc 16 bf 72 cb 16 3f
       -0.3751903 -1.0495766 -0.58905953 0.5890418
000330 c9 48 1e 3f dc 69 b1 be ca 03 08 c0 2d 93 9e bf
       0.6182981 -0.34651077 -2.1252313 -1.2388664
000340 64 d3 87 bf f9 b0 56 3f e6 d5 98 bf 33 37 39 3f
       -1.0611386 0.8386379 -1.1940277 0.7234985
000350 b0 a2 b5 3e b9 a8 ab bf 6c f6 05 c0 05 7a 83 3e
       0.35475683 -1.3410865 -2.0931654 0.2567903
000360 ad a4 58 3f 61 67 2d be 9e 60 50 3d d6 eb 65 be
       0.84626275 -0.16933967 0.05087339 -0.22453246
000370 29 04 fa bd df db d6 3e 59 5d aa 3f 4b a6 ba bf
       -0.12207825 0.41964623 1.3309737 -1.4581999
000380 00 6f bb be 83 f2 32 40 bb 1f 91 bf 81 44 bb bf
       -0.36608124 2.7960517 -1.1337808 -1.4630281
000390 49 f7 f6 be 9d f6 0f 3e 9b 10 9e 3f 7e a7 59 bf
       -0.4823554 0.14058919 1.2348818 -0.850212
0003a0 8a 9e 44 be c4 2c 1b 40 f4 a2 83 3f 3d 3e 4e c0
       -0.19201103 2.4246073 1.0284104 -3.2225487
0003b0 e1 ad ba bf 92 c7 fe 3e 99 7c c9 bd 68 bb 58 3f
       -1.4584314 0.49761635 -0.09838218 0.8466096
0003c0 ee cb 29 c0 84 43 3e 40 c4 5e b4 bf fc e5 cc be
       -2.6530719 2.9728708 -1.409142 -0.40019214
0003d0 18 6a 5b be 99 94 d0 3f 5b 2d 55 3f dc e2 9f bf
       -0.2142719 1.6295348 0.8327233 -1.2491107
0003e0 e2 a9 a7 bf 2c 36 84 3f 2c bd a1 3f 8b e3 9e bf
       -1.3098719 1.0329032 1.2635856 -1.2413191
0003f0 2c be 08 40 5d fd 32 bd 25 fa a9 bd 39 e5 ab 3f
       2.1366072 -0.043698657 -0.082996644 1.3429328

embedding_item.weight f4 [1889, 32]
000000 d7 2f b9 bf b2 bc 16 bf 8a 7e 70 bf 1e 14 15 bf
       -1.4467725 -0.58881676 -0.93943083 -0.5823382
000010 fc c0 76 bf 37 c8 a1 bf 80 27 b0 bf fd cb bd bf
       -0.9638822 -1.2639226 -1.3762054 -1.4827877
000020 19 dc 10 3e c7 2d bb bf 36 75 7d bf 0b f6 ce 3f
       0.1414646 -1.4623345 -0.99006975 1.6168836
000030 ae 2b 17 40 a9 61 d7 3e 2d d4 61 3f 5f b5 21 c0
       2.362041 0.42066696 0.8821438 -2.526695
000040 d3 66 49 c0 11 50 3e 3f b4 92 00 3f 97 d1 9a bf
       -3.146901 0.7434092 0.5022385 -1.2095212
000050 8d f6 ac 3f 20 05 29 bd c7 06 b6 3f 6f 87 f8 bf
       1.3512741 -0.041264653 1.4220818 -1.9416331
000060 b2 a0 b0 3f ef e2 8b 3f f3 52 ef be 2a eb 79 3f
       1.379904 1.092863 -0.46742973 0.97624457
000070 48 6a c2 be a5 f7 c6 be 7d 44 40 3f 7b f8 82 bf
       -0.3797171 -0.38860813 0.75104505 -1.023208
000080 7a a4 6c 3f d6 1a df bf c9 f3 7f bf fa cd 0a 3f
       0.9243847 -1.7430065 -0.9998136 0.54220545
000090 22 a5 65 3e 68 b0 d4 3e 00 33 ae bf f0 03 98 be
       0.22426274 0.41540837 -1.3609314 -0.29690504
0000a0 bd e7 dc 3d 73 ab 41 3f 3e 2f ac bf 7e c3 35 bf
       0.10786388 0.75652236 -1.3451917 -0.7100142
0000b0 44 7b dd 3f 00 6b e7 bf 53 4e 05 c0 f4 39 07 3f
       1.7303243 -1.8079529 -2.0829055 0.52822804
0000c0 e2 00 e7 3e 09 3c 14 bf fa e7 58 bf 25 90 86 3c
       0.4511786 -0.57904106 -0.8472897 0.016426155
0000d0 cc 64 07 c0 13 55 eb 3f 00 14 6b bd 7c 3e 99 bf
       -2.1155272 1.8385338 -0.05739212 -1.1972194
0000e0 4f ac df 3e 56 5c 2b 40 f8 42 f1 3e ed 2b 04 3f
       0.4368615 2.6775107 0.47121406 0.51629525
0000f0 6f 87 2f be 44 19 4e bd f1 00 25 bf aa 9d 56 3f
       -0.17141508 -0.050317064 -0.6445456 0.83834326
000100 58 ac 99 3f 1b 12 b8 bf 7e fd 49 3f a2 51 95 bd
       1.200572 -1.4380525 0.78902423 -0.07290961
000110 e5 29 00 40 32 d6 f0 bf ea 57 95 3f ea a3 74 be
       2.002557 -1.8815367 1.1667454 -0.23890653
000120 8f b0 b2 be 14 02 fb 3f da 85 10 3f 0f 33 51 3f
       -0.3490033 1.9610009 0.5645424 0.81718534
000130 33 b0 b0 3d 8e df 92 3e 3e 34 18 bf bc 8b 3d 3f
       0.08627357 0.28686184 -0.59454715 0.7404134
000140 59 12 4c 3f 77 7a 45 c0 11 07 6b be 51 b3 75 bf
       0.79715496 -3.0855997 -0.22951914 -0.9597674
000150 a1 f1 01 40 d7 c6 0f c0 23 12 a7 3f 07 fa 14 c0
       2.0303729 -2.2465112 1.305241 -2.3277605
000160 17 fe 16 3e 0e 35 61 3f d3 2d 9b 3f ef e8 97 3f
       0.14745365 0.8797158 1.212336 1.1867961
000170 cb 46 06 3f 03 f2 32 40 04 04 77 3e 02 52 cf 3e
       0.5245177 2.7960212 0.24122626 0.40492254
000180 d5 81 1d 3c 96 32 30 3f 13 b5 41 3d 38 17 11 be
       0.009613474 0.6882719 0.047291826 -0.14169014
000190 62 cd 2f 3d a5 46 c4 bf 6a 28 5b 3e f4 0e 05 3e
       0.042920478 -1.5334059 0.21402135 0.12993985
0001a0 b0 cf fd 3f 62 0a dc 3f 7a 28 24 bf 59 99 e0 3f
       1.9829006 1.7190669 -0.6412426 1.7546798
0001b0 eb ed af bc 1a e5 03 c0 86 9f 0f bf 67 51 fc be
       -0.021475753 -2.0608582 -0.5610279 -0.49280855
0001c0 b1 6a e0 3e 87 64 06 3e 97 85 3e bd 58 7b 58 be
       0.438314 0.13124286 -0.04651412 -0.21140802
0001d0 88 39 ea 3e 64 37 8e bf d3 6a 29 bf 19 07 a8 3f
       0.45747018 -1.1110654 -0.66178626 1.3127166
0001e0 10 13 4a c0 06 87 f0 bd 89 09 32 c0 a8 a1 20 3e
       -3.1574135 -0.11744504 -2.781832 0.15686667
0001f0 63 e1 37 40 4a 5e 41 c0 d3 37 62 3e 29 b5 a8 3f
       2.8731315 -3.02138 0.22091608 1.3180286
000200 a7 37 56 bf 7e b3 07 40 1d c2 3b 3e 00 11 ba 3f
       -0.8367867 2.1203303 0.18335767 1.4536438
000210 83 da 93 3f 21 18 ce bf 40 49 a1 bf 16 2c 30 be
       1.155106 -1.6101114 -1.2600479 -0.17204317
000220 7c 00 c0 3e 18 dd a6 3e b3 97 da 3f 6d 8a 34 bf
       0.3750037 0.32590556 1.7077545 -0.7052372
000230 56 7a ac 3e b3 e9 80 40 44 97 41 c0 6a e4 3e 3f
       0.33687085 4.0285277 -3.0248575 0.7456728
000240 c5 e0 03 bf 11 46 ed bf 63 8a 0b 3f 3b 83 dd 3e
       -0.51514846 -1.8537008 0.54508036 0.43264183
000250 36 40 eb be 7d 14 96 be 58 84 b6 be 16 66 f7 be
       -0.45947427 -0.29312506 -0.35647845 -0.48320073
000260 a3 16 0e 3e 7f f2 ba 3e 9f 90 4e 3f 91 33 56 be
       0.13875823 0.36513135 0.80689424 -0.20918109
000270 26 aa 29 3f ce 63 2f c0 7f 16 0f bf 2b cc ab 3f
       0.6627525 -2.7404666 -0.558937 1.3421682
000280 2e 27 03 3f 51 c0 36 bf ba 3a 38 bf 53 90 82 bf
       0.5123166 -0.713872 -0.7196461 -1.0200294
000290 c8 41 dd be 1a 89 e9 3f 72 8f 85 3d 5d a7 95 bf
       -0.4321425 1.8244965 0.06521501 -1.16917
0002a0 dc fe ff 3f 0d 48 e3 3f 6e 1b 7a bf 8b e4 c0 3e
       1.9999652 1.7756363 -0.97698104 0.37674364
0002b0 86 7e e9 be ab 97 14 40 2e fd e9 bf 8a 37 00 3f
       -0.45604342 2.321757 -1.8280389 0.50084746
0002c0 4d 31 ea bd 4b 65 8c 3f a9 6f 49 bf 30 48 7c be
       -0.11435185 1.0968412 -0.78686005 -0.24636912
0002d0 73 dd ca be e9 a8 88 3f 6a ef 37 bf 83 7c 62 3f
       -0.39622077 1.0676547 -0.7184969 0.8847124
0002e0 13 8e 73 bf 37 29 1e 40 01 f7 c6 bf 25 bf 0d bf
       -0.95138663 2.4712656 -1.554413 -0.5536979
0002f0 6e 89 6a 3d 2d ff 66 3d 2d c4 6e 3f 67 6f 13 bf
       0.05725997 0.0563957 0.9326809 -0.5759186
000300 43 b1 f0 be 87 85 14 bf 52 23 a2 bf 44 c8 10 c0
       -0.4701024 -0.58016247 -1.2667029 -2.2622232
000310 3b a0 64 3e 46 89 c8 3f 41 1b d7 be 49 0a 1c 3f
       0.22326748 1.5666893 -0.4201298 0.60953194
000320 c6 ae a7 3e 73 22 d2 bf 25 48 7c 3f 84 a2 ae be
       0.3275053 -1.6416763 0.98547584 -0.34108365
000330 a7 dc f4 3f f5 59 31 c0 85 f8 71 3e 90 5b a6 3e
       1.9129838 -2.7711155 0.23629959 0.32491732
000340 6e 1c e1 3e 44 11 0a c0 f4 55 87 bf cb fd 4c bf
       0.43967003 -2.1573038 -1.0573106 -0.8007476
000350 b8 93 96 bf a2 28 ce be 29 60 92 3e 58 06 0a 3f
       -1.176383 -0.40265375 0.2858899 0.5391593
000360 85 18 2c bd 08 8c 72 3f e7 ec 8c 3f b9 67 a0 bf
       -0.04201557 0.9474492 1.1009797 -1.2531654
000370 4a 3f 8a 3e ec 34 90 3d bf b2 9c bf 74 b8 1a be
       0.2700141 0.07041344 -1.2242049 -0.15109426
000380 01 c0 44 c0 89 5e a6 3f 49 79 0f c0 93 e4 a4 bf
       -3.074219 1.29976 -2.2417777 -1.2882255
000390 c2 4f 7a 3f a3 20 fc 3e c5 6e 20 bf d4 46 54 3f
       0.9777795 0.4924365 -0.6266902 0.82920575
0003a0 2b 20 0a 3f 6b 07 0e 40 89 ca 15 be 1f 63 8a 3e
       0.53955334 2.2192028 -0.14628042 0.27028748
0003b0 3b ce dc bf 75 84 55 3f 9c c6 2d 3e 22 69 cb bf
       -1.7250437 0.8340524 0.16970295 -1.5891459
0003c0 74 c5 27 bf 3e 18 b0 bf 1a f9 dd be bf 52 00 3f
       -0.65535665 -1.3757398 -0.43354112 0.5012626
0003d0 26 4c c6 3e ac 2c 7f 3f de 1f ab bf 4e df bf 3e
       0.38729972 0.9967754 -1.33691 0.37475055
0003e0 ab e4 ed be e3 a7 b6 3e a3 9a 9d 3d 6b 40 12 3f
       -0.46463522 0.35674962 0.0769551 0.57129544
0003f0 ec fc 36 3f f8 b4 09 bc 23 71 21 c0 d7 a1 a6 bf
       0.7147968 -0.008404963 -2.5225303 -1.301814

affine_output.weight f4 [1, 32]
000000 70 21 0c 40 0e 87 18 c0 27 b3 24 c0 50 72 15 40
       2.1895409 -2.383243 -2.5734346 2.335102
000010 40 47 08 c0 2d c5 1c c0 14 42 24 c0 4a 42 17 40
       -2.1293488 -2.4495347 -2.566533 2.363421
000020 b2 7c 2a c0 dd 59 12 40 7a 31 12 c0 fe ca 22 c0
       -2.6638608 2.2867348 -2.2842698 -2.5436397
000030 2d 95 28 40 e1 16 25 40 bc 5b 19 c0 e1 0f 0e 40
       2.634105 2.5795214 -2.396224 2.2197192
000040 a5 a8 1b 40 fb 9f 37 40 82 91 0f 40 f6 df f8 3f
       2.4321682 2.8691394 2.243256 1.9443347
000050 b9 5c 11 40 25 66 4c 40 b6 cb 2c 40 cf 22 22 c0
       2.2712843 3.1937344 2.6999335 -2.5333745
000060 38 53 37 40 51 92 30 40 99 d4 43 40 b3 9f 2d 40
       2.8644543 2.7589304 3.059851 2.7128723
000070 77 ba 20 40 1e 26 21 c0 7a 35 21 40 66 45 26 40
       2.511381 -2.5179515 2.518889 2.5979857
