checkpoints/GMF_Epoch10_HR0.1479_NDCG0.1472.model (torch, 250015 bytes, 3 tensors)

embedding_user.weight f4 [51, 32]
000000 cb 53 49 bf ac f4 24 be 6d 4b b2 3f b8 d5 b8 bf
       -0.7864348 -0.1610896 1.3929268 -1.4440222
000010 4f 3b 18 c0 2b 2b 9e bf b2 1f 95 3f 6a 38 f0 3e
       -2.37862 -1.2356924 1.1650298 0.4691804
000020 14 e1 5d bf db 0c 4c 3e 78 bf 74 bf 85 ab 75 bf
       -0.86671567 0.19926779 -0.9560466 -0.95964843
000030 14 6e 92 3f a0 3a 77 3d 41 31 ba 3f c8 e2 20 bf
       1.1439843 0.060358644 1.4546281 -0.6284604
000040 0b 38 94 bf af bd 79 bf a9 1d f8 3e 04 61 59 3f
       -1.1579603 -0.9755506 0.4846013 0.8491366
000050 33 e0 72 3d 69 77 43 be fe 5f 85 3f ba fc ca 3d
       0.059295844 -0.1908852 1.041992 0.09911485
000060 dc 42 c4 bf f3 2d f4 3f 1e 2e 28 be 47 6c be 3f
       -1.5332904 1.9076523 -0.16423842 1.4876794
000070 99 81 c9 3e 0a e5 04 bd 35 54 af 3f 6d 95 90 3f
       0.39356688 -0.03244499 1.3697573 1.1295601
000080 fa 84 09 c0 82 67 66 3f 8d 91 95 3f 46 45 95 3f
       -2.1487412 0.9000169 1.1685044 1.1661766
000090 7d 5d 02 c0 75 69 78 bf 78 72 fb bf 7e 2b 59 3f
       -2.036956 -0.97035915 -1.9644308 0.8483199
0000a0 99 22 5f be c0 28 9d bf fc b9 a6 be 77 74 24 bf
       -0.21790542 -1.2278061 -0.3256377 -0.6424021
0000b0 8a f1 bc bf 9d eb 10 bf 1f 05 8b 3f 13 f0 72 c0
       -1.4761212 -0.5660952 1.0860938 -3.795903
0000c0 74 a8 20 c0 5a 86 ee 3f 26 52 11 40 81 77 22 bf
       -2.5102816 1.8634751 2.270639 -0.634636
0000d0 b7 67 ce 3e cf 0b c4 be 8a 28 9e be 51 0a 4d 3d
       0.40313503 -0.3829026 -0.30890304 0.050058667
0000e0 3a 1b 97 bf da ae cd 3f 03 06 3c 3d d0 d8 80 bf
       -1.1805184 1.6068985 0.04590417 -1.0066166
0000f0 26 0a 54 bf cb 4d 0e be f0 c8 2e 40 c7 b3 a4 3e
       -0.82827985 -0.13896863 2.7310143 0.3216841
000100 35 bc db 3e 20 7d 85 3d f7 b7 43 bf c2 67 5d 3e
       0.42917028 0.06518006 -0.76452583 0.21621612
000110 08 69 a0 3f 5d 3a 35 3f 32 9a 0c 3f 73 9a 8b 3f
       1.2532053 0.7079218 0.54922783 1.0906509
000120 89 45 8c bf 7e c4 e3 3c 49 b8 9c 3f f2 16 c1 bf
       -1.095872 0.027803656 1.2243739 -1.5085127
000130 84 07 fa 3e 63 55 a4 3f 22 1d aa 3f ae 1b 30 bf
       0.4883386 1.2838558 1.3290141 -0.68792236
000140 c9 1c 68 bc bd f7 aa bf 4f 18 fd 3e a8 07 2f 3f
       -0.014167019 -1.3356854 0.49432608 0.6837106
000150 b3 07 ad 3e 90 4a f4 bf a6 b1 1d bf 04 18 f8 3e
       0.33794937 -1.9085255 -0.61599195 0.48455822
000160 6a 81 f7 be 65 aa 07 3f 67 31 46 3f 08 d2 54 bf
       -0.48340923 0.52994376 0.7741913 -0.8313298
000170 6c 52 1d bf 0f 18 90 3f 3b a3 ce bd 08 8d 2e 3f
       -0.6145389 1.1257342 -0.100897275 0.68183947
000180 9d 73 1d bf 12 a2 cb bf 43 7b bb 3f e4 d6 17 3f
       -0.61504537 -1.5908835 1.4646991 0.5931227
000190 f2 20 88 be 5f 9c ca 3b 63 94 07 bd 55 54 52 3f
       -0.26587635 0.0061831917 -0.033100497 0.8215993
0001a0 25 a0 ca be 87 9c cf be 1e b3 79 bf ae ec 9f 3f
       -0.39575306 -0.40549108 -0.97538936 1.2494104
0001b0 24 07 c2 bf 71 8a 57 3e 22 4f 38 3f 63 66 7b 3d
       -1.5158429 0.21048905 0.7199575 0.06137694
0001c0 48 47 06 c0 42 93 15 3f 25 78 95 bf 95 47 70 bf
       -2.0981007 0.5842782 -1.167729 -0.93859226
0001d0 bd 4c e5 bf 30 88 97 3c c2 46 9a 3f 5e 55 cc be
       -1.7914044 0.018497556 1.2052844 -0.3990888
0001e0 29 ec 95 be b2 90 78 3f 7a a7 e1 3f f5 32 86 3f
       -0.29281738 0.9709579 1.7629235 1.0484301
0001f0 68 67 6d 3f 35 2e 97 3f 9f 8f e3 be 81 7d 99 bf
       0.9273591 1.1810976 -0.44445512 -1.1991426
000200 2a a0 05 c0 8a 61 23 bf 10 9f 5b 3f 1e 73 e8 3d
       -2.0879006 -0.6382071 0.85789585 0.11350082
000210 9c 9c fe bf 60 16 0f c0 ce f4 85 3e 78 cf 90 be
       -1.9891543 -2.2357407 0.26163334 -0.28283286
000220 df 90 0e 40 52 de 50 40 72 e1 42 3f e5 ea 0b 3e
       2.2275922 3.2635694 0.7612525 0.13663824
000230 6e 3d 9c bd e1 e9 a0 be d1 69 64 be 87 ff 26 3f
       -0.07628904 -0.31428435 -0.22305991 0.65233654
000240 84 32 32 40 c8 27 4f 40 fa 29 e4 bf 40 e9 7a 40
       2.7843332 3.236803 -1.782531 3.9204865
000250 3e ab 77 40 56 6d 48 c0 83 e8 0f 3f 71 e7 ee be
       3.8698268 -3.1316733 0.5621416 -0.4666095
000260 31 c9 37 bf a6 fb 56 bf f2 f5 a3 3f 58 87 88 be
       -0.7179137 -0.83977735 1.2809432 -0.2666576
000270 a5 f9 c8 bd 88 e7 a7 bf 3f c5 f2 3e dc c0 95 3e
       -0.09813241 -1.3117533 0.47416112 0.29248703
000280 d9 4f 5c bf 62 6c 8a 3f d2 b2 df bb 9f e4 ac 3e
       -0.8605934 1.0814326 -0.006826737 0.33768174
000290 bd 07 be be be 23 8d 3f a4 f8 ec bf be cd f0 bf
       -0.3711528 1.1026533 -1.8513379 -1.8812788
0002a0 5e 21 4a bf 44 71 17 40 93 81 40 bf bd 82 9f bf
       -0.78957164 2.3662882 -0.75197715 -1.2461773
0002b0 2a 57 a2 bc b4 a0 63 bf 1d 9e 02 3f 99 71 cd bf
       -0.019816954 -0.8891709 0.5102251 -1.6050292
0002c0 1d 52 cb 3f 2b 58 b0 3e 04 10 21 c0 ed 77 9e 3f
       1.5884434 0.34442267 -2.5166025 1.2380348
0002d0 a1 38 8e bf 2a 9d 3d be 1a 52 d6 be 30 f6 3f 3f
       -1.1111032 -0.18516985 -0.41859514 0.7498503
0002e0 f1 b6 57 bf 42 02 b5 3f d5 96 13 bf dc d9 dc 3e
       -0.8426352 1.4141314 -0.57652026 0.43134964
0002f0 2a 47 03 40 51 73 8b 3f d5 1f e4 be 1a ab cf 3f
       2.0512185 1.0894567 -0.44555536 1.6224091
000300 f0 9d b4 bf ce 4f 17 be cc 2b 26 3f ae 69 40 3f
       -1.4110699 -0.14776537 0.6491058 0.75161254
000310 ee 3e 1f 3f 9d bf 85 3f e7 78 22 3e e6 b5 b3 be
       0.622054 1.0449101 0.15866433 -0.35099715
000320 40 e9 c1 be c2 cc 86 bf 15 c6 17 bf 67 61 17 3f
       -0.37873268 -1.0531237 -0.59286624 0.59133
000330 af 4d 1e 3f de e7 b2 be 32 ad 08 c0 2c e0 9e bf
       0.61837286 -0.34942526 -2.135571 -1.2412162
000340 13 a1 88 bf aa ad 57 3f 8a a2 99 bf 9f c9 39 3f
       -1.0674156 0.84249365 -1.2002728 0.72573274
000350 9b bc b6 3e a5 34 ac bf 29 4a 06 c0 9f cc 86 3e
       0.3569077 -1.3453566 -2.0982764 0.26327989
000360 a3 f5 59 3f d1 0d 2c be 99 b1 50 3d a3 5e 66 be
       0.85140437 -0.16802146 0.05095062 -0.22497039
000370 e7 0f fd bd 66 8b d9 3e 2d 51 ab 3f 35 42 bb bf
       -0.12356549 0.42489165 1.3384148 -1.462958
000380 08 fe bb be 8d 22 33 40 ec 5c 91 bf 01 7a bb bf
       -0.36717248 2.7989838 -1.1356483 -1.4646608
000390 1d 61 f7 be 72 94 10 3e 33 4e 9e 3f 6c eb 59 bf
       -0.4831628 0.14119127 1.2367615 -0.8512485
0003a0 cc d5 45 be be 33 1b 40 8a 9d 83 3f 3b 62 4e c0
       -0.19319838 2.425033 1.0282452 -3.2247455
0003b0 20 ea ba bf 88 d2 ff 3e 30 36 c8 bd ef 4f 59 3f
       -1.4602699 0.4996531 -0.097759604 0.84887594
0003c0 75 e9 29 c0 55 62 3e 40 47 5e b4 bf 24 f5 cc be
       -2.654874 2.9747517 -1.4091271 -0.40030777
0003d0 10 c9 5a be d0 e2 d0 3f 8e 91 55 3f db 07 a0 bf
       -0.21365762 1.6319218 0.83425224 -1.2502397
0003e0 96 de a7 bf 98 a5 84 3f c6 03 a2 3f 8f 08 9f bf
       -1.3114803 1.0363035 1.2657402 -1.2424487
0003f0 b9 af 08 40 6d 4d 33 bd 4a 6e a7 bd 81 1a ac 3f
       2.1357253 -0.04377501 -0.08175333 1.3445588

embedding_item.weight f4 [1889, 32]
000000 95 4d b9 bf bb 15 17 bf 3b 8d 70 bf 80 58 15 bf
       -1.4476801 -0.59017533 -0.939655 -0.58338165
000010 6c b1 76 bf 21 bf a1 bf 8a 19 b0 bf d4 dc bd bf
       -0.96364474 -1.2636453 -1.3757794 -1.4833016
000020 6e 5d 10 3e c8 1b bb bf 80 42 7d bf 56 dd ce 3f
       0.1409814 -1.4617853 -0.98929596 1.6161296
000030 64 29 17 40 98 81 d7 3e 88 ff 61 3f c4 b9 21 c0
       2.3619013 0.4209106 0.88280535 -2.5269632
000040 3a 65 49 c0 ac 34 3e 3f 4b e8 00 3f 8e ca 9a bf
       -3.1468034 0.7429912 0.5035445 -1.2093065
000050 80 1e ad 3f 44 9e 25 bd c8 1a b6 3f 72 87 f8 bf
       1.3524933 -0.040434137 1.4226923 -1.9416335
000060 38 c2 b0 3f 7e d0 8b 3f 57 41 ef be a5 12 7a 3f
       1.3809271 1.0923002 -0.46729538 0.976847
000070 a7 da c2 be 5f 19 c7 be bb 60 40 3f e0 ec 82 bf
       -0.38057443 -0.38886544 0.751476 -1.0228539
000080 d1 ab 6c 3f df 1a df bf 52 ea 7f bf 95 c9 0a 3f
       0.9244967 -1.7430075 -0.9996692 0.5421384
000090 30 b5 65 3e 6c ae d4 3e c8 33 ae bf 14 0c 98 be
       0.22432399 0.41539323 -1.3609552 -0.29696715
0000a0 ca 70 dc 3d ab a1 41 3f 3e 2f ac bf 24 c1 35 bf
       0.107637 0.7563731 -1.3451917 -0.70997834
0000b0 08 7c dd 3f 0d 70 e7 bf 53 4e 05 c0 3d 41 07 3f
       1.7303476 -1.808107 -2.0829055 0.5283392
0000c0 34 18 e7 3e 4a 44 14 bf 41 f7 58 bf 96 02 87 3c
       0.45135653 -0.579167 -0.8475228 0.016480725
0000d0 cc 64 07 c0 5c 58 eb 3f d2 5e 6b bd 80 3e 99 bf
       -2.1155272 1.838634 -0.057463475 -1.1972198
0000e0 5d b9 df 3e 56 5c 2b 40 f6 38 f1 3e 6e 2e 04 3f
       0.43696108 2.6775107 0.4711377 0.51633346
0000f0 a8 77 2f be 5c 0a 4e bd 69 0a 25 bf b2 94 56 3f
       -0.17135489 -0.05030285 -0.6446901 0.8382064
000100 fe b7 99 3f c4 22 b8 bf 35 32 4a 3f fe ff 97 bd
       1.2009275 -1.438561 0.7898286 -0.074218735
000110 86 2f 00 40 76 e3 f0 bf bc 3f 95 3f e6 d0 74 be
       2.0029006 -1.8819416 1.1660075 -0.23907813
000120 ff 74 b3 be ef f8 fa 3f 26 45 10 3f 2f 36 51 3f
       -0.35050198 1.9607219 0.5635551 0.817233
000130 c6 04 ae 3d d5 d6 92 3e b2 04 18 bf c2 7d 3d 3f
       0.08497004 0.2867953 -0.59382164 0.74020016
000140 93 3e 4c 3f ab 7d 45 c0 7a 7e 6a be 6b e5 75 bf
       0.7978298 -3.0857952 -0.2289981 -0.9605319
000150 3d eb 01 40 54 c0 0f c0 0d 3c a7 3f e4 07 15 c0
       2.0299828 -2.2461138 1.3065201 -2.3286066
000160 83 93 17 3e 70 2a 61 3f 4b 1d 9b 3f 0c d4 97 3f
       0.14802365 0.8795538 1.2118315 1.1861587
000170 f8 fd 05 3f c5 00 33 40 c3 4e 75 3e 1e 95 ce 3e
       0.5234065 2.796922 0.23955826 0.40348142
000180 0b 60 1e 3c 5a 04 30 3f 40 53 43 3d 79 71 12 be
       0.009666453 0.6875664 0.047686815 -0.14301099
000190 8c 71 2f 3d 2b 51 c4 bf 2f c4 5a 3e 20 60 04 3e
       0.042832896 -1.533727 0.213639 0.12927294
0001a0 2f d6 fd 3f d3 05 dc 3f 0e 80 24 bf b8 75 e0 3f
       1.9830989 1.7189277 -0.64257896 1.7535925
0001b0 5a 25 b6 bc f7 f2 03 c0 47 65 0f bf 09 1a fd be
       -0.022234607 -2.0617044 -0.5601391 -0.49433926
0001c0 36 37 e0 3e e1 4d 06 3e c0 77 40 bd 3f 9a 56 be
       0.43792123 0.13115646 -0.046989202 -0.20957278
0001d0 ee e1 ea 3e 7c 15 8e bf 71 54 29 bf b6 fa a7 3f
       0.45875496 -1.1100307 -0.6614447 1.3123386
0001e0 0b 10 4a c0 f4 1a f2 bd d8 38 32 c0 76 a9 22 3e
       -3.1572292 -0.11821547 -2.7847195 0.15884957
0001f0 1d dc 37 40 c0 54 41 c0 9a 19 61 3e df cd a8 3f
       2.8728096 -3.0207977 0.21982422 1.3187827
000200 67 00 56 bf 62 aa 07 40 4c f7 3b 3e bc 0d ba 3f
       -0.83594364 2.1197743 0.18356055 1.4535441
000210 c7 ce 93 3f 11 28 ce bf c0 58 a1 bf 98 ef 30 be
       1.1547478 -1.6105977 -1.2605209 -0.17278898
000220 6a 70 bf 3e 88 26 a6 3e 06 a0 da 3f 95 f1 34 bf
       0.37390453 0.32451272 1.7080085 -0.70681125
000230 c3 dc ac 3e fa ed 80 40 ce a4 41 c0 d1 f7 3e 3f
       0.33762178 4.02905 -3.0256839 0.7459689
000240 09 e2 03 bf e3 54 ed bf 69 83 0b 3f c3 ae dd 3e
       -0.5151678 -1.854153 0.5449739 0.43297395
000250 73 79 ea be 28 12 96 be d4 38 b6 be 2a 08 f8 be
       -0.45795783 -0.29310727 -0.3559023 -0.4844373
000260 a2 96 10 3e df 81 ba 3e 5f 5f 4e 3f 18 b7 55 be
       0.14119962 0.3642721 0.80614275 -0.20870626
000270 3f 95 29 3f bf 60 2f c0 1a a9 0f bf 8a d4 ab 3f
       0.66243356 -2.74028 -0.56117404 1.3424237
000280 5d 25 03 3f d1 c2 36 bf 77 3b 38 bf 4d 91 82 bf
       0.51228887 -0.71391016 -0.71965736 -1.0200592
000290 e2 47 dd be f2 88 e9 3f 4a 16 85 3d 5d a7 95 bf
       -0.43218905 1.8244917 0.06498392 -1.16917
0002a0 ec fe ff 3f f3 47 e3 3f a0 24 7a bf a4 ce c0 3e
       1.9999671 1.7756332 -0.97712135 0.37657654
0002b0 08 85 e9 be aa 97 14 40 76 fd e9 bf c6 36 00 3f
       -0.45609307 2.3217568 -1.8280475 0.5008358
0002c0 a6 13 ea bd 61 63 8c 3f 01 74 49 bf f8 4c 7c be
       -0.11429529 1.0967828 -0.7869263 -0.24638736
0002d0 07 ce ca be 79 a9 88 3f 65 ea 37 bf 5c 7c 62 3f
       -0.3961031 1.0676719 -0.7184203 0.8847101
0002e0 77 7e 73 bf 37 29 1e 40 18 f9 c6 bf b5 bf 0d bf
       -0.95114845 2.4712656 -1.5544767 -0.55370647
0002f0 af 56 6b 3d 67 a4 68 3d ca c5 6e 3f ef 6f 13 bf
       0.057455715 0.05679741 0.9327055 -0.5759267
000300 e5 ab f0 be 96 a8 14 bf eb 27 a2 bf 45 c8 10 c0
       -0.47006145 -0.5806974 -1.2668432 -2.2622235
000310 d0 e9 63 3e 46 89 c8 3f fc 0a d7 be 95 1f 1c 3f
       0.22257161 1.5666893 -0.42000568 0.6098569
000320 71 6c a7 3e 72 22 d2 bf 68 52 7c 3f 7f de ae be
       0.32699922 -1.6416762 0.9856324 -0.34154126
000330 e3 ee f4 3f e4 59 31 c0 a1 92 72 3e 0a 8a a6 3e
       1.9135402 -2.7711115 0.23688747 0.3252719
000340 99 2f e1 3e 99 11 0a c0 bc 4f 87 bf 45 fb 4c bf
       0.43981627 -2.157324 -1.0571208 -0.80070907
000350 79 87 96 bf fd 59 ce be 4b 87 92 3e 40 10 0a 3f
       -1.1760093 -0.4030303 0.28618845 0.53931046
000360 cd 41 2d bd d6 96 72 3f a6 df 8c 3f fd 65 a0 bf
       -0.04229908 0.9476141 1.1005752 -1.2531124
000370 5c 4d 8a 3e ad e9 90 3d b2 ba 9c bf 81 39 1b be
       0.27012146 0.0707582 -1.2244475 -0.15158655
000380 9e c1 44 c0 d9 5a a6 3f b4 70 0f c0 9f e2 a4 bf
       -3.0743175 1.2996475 -2.2412539 -1.2881659
000390 fd 56 7a 3f c1 84 fc 3e bb 84 20 bf b6 42 54 3f
       0.97788984 0.49320033 -0.6270253 0.8291429
0003a0 a7 54 0a 3f 0e 09 0e 40 ac 2a 16 be ee 7b 8a 3e
       0.5403542 2.2193027 -0.14664716 0.27047676
0003b0 b1 dd dc bf 87 bf 55 3f a6 69 2e 3e a0 6c cb bf
       -1.7255155 0.8349537 0.17032489 -1.5892525
0003c0 17 90 27 bf 54 2b b0 bf c6 0f de be bc 4b 00 3f
       -0.6545424 -1.3763223 -0.4337141 0.5011556
0003d0 6d dc c6 3e a5 50 7f 3f 56 52 ab bf 70 46 c0 3e
       0.38840047 0.9973243 -1.3384502 0.3755374
0003e0 68 e0 ec be a5 0c b7 3e ed 5b 9d 3d 92 2b 12 3f
       -0.46264958 0.35751835 0.07683549 0.57097733
0003f0 28 c1 36 3f 17 be c9 bb 5b 71 21 c0 16 af a6 bf
       0.71388483 -0.0061566937 -2.5225437 -1.3022182

affine_output.weight f4 [1, 32]
000000 d8 76 0e 40 28 e9 1a c0 f8 0c 27 c0 33 b6 17 40
       2.2260036 -2.4204807 -2.6101665 2.3704956
000010 9c 52 0a c0 a5 fa 1e c0 2d ed 26 c0 d7 af 19 40
       -2.161292 -2.4840481 -2.608226 2.4013574
000020 5f dc 2c c0 3e 70 14 40 32 6d 14 c0 82 51 25 c0
       -2.7009504 2.3193507 -2.3191648 -2.5830998
000030 93 d6 2a 40 27 84 27 40 5a cb 1b c0 fb 4c 10 40
       2.6693466 2.617441 -2.4342866 2.2546985
000040 c6 d4 1d 40 0e 72 3a 40 ff ce 11 40 93 08 fd 3f
       2.4661117 2.9132113 2.278259 1.9768242
000050 30 64 13 40 93 2d 4f 40 70 5d 2f 40 7e 7e 24 c0
       2.30299 3.2371566 2.740078 -2.5702205
000060 35 fa 39 40 43 4d 33 40 0d 89 46 40 c4 2b 30 40
       2.9058964 2.8015907 3.102115 2.7526712
000070 94 ba 22 40 2c 5b 23 c0 bd a9 23 40 36 b7 28 40
       2.5426378 -2.5524397 2.557235 2.6361823
