checkpoints/GMF_Epoch8_HR0.1469_NDCG0.1462.model (torch, 250015 bytes, 3 tensors)

embedding_user.weight f4 [51, 32]
00000000: 3407 49bf f5ef 24be f6e3 b13f 02a6 b8bf
00000010: 6630 18c0 cad8 9dbf 0ae7 943f 33f7 ef3e
00000020: 4343 5dbf 3f74 4b3e 2537 74bf 2485 75bf
00000030: 6113 923f e771 793d 29d9 b93f 91f2 20bf
00000040: 1404 94bf 7a80 79bf 1f42 f83e 0b22 593f
00000050: a8a6 743d a83c 43be c331 853f b49a cb3d
00000060: 200a c4bf c4da f33f 68b1 26be 692e be3f
00000070: cb3b ca3e dd30 04bd 2e25 af3f fd6b 903f
00000080: 5883 09c0 9b2a 663f 957f 953f 0d3c 953f
00000090: 815f 02c0 3362 78bf 333f fbbf f035 593f
000000a0: e5f7 5ebe 091c 9dbf e6b8 a6be 3f4b 24bf
000000b0: 99bc bcbf 73e3 10bf 4af4 8a3f 34ee 72c0
000000c0: 2da4 20c0 486a ee3f 6f50 1140 4d90 22bf
000000d0: bf39 ce3e 76ce c3be 3d4f 9ebe 24f4 4b3d
000000e0: 801b 97bf 7499 cd3f 091a 3d3d 4bb8 80bf
000000f0: 26e4 53bf 441a 0ebe 8ec3 2e40 a7f5 a43e
00000100: f554 da3e 50b6 873d 62bf 42bf 8667 5e3e
00000110: f536 a03f 32d1 343f d1f0 0b3f 514c 8b3f
00000120: 5c42 8cbf a678 ea3c 6775 9c3f 67ac c0bf
00000130: c82c f93e b4d7 a33f 0bc2 a93f d027 30bf
00000140: edb3 63bc 92b4 aabf c082 fb3e 0978 2e3f
00000150: e69f ac3e aea5 f3bf 35a6 1dbf a1e2 f73e
00000160: 6064 f7be 435a 073f 4fad 453f af7c 54bf
00000170: 9db6 1cbf bbc1 8f3f f948 cebd d694 2e3f
00000180: 3ff5 1cbf 6932 cbbf 313c bb3f 8dfa 173f
00000190: d595 87be 040a be3b ebc1 06bd 2ebd 513f
000001a0: 48b2 cabe 4269 d0be d27c 79bf 3bdb 9f3f
000001b0: e813 c2bf 7c75 553e 04e5 373f b6c6 7b3d
000001c0: 913c 06c0 0210 153f 5d7e 95bf 5876 70bf
000001d0: 8f03 e5bf fbda 8b3c 9416 9a3f 0db5 cbbe
000001e0: eecf 94be b275 773f c17e e13f 523f 863f
000001f0: b214 6d3f 86dc 963f b18e e3be 2c6d 99bf
00000200: cc9f 05c0 ac61 23bf a991 5b3f 14b4 e93d
00000210: 8d9a febf 1f0a 0fc0 871c 863e 05e7 90be
00000220: 7e84 0e40 40dc 5040 41e9 423f 72be 0b3e
00000230: 9c0d 9bbd 81c8 a0be 15d6 64be cdc8 263f
00000240: dc32 3240 591b 4f40 e429 e4bf e4e9 7a40
00000250: 8fa4 7740 216a 48c0 59eb 0f3f 5e0e efbe
00000260: dea0 37bf b807 57bf 57d8 a33f 3c3e 88be
00000270: 3b53 c6bd 6def a7bf dcb0 f23e 3fa8 953e
00000280: 1c1f 5cbf bc5f 8a3f cb23 d2bb 7ff2 ac3e
00000290: 78d3 bdbe 9f28 8d3f 3fdf ecbf dfa1 f0bf
000002a0: 370b 4abf 8963 1740 1c75 40bf 0756 9fbf
000002b0: b2ca 97bc 0e6b 63bf 493f 023f 856b cdbf
000002c0: b04b cb3f 3ee2 af3e 6705 21c0 e46d 9e3f
000002d0: d022 8ebf 87e6 3cbe 31f0 d5be 28dd 3f3f
000002e0: 3b58 57bf 7ee3 b43f 5484 13bf fbca dc3e
000002f0: f73b 0340 7765 8b3f 62de e3be 318f cf3f
00000300: c9be b3bf 193e 16be 8acc 253f 0345 403f
00000310: d256 1f3f 5db3 853f 41b8 213e 315f b2be
00000320: 74d3 c0be a586 86bf 952e 17bf 3a07 173f
00000330: 6c49 1e3f 6f03 b2be 3e47 08c0 83b1 9ebf
00000340: 6b24 88bf b814 573f 0027 99bf 2470 393f
00000350: c10f b63e 78de abbf 0a16 06c0 d2cd 843e
00000360: 5d2a 593f 07dd 2cbe 5468 503d fb11 66be
00000370: 2346 fbbd d6ea d73e 86bd aa3f 0ce3 babf
00000380: e8a4 bbbe 9106 3340 0138 91bf 5259 bbbf
00000390: 3722 f7be eb31 103e 7729 9e3f a0c2 59bf
000003a0: a616 45be 7030 1b40 bca0 833f e34d 4ec0
000003b0: 16c7 babf 8f30 ff3e c9fa c8bd 5bf6 583f
000003c0: fad7 29c0 2051 3e40 6a5e b4bf 11eb ccbe
000003d0: a223 5bbe 5eb4 d03f d352 553f 18f2 9fbf
000003e0: d6be a7bf b962 843f 19d9 a13f eef1 9ebf
000003f0: fbb7 0840 4738 33bd 78ed a8bd bbfa ab3f
-0.78526616 -0.16107161 1.3897693 -1.4425662 -2.377954 -1.2331784 1.1633008 0.46868286
-0.8643076 0.19868563 -0.95396644 -0.9590628 1.1412164 0.06089964 1.4519397 -0.62870127
-1.1563745 -0.97461665 0.48487946 0.8481757 0.05972925 -0.19066107 1.0405811 0.09941617
-1.531559 1.9051137 -0.16278613 1.4857913 0.39498743 -0.032273162 1.3683221 1.1282955
-2.1486416 0.8990876 1.167956 1.1658951 -2.037079 -0.9702484 -1.9628662 0.8484793
-0.21774252 -1.2274181 -0.3256294 -0.64177316 -1.4745055 -0.5659706 1.0855801 -3.7957888
-2.5100205 1.8626184 2.2705343 -0.63501436 0.40278432 -0.38243455 -0.3091983 0.049793378
-1.1805267 1.6062455 0.046167407 -1.0056242 -0.8277 -0.13877207 2.7306857 0.32218668
0.42642942 0.0662657 -0.76073277 0.21719179 1.2516772 0.70631707 0.5466433 1.0882665
-1.0957751 0.028621983 1.2223328 -1.5052613 0.48666978 1.2800202 1.3262342 -0.6881075
-0.013897878 -1.3336356 0.49123192 0.6815191 0.33715743 -1.9034936 -0.61581737 0.48415092
-0.48318768 0.52872103 0.7721757 -0.8300275 -0.61216146 1.1230997 -0.10072512 0.68195856
-0.61311716 -1.5874759 1.4627744 0.59366685 -0.264815 0.005799534 -0.03289978 0.8192929
-0.39589143 -0.40705305 -0.97456086 1.2488779 -1.5162325 0.20845598 0.71833825 0.061468802
-2.0974467 0.5822755 -1.1679188 -0.9393058 -1.7891711 0.017072191 1.203814 -0.39786568
-0.29064888 0.96663964 1.7616807 1.0488074 0.92609704 1.1786048 -0.44444802 -1.1986442
-2.0878782 -0.6382091 0.85769135 0.114113 -1.9890915 -2.2349927 0.2619364 -0.28301254
2.2268367 3.263443 0.7613717 0.13646868 -0.07570955 -0.31402972 -0.22347291 0.6515015
2.7843542 3.2360442 -1.7825284 3.9205256 3.8694189 -3.1314776 0.5621849 -0.4669065
-0.7172984 -0.8399615 1.2800397 -0.2660998 -0.09683844 -1.3119942 0.47400558 0.29229924
-0.8598497 1.0810466 -0.0064129583 0.3377876 -0.370754 1.1028022 -1.8505629 -1.8799399
-0.7892336 2.3654501 -0.75178695 -1.2448128 -0.01852927 -0.8883523 0.50877815 -1.6048437
1.5882473 0.34352297 -2.5159547 1.2377286 -1.1104374 -0.18447314 -0.41784814 0.7494683
-0.84119004 1.4131925 -0.5762379 0.43123612 2.050535 1.089034 -0.44505602 1.6215574
-1.4042598 -0.14672126 0.64765227 0.75105304 0.6224185 1.0445362 0.15792944 -0.3483825
-0.37661326 -1.050984 -0.59055454 0.589954 0.6183078 -0.34768245 -2.1293483 -1.2397922
-1.0636114 0.8401599 -1.1965027 0.7243674 0.35558894 -1.3427267 -2.0950952 0.25938278
0.84830266 -0.1688119 0.050880745 -0.22467797 -0.12269237 0.42171353 1.3339088 -1.4600539
-0.3664925 2.7972758 -1.1345216 -1.4636633 -0.4826829 0.14081542 1.2356404 -0.850626
-0.19246921 2.4248314 1.0283427 -3.2235038 -1.4592006 0.49841735 -0.098134585 0.8475091
-2.6538072 2.9737015 -1.4091313 -0.4002309 -0.21400312 1.6305044 0.83329505 -1.2495756
-1.3105114 1.0342628 1.2644378 -1.2417581 2.1362293 -0.043754842 -0.082484186 1.3435892

embedding_item.weight f4 [1889, 32]
00000000: 513b b9bf 49df 16bf 4184 70bf b22e 15bf
00000010: 10bb 76bf a8c4 a1bf 0322 b0bf 5ed2 bdbf
00000020: 1fab 103e ca26 bbbf c761 7dbf 69ec ce3f
00000030: 112b 1740 b26d d73e 23e5 613f 14b7 21c0
00000040: 2d66 49c0 5d45 3e3f c7b3 003f d9ce 9abf
00000050: 2b06 ad3f d3b5 27bd 830e b63f 7287 f8bf
00000060: 99ad b03f 01dc 8b3f 534c efbe 7ffa 793f
00000070: 3d96 c2be d603 c7be 424f 403f 02f4 82bf
00000080: 81a7 6c3f dd1a dfbf b2ef 7fbf 8ecb 0a3f
00000090: 9dab 653e ecaf d43e 9833 aebf a007 98be
000000a0: 4ab9 dc3d bca7 413f 3e2f acbf 5ac2 35bf
000000b0: bd7b dd3f 1b6d e7bf 534e 05c0 133d 073f
000000c0: fa09 e73e 533f 14bf 20ee 58bf 36bf 863c
000000d0: cc64 07c0 9156 eb3f 2a31 6bbd 7f3e 99bf
000000e0: 97b1 df3e 565c 2b40 933e f13e 732d 043f
000000f0: cf80 2fbe ef10 4ebd 9304 25bf 289a 563f
00000100: 15b1 993f ce18 b8bf 5a12 4a3f 575d 96bd
00000110: cc2b 0040 7bdb f0bf 8a4f 953f abb5 74be
00000120: 0efe b2be 70fe fa3f 326c 103f 2133 513f
00000130: 9ca6 af3d 48dc 923e c120 18bf 1585 3d3f
00000140: df23 4c3f ef7b 45c0 d7d1 6abe 41c7 75bf
00000150: 10ef 0140 ecc3 0fc0 8421 a73f 78ff 14c0
00000160: 0d39 173e e22f 613f 0727 9b3f 12e1 973f
00000170: 032b 063f 7ef8 3240 905a 763e f207 cf3e
00000180: ced5 1d3c 9a20 303f fc5b 423d e19d 11be
00000190: 9da7 2f3d 524b c4bf f5ff 5a3e 91c8 043e
000001a0: 30d3 fd3f 3a09 dc3f ed4b 24bf 6b8a e03f
000001b0: cd71 b2bc fdea 03c0 3889 0fbf 5da1 fcbe
000001c0: 5a57 e03e 835c 063e a04b 3fbd c4be 57be
000001d0: 447c ea3e 302a 8ebf 8861 29bf 3002 a83f
000001e0: ea11 4ac0 9626 f1bd 8e1c 32c0 6070 213e
000001f0: b9df 3740 725a 41c0 3bc7 613e ccbe a83f
00000200: c321 56bf cfaf 0740 22d7 3b3e b50f ba3f
00000210: c3d5 933f 0c1f cebf 6e4f a1bf 0d79 30be
00000220: 5ec7 bf3e 5295 a63e 009b da3f 13b3 34bf
00000230: 18a1 ac3e 0dec 8040 db9c 41c0 1cec 3e3f
00000240: 1fe1 03bf 6e4c edbf b787 0b3f b294 dd3e
00000250: 07f2 eabe 5d13 96be 4e66 b6be 8fa5 f7be
00000260: 3811 0f3e 72c6 ba3e 177d 4e3f 3b03 56be
00000270: 31a2 293f 1c62 2fc0 5c50 0fbf a3cf ab3f
00000280: 6a26 033f afc1 36bf 313b 38bf 0091 82bf
00000290: 5a44 ddbe fe88 e93f 1360 853d 5da7 95bf
000002a0: ecfe ff3f f647 e33f 1b20 7abf d6db c03e
000002b0: 9980 e9be aa97 1440 62fd e9bf 3d37 003f
000002c0: aa26 eabd 8064 8c3f a971 49bf 4649 7cbe
000002d0: a2d6 cabe 51a9 883f eaec 37bf b57c 623f
000002e0: b787 73bf 3729 1e40 56f8 c6bf 5fbf 0dbf
000002f0: 0ed9 6a3d e6a2 673d 38c5 6e3f b96f 13bf
00000300: 88ae f0be f092 14bf 6a25 a2bf 45c8 10c0
00000310: f758 643e 4689 c83f ff14 d7be a512 1c3f
00000320: e294 a73e 7222 d2bf df4c 7c3f f8b9 aebe
00000330: 05e4 f43f e759 31c0 c834 723e c66d a63e
00000340: a823 e13e 7f11 0ac0 2954 87bf 62fc 4cbf
00000350: b28e 96bf c83b cebe ea6f 923e 3b0a 0a3f
00000360: 588d 2cbd 1490 723f 8de7 8c3f ce66 a0bf
00000370: 7645 8a3e 697c 903d 81b6 9cbf caeb 1abe
00000380: b2c0 44c0 565d a63f c775 0fc0 bde3 a4bf
00000390: 7552 7a3f f548 fc3e 3877 20bf 4045 543f
000003a0: 2835 0a3f 1f08 0e40 f9f0 15be 966d 8a3e
000003b0: 70d4 dcbf 639c 553f 9507 2e3e f56a cbbf
000003c0: f8af 27bf e91f b0bf 8702 debe 5850 003f
000003d0: d085 c63e 5d3b 7f3f a133 abbf 6c08 c03e
000003e0: 977c edbe 9ccf b63e 3a82 9d3d f037 123f
000003f0: 5be5 363f e217 f6bb 4f71 21c0 cda7 a6bf
-1.4471227 -0.58934456 -0.93951803 -0.58274376 -0.96379185 -1.263814 -1.376038 -1.4829824
0.14127778 -1.4621212 -0.9897732 1.6165897 2.3620036 0.42075878 0.8824026 -2.5267992
-3.1468613 0.7432459 0.5027432 -1.2094375 1.3517507 -0.040944885 1.4223179 -1.9416335
1.3802978 1.0926515 -0.46737918 0.9764785 -0.38005248 -0.38870114 0.7512094 -1.0230715
0.9244309 -1.7430073 -0.9997512 0.5421685 0.22428747 0.41540468 -1.3609495 -0.29693317
0.107775286 0.7564657 -1.3451917 -0.7099968 1.7303387 -1.8080171 -2.0829055 0.52827567
0.451248 -0.57909125 -0.8473835 0.016448598 -2.1155272 1.8385793 -0.057419933 -1.1972197
0.43690178 2.6775107 0.47118053 0.5163185 -0.1713898 -0.050309118 -0.64460105 0.83828974
1.2007166 -1.438257 0.7893425 -0.07342022 2.0026731 -1.881698 1.1664898 -0.23897426
-0.34959453 1.9608898 0.5641509 0.8171864 0.085767 0.28683686 -0.5942498 0.7403119
0.79742235 -3.0856893 -0.2293161 -0.9600716 2.0302162 -2.2463331 1.3057103 -2.3280926
0.14767857 0.8796369 1.2121285 1.1865561 0.5240938 2.7964168 0.24057984 0.4043575
0.009633495 0.68799746 0.047451004 -0.14220382 0.042884458 -1.5335486 0.21386702 0.12967135
1.9830074 1.7190316 -0.64178354 1.7542242 -0.02178278 -2.0612175 -0.56068754 -0.4934186
0.43816644 0.13121228 -0.04670298 -0.21068865 0.45797932 -1.1106625 -0.66164446 1.3125668
-3.1573434 -0.11774938 -2.7829928 0.15765524 2.87303 -3.0211453 0.22048657 1.3183227
-0.83645266 2.1201055 0.18343785 1.4536043 1.154961 -1.6103225 -1.2602365 -0.17233677
0.37456793 0.32535797 1.7078552 -0.70585746 0.33716655 4.028815 -3.0251987 0.74579024
-0.5151538 -1.853895 0.5450396 0.43277508 -0.45887777 -0.29311648 -0.35624927 -0.483685
0.13971412 0.36479527 0.8065962 -0.2089967 0.6626311 -2.7403631 -0.55981994 1.3422741
0.5123049 -0.7138929 -0.7196532 -1.02005 -0.4321621 1.8244932 0.06512465 -1.16917
1.9999671 1.7756336 -0.9770524 0.37667722 -0.45605925 2.3217568 -1.8280451 0.50084287
-0.11433156 1.096817 -0.78689057 -0.24637327 -0.39616877 1.0676671 -0.7184588 0.8847154
-0.9512896 2.4712656 -1.5544536 -0.55370134 0.057335906 0.056551836 0.9326968 -0.5759235
-0.47008157 -0.5803671 -1.2667668 -2.2622235 0.22299562 1.5666893 -0.42008206 0.6096595
0.32730776 -1.6416762 0.98554796 -0.34126258 1.9132086 -2.7711122 0.23652947 0.32505625
0.43972516 -2.1573179 -1.0572559 -0.80072606 -1.1762297 -0.40279984 0.2860101 0.5392186
-0.042126983 0.94751096 1.1008164 -1.2531374 0.2700612 0.07054979 -1.2243196 -0.15129009
-3.0742612 1.2997234 -2.2415636 -1.2882 0.9778207 0.49274412 -0.62681913 0.8291817
0.5398736 2.2192457 -0.14642705 0.27036732 -1.7252331 0.8344175 0.1699508 -1.5892016
-0.6550288 -1.3759738 -0.43361303 0.50122595 0.38773966 0.99699956 -1.3375131 0.37506425
-0.46384117 0.35705268 0.07690854 0.57116604 0.7144372 -0.0075101713 -2.5225408 -1.3019959

affine_output.weight f4 [1, 32]
00000000: 8913 0d40 f876 19c0 a29a 25c0 494a 1640
00000010: 4518 09c0 15a7 1dc0 894a 25c0 3d34 1840
00000020: 0e6e 2bc0 1e29 1340 6d0e 13c0 9bc3 23c0
00000030: 7176 2940 6a10 2640 da51 1ac0 9bf3 0e40
00000040: ab80 1c40 51ba 3840 2079 1040 3b87 fa3f
00000050: 6723 1240 f986 4d40 f5ce 2d40 760c 23c0
00000060: cb5b 3840 3aa6 3140 12e2 4440 d59b 2e40
00000070: 5074 2140 ccfe 21c0 d138 2240 6c3c 2740
2.2043173 -2.3978863 -2.587563 2.348284 -2.1421063 -2.4633229 -2.5826743 2.3781884
-2.6785922 2.2993846 -2.2977555 -2.5588138 2.647854 2.5947518 -2.4112458 2.2336185
2.4453533 2.8863719 2.257393 1.9572519 2.2834108 3.211363 2.7157567 -2.5476356
2.8806026 2.7757707 3.0762982 2.7282612 2.5227242 -2.5311766 2.5347178 2.6130629
