checkpoints/GMF_Epoch1_HR0.0899_NDCG0.0736.model (torch, 250015 bytes, 3 tensors)

embedding_user.weight f4 [51, 32]
-0.49040562 -0.08098442 0.99899757 -1.1275674 -1.9650551 -0.88165164 0.9134328 0.29498655
-0.641691 0.14697707 -0.52355367 -0.6683126 0.58254486 0.087507345 0.9704725 -0.43787962
-0.9786498 -0.7249684 0.31132433 0.44863746 -0.15736939 -0.21140201 0.8119396 0.06163783
-1.1528981 1.2983781 0.013794943 0.8508341 0.3116175 0.05140786 0.95071274 0.92896575
-1.4214491 0.5296096 0.75061655 0.8467877 -1.5348859 -0.7786265 -1.1011666 0.6355526
-0.23000461 -0.811692 -0.33806074 -0.58834654 -1.1201802 -0.41707528 0.6843646 -2.578322
-1.8276857 1.2420869 1.5769999 -0.18885137 0.42963743 -0.4057417 -0.2319899 0.017048297
-0.93209106 1.2428848 0.025572583 -0.74399406 -0.5746447 0.10020622 1.9000003 0.0933045
0.1833849 0.1049498 -0.36598343 0.32967907 0.8479278 0.59257513 0.37201363 0.5923329
-0.6700329 -0.01704707 1.0401479 -0.8887258 0.44091144 1.0083447 0.94068265 -0.69229764
-0.024103655 -0.93856186 0.049928844 0.47461438 0.1755363 -1.2858549 -0.36453268 0.16640246
-0.21518019 0.3750443 0.43231645 -0.466673 -0.33303952 0.5990842 -0.06452518 0.38737145
-0.30927634 -1.4077401 1.2272501 0.4700266 -0.21498424 0.03488935 0.0958531 0.6607308
-0.60481906 -0.33097422 -1.0668163 0.9822755 -1.3401234 0.13919798 0.5147947 -0.1590135
-1.963618 0.5566765 -1.2777648 -0.93910676 -1.8368833 0.063651755 0.9084702 -0.1977025
2.7255768e-05 0.78534484 1.4596053 0.8024284 0.8273512 1.1770957 -0.2660245 -1.2201431
-1.4316603 -0.65410596 0.84595424 0.13105363 -1.6769233 -1.616832 0.14491612 0.06920756
2.0158074 2.0385482 0.6527855 0.41621357 0.053310394 -0.4205879 -0.031242123 0.46838114
2.3080473 2.4331384 -1.2902833 2.641719 2.8023062 -2.7804306 0.579657 -0.0718493
-0.7332663 -0.8223237 0.9745856 -0.34960678 -0.19011012 -1.0766699 0.34848246 0.2869521
-0.45808646 0.89225817 0.021752467 0.33658904 -0.2843966 0.7611283 -1.3852332 -1.504954
-0.56297773 1.7287252 -0.4929404 -0.909663 0.12276017 -0.76609236 0.32610038 -1.132002
1.2776641 0.19905868 -1.8779237 0.99976575 -0.844003 -0.08390866 -0.2967938 0.47296903
-0.64035106 1.106468 -0.45938772 0.18271163 1.6578679 0.6930724 -0.36279616 1.2138455
-1.0451729 -0.05949109 0.5198366 0.43151626 0.3126608 0.8008348 0.11486146 -0.14237893
-0.09965279 -0.8370218 -0.56115776 0.47072425 0.5036645 -0.25818607 -1.8579026 -1.0056679
-0.74898255 0.4922529 -0.7839679 0.4294512 0.3765201 -1.1195807 -1.7795994 0.11025898
0.50398296 -0.15393695 -0.14019166 -0.08062279 -0.21434455 0.45876524 0.909132 -1.0876691
-0.20953259 1.7578124 -0.6022319 -0.91350156 -0.5729373 -0.043622024 0.79777884 -0.5925515
-0.17204842 1.6855627 1.1382794 -2.437303 -0.9009018 0.17733862 0.030004341 0.5395622
-1.8501811 2.1054258 -1.1038109 -0.43647695 -0.43008164 1.0390201 0.84622526 -0.779419
-1.2003622 0.54104304 0.9836396 -0.71507865 1.6922797 -0.049654193 -0.15766159 0.8211739
00000000: 7216 fbbe 29db a5bd 4ebe 7f3f 2154 90bf
00000010: ed86 fbbf ecb3 61bf bbd6 693f 7a08 973e
00000020: dd45 24bf 2881 163e 9d07 06bf 8916 2bbf
00000030: a921 153f 0d37 b33d e370 783f c231 e0be
00000040: cb88 7abf 8797 39bf e765 9f3e cfb3 e53e
00000050: 7125 21be c579 58be 46db 4f3f f377 7c3d
00000060: 2a92 93bf 4131 a63f 2f04 623c 43d0 593f
00000070: 548c 9f3e 0c91 523d e961 733f b3d0 6d3f
00000080: 0bf2 b5bf 7f94 073f 6828 403f 14c7 583f
00000090: 2477 c4bf 1154 47bf 07f3 8cbf 93b3 223f
000000a0: 5486 6bbe 0ccb 4fbf 4c16 adbe e19d 16bf
000000b0: 1162 8fbf e48a d5be 8532 2f3f 3a03 25c0
000000c0: 9bf1 e9bf b4fc 9e3f 22db c93f 4162 41be
000000d0: 70f9 db3e 60bd cfbe c38e 6dbe dfa8 8b3c
000000e0: 859d 6ebf d916 9f3f 987d d13c 6576 3ebf
000000f0: ea1b 13bf eb38 cd3d 3633 f33f 6e16 bf3d
00000100: 40c9 3b3e ecef d63d 2e62 bbbe b2cb a83e
00000110: cc11 593f 01b3 173f 9278 be3e 21a3 173f
00000120: 4787 2bbf 4ca6 8bbc 9123 853f 8983 63bf
00000130: 25bf e13e 7011 813f 94d0 703f 6b3a 31bf
00000140: 0775 c5bc 9745 70bf 3082 4c3d a800 f33e
00000150: cabf 333e e596 a4bf 07a4 babe 6865 2a3e
00000160: 3258 5cbe ce05 c03e 9558 dd3e c3ef eebe
00000170: 2884 aabe 955d 193f c725 84bd 8d55 c63e
00000180: 7859 9ebe d430 b4bf 8816 9d3f 54a7 f03e
00000190: d424 5cbe 23e8 0e3d a14e c43d a725 293f
000001a0: 6cd5 1abf 7475 a9be 708d 88bf 6876 7b3f
000001b0: 2a89 abbf ea89 0e3e 96c9 033f 6fd4 22be
000001c0: d657 fbbf 5a82 0e3f cc8d a3bf 4d69 70bf
000001d0: fe1e ebbf da5b 823d 8191 683f 8672 4abe
000001e0: 51a3 e437 5c0c 493f 59d4 ba3f f36b 4d3f
000001f0: 4acd 533f 12ab 963f 5d34 88be a62d 9cbf
00000200: a540 b7bf 7d73 27bf 7590 583f ec32 063e
00000210: 6ca5 d6bf 5af4 cebf e464 143e b1bc 8d3d
00000220: fd02 0140 9377 0240 f31c 273f f219 d53e
00000230: 005c 5a3d 4c57 d7be 7bef ffbc a7cf ef3e
00000240: 0cb7 1340 8ab8 1b40 0128 a5bf ed11 2940
00000250: fc58 3340 93f2 31c0 6764 143f ba25 93bd
00000260: 57b7 3bbf ce83 52bf 717e 793f a9ff b2be
00000270: 3aac 42be 52d0 89bf 4b6c b23e 63eb 923e
00000280: 4f8a eabe 086b 643f 3b32 b23c 6655 ac3e
00000290: 6e9c 91be 4ed9 423f 524f b1bf 55a2 c0bf
000002a0: 4f1f 10bf de46 dd3f af62 fcbe addf 68bf
000002b0: af69 fb3d a11e 44bf a1f6 a63e 71e5 90bf
000002c0: 7f8a a33f 0ad6 4b3e ce5f f0bf a6f0 7f3f
000002d0: 9510 58bf 4ed8 abbd 5bf5 97be ff28 f23e
000002e0: 0cee 23bf bea0 8d3f de34 ebbe c218 3b3e
000002f0: 0435 d43f 316d 313f 6bc0 b9be 4a5f 9b3f
00000300: 3ac8 85bf eeac 73bd 0314 053f b3ef dc3e
00000310: 1415 a03e 8203 4d3f 7c3c eb3d c8cb 11be
00000320: c316 ccbd 1047 56bf 09a8 0fbf c502 f13e
00000330: 28f0 003f f730 84be c1cf edbf bab9 80bf
00000340: 52bd 3fbf 9208 fc3e 1fb2 48bf 07e1 db3e
00000350: 3ec7 c03e 6c4e 8fbf eac9 e3bf 76cf e13d
00000360: 0705 013f a6a1 1dbe 678e 0fbe 901d a5bd
00000370: 237d 5bbe 47e3 ea3e e0bc 683f be38 8bbf
00000380: b68f 56be ffff e03f df2b 1abf 3ddb 69bf
00000390: 05ac 12bf 02ad 32bd 3c3b 4c3f 75b1 17bf
000003a0: 762d 30be 85c0 d73f 24b3 913f c6fc 1bc0
000003b0: 80a1 66bf 4198 353e aacb f53c c020 0a3f
000003c0: bcd2 ecbf 4cbf 0640 ad49 8dbf e879 dfbe
000003d0: a933 dcbe 9cfe 843f 38a2 583f 0188 47bf
000003e0: 78a5 99bf cc81 0a3f cecf 7b3f 650f 37bf
000003f0: 9f9c d83f 3262 4bbd 0a72 21be 7438 523f

embedding_item.weight f4 [1889, 32]
-1.1737047 -0.4804502 -0.7807833 -0.24868727 -1.0534673 -1.3035963 -1.4772424 -1.1843162
0.2536245 -1.6839385 -1.192917 1.494525 2.3024883 0.38920882 0.72609293 -2.3614857
-2.9119973 0.84636265 0.12989299 -1.2651395 0.9011487 -0.20345104 1.4161254 -2.0158978
1.2730267 1.1500515 -0.6192951 0.7607985 -0.07342241 -0.2717947 0.7124194 -1.157399
0.834244 -1.6394402 -0.98402864 0.78918165 0.14296898 0.41990152 -1.1211464 -0.10253216
0.19056933 0.74517244 -1.273181 -0.6781158 1.4321321 -1.7439783 -2.1192207 0.33007905
0.32493687 -0.36937577 -0.52116406 -0.1222984 -1.8504248 1.6589589 -0.09376871 -0.99525166
0.3668453 2.5406668 0.74387246 0.38437292 -0.3578883 0.011088994 -0.41283333 0.7931399
0.9955397 -1.1438481 0.8190105 0.3119159 1.6678905 -1.7279594 1.3953316 0.063334934
-0.048405204 1.4785136 0.7510481 0.46363163 0.024086906 0.45727593 -0.5435887 0.78108585
0.60099745 -2.9484842 -0.0682064 -0.69236904 2.1892462 -2.4192777 0.83650714 -2.0946956
0.16301301 0.8660562 0.93672264 0.9056056 0.75670666 2.0269039 0.46870402 0.36387753
-0.34533015 0.64510554 -0.2869741 -0.29965475 0.21347484 -1.5119061 0.36671424 0.16497043
1.672355 1.5661592 -0.35662693 1.5379486 0.007381776 -2.3569388 -0.53079975 -0.040801078
0.40739578 0.38706702 -0.26513514 -0.22572225 0.4385115 -0.919147 -0.80295026 1.1725256
-2.6224148 -0.45937625 -2.7839684 0.046652213 2.638327 -2.8551981 0.3560554 0.8504383
-0.935756 1.6948596 0.19258237 1.5403138 1.0693012 -1.3157676 -1.3865443 0.08011653
0.45069596 0.7322304 1.4516089 -0.55827975 0.62837845 3.607414 -2.5126736 0.7024367
-0.33676666 -1.605247 0.43846002 0.350804 -0.50305563 -0.28582194 -0.34903708 -0.4174915
-0.32744968 0.5730243 0.59982026 -0.21214801 0.8639245 -2.5639656 -0.29666156 1.0250856
0.42929912 -0.5562949 -0.56656355 -0.78893083 -0.48666567 1.7145551 0.19013451 -1.1239748
1.7267234 1.7914397 -0.7436964 0.34145606 -0.30250362 2.2596722 -1.6259936 0.3829834
-0.037991203 1.0331784 -0.7306764 -0.35079893 -0.41853592 1.1413956 -0.7286007 0.8554995
-0.91104454 2.352885 -1.33104 -0.66515493 0.05273369 -0.2443281 0.74913764 -0.4866718
-0.6364105 -0.7143324 -1.0307645 -1.8656533 0.20116778 1.3727621 -0.17762217 0.5268541
0.61977196 -1.5328174 1.0244037 -0.1288377 1.4319189 -2.5481067 0.13333255 0.07725565
0.3683966 -1.9670913 -0.87246066 -1.0965077 -1.1024415 -0.15277348 -0.030726574 0.4374513
0.26035428 0.87640566 1.1210419 -1.1759517 0.2824145 0.077289104 -1.2143257 0.15310147
-2.8376973 1.4310598 -2.3828835 -1.0961858 0.6783765 0.20419252 -0.28324848 0.6417857
0.14509572 2.1558723 0.042852674 -0.044821694 -1.6082802 0.6369336 0.10317286 -1.4071826
-0.7041227 -1.0250427 -0.47217518 0.45863235 0.07271515 0.7646844 -1.142875 0.13290177
-0.6671594 -0.02910117 0.2994848 0.54242927 0.8578156 -0.33427027 -2.5016382 -1.1651431
00000000: f53b 96bf 92fd f5be 6ae1 47bf e0a7 7ebe
00000010: 04d8 86bf 3edc a6bf 4716 bdbf ac97 97bf
00000020: 12db 813e 4c8b d7bf 81b1 98bf 984c bf3f
00000030: f85b 1340 6146 c73e 3ae1 393f 9522 17c0
00000040: 2a5e 3ac0 39ab 583f ab02 053e 17f0 a1bf
00000050: aeb1 663f 7855 50be 9943 b53f 7804 01c0
00000060: 8af2 a23f e334 933f 208a 1ebf b1c3 423f
00000070: 7d5e 96bd ad28 8bbe 1e61 363f a725 94bf
00000080: 0491 553f 2dd9 d1bf 4de9 7bbf cf07 4a3f
00000090: 7666 123e 55fd d63e ba81 8fbf 62fc d1bd
000000a0: 9b24 433e 9fc3 3e3f 98f7 a2bf ff98 2dbf
000000b0: 1b50 b73f ae3a dfbf 50a1 07c0 1f00 a93e
000000c0: 205e a63e d21e bdbe 026b 05bf 9577 fabd
000000d0: b8da ecbf c458 d43f cf09 c0bd d0c8 7ebf
000000e0: 26d3 bb3e 499a 2240 6d6e 3e3f 87cc c43e
000000f0: 233d b7be 9dae 353c e45e d3be 370b 4b3f
00000100: b1db 7e3f 9d69 92bf acaa 513f 71b3 9f3e
00000110: 707d d53f c62d ddbf 3a9a b23f bfb5 813d
00000120: 8944 46bd ef3f bd3f b044 403f 2061 ed3e
00000130: e751 c53c 1220 ea3e a128 0bbf 3ef5 473f
00000140: f8da 193f f7b3 3cc0 ccaf 8bbd 193f 31bf
00000150: 9c1c 0c40 72d5 1ac0 5525 563f 7e0f 06c0
00000160: e2ec 263e dcb5 5d3f 0ecd 6f3f c5d5 673f
00000170: 87b7 413f cbb8 0140 f9f9 ef3e 284e ba3e
00000180: 1dcf b0be a325 253f 45ee 92be 596c 99be
00000190: 2699 5a3e 2486 c1bf f8c1 bb3e 02ee 283e
000001a0: bb0f d63f e877 c83f ce97 b6be 80db c43f
000001b0: d3e2 f13b 16d8 16c0 7ee2 07bf 081f 27bd
000001c0: 2e96 d03e a62d c63e cbbf 87be bc23 67be
000001d0: 9484 e03e 384d 6bbf 268e 4dbf 5215 963f
000001e0: a5d5 27c0 5d33 ebbe 8a2c 32c0 6416 3f3d
000001f0: 59da 2840 91bb 36c0 e54c b63e 53b6 593f
00000200: b58d 6fbf 29f1 d83f 5034 453e 0129 c53f
00000210: ddde 883f 136b a8bf 497a b1bf 2314 a43d
00000220: 9fc1 e63e 7473 3b3f 52ce b93f 6ceb 0ebf
00000230: 69dd 203f dfdf 6640 a5cf 20c0 e4d2 333f
00000240: ae6c acbe bc78 cdbf d57d e03e 959c b33e
00000250: 41c8 00bf 4157 92be fdb4 b2be 72c1 d5be
00000260: 7ca7 a7be b8b1 123f d28d 193f 543d 59be
00000270: 282a 5d3f 0318 24c0 06e4 97be 0136 833f
00000280: 18cd db3e 5869 0ebf 4f0a 11bf 5ff7 49bf
00000290: 3e2c f9be 8b76 db3f 9fb2 423e 68de 8fbf
000002a0: 4605 dd3f e54d e53f e362 3ebf 54d3 ae3e
000002b0: c1e1 9abe 789e 1040 8f20 d0bf 6616 c43e
000002c0: aa9c 1bbd 313f 843f 9c0d 3bbf eb9b b3be
000002d0: 574a d6be 4019 923f 9385 3abf 0402 5b3f
000002e0: 373a 69bf ab95 1640 855f aabf 9847 2abf
000002f0: 48ff 573d 2531 7abe 7cc7 3f3f 0c2d f9be
00000300: cceb 22bf 7dde 36bf 17f0 83bf bacd eebf
00000310: edfe 4d3e abb6 af3f 96e2 35be e9df 063f
00000320: 60a9 1e3f 5c33 c4bf a91f 833f 08ee 03be
00000330: 1e49 b73f 2e14 23c0 5488 083e 3638 9e3d
00000340: 7b9e bc3e a6c9 fbbf 9559 5fbf 5d5a 8cbf
00000350: ce1c 8dbf a770 1cbe 4cb6 fbbc 9ef9 df3e
00000360: 284d 853e 1f5c 603f 4d7e 8f3f 9685 96bf
00000370: a298 903e c049 9e3d 066f 9bbf a2c6 1c3e
00000380: d59c 35c0 f82c b73f 2a81 18c0 d14f 8cbf
00000390: 15aa 2d3f d817 513e f205 91be 114c 243f
000003a0: f993 143e d0f9 0940 4986 2f3d f496 37bd
000003b0: 20dc cdbf 150e 233f 4b4c d33d 8f1e b4bf
000003c0: 6341 34bf 9934 83bf f2c0 f1be dcd1 ea3e
000003d0: aeeb 943d 5bc2 433f ba49 92bf 6717 083e
000003e0: f5ca 2abf 9465 eebc 1256 993e a5dc 0a3f
000003f0: ce99 5b3f 7925 abbe d71a 20c0 6923 95bf

affine_output.weight f4 [1, 32]
1.4648066 -1.5647253 -1.5219461 1.3701718 -1.2319165 -1.4073927 -1.5861293 1.5231596
-1.3643816 1.470661 -1.2944975 -1.5714893 1.629485 1.432643 -1.3224875 1.5223764
1.3868297 1.6081353 1.3326505 1.3748362 1.3976482 1.8892779 1.6127994 -1.5741328
1.7494066 1.5889536 1.8331689 1.7825742 1.5195047 -1.7231407 1.7101282 1.6647786
00000000: c87e bb3f eb48 c8bf 21cf c2bf ca61 af3f
00000010: 71af 9dbf 7225 b4bf 4906 cbbf e5f6 c23f
00000020: 0ea4 aebf 9f3e bc3f 18b2 a5bf 9026 c9bf
00000030: f792 d03f d960 b73f 4547 a9bf 3bdd c23f
00000040: a383 b13f 61d7 cd3f 4b94 aa3f a2fa af3f
00000050: 23e6 b23f dcd3 f13f 3670 ce3f 2f7d c9bf
00000060: 8eec df3f d562 cb3f 47a5 ea3f 642b e43f
00000070: 217f c23f e08f dcbf 7be5 da3f 7717 d53f
