checkpoints/GMF_Epoch4_HR0.1452_NDCG0.1444.model (torch, 250015 bytes, 3 tensors)

embedding_user.weight f4 [51, 32]
-0.78040856 -0.16144335 1.3769587 -1.436892 -2.3753967 -1.223178 1.1562805 0.4669616
-0.8548593 0.19617727 -0.9454831 -0.9566526 1.1298603 0.063335046 1.4409211 -0.6297836
-1.1499653 -0.97167236 0.4861834 0.84431493 0.060663022 -0.19042915 1.035148 0.100575805
-1.5249617 1.8943696 -0.15637717 1.4780401 0.4018922 -0.031222042 1.3624328 1.1241034
-2.1468883 0.89526147 1.1661339 1.1644405 -2.03722 -0.9698352 -1.9558643 0.8490625
-0.21705058 -1.2257855 -0.32558495 -0.63937724 -1.4677578 -0.5655466 1.0832124 -3.7921033
-2.5062332 1.8591814 2.268342 -0.63647103 0.4016861 -0.380499 -0.3104774 0.04868658
-1.1805233 1.6031445 0.047583632 -1.001381 -0.82579815 -0.13788329 2.72657 0.3239755
0.4143545 0.070651256 -0.7443119 0.22209226 1.2459263 0.7003724 0.53580034 1.0779935
-1.0951788 0.03208756 1.2136184 -1.4915228 0.479811 1.2640202 1.3149515 -0.68968904
-0.012627242 -1.3254799 0.47822565 0.6724952 0.3344165 -1.882692 -0.6160206 0.48261735
-0.4826086 0.5242665 0.76468337 -0.8243634 -0.60253865 1.1129926 -0.09961421 0.68393576
-0.60441333 -1.5782555 1.4519744 0.5825313 -0.25226593 0.01683066 -0.03356454 0.80869097
-0.4026723 -0.3995797 -0.9753211 1.2378047 -1.5056071 0.20109662 0.70518786 0.047390115
-2.087693 0.57287127 -1.1679704 -0.93819106 -1.78722 0.012282072 1.1931255 -0.39450708
-0.28027588 0.9542596 1.748036 1.0391465 0.92057574 1.1737891 -0.42826962 -1.1932945
-2.0862758 -0.6381911 0.85689837 0.11653147 -1.9885057 -2.23043 0.26315847 -0.2836237
2.223404 3.2611034 0.7616924 0.1358331 -0.07327734 -0.31312606 -0.22490066 0.6480981
2.7837374 3.2307682 -1.7825599 3.919346 3.8662298 -3.1277733 0.56250626 -0.4680972
-0.7149364 -0.8407467 1.2758251 -0.26390323 -0.091795 -1.3133774 0.47346842 0.29165268
-0.8567568 1.0792774 -0.0044391225 0.33835137 -0.3691347 1.1037872 -1.8474474 -1.874085
-0.787993 2.3610473 -0.7509204 -1.2395163 -0.013444418 -0.885135 0.50310194 -1.6039466
1.587178 0.3400254 -2.5121753 1.2360137 -1.1074331 -0.18202332 -0.41511005 0.7479835
-0.8355744 1.4091192 -0.5748744 0.4307548 2.0470936 1.087205 -0.44319832 1.6180667
-1.3788695 -0.14618795 0.6423938 0.74772847 0.620722 1.03997 0.15202151 -0.33874285
-0.37169096 -1.0407083 -0.58129394 0.58663404 0.618645 -0.34287858 -2.1036487 -1.234027
-1.0466487 0.8275617 -1.1784109 0.7187311 0.34839734 -1.3315821 -2.0812597 0.24030209
0.8297247 -0.17093962 0.04714211 -0.22341457 -0.1235029 0.40872464 1.3135586 -1.4452041
-0.36405152 2.789091 -1.1297371 -1.4596744 -0.4805515 0.13952503 1.2304741 -0.84782386
-0.18959703 2.4228773 1.0290519 -3.2167177 -1.4539635 0.49333662 -0.09972532 0.841719
-2.6487603 2.967627 -1.4092202 -0.40002134 -0.21611755 1.6240108 0.82983494 -1.24671
-1.3069097 1.0254489 1.259353 -1.2389445 2.138953 -0.042971022 -0.08592048 1.3394526
00000000: dbc8 47bf 6851 25be 2f40 b03f 14ec b7bf
00000010: 8006 18c0 1991 9cbf 0001 943f 9715 ef3e
00000020: 0fd8 5abf b2e2 483e 2e0b 72bf 2fe7 74bf
00000030: 439f 903f ceb5 813d 1a70 b83f 7f39 21bf
00000040: 1032 93bf 85bf 78bf 08ed f83e 0625 583f
00000050: ca79 783d dcff 42be bb7f 843f b0fa cd3d
00000060: f231 c3bf b47a f23f 5621 20be 6b30 bd3f
00000070: d0c4 cd3e 5ec5 ffbc 3364 ae3f 9fe2 8f3f
00000080: 9e66 09c0 db2f 653f e043 953f 630c 953f
00000090: d061 02c0 1f47 78bf c359 fabf 295c 593f
000000a0: 8242 5ebe 8ae6 9cbf 12b3 a6be 3aae 23bf
000000b0: 7ddf bbbf a9c7 10bf b4a6 8a3f d2b1 72c0
000000c0: 2066 20c0 a8f9 ed3f 842c 1140 c4ef 22bf
000000d0: cda9 cd3e c4d0 c2be e5f6 9ebe 946b 473d
000000e0: 631b 97bf d733 cd3f 0ee7 423d 412d 80bf
000000f0: 8267 53bf 4731 0dbe 1f80 2e40 1ee0 a53e
00000100: 4626 d43e 9bb1 903d 3a8b 3ebf 276c 633e
00000110: 837a 9f3f 9b4b 333f 362a 093f b1fb 893f
00000120: d22e 8cbf 3f6e 033d d957 9b3f 38ea bebf
00000130: caa9 f53e 6acb a13f 5550 a83f 768f 30bf
00000140: 7ee2 4ebc 53a9 a9bf fed9 f43e a528 2c3f
00000150: a438 ab3e 0dfc f0bf 87b3 1dbf 9f19 f73e
00000160: 7918 f7be 5436 063f 4ac2 433f 7b09 53bf
00000170: f93f 1abf 8b76 8e3f 8902 ccbd 6a16 2f3f
00000180: d5ba 1abf 4704 cabf 4cda b93f c520 153f
00000190: 0029 81be 74e0 893c f97a 09bd 5f06 4f3f
000001a0: 102b cebe b695 ccbe a5ae 79bf 6270 9e3f
000001b0: bcb7 c0bf 46ec 4d3e 3187 343f 231c 423d
000001c0: c39c 05c0 b1a7 123f 0e80 95bf 4a2d 70bf
000001d0: a0c3 e4bf be3a 493c 56b8 983f d5fc c9be
000001e0: 5280 8fbe 5b4a 743f a5bf df3f c102 853f
000001f0: daaa 6b3f b93e 963f 2846 dbbe e0bd 98bf
00000200: 8b85 05c0 7e60 23bf b15d 5b3f 0da8 ee3d
00000210: 5b87 febf 5dbf 0ec0 b5bc 863e 2037 91be
00000220: 404c 0e40 ebb5 5040 46fe 423f d517 0b3e
00000230: 6e12 96bd 0f52 a0be 5c4c 66be c2e9 253f
00000240: c128 3240 e8c4 4e40 ec2a e4bf 91d6 7a40
00000250: 4f70 7740 702d 48c0 6900 103f 70aa efbe
00000260: 1206 37bf 2d3b 57bf 3d4e a33f 531e 87be
00000270: 04ff bbbd c01c a8bf 746a f23e 8053 953e
00000280: 6a54 5bbf c325 8a3f 0f76 91bb 643c ad3e
00000290: 39ff bcbe e648 8d3f 2879 ecbf 04e2 efbf
000002a0: e9b9 49bf 661b 1740 523c 40bf 78a8 9ebf
000002b0: fa45 5cbc 3598 62bf 4acb 003f 1f4e cdbf
000002c0: a628 cb3f cf17 ae3e 7bc7 20c0 b235 9e3f
000002d0: 5ec0 8dbf 5264 3abe 4e89 d4be d97b 3f3f
000002e0: 34e8 55bf 055e b43f f82a 13bf e58b dc3e
000002f0: 9503 0340 8929 8b3f e4ea e2be cf1c cf3f
00000300: cc7e b0bf 4bb2 15be ec73 243f 226b 3f3f
00000310: a3e7 1e3f bd1d 853f 87ab 1b3e b46f adbe
00000320: 474e bebe ee35 85bf aecf 14bf a62d 163f
00000330: 855f 1e3f c88d afbe 2ea2 06c0 99f4 9dbf
00000340: 96f8 85bf 15db 533f 2bd6 96bf c3fe 373f
00000350: 2361 b23e 4871 aabf 5c33 05c0 c011 763e
00000360: d768 543f cc0a 2fbe 1618 413d cac6 64be
00000370: 17ef fcbd 5b44 d13e b022 a83f 73fc b8bf
00000380: f664 babe 7880 3240 3a9b 90bf 9cd6 babf
00000390: d90a f6be a6df 0e3e 2d80 9d3f fc0a 59bf
000003a0: b925 42be 6c10 1b40 f9b7 833f b4de 4dc0
000003b0: 7a1b babf 9e96 fc3e ca3c ccbd e57a 573f
000003c0: 4a85 29c0 9aed 3d40 5461 b4bf 99cf ccbe
000003d0: eb4d 5dbe 96df cf3f 1070 543f 3194 9fbf
000003e0: d148 a7bf e941 833f 7b32 a13f bc95 9ebf
000003f0: 9be4 0840 6202 30bd 14f7 afbd 2f73 ab3f

embedding_item.weight f4 [1889, 32]
-1.4449918 -0.58624655 -0.9389537 -0.58037126 -0.96426797 -1.2643958 -1.3771788 -1.4817414
0.14239654 -1.4633558 -0.99152255 1.6183584 2.3621256 0.42023346 0.88089305 -2.5263546
-3.1470227 0.74424905 0.49979404 -1.2098631 1.3488637 -0.042803198 1.4209414 -1.9415723
1.3779705 1.0939156 -0.46770373 0.9751966 -0.37803224 -0.3882197 0.75032276 -1.0238616
0.9241173 -1.7429821 -1.000148 0.5424759 0.22414967 0.41541708 -1.360761 -0.29671058
0.108314164 0.7567865 -1.3451934 -0.7100689 1.7300632 -1.8076335 -2.0829098 0.52796155
0.45080316 -0.57878715 -0.8467906 0.016288871 -2.115509 1.8382753 -0.057245694 -1.1971787
0.43659505 2.6775584 0.47153592 0.516072 -0.1715913 -0.050389443 -0.6441919 0.8386415
1.1995614 -1.4370011 0.7873017 -0.07030953 2.0022547 -1.8804598 1.1676378 -0.23854174
-0.3460008 1.9616523 0.5666066 0.81741315 0.08883011 0.2869659 -0.5962271 0.741087
0.7958024 -3.0848207 -0.23056515 -0.9582765 2.0312676 -2.2476249 1.3031654 -2.3259997
0.14621791 0.8803648 1.2133971 1.1876484 0.526698 2.793273 0.24451326 0.40785304
0.009151499 0.6894658 0.046057265 -0.13897939 0.042918038 -1.5328497 0.2145002 0.13152114
1.9819824 1.718932 -0.63803476 1.7569298 -0.01967853 -2.0587983 -0.5628342 -0.48926657
0.43886638 0.13143153 -0.045887932 -0.21496655 0.45519143 -1.1133202 -0.66315293 1.313112
-3.1574514 -0.11598412 -2.775456 0.1527381 2.8729582 -3.0227416 0.22348967 1.3161683
-0.83857995 2.1216047 0.18291856 1.4538344 1.1559939 -1.6088291 -1.2589302 -0.17048252
0.3773355 0.32890356 1.7071204 -0.701812 0.33528045 4.026229 -3.0229447 0.7451758
-0.51507723 -1.8526101 0.54526734 0.4318864 -0.46270904 -0.29315856 -0.3577226 -0.48055932
0.13366291 0.36688894 0.8086024 -0.21018532 0.66334516 -2.7412271 -0.55417633 1.3416054
0.51237625 -0.7136381 -0.7195277 -1.0196506 -0.43202555 1.8246202 0.06569491 -1.1691682
1.9998884 1.7757634 -0.9764852 0.3771373 -0.45594501 2.3218055 -1.8280022 0.50081563
-0.114441164 1.0969496 -0.78668225 -0.24638881 -0.39653733 1.0673714 -0.7186959 0.8847338
-0.95194566 2.4712408 -1.5538088 -0.5537165 0.056862496 0.055583373 0.93258536 -0.5758357
-0.47022218 -0.57908255 -1.2663518 -2.2621267 0.22468822 1.5667213 -0.42035842 0.60889626
0.32858744 -1.6417103 0.9850502 -0.3401157 1.9115524 -2.771359 0.23509498 0.3241199
0.43944904 -2.1568224 -1.0574421 -0.8008965 -1.177324 -0.40188715 0.2852043 0.5388867
-0.041405473 0.94710207 1.1019987 -1.2532659 0.26969838 0.06968188 -1.2233992 -0.15004227
-3.0739543 1.2998074 -2.2430937 -1.2883098 0.9775833 0.4907265 -0.6259703 0.82939744
0.5377469 2.2189395 -0.1454704 0.26982337 -1.7240576 0.8320537 0.16836712 -1.5887003
-0.65709645 -1.3744066 -0.43313912 0.5014166 0.384862 0.9955094 -1.3337076 0.37302366
-0.46902162 0.35509887 0.07720516 0.57209086 0.7166183 -0.01329076 -2.5224116 -1.3006599
00000000: 7ef5 b8bf 4114 16bf 455f 70bf 3693 14bf
00000010: 44da 76bf b9d7 a1bf 6547 b0bf b4a9 bdbf
00000020: 66d0 113e 3e4f bbbf 6cd4 7dbf 5e26 cf3f
00000030: 112d 1740 d728 d73e 3582 613f cbaf 21c0
00000040: d268 49c0 1b87 3e3f 01e5 ff3e cbdc 9abf
00000050: 91a7 ac3f 6852 2fbd 68e1 b53f 7185 f8bf
00000060: 5661 b03f 6d05 8c3f dd76 efbe 7ca6 793f
00000070: 718d c1be bcc4 c6be 2715 403f e60d 83bf
00000080: f492 6c3f 0a1a dfbf da04 80bf b3df 0a3f
00000090: 7e87 653e 8cb1 d43e 6b2d aebf 73ea 97be
000000a0: d1d3 dd3d c3bc 413f 4c2f acbf 13c7 35bf
000000b0: b672 dd3f 8960 e7bf 654e 05c0 7d28 073f
000000c0: accf e63e 652b 14bf 45c7 58bf 3d70 853c
000000d0: 8064 07c0 9b4c eb3f 767a 6abd 273d 99bf
000000e0: 6389 df3e 1e5d 2b40 286d f13e 4b1d 043f
000000f0: a1b5 2fbe 2965 4ebd c3e9 24bf 36b1 563f
00000100: 3a8b 993f a7ef b7bf 9b8c 493f 71fe 8fbd
00000110: f124 0040 e8b2 f0bf 2875 953f 4944 74be
00000120: 0427 b1be 6c17 fb3f 210d 113f fd41 513f
00000130: 90ec b53d 32ed 923e 57a2 18bf e1b7 3d3f
00000140: b5b9 4b3f b46d 45c0 4519 6cbe 9c51 75bf
00000150: 4a00 0240 16d9 0fc0 20ce a63f 2edd 14c0
00000160: 26ba 153e 965f 613f 9950 9b3f dd04 983f
00000170: aed5 063f fcc4 3240 af61 7a3e 1dd2 d03e
00000180: 2bf0 153c d580 303f 8ba6 3c3d 9d50 0ebe
00000190: d3ca 2f3d 6b34 c4bf f1a5 5b3e 7aad 063e
000001a0: 99b1 fd3f f705 dc3f 3f56 23bf 13e3 e03f
000001b0: de34 a1bc 5ac3 03c0 e715 10bf 2681 fabe
000001c0: 18b3 e03e fd95 063e fcf4 3bbd 3120 5cbe
000001d0: da0e e93e 4781 8ebf 64c4 29bf 0e14 a83f
000001e0: af13 4ac0 1589 edbd 12a1 31c0 6067 1c3e
000001f0: 8cde 3740 9974 41c0 7ada 643e 3478 a83f
00000200: 2dad 56bf 5fc8 0740 014f 3b3e 3f17 ba3f
00000210: 9cf7 933f 1dee cdbf a024 a1bf f892 2ebe
00000220: 1e32 c13e 0c66 a83e ec82 da3f f4a9 33bf
00000230: e1a9 ab3e ded6 8040 ed77 41c0 d7c3 3e3f
00000240: 1adc 03bf 5422 edbf a496 0b3f 3720 dd3e
00000250: 33e8 ecbe e118 96be 6b27 b7be df0b f6be
00000260: eede 083e ded8 bb3e 9100 4f3f d23a 57be
00000270: fdd0 293f 4470 2fc0 80de 0dbf bab9 ab3f
00000280: 172b 033f fdb0 36bf f832 38bf e983 82bf
00000290: 7432 ddbe 288d e93f 0e8b 863d 4ea7 95bf
000002a0: 58fc ff3f 374c e33f effa 79bf 2418 c13e
000002b0: a071 e9be 7698 1440 fafb e9bf 7435 003f
000002c0: 2160 eabd d868 8c3f 0264 49bf 594d 7cbe
000002d0: f106 cbbe a09f 883f 74fc 37bf ea7d 623f
000002e0: b6b2 73bf cf28 1e40 35e3 c6bf 5dc0 0dbf
000002f0: a6e8 683d 64ab 633d eabd 6e3f f869 13bf
00000300: f6c0 f0be c13e 14bf d117 a2bf afc6 10c0
00000310: ab14 663e 538a c83f 3839 d7be a0e0 1b3f
00000320: 9d3c a83e 9023 d2bf 402c 7c3f a523 aebe
00000330: c0ad f43f f25d 31c0 bdbc 703e 0bf3 a53e
00000340: 77ff e03e 6109 0ac0 435a 87bf 8e07 4dbf
00000350: 8eb2 96bf 27c4 cdbe 4c06 923e 7bf4 093f
00000360: c998 29bd 4875 723f 4b0e 8d3f 046b a0bf
00000370: e815 8a3e 60b5 8e3d 5898 9cbf aea4 19be
00000380: abbb 44c0 1760 a63f d98e 0fc0 56e7 a4bf
00000390: e642 7a3f 8140 fb3e 973f 20bf 6453 543f
000003a0: c8a9 093f 1b03 0e40 31f6 14be 4a26 8a3e
000003b0: ebad dcbf 7901 553f 6e68 2c3e 885a cbbf
000003c0: 7937 28bf 8eec afbf 69c4 ddbe d75c 003f
000003d0: a20c c53e b4d9 7e3f eeb6 aabf f5fc be3e
000003e0: 9a23 f0be 85cf b53e bd1d 9e3d 8c74 123f
000003f0: 4c74 373f 7dc1 59bc 316f 21c0 067c a6bf

affine_output.weight f4 [1, 32]
2.1100748 -2.2983818 -2.4924438 2.2538948 -2.0632696 -2.3767614 -2.477263 2.2796702
-2.5853653 2.205575 -2.2086902 -2.4540126 2.5551286 2.4991865 -2.3109114 2.1385784
2.3443658 2.7787342 2.1623302 1.8701575 2.1988034 3.0947278 2.608293 -2.44933
2.7693758 2.67265 2.9631176 2.62314 2.4383926 -2.431533 2.4270546 2.5149739
00000000: 770b 0740 b018 13c0 3384 1fc0 d03f 1040
00000010: 9c0c 04c0 dc1c 18c0 7a8b 1ec0 1ee6 1140
00000020: a076 25c0 2428 0d40 2e5b 0dc0 8b0e 1dc0
00000030: 3a87 2340 acf2 1f40 f9e5 13c0 78de 0840
00000040: 170a 1640 c8d6 3140 9e63 0a40 5261 ef3f
00000050: 32b9 0c40 0510 4640 46ee 2640 d3c1 1cc0
00000060: 743d 3140 b30c 2b40 b8a3 3d40 87e1 2740
00000070: a00e 1c40 3d9e 1bc0 dd54 1b40 55f5 2040
