checkpoints/MLP_Epoch3_HR0.1568_NDCG0.1490.model (torch, 261263 bytes, 7 tensors)

embedding_user.weight f4 [51, 32]
000000 fa 09 99 bf 81 4d ae 3f 34 8a 32 be 80 76 7a bf
       -1.195617 1.3617402 -0.17435533 -0.97837067
000010 11 b9 71 3e 95 cb c8 be 32 d3 1f bf c6 23 89 bf
       0.23605753 -0.3921782 -0.62431633 -1.0714042
000020 02 05 c7 3f e8 98 f5 bf 12 a5 b3 be 2f 29 07 bf
       1.5548403 -1.9187288 -0.35086876 -0.52797216
000030 dc 74 a8 bd ea 44 b3 bf c4 ac bf 3f bf d8 8c bf
       -0.08225414 -1.4005406 1.4974599 -1.1003646
000040 e9 05 bf 3d cc 0e 8c 3e a8 c8 31 be ed 5e 18 3f
       0.09327299 0.2735504 -0.173617 0.59519845
000050 26 9a 95 be 16 24 a4 bf 00 34 87 3f db dc 0c c0
       -0.29219168 -1.2823513 1.0562744 -2.20098
000060 f2 c0 e4 be b6 59 30 3f 91 f6 3e 3e 4c 10 01 bf
       -0.44678456 0.6888689 0.18648745 -0.5041549
000070 db bc 50 bd b7 61 39 bf 31 af b2 3e 43 12 67 bd
       -0.050961357 -0.72414726 0.34899285 -0.0564139
000080 59 8f eb 3e 2d 73 cc be 47 77 59 bf 79 e4 44 3e
       0.46007803 -0.39931622 -0.8494763 0.1922778
000090 25 e0 4a 3e 57 d5 35 3e 61 4f 97 3f 0a 6d ca bf
       0.19812067 0.17757164 1.18211 -1.5814526
0000a0 82 ae 09 3f d5 38 2f bf 8d c0 81 bf 78 ec 93 3e
       0.537819 -0.68446094 -1.0136887 0.2889135
0000b0 8b 3e d8 3f db 7b 89 bf 01 5d 78 bf a5 6c 3e 3e
       1.6894087 -1.0740923 -0.9701691 0.18596132
0000c0 4b 0c 56 bf 6f 65 98 be ae 96 43 c0 18 e4 a5 be
       -0.8361251 -0.29764888 -3.0560718 -0.32400584
0000d0 c9 ec 13 be fe 23 c3 be c2 8b 6f 3f 8f d5 cb 3d
       -0.14445795 -0.38113397 0.9357263 0.099528424
0000e0 55 e7 a4 bf ae 7d 51 be 91 f6 5a 3f 86 15 ad be
       -1.2883097 -0.20458099 0.8553248 -0.33805484
0000f0 66 8c 21 3f b7 bf f7 3e 2e 00 87 bf 6f 34 e9 3f
       0.63104856 0.48388454 -1.054693 1.8219126
000100 2a a9 82 3f 7c 55 2c 3f 5f 47 91 3f 38 89 9b 3e
       1.0207875 0.6731794 1.1349906 0.30378127
000110 bb 2b 63 3f 1a 69 1f 3f 4f 66 b6 bf 9c 49 81 3f
       0.887386 0.6226975 -1.4249972 1.0100589
000120 ea 56 5b 3e 9d 82 60 3f 68 c6 db bf ec dd c7 be
       0.21419874 0.876993 -1.7169924 -0.390365
000130 1d b6 e1 3e 43 f8 70 3f 31 e5 07 3f 5f df 9d be
       0.44084254 0.9412882 0.53084093 -0.3083448
000140 4b bc db 3e d6 9f c2 3f da 60 80 bf 80 66 20 3f
       0.42917094 1.5205028 -1.0029557 0.626564
000150 fc 32 29 40 55 a4 2f 3f 22 5c 21 3f cf ea 25 bf
       2.6437368 0.68610126 0.6303121 -0.64811414
000160 2b ec 90 3e b9 15 04 3f 80 2e 89 3f ad 97 02 be
       0.28305182 0.51595646 1.0717316 -0.12753172
000170 a6 08 e2 3f 94 0d 67 3e ab 0d 50 3f 0a a6 34 3f
       1.7658889 0.22563773 0.81270856 0.70565856
000180 cd b0 4b bf 39 cb 2e be 2e 18 5a be 8f c3 1b 3e
       -0.7956665 -0.17069711 -0.21298286 0.15211318
000190 ab 62 21 bf 5c 6c 0e bf 63 b3 21 be 79 10 89 bf
       -0.6304118 -0.55634093 -0.15791087 -1.0708152
0001a0 db 5e fd 3e 01 9c a5 3e fd 89 60 3e 4a 9c d8 bf
       0.4948643 0.32345584 0.21927638 -1.6922696
0001b0 e1 bb 33 bf 9f 3e 8c 3b 0b 85 81 3f 79 79 5f bf
       -0.70208555 0.004279926 1.0118726 -0.8729473
0001c0 25 bb 07 3f df 72 6d 3e 44 6b 38 bf c0 bb 15 40
       0.53019935 0.23188351 -0.72038674 2.3395844
0001d0 7b b2 8c 3f 63 51 e0 be dc ce ed 3e 2b 32 84 3e
       1.0991968 -0.43812093 0.46446884 0.25819525
0001e0 93 9c 80 be 68 e4 90 be bc e8 1b bf c3 76 aa bd
       -0.25119457 -0.2829926 -0.60902 -0.08323433
0001f0 aa 43 3b be f5 30 3d bc f2 8c d4 bf 18 28 5a bf
       -0.1828753 -0.011547317 -1.6605513 -0.8521743
000200 28 de 5f 3f 3e 8e 29 be 1c 73 8d 3f 59 b4 fd 3f
       0.8744836 -0.16558167 1.1050754 1.9820663
000210 24 f3 ea 3f 43 cf 14 bf f1 52 dc 3d c1 43 b2 bf
       1.8355451 -0.58128756 0.10758007 -1.3926927
000220 51 f5 4d bf b9 a7 ee 3e d1 bf b0 3f d1 15 d9 3f
       -0.8045245 0.46612337 1.3808538 1.6959783
000230 0e 2a a8 bd 53 2b 90 3d e2 b1 d3 3e db 8d 8e 3f
       -0.08211146 0.070395134 0.4134665 1.1137041
000240 e3 bb 72 3f 48 2a 9b 3f 71 d3 f8 3e d2 d3 51 3f
       0.9481794 1.2122278 0.48598817 0.8196384
000250 f3 bf 6e bf 23 b2 1f 40 94 db e0 bd a2 3b 51 3f
       -0.9326164 2.4952476 -0.10979381 0.8173162
000260 31 c0 d4 be 0b 63 80 3e 38 68 b7 be 35 d0 e0 3e
       -0.4155288 0.25075564 -0.358217 0.4390885
000270 70 dc 5b 3f b9 9d 6f 3f 55 3e be 3e 75 a3 1d 3f
       0.85883236 0.9360004 0.3715693 0.6157754
000280 6d d3 89 be 88 3d b6 3f d5 e8 d7 3f 54 08 dd 3e
       -0.26919118 1.4237528 1.686793 0.43170416
000290 25 c6 3b 3f a6 15 78 bf b7 d9 5e 3f 50 1d 39 bd
       0.7334922 -0.9690803 0.87050956 -0.04519397
0002a0 3c ff 67 be 64 33 45 c0 56 4a d9 be 6e de 84 3f
       -0.22655958 -3.0812616 -0.42439526 1.038038
0002b0 fc ff c7 3e 59 fb 96 3f df de e5 3e 96 c1 8f bf
       0.39062488 1.1795455 0.448966 -1.1230953
0002c0 b4 92 54 3f 03 42 fa be 8a 4e b3 bf 37 7f 6b 3f
       0.8303635 -0.48878488 -1.4008343 0.9199099
0002d0 54 bb c0 bf a3 84 44 bf 6f df 32 c0 71 77 b3 bf
       -1.5057168 -0.7676489 -2.7948873 -1.4020826
0002e0 44 98 db be 5a 9f 29 c0 d1 92 2b 40 cc 92 ae 3f
       -0.42889607 -2.650351 2.680836 1.3638549
0002f0 82 4c 38 3e 6d d7 01 c0 ab b7 0a 3f 83 16 c0 3e
       0.17997935 -2.0287735 0.54186505 0.37517175
000300 3f d4 ac 3e 18 22 a1 bf cd 6d 18 3f 8c 1d 10 bf
       0.3375568 -1.258853 0.5954254 -0.56295085
000310 6d b1 20 3f 87 ec 2e bf d6 cd 95 bf d1 27 83 3f
       0.6277073 -0.6832966 -1.1703441 1.0246526
000320 df f2 1c bf 1a a6 51 3f 5c cb 1a bf 1e 84 5f be
       -0.6130809 0.81894076 -0.6046655 -0.21827742
000330 82 77 13 c0 50 fb 0d 3f 4e 58 55 3f e1 ce 5f bf
       -2.3041692 0.554616 0.8333787 -0.8742505
000340 3d b2 51 3e ef c0 49 bb 1a 7b d1 3f 23 d1 df bf
       0.20478149 -0.0030785163 1.6365693 -1.7485698
000350 bb f8 95 3f 87 94 b2 3f 87 25 5e 3f a5 48 87 3f
       1.1716532 1.3951577 0.8677601 1.0569044
000360 2c 90 6f be 6b 51 aa bf f6 7c bf bf a9 ab 6d be
       -0.23394841 -1.3306097 -1.496001 -0.23210014
000370 1e cf ad bf 94 aa 71 3f 96 15 13 bf 10 a8 18 3f
       -1.3578832 0.94400907 -0.5745481 0.59631443
000380 d3 20 f5 bf d4 0a 91 bf ee a0 79 be bc 95 a2 3f
       -1.9150642 -1.133143 -0.24377796 1.2701945
000390 23 b4 bc 3f 97 c1 ae 3f dc bb 9b 3f 90 40 ed bf
       1.4742473 1.3652829 1.2166705 -1.8535328
0003a0 7d b9 ed bf 30 ef c1 3e 6a b3 2c 3e da 86 ae be
       -1.8572232 0.37877798 0.16865316 -0.3408726
0003b0 e3 2c bf bf 1c 54 11 c0 f8 69 a3 3f 60 bb 77 3f
       -1.4935573 -2.2707586 1.2766714 0.96770287
0003c0 d1 44 8f bd 2b 11 5f bf c2 9d bc bf 27 b0 2c 3f
       -0.069955476 -0.8713557 -1.4735644 0.6745629
0003d0 bd a9 ef be 00 55 2a 3f da a6 08 bf f4 25 c1 3f
       -0.46809188 0.6653595 -0.53379595 1.5089707
0003e0 d0 49 88 bf 8e ab 1d bf ca 89 40 bf 39 0e cb bd
       -1.0647526 -0.61589897 -0.7521025 -0.09914822
0003f0 a4 d6 2a bf 66 61 c9 be d7 d8 b0 3e af 08 b5 bf
       -0.66733766 -0.39332122 0.34540436 -1.4143275

embedding_item.weight f4 [1889, 32]
000000 0d 90 04 40 c4 62 16 40 79 1d c1 3e b3 80 f3 bf
       2.0712922 2.3497782 0.37717798 -1.9023651
000010 48 7a 05 3f 7c 0a a1 be a4 a6 99 3f ce fa 0d 3e
       0.5213971 -0.3145331 1.200398 0.13865206
000020 96 41 70 3f 7f fd 3b be 30 f0 b8 be dc d0 8b be
       0.93850076 -0.1835842 -0.3612075 -0.27307785
000030 91 b4 22 c0 c8 38 75 3f eb 93 c4 be 5c a2 b3 bf
       -2.542271 0.95789766 -0.38394102 -1.4033923
000040 b6 2d 9f 3f 5a 62 a7 3f 76 63 37 bf 21 89 07 3f
       1.2435825 1.307689 -0.7163614 0.5294362
000050 5f 97 c0 3d 6d 7e 8e bf c6 fd 35 3f e1 7b b1 3e
       0.09403872 -1.1132332 0.7109035 0.34664825
000060 70 80 da bd 6d 13 d2 bf cc c5 fa 3d 39 ef c0 bf
       -0.10669029 -1.6412178 0.12244758 -1.5073005
000070 71 71 2f 3f d1 23 03 40 73 0f 7e bf 75 26 35 3f
       0.6853247 2.049061 -0.99242324 0.70761806
000080 ab 4d 9d 3e 13 ea d4 3e 3d af 8b 3f e8 75 63 bf
       0.30723318 0.41584834 1.0912853 -0.88851786
000090 95 2c 5b bf bf ba 94 be 7d 70 c3 3f 1d 86 a7 3f
       -0.856149 -0.29048726 1.5268704 1.3087803
0000a0 37 1f 2b c0 50 ba 65 3e 30 2e 31 bf e1 b4 5a 3e
       -2.6737802 0.22434354 -0.692111 0.21358062
0000b0 31 ec ad bf 94 58 b5 3e 0d c0 d2 3f 8e e4 4a bf
       -1.3587705 0.35419142 1.6464859 -0.79254997
0000c0 b3 3e 7a bd 0b 61 a8 be cc f3 bd 3f 2b f9 fb be
       -0.06109495 -0.32886538 1.4840026 -0.49213538
0000d0 46 e5 31 be 48 60 9d 3e 1d b7 10 bf af e1 38 bf
       -0.17372617 0.3073752 -0.5652941 -0.72219366
0000e0 d1 7f 07 3f 08 84 35 bc 23 2a a8 3f 04 e9 bb be
       0.5292941 -0.011078842 1.3137859 -0.36701214
0000f0 18 03 7e bf 73 2d 58 3f ea 84 00 3f 4d 36 c9 3d
       -0.9922347 0.8444435 0.5020281 0.0982481
000100 b4 b8 81 be c0 3e 12 3f c8 7b 87 3f 35 fe 44 bf
       -0.2533623 0.57127 1.058465 -0.7695039
000110 f7 41 76 3f c5 0a d8 3f 3d 8b c7 3f 31 17 7c 3f
       0.96194404 1.6878287 1.5589367 0.9847289
000120 19 4d a5 3e e1 16 50 bf bd e1 13 40 1d fb 3a bf
       0.32285383 -0.8128491 2.310653 -0.7303942
000130 a8 ca 22 3f ea 8a 41 3f cb 59 dd be 6d 88 ad 3f
       0.6359048 0.7560259 -0.4323257 1.3557259
000140 48 e3 1d 3e 7e 72 37 3f 18 34 2d 3f d7 78 1a c0
       0.15418732 0.71659076 0.67657614 -2.4136255
000150 95 3e ab 3e 8d de fc 3e 66 5c 34 bf 01 0b 0d bf
       0.33446184 0.49388543 -0.7045349 -0.55094916
000160 9c a6 68 3f 3b 91 f8 be b4 a0 a8 3f a2 3a 94 3e
       0.90879226 -0.48548302 1.3174043 0.28950983
000170 c3 51 52 3f 0f 50 1a bf cb ac 28 bf f3 a3 87 be
       0.8215601 -0.6027841 -0.6588866 -0.2649227
000180 85 d9 de 3f 98 b7 b8 3d f9 b1 a2 bf 24 7f cd 3e
       1.7410132 0.09019393 -1.2710563 0.40136063
000190 64 fa a2 3e b9 64 b1 bf 77 83 f0 3e 51 ef 1d 3f
       0.31831658 -1.3858863 0.469753 0.6169329
0001a0 79 64 81 be a4 a1 06 3f ae 57 b1 bf e5 29 27 3f
       -0.25271967 0.52590394 -1.3854883 0.652983
0001b0 1b 4f 1a 3e cf de 09 bf 1b 7a e7 be 39 b7 4c bf
       0.15069239 -0.53855604 -0.45210347 -0.79967076
0001c0 0b 7d f3 3e 71 8d 13 3e b2 04 e0 3d b0 30 c2 3f
       0.47556338 0.14409424 0.109383956 1.5171108
0001d0 15 a6 cc bf 58 a4 0d bf c0 4e 6f bf ba f1 3b be
       -1.5988184 -0.55328894 -0.9347954 -0.1835393
0001e0 1e 0e 28 c0 76 29 81 3e 09 1f 7b be a7 ab ac 3f
       -2.6258616 0.25226945 -0.24523558 1.3489884
0001f0 3d f2 b4 bf bd de 74 3e 78 b9 17 bf 93 30 1e bf
       -1.4136425 0.23913093 -0.5926738 -0.6179287
000200 62 e6 75 3f 2f 91 9d bf 48 2b a7 bf a3 6a 8f bf
       0.9605466 -1.2309932 -1.3060083 -1.1204418
000210 47 41 9e 3f 6c 80 6f be d7 de 6d 3f cb 8a 49 bf
       1.2363671 -0.23388833 0.9291815 -0.78727406
000220 11 95 1c 40 48 02 05 c0 ed 7c 3f bf 76 87 37 bf
       2.4465983 -2.0782642 -0.74799997 -0.7169107
000230 12 db 18 bf 49 4b a5 bf d0 15 ce 3e d7 12 c3 bf
       -0.59709275 -1.29136 0.40251017 -1.5240124
000240 35 20 29 3e 81 5f b5 be b9 02 48 bf f3 b3 ac bf
       0.16516192 -0.35424426 -0.78129154 -1.3492416
000250 28 fb 8f 3e d9 e8 8a bf 99 9d 16 c0 59 91 74 3d
       0.28121305 -1.085231 -2.353369 0.059708927
000260 30 8d 35 bf 13 f3 db bf 72 3c 57 bf d6 e9 98 3f
       -0.7091856 -1.7183555 -0.8407661 1.1946361
000270 36 70 3d bf 10 d4 55 bf c1 46 6a 3f 35 ff a2 3f
       -0.73999345 -0.83526707 0.9151421 1.2734133
000280 3f aa 5c bf c5 6e ac bc f1 06 d5 bf bd 1b 83 bf
       -0.86197275 -0.021048913 -1.6642743 -1.024284
000290 98 a4 cc 3e db 1f ca 3f 52 a8 5f 3f 0c d9 67 bd
       0.39969325 1.5790972 0.8736621 -0.056603476
0002a0 d9 8e fb 3e 66 b7 7e 3c 0a 85 92 bf 6a 4a 61 bf
       0.49132422 0.015546655 -1.144685 -0.8800417
0002b0 54 1b 26 40 3c 0c c0 be 23 e9 a1 be 1a ae 29 bf
       2.595418 -0.37509334 -0.31623182 -0.6628128
0002c0 1a 9a 95 3f d7 38 45 3f f3 91 00 40 6e 93 65 bf
       1.1687653 0.77039856 2.008908 -0.89678085
0002d0 21 8c eb 3d bb 22 ca 3f 85 c4 15 bf c8 73 e8 3f
       0.11501337 1.5791849 -0.5850299 1.8160334
0002e0 93 00 7b 3f 1e 56 92 3f 55 4e 0d 3f 52 73 59 bf
       0.9804775 1.1432531 0.5519765 -0.8494159
0002f0 4d a0 eb be 4f 46 ba 3e c6 ee 28 bf 94 9e 5e 3f
       -0.46020737 0.36381766 -0.6598934 0.8696072
000300 e6 50 87 bf 77 b1 ee 3e cc 46 74 bf af 38 10 3e
       -1.0571563 0.4661977 -0.9542053 0.14084123
000310 57 fc c7 3f 73 7d c6 3f df 33 65 bd ee e6 67 bf
       1.5623883 1.5507034 -0.05595767 -0.90586746
000320 71 0e 08 be 07 62 9b bf 23 ac 0b c0 a8 46 39 3f
       -0.13286759 -1.213929 -2.1823814 0.7237344
000330 1e 91 f5 bf af 13 be 3e 43 ec 10 40 41 44 08 3e
       -1.9184911 0.37124392 2.2644203 0.13307287
000340 cc e4 bd bf 30 fb 65 bf 91 93 cb bf cf 5c 6e 3f
       -1.4835448 -0.89836407 -1.5904409 0.93110365
000350 e3 cc e2 3d b3 5d 86 3f d9 5b 04 40 91 25 82 be
       0.11074235 1.0497345 2.068106 -0.25419286
000360 c8 54 9a bf e2 1b d9 bf e7 76 02 3f 92 fd b5 3f
       -1.2057123 -1.6961634 0.5096268 1.4218009
000370 92 5d 45 3f 8a a9 29 be 86 39 98 bf b7 49 bd 3f
       0.770959 -0.1656858 -1.1892555 1.4788121
000380 33 8d 9d 3f 8f 86 b8 be b5 44 27 bf c6 81 23 bf
       1.2308716 -0.3604016 -0.65339214 -0.63869894
000390 4e 57 1c bd b6 7c f5 bd 19 9c 3d bf c2 a5 ef be
       -0.038169198 -0.11986677 -0.7406631 -0.4680615
0003a0 af 9f ba 3e fc db 31 bf 51 99 00 bf 57 33 ff 3f
       0.36449954 -0.69476295 -0.5023394 1.9937543
0003b0 47 ee 9f be 9f 3c f8 bf 95 05 49 3f 61 b6 8b bf
       -0.3123648 -1.93935 0.7852414 -1.0915033
0003c0 8f ee ca 3e f8 cd 97 bf 76 c9 92 3f 95 17 17 c0
       0.3963513 -1.1859732 1.1467731 -2.3608143
0003d0 3f a8 0e 3f 8c ba df 3d 49 52 c9 be 93 55 9e bf
       0.55725473 0.10924253 -0.3932059 -1.2369865
0003e0 85 68 64 3f c6 3a ff be 5f af cc 3f 22 33 23 c0
       0.89221984 -0.49849528 1.5991019 -2.549996
0003f0 1e 50 80 3f 46 22 cf bf 1e c4 d3 3f 82 95 06 3f
       1.002445 -1.6182334 1.6544225 0.5257188

fc_layers.0.weight f4 [32, 64]
000000 98 90 8d 3e 8e ed 87 3d 10 d8 45 be 51 36 e3 bd
       0.2764938 0.06637107 -0.19320703 -0.110943444
000010 61 ed e2 bc 59 ef 0a bf 3c 35 8e 3e 43 31 da 3e
       -0.027701082 -0.54271466 0.2777499 0.4261571
000020 7e 64 4d bd 2e 0e bc 3e 25 44 8c 3d a1 7a b3 bd
       -0.050144665 0.36729568 0.06848935 -0.08763624
000030 07 d3 87 3d 62 71 8e 3e 38 db a2 be 11 ec b6 be
       0.06632047 0.2782088 -0.31807876 -0.3572698
000040 83 c1 b3 3e 8c e2 08 be 13 8f 0f 3e 5a c4 78 bd
       0.35108575 -0.13367671 0.14019422 -0.06073413
000050 31 51 46 3e a6 dc 84 3e 74 ad 3a 3e e7 a7 89 3e
       0.1936691 0.2594959 0.1823023 0.26885912
000060 28 41 2f 3f 31 5d 56 be 63 5c 93 bd 87 ab c2 bd
       0.68458796 -0.20933987 -0.07195356 -0.095053725
000070 88 6f 13 3e 6c 18 fa 3c 81 6d fa 3d da 75 39 3e
       0.14398015 0.030529223 0.122279175 0.18111363
000080 12 b7 e7 3e 9c fb 9c 3e ac 52 5a 3d fe f3 bb 3e
       0.4525686 0.30660713 0.0533015 0.3670959
000090 03 6a 6f be 56 3d bc be 9e 57 f0 3d ea 85 fa bc
       -0.23380284 -0.36765546 0.11735462 -0.030581433
0000a0 07 c8 44 3f 26 27 50 3e e1 10 04 3f 0d 31 5c be
       0.7686772 0.20327434 0.51588255 -0.21503086
0000b0 7c 8c c7 3e 2b b2 06 bf ef 44 70 3e 38 e4 04 3f
       0.3897437 -0.5261561 0.23463796 0.51910734
0000c0 6f db 97 3c be 6b b3 3c 2e d1 9a 3d da 58 aa 3e
       0.018537251 0.021901961 0.07559429 0.33270913
0000d0 ba 24 01 3e 68 2e 2c bd ce a9 c7 be 06 70 41 be
       0.12611666 -0.042036444 -0.38996738 -0.1889039
0000e0 04 29 8a be a9 e4 3f be 89 8a b1 be b3 48 0e 3f
       -0.26984417 -0.1873957 -0.34676006 0.5557968
0000f0 da 56 9e be 90 77 84 3e 86 ed 07 3e 3f b8 dc be
       -0.30925637 0.2587247 0.13274202 -0.4310932
000100 60 ca 0c 3e 5c 31 46 be 41 60 c0 be c4 c6 0a 3d
       0.13749075 -0.19354767 -0.37573436 0.033880964
000110 d2 e4 00 3e e1 68 4c 3e 66 42 9b be b2 81 8e bd
       0.12587288 0.19961883 -0.30324095 -0.06958331
000120 fb f1 4b bd ae 4d fa 3e 7d 7c b5 3d b6 c5 33 3b
       -0.049791317 0.4888739 0.08861635 0.0027431077
000130 76 5e 57 be f2 10 50 be 51 53 23 be 51 57 09 be
       -0.21032128 -0.20318964 -0.15949751 -0.13412215
000140 f8 33 15 3d 46 db 4b bd e4 91 49 3c cd b4 8a 3d
       0.036426514 -0.049769662 0.012302849 0.06772766
000150 04 73 df 3c a3 28 75 be 24 b6 9a 3d af 86 ee bc
       0.027276523 -0.23941283 0.07554272 -0.029116957
000160 53 d9 34 be 1a 69 82 bc a0 cc 8a be e4 10 81 be
       -0.17661028 -0.015919257 -0.2710924 -0.252082
000170 8d 81 21 3e 50 39 01 3f 61 5c 81 3e 3d 80 9f 3e
       0.15772076 0.50478077 0.25265792 0.31152526
000180 d8 4d d2 bd 29 0f 54 3e 86 5d 12 be 81 32 a4 3e
       -0.10268754 0.20708908 -0.14293489 0.3206978
000190 e7 d0 c2 be b9 e5 fc 3d 4d 22 e3 be 06 bc cd be
       -0.38050005 0.123485036 -0.44362107 -0.40182513
0001a0 85 7a 19 be 58 e5 b0 3e d6 8d ca 3e 3c de 7b bf
       -0.14988144 0.34549975 0.39561337 -0.9838598
0001b0 9d 26 a5 3e dc a1 ca bd 3e b6 cf 3e bf db 03 3e
       0.32256022 -0.098941535 0.40568727 0.12876795
0001c0 db 1a 1a be be 81 89 3d 49 3e 0f 3f 1b 02 51 bc
       -0.15049307 0.067141995 0.55954415 -0.01275685
0001d0 88 86 08 3f 77 01 a3 3e 34 1b a0 3e e4 6a cb be
       0.5333028 0.31837055 0.31270754 -0.3972999
0001e0 a9 f9 53 3d 3d 33 58 3e 21 79 14 3e 08 8b d0 3e
       0.051751766 0.21113296 0.14499332 0.40731072
0001f0 9f 54 f1 3c 0e 4c b9 be ba 0b 79 3e 31 f8 93 3e
       0.029459296 -0.36190838 0.2432088 0.28900293
000200 63 c8 bd bd c5 2d 62 3d 6f 59 67 be 2f 03 16 3e
       -0.09266736 0.05521943 -0.2259271 0.14649652
000210 04 d0 93 3e f7 6a d8 bd 97 f0 ed 3d 1f 35 d9 be
       0.2886964 -0.10567277 0.116181545 -0.4242334
000220 8a dc 23 3e 19 c7 3c 3e 5d ce 9c 3e e4 fa ab 3c
       0.16002098 0.18435325 0.30626193 0.020993657
000230 06 af 96 bd e6 b3 b4 be c0 ce bb be b0 ec 6d 3e
       -0.07357602 -0.35293502 -0.36681175 0.2323482
000240 05 2d d2 3e 64 24 7c 3e 94 e7 21 be 9d c3 ab 3d
       0.41049972 0.24623257 -0.15810996 0.0838692
000250 58 6d 16 3d 87 d7 05 ba ac 74 82 be e2 46 e4 3c
       0.036725372 -0.00051056634 -0.2547964 0.02786583
000260 8e 9b 88 be 8e 39 14 be 15 44 68 be 02 24 20 be
       -0.2668118 -0.1447508 -0.22682221 -0.15638736
000270 81 da df 3d 1c cb f7 3e 9e 48 30 3e ee c3 07 3d
       0.10930348 0.48397148 0.17215201 0.033145837
000280 8e d5 a0 3d 13 8e 4e be 9e 59 fe 3c 9a d4 fc be
       0.07853232 -0.20171385 0.031048592 -0.49380952
000290 64 bf d9 be 89 28 a4 3e 8c 16 74 3e a0 e0 ae be
       -0.42528832 0.32062176 0.23836726 -0.3415575
0002a0 c5 28 bc bd 67 85 04 bf 35 28 90 be 47 ef d1 be
       -0.09187464 -0.51766056 -0.28155676 -0.41002867
0002b0 04 61 79 3d 88 3c 23 be 87 82 04 3f 3a d3 4d 3e
       0.060883537 -0.1594106 0.5176167 0.20100108
0002c0 34 b5 15 3e 0a 7a 4a ba af 73 dc bd af d0 62 bc
       0.14619905 -0.0007723874 -0.107642524 -0.013843699
0002d0 f7 ca 36 bf f5 95 54 3f f3 0f a0 bd 25 92 de 3e
       -0.7140345 0.83041316 -0.07815542 0.43470874
0002e0 14 25 a5 3d 81 5f 26 be bb c0 32 be ba 07 30 bf
       0.08063713 -0.1624737 -0.17456333 -0.6876179
0002f0 53 bb 37 bf 3d e1 65 3e a3 fd 13 bd 50 cb dd bd
       -0.7177021 0.22449203 -0.03613056 -0.108297944
000300 ee ec 2e 3e 0c 20 26 bd 4d 5a 1c be 8c 61 16 3e
       0.17082569 -0.040557906 -0.15268822 0.14685649
000310 d6 7a b2 3d 38 84 c5 3d 92 2f 9f bd 3c 7f 96 3e
       0.08714835 0.09644359 -0.07772745 0.29393947
000320 4f d5 64 3e 33 e2 56 bd 0f b1 aa 3e 3c 01 e9 bd
       0.22346996 -0.052461814 0.3333821 -0.113771886
000330 53 59 9e be 64 67 7a bb 58 8b 93 be 2d 54 83 be
       -0.30927524 -0.0038208598 -0.28817248 -0.2565016
000340 fc 05 25 3e c3 73 27 bd aa 31 4d 3e 45 6a fa bd
       0.16115564 -0.040881883 0.20038477 -0.122273006
000350 ea 4c c1 bd b5 cb 04 bf ad ec 46 3e d0 dc 85 bd
       -0.09438498 -0.5187333 0.19426222 -0.06536257
000360 85 17 5e be 31 5d 1a 3d 92 e7 58 bc 8e 5f 67 3d
       -0.2168866 0.03768653 -0.013238804 0.056487612
000370 84 40 72 3e 16 71 7d 3e 42 83 be bd 91 b5 2d 3e
       0.23657423 0.2475017 -0.09302379 0.16963793
000380 94 6d b7 be 20 e1 2a be 54 f9 a1 be 12 f8 52 3e
       -0.3582579 -0.16687441 -0.31635535 0.20602444
000390 1f 72 29 be 78 8a da be 28 08 38 bf c4 6e 7a be
       -0.1654744 -0.42683768 -0.71887445 -0.24456316
0003a0 9e e0 c3 3e 0e cb 09 be fa 17 3c bf 30 c1 1f 3d
       0.38257307 -0.13456365 -0.73474085 0.039002597
0003b0 5f c6 34 bc 9c b1 16 3e e8 24 1e 3e 4b f2 02 be
       -0.0110336235 0.1471619 0.15443766 -0.1278774
0003c0 21 bf 90 bd a1 88 83 bd 7c 75 ac be 37 82 d2 bd
       -0.07067705 -0.06422544 -0.33683383 -0.10278743
0003d0 3b 46 af be 29 24 a7 be f1 57 8d be 34 de 76 3e
       -0.3423327 -0.32644776 -0.27606156 0.24108201
0003e0 ff 54 f5 3e 3c f7 eb 3e 3f ad aa 3e 2d 4f 3b be
       0.4791641 0.46087062 0.333353 -0.18291922
0003f0 5e 16 93 3d d8 d6 bc be 4d 86 89 3e b5 21 1e 3e
       0.071820006 -0.36882663 0.26860276 0.15442546

fc_layers.0.bias f4 [32]
000000 d4 35 d3 be 5a c0 93 3e ba 79 86 be ed a5 13 bd
       -0.41252005 0.2885769 -0.26264745 -0.03604691
000010 fa 02 0c bf 4c d2 2d be 0c b5 22 bf 6b 1f a3 3e
       -0.5469204 -0.16974753 -0.63557506 0.31859908
000020 a3 1d 3d bf 7f f4 eb be 68 7b 14 bf f1 7b d8 be
       -0.7387335 -0.46084973 -0.58000803 -0.4228206
000030 46 94 12 3f 4e d9 aa bc a5 ba 08 bf e3 f9 e2 be
       0.572575 -0.020855572 -0.53409797 -0.44331273
000040 9a 10 f7 be a2 e6 d4 be fe 4a f5 be 52 8a bd 3e
       -0.48254853 -0.4158221 -0.47908777 0.37019593
000050 31 bf b9 bd 60 cf e4 be 0c 0f dc be 63 d3 07 bf
       -0.0906967 -0.44689465 -0.4298023 -0.53056926
000060 85 74 02 bf 3f a5 21 bf 73 aa 1f be e9 28 aa be
       -0.50959045 -0.6314277 -0.15592365 -0.33234337
000070 7e f4 a5 be 04 df a2 be a1 b3 1a bf f7 73 45 be
       -0.32413095 -0.31810772 -0.6043034 -0.19282518

fc_layers.1.weight f4 [16, 32]
000000 a3 c6 24 3f 7b a1 30 be ca 0c ae 3e f2 2e 67 bf
       0.64365596 -0.172491 0.33994132 -0.9030601
000010 67 3a b8 be 7e ef 70 be 12 d5 76 be 84 c8 98 3e
       -0.35982057 -0.23528859 -0.24104717 0.2984048
000020 31 1a 04 3f 1e 20 4b 3f 8f 5b 84 3c 42 d5 25 3f
       0.51602465 0.7934588 0.01615694 0.6477853
000030 5d 38 81 3d e5 d6 08 3f 4d 91 22 3f 5f ca 7b 3e
       0.063095786 0.53452903 0.6350296 0.24588917
000040 8d 20 42 be 74 97 f8 3e 5f 92 e6 3d c7 85 35 3e
       -0.1895773 0.4855305 0.11258387 0.17726813
000050 76 7c 32 3f 4d 2f 85 bd ee 75 75 3e 2f e7 11 bd
       0.6972116 -0.065031625 0.23970768 -0.035620864
000060 6f 9e 14 3d 69 fa b1 3e 90 6b a1 3e ef ff 49 3e
       0.036283907 0.3476136 0.31527376 0.19726537
000070 3e c6 0f bf 31 2b e0 3e a7 e1 29 3e 43 6d 08 3f
       -0.5616187 0.43782952 0.16589986 0.5329172
000080 3a 98 5a 3f 05 4e 28 bf b2 e0 00 3f 4e f7 c7 3d
       0.8538853 -0.6574405 0.5034286 0.097639665
000090 32 39 aa 3e 36 f7 74 be 57 b8 18 3e 86 af 07 3f
       0.33246762 -0.23922428 0.1491407 0.530022
0000a0 84 6b 33 3f 2b 43 22 3f 75 2f b2 be 7f 3c 25 3f
       0.7008593 0.6338374 -0.34801832 0.64545435
0000b0 f9 68 18 be 1b 81 f3 3e a0 55 3b 3f 69 e5 2b 3e
       -0.14883794 0.47559437 0.7317753 0.16786732
0000c0 b1 8a 6e 3e 56 53 67 3f a0 1d 70 3e 6f ea 9b 3e
       0.23295094 0.90361536 0.23448801 0.30452296
0000d0 c5 c9 ea 3e 15 1d b7 bc b3 bd 3d 3e 8f f5 66 be
       0.45857063 -0.022352735 0.18529396 -0.2255461
0000e0 da 7c 88 3e 20 df 56 3e 45 76 ef 3d f9 09 a6 3e
       0.26657754 0.20983553 0.1169248 0.32429484
0000f0 e7 f3 db bd 9d ec 2b 3f 05 61 ed 3d e0 dc 70 3e
       -0.1073988 0.6715792 0.11590771 0.23521757
000100 5c c8 41 3f 33 f6 10 bf 71 6f 14 3f bf 65 a0 bc
       0.7569635 -0.5662567 0.57982546 -0.019579766
000110 cd b1 82 3e f4 cf 6a be 7e a5 0d 3e 1a 34 f0 3e
       0.25526276 -0.2293089 0.13832662 0.4691475
000120 bc 2a 08 3f fd 8b 09 3f 3f 42 e8 be dc 7b 1b 3f
       0.5319021 0.5372923 -0.45363042 0.6073587
000130 df a3 c8 bd c7 25 0b 3f ad 23 3f 3f 1a b0 a2 3d
       -0.09796881 0.5435452 0.7466381 0.07943745
000140 cd c9 e7 3e b3 a2 6b 3f 18 92 d9 3d 44 2b 84 3e
       0.4527115 0.92045134 0.10623568 0.2581426
000150 aa 8b f9 3e 66 40 63 bd 42 18 a9 3c 55 a2 d8 bd
       0.48739368 -0.055481337 0.02064145 -0.105778374
000160 27 5c 9c 3e 0e 71 b2 3e d2 85 16 3e 22 5e 53 3c
       0.30539057 0.3485188 0.14699486 0.012900861
000170 cf 7a cc 3d af 82 29 3f 4e e3 83 3d a5 0d 9b 3e
       0.099843614 0.6621503 0.06439839 0.30283847
000180 da e8 83 be 60 98 6a 3e c4 28 59 bf 58 eb e3 3e
       -0.2576359 0.22909689 -0.8482783 0.4451549
000190 dc 42 13 bf 21 84 f1 3e 60 62 a0 bf 17 0c 3f 3f
       -0.57523894 0.4717112 -1.2530022 0.7462782
0001a0 5b 2d b6 bd f6 27 ac bd 08 bf 8c bf a2 36 88 3d
       -0.088953696 -0.084060594 -1.0995798 0.066510454
0001b0 a6 04 37 3f 24 ee 08 3f a0 d2 0f 3f 1d 22 34 bf
       0.7149147 0.53488374 0.56180763 -0.7036455
0001c0 7b 5a 8d bf f4 2c 9a 3e 0f 03 00 bf 34 71 28 3f
       -1.1043237 0.30112422 -0.5000467 0.65797734
0001d0 13 40 9f 3d 7d c2 73 bf bf 6b 8b bf 93 85 89 bf
       0.07775893 -0.9521864 -1.0892256 -1.0743889
0001e0 4b ab 3c bf 82 e4 1d bf 35 1e 97 be 70 e4 34 bf
       -0.7369887 -0.616768 -0.29515234 -0.7066107
0001f0 74 6a 4c bf e0 f2 3d bf ea 65 2f bf 4d e9 c4 3e
       -0.79849935 -0.7419872 -0.68514884 0.38459244
000200 81 20 f4 be 7a 6d 13 3d bb c0 8b bf 8b c4 90 3e
       -0.4768105 0.035993077 -1.0918192 0.2827495
000210 8e 4e 75 3e 89 18 48 3f df 45 19 bf 71 88 eb 3e
       0.23955747 0.7816244 -0.5987224 0.46002534
000220 de 87 05 3f 0b 63 92 bd 86 ff d6 bf 7f 2c 6a 3f
       0.5216044 -0.07147797 -1.679673 0.91474146
000230 cf 70 23 3f f1 d0 ab 3e 96 82 8e bd f9 54 83 be
       0.6384401 0.33557847 -0.06958501 -0.25650766
000240 f2 5f 03 bf 8c ae 64 bf d2 a8 55 bf b5 26 91 be
       -0.51318276 -0.8932884 -0.83460724 -0.28349844
000250 45 84 6f 3e 94 53 d7 be 1e 82 b5 3e 3e 82 cb bd
       0.233903 -0.42055953 0.35450834 -0.09936951
000260 0b 10 32 bf dc 66 82 3d 6f 6d d7 bf 08 2c ea 3d
       -0.6955573 0.06367275 -1.6830271 0.114341795
000270 c8 56 b8 3e d5 b7 8a bf b3 42 2c bf 37 e7 0b 3f
       0.3600371 -1.0837351 -0.67289275 0.5464968
000280 16 4f 25 3f bf 91 f3 bf b2 91 37 bd 99 16 14 bf
       0.645738 -1.9028853 -0.04481668 -0.5784698
000290 78 2e 9d be 78 a0 9e bf 44 a0 90 3e c3 5e 85 3e
       -0.30699515 -1.2392721 0.28247273 0.2604886
0002a0 6a 24 9d 3e a4 25 1e 3e 31 a8 1e 3e b7 32 3b 3e
       0.30691844 0.15444046 0.15493847 0.18281065
0002b0 b3 ab 1b be a0 a5 21 3f 02 b6 47 3e fe 5e 1c be
       -0.15202217 0.6314335 0.19503024 -0.15270612
0002c0 af 45 b5 be 44 d9 a0 3e cf 0f 5f 3f a6 d1 2b 3e
       -0.35404727 0.3141576 0.87133497 0.16779193
0002d0 3f 4b 06 3f 1b 84 f4 3d 58 14 87 3e 26 10 e0 3d
       0.52458566 0.119392596 0.2638271 0.1094058
0002e0 25 ef 94 3d 6d b9 11 3f 36 dc d2 3e 98 85 27 3f
       0.07272176 0.5692356 0.41183633 0.6543822
0002f0 6d 3f 59 be cc 36 84 3e 77 a4 01 3f 3a 9e 6b 3f
       -0.21215601 0.25823057 0.5064158 0.9203831
000300 4f 29 4d be ef 09 c1 3d af 6a 8e 3e 5d 6a 2e 3f
       -0.20035289 0.09425723 0.27815768 0.6813105
000310 e9 1d e0 bf 06 16 fc 3e 14 33 62 3f 59 ba e8 be
       -1.7509128 0.49235553 0.8835919 -0.45454672
000320 22 fe ac bf fc b7 3c be 3c 2d d2 3e e8 1c 48 bc
       -1.3515055 -0.1842956 0.41050136 -0.012213923
000330 df 6c 01 3e 7b 54 7c 3c 62 9c 4d 3d 74 70 60 3f
       0.12639187 0.015401001 0.050197966 0.8767159
000340 86 9f a7 3e 95 f1 14 bf 6f b8 b6 3e d7 a0 da be
       0.32738894 -0.58181125 0.35687587 -0.42700836
000350 a1 26 07 bf f9 85 aa 3e 2f 1f b5 3e 46 9d 1d 3f
       -0.5279332 0.33305338 0.35375354 0.61568105
000360 25 4a 38 bf 3c 12 71 be e8 ba 38 3f cf 6c ba be
       -0.71988136 -0.23542112 0.72160196 -0.3641114
000370 37 e5 01 3f 7b a4 b9 3e 71 6a db 3e f5 1a b9 bf
       0.5074038 0.362583 0.42854646 -1.4461352
000380 ab 44 8a 3e e7 e0 c7 3e 20 80 09 bf 68 e6 f1 3e
       0.27005515 0.39038774 -0.5371113 0.472461
000390 ef 99 5d bf cd 9c 01 3f 0b f4 8a bf b2 ac 1e 3f
       -0.8656301 0.50629884 -1.0855726 0.6198226
0003a0 2a 13 6f bc 9b 53 af bf 4e 93 a3 bf de 89 85 be
       -0.014591971 -1.3697389 -1.2779329 -0.26081747
0003b0 e2 4d f1 3e 6f 96 1e 3f dc dd e4 be 9a a9 0c c0
       0.47129732 0.61948293 -0.44700515 -2.1978517
0003c0 11 42 eb 3c 1b 8e 19 bf 43 aa 5d bf a0 4a c7 3e
       0.028718026 -0.5998246 -0.86587924 0.38924122
0003d0 8f f3 bf 3e 25 ef 9d be e8 f2 25 be 93 2b 7a bf
       0.37490508 -0.30846515 -0.16205943 -0.9772274
0003e0 91 59 be be 97 38 56 bd 81 6e 18 bf bd 79 35 be
       -0.3717771 -0.052300062 -0.59543616 -0.1772222
0003f0 fe 7a 42 bf 76 47 66 bf 1f 4d 80 be 26 1e 0c 3f
       -0.7596892 -0.8995279 -0.2505884 0.547335

fc_layers.1.bias f4 [16]
000000 7f c3 05 bf f7 0e c0 be fa 91 9f bd 8d 89 79 3f
       -0.5225143 -0.37511417 -0.07791515 0.9747551
000010 69 c6 37 3f b5 d6 55 bf b4 c6 0a 3f d3 d3 12 3f
       0.71787125 -0.8353074 0.54209447 0.5735447
000020 8d 9c 92 3e fa b2 9d 3e 8d 69 1d bf 79 d4 85 3e
       0.28635064 0.3080061 -0.6148918 0.26138666
000030 7a 32 58 3f ae 55 2f 3f 86 d5 c0 be bd 83 e9 be
       0.8445202 0.6849011 -0.37662905 -0.4560832

affine_output.weight f4 [1, 16]
000000 95 c8 94 bf f9 70 54 bf 2f 70 47 bf f7 35 8c 40
       -1.1623713 -0.8298488 -0.77905554 4.3815875
000010 b5 1c 40 40 be fa 1a c0 6e 00 10 40 84 88 78 40
       3.0017521 -2.421554 2.2500262 3.8833323
000020 d4 4e 32 40 e7 d9 2e 40 be c9 90 bf 8d 39 87 40
       2.7860613 2.7320497 -1.1311567 4.2257752
000030 d5 d9 8f 40 80 a7 55 40 d6 ed 6a bf 03 d2 84 bf
       4.495341 3.3383484 -0.9176916 -1.037659
