checkpoints/MLP_Epoch1_HR0.1399_NDCG0.1206.model (torch, 261263 bytes, 7 tensors)

embedding_user.weight f4 [51, 32]
-1.1561663 1.2870351 -0.11842836 -0.8957292 0.18846034 -0.39596555 -0.6724371 -1.0177654
1.3945098 -1.5206488 -0.45955223 -0.4772832 -0.007103747 -1.6146288 1.202345 -0.94112796
0.031626314 0.39694732 -0.13587947 0.51457816 -0.14107981 -1.1553419 0.85699415 -2.2305188
-0.29491392 0.6706258 0.005226882 -0.4982101 0.008872134 -0.7193462 0.5121684 -0.14843173
0.6900583 -0.5124446 -0.92630404 0.22542839 0.20747532 -0.057491384 1.2319533 -1.3076749
0.4464416 -0.7255355 -0.76458025 0.42666638 1.6685652 -0.9225318 -1.0413918 0.18245521
-0.7446771 -0.14039962 -2.850121 -0.349637 -0.42853776 -0.4886729 1.2700969 0.14942664
-1.4005983 -0.08102596 0.6187017 -0.08812665 0.46512115 0.5957161 -0.54173833 1.8836612
0.8918107 0.5930699 1.016837 0.46767378 0.8497889 0.63975537 -1.1517673 0.75169617
0.20946778 0.8793043 -1.5300784 -0.35519546 0.40888232 0.92955214 0.33274746 -0.42384496
0.32471025 1.3759654 -1.03043 0.7703478 2.4896915 0.6488072 0.8142107 -0.55920047
0.17556833 0.6300591 0.9662866 -0.08655375 1.6145244 0.16269974 0.62555015 0.09974168
-0.8171488 -0.41531923 -0.15718998 0.18894535 -0.3415237 -0.73749405 -0.22806619 -0.83969104
0.7085908 0.29148206 0.113019526 -1.5998472 -0.7932597 0.036802992 0.96036553 -1.110461
0.4217519 -0.21068694 -0.5463166 2.2356956 1.024314 -0.5313138 0.6114772 0.15606466
-0.106546976 -0.26477197 -0.54670054 -0.130697 -0.14363442 0.20469642 -1.2855433 -1.1555632
0.900639 -0.20645116 0.9388413 1.7888244 1.8872963 -0.5279382 -0.036703862 -1.3190542
-1.0478129 0.5708335 1.2300539 1.519596 -0.16688088 0.12730163 0.41839093 1.1412004
0.86041963 1.0837454 0.4274413 0.72163147 -0.8730132 2.2296658 -0.018228715 0.72073996
-0.3271658 0.18759046 -0.3259874 0.3684111 0.805858 0.9527435 0.15501525 0.5740648
-0.37016216 1.33741 1.4879268 0.40222442 0.53882694 -0.8999899 0.942976 0.04428637
-0.3156804 -2.8682659 -0.40770057 0.98419005 0.56323963 1.0504055 0.3819476 -1.1002475
0.72235703 -0.4546911 -1.3041856 0.8504941 -1.4947152 -0.7304267 -2.851765 -1.4692197
-0.6075936 -2.7753055 2.3759954 1.117698 0.19203132 -2.01775 0.52290463 0.22358558
0.38537914 -1.4081391 0.29378656 -0.82499385 0.6769295 -0.7636217 -1.1293212 0.95258343
-0.8032551 0.8872902 -0.22289802 -0.3081252 -2.3385162 0.7133879 0.73427147 -0.7428425
0.19879335 0.22208916 1.6818612 -1.3221725 0.69239855 1.043325 0.61098695 1.1908469
-0.41432816 -1.1076891 -1.3638078 -0.12680446 -1.3476084 1.0504564 -0.7298558 0.46366322
-1.8130755 -1.1612842 -0.2959137 1.37306 1.4656652 1.3148928 1.1418835 -1.6956646
-1.9074306 0.35970828 0.13526039 -0.37583646 -1.4668629 -2.0979972 1.196101 1.0141562
0.064760104 -0.897332 -1.539514 0.5359966 -0.3489665 0.42177755 -0.42462757 1.4535856
-0.8659008 -0.6243963 -0.67600083 -0.05721621 -0.7192462 -0.4346779 0.31858742 -1.3740598
00000000: 42fd 93bf 91bd a43f 918a f2bd 824e 65bf
00000010: bffb 403e ffbb cabe d624 2cbf 2346 82bf
00000020: 4c7f b23f 9fa4 c2bf 6e4a ebbe 775e f4be
00000030: 8dc6 e8bb 28ac cebf 71e6 993f c3ed 70bf
00000040: 988a 013d ae3c cb3e fd23 0bbe 65bb 033f
00000050: 3a77 10be 3ee2 93bf f863 5b3f d2c0 0ec0
00000060: f5fe 96be 22ae 2b3f 4446 ab3b 6515 ffbe
00000070: 6d5c 113c 1327 38bf 781d 033f 7dfe 17be
00000080: a9a7 303f 922f 03bf 4322 6dbf b3d6 663e
00000090: 6974 543e 167c 6bbd a5b0 9d3f e461 a7bf
000000a0: fe93 e43e b2bc 39bf 88bb 43bf 0474 da3e
000000b0: 8b93 d53f 0b2b 6cbf 544c 85bf 8ad5 3a3e
000000c0: 29a3 3ebf ebc4 0fbe 6268 36c0 9f03 b3be
000000d0: 4d69 dbbe 5633 fabe 8992 a23f 4c03 193e
000000e0: ce46 b3bf f0f0 a5bd 3c63 1e3f bf7b b4bd
000000f0: 5c24 ee3e da80 183f 5daf 0abf cf1b f13f
00000100: b54d 643f 6ed3 173f b727 823f f072 ef3e
00000110: c48b 593f 02c7 233f 1c6d 93bf 296f 403f
00000120: b97e 563e 161a 613f 9cd9 c3bf 2edc b5be
00000130: 0659 d13e 21f7 6d3f e05d aa3e 3502 d9be
00000140: 6c40 a63e a21f b03f 21e5 83bf 8335 453f
00000150: 1b57 1f40 3b18 263f 1d70 503f c327 0fbf
00000160: 2fc8 333e 8e4b 213f 8f5e 773f 1843 b1bd
00000170: bca8 ce3f c39a 263e 0e24 203f 5e45 cc3d
00000180: aa30 51bf b9a4 d4be 69f6 20be e47a 413e
00000190: 32dc aebe 69cc 3cbf 2f8a 69be fef5 56bf
000001a0: 3566 353f 233d 953e c876 e73d cbc7 ccbf
000001b0: 1113 4bbf bcbe 163d 84da 753f 9623 8ebf
000001c0: ddef d73e 51be 57be 68db 0bbf a315 0f40
000001d0: b91c 833f 2e04 08bf c589 1c3f 6acf 1f3e
000001e0: 4d35 dabd 3190 87be 91f4 0bbf 6fd5 05be
000001f0: e714 13be f09b 513e af8c a4bf 7fe9 93bf
00000200: 4790 663f ef67 53be e757 703f 33f8 e43f
00000210: ed92 f13f f526 07bf ca56 16bd c5d6 a8bf
00000220: bc1e 86bf 2522 123f 6872 9d3f 1f82 c23f
00000230: d2e2 2abe 5c5b 023e 5637 d63e db12 923f
00000240: 7644 5c3f 2bb8 8a3f 96d9 da3e d7bc 383f
00000250: cb7d 5fbf d8b2 0e40 6354 95bc 6a82 383f
00000260: 4782 a7be b717 403e d2e7 a6be 61a0 bc3e
00000270: b64c 4e3f ffe6 733f 51bc 1e3e e9f5 123f
00000280: e585 bdbe 4030 ab3f 6374 be3f 5cf0 cd3e
00000290: 90f0 093f bd65 66bf e066 713f a065 353d
000002a0: dda0 a1be ab91 37c0 21be d0be e1f3 7b3f
000002b0: 7930 103f b073 863f a38e c33e e9d4 8cbf
000002c0: 64ec 383f 46cd e8be 8eef a6bf fbb9 593f
000002d0: d452 bfbf 3ffd 3abf 5183 36c0 640f bcbf
000002e0: 418b 1bbf 9b9e 31c0 4f10 1840 ba10 8f3f
000002f0: dca3 443e d122 01c0 14dd 053f 9ef3 643e
00000300: 6a50 c53e e73d b4bf 316b 963e cc32 53bf
00000310: 404b 2d3f b67c 43bf 998d 90bf 82dc 733f
00000320: 20a2 4dbf 7325 633f 613f 64be 96c2 9dbe
00000330: 40aa 15c0 97a0 363f 37f9 3b3f ed2a 3ebf
00000340: 7c90 4b3e 576b 633e 3a47 d73f f33c a9bf
00000350: 0841 313f ac8b 853f a469 1c3f ac6d 983f
00000360: d222 d4be c2c8 8dbf 4191 aebf 07d9 01be
00000370: 6f7e acbf 5b75 863f d4d7 3abf 4465 ed3e
00000380: dc12 e8bf f6a4 94bf 0082 97be 6ec0 af3f
00000390: eb9a bb3f 684e a83f 3d29 923f 8a0b d9bf
000003a0: b026 f4bf af2b b83e b381 0a3e a36d c0be
000003b0: 2ac2 bbbf 9645 06c0 d619 993f dfcf 813f
000003c0: f2a0 843d 8db7 65bf cb0e c5bf 1337 093f
000003d0: bdab b2be 3af3 d73e c968 d9be 180f ba3f
000003e0: adab 5dbf 70d8 1fbf 640e 2dbf 8b5b 6abd
000003f0: 8520 38bf 1a8e debe e41d a33e 31e1 afbf

embedding_item.weight f4 [1889, 32]
1.7346532 2.376904 0.3643323 -1.4166747 0.41032174 -0.23880762 1.1876124 0.4925811
0.6402171 -0.2106492 -0.37446123 -0.22090405 -2.146687 1.0735198 -0.369094 -1.4221928
1.0619004 1.2337438 -0.4009263 0.35788515 0.29681164 -1.5329751 0.80401206 0.122747354
-0.1708784 -1.5165808 0.20238706 -1.906606 0.6823582 2.0282946 -1.1272105 0.49354622
0.5834909 0.38238275 1.0453335 -0.7515934 -0.27447113 -0.3035322 1.5718646 1.2519455
-2.6408656 0.1402192 -0.81188303 0.15910475 -1.4432998 0.3220692 1.7038813 -0.9303989
-0.09901538 -0.104717135 1.3144699 -0.466685 -0.2125647 0.4550297 -0.5645243 -0.8874411
0.43403152 -0.07006908 1.2537519 -0.46308708 -1.0047066 0.81222516 0.5589132 0.05786477
-0.19417572 0.324049 1.0666355 -0.7387328 1.0221174 1.5477257 1.5891411 1.0767
0.43500233 -0.8065252 1.9439564 -0.48790058 0.60690534 0.8151862 -0.5663821 1.3726213
0.3867164 0.6579185 0.45044264 -2.2995098 0.34857047 0.52512485 -1.001208 -0.3510902
0.9781506 -0.51816016 1.0417337 0.28064343 0.97906846 -0.7944712 -0.49774858 -0.10117131
1.7638438 0.2295312 -1.2959429 0.33250538 0.21181443 -1.275721 0.08535056 0.60528994
-0.3810366 0.43812242 -1.070323 0.6277236 0.33311743 -0.6309352 -0.22999953 -0.644838
0.55158865 0.15080178 0.46874535 1.2722757 -1.5415417 -0.3991448 -0.74806225 -0.1877976
-2.416957 0.03049338 -0.19455685 1.2787247 -1.4533156 0.13345239 -0.52203214 -0.5590499
0.8434508 -1.3488761 -0.85283965 -1.0269852 1.3175257 -0.34232146 0.8870468 -0.83249485
2.317165 -2.222088 -0.72596216 -0.86765087 -0.5846364 -1.5717782 0.56473184 -1.3559088
0.34732237 -0.14487757 -0.6257292 -1.0236014 0.36855897 -1.0141728 -2.4433265 -0.13506855
-0.65973204 -1.3582544 -0.8122555 1.0798848 -0.7035101 -0.81634194 0.9476507 1.0086533
-0.8598251 -0.0058337334 -1.5536263 -1.181759 0.42398173 1.387579 0.8503305 -0.011835466
0.50526285 -0.020886926 -1.1682814 -0.85457444 2.5023255 -0.33777615 -0.25455943 -0.5184798
1.116296 0.6250912 2.058118 -0.9286469 -0.05071767 1.6485488 -0.7636853 1.5254887
0.9948373 1.2697871 0.4833635 -0.87857354 -0.32009348 0.18487333 -0.6631983 0.8487132
-1.0931551 0.49291492 -0.99953413 0.0560132 1.5442768 1.41461 -0.22730334 -1.0315723
-0.16165808 -1.1841271 -1.8313195 0.46684602 -1.7676417 0.24255316 2.3944888 0.3351971
-1.2524694 -0.76818484 -1.7629762 0.7169033 0.011708435 1.1548362 2.0706797 -0.23331128
-1.2507972 -1.4835751 0.3382612 1.2415533 0.7540478 -0.25162262 -0.78467715 1.3649805
1.2258079 -0.33731845 -0.90081006 -0.76854897 -0.17344461 -0.15154149 -0.6955478 -0.51293766
0.29265398 -0.4813594 -0.5722151 1.7622099 -0.2661228 -1.8627923 0.7198858 -1.0233015
0.26229572 -1.058702 1.120749 -2.3028085 0.6872693 0.13726136 -0.30361483 -1.1099057
0.7871316 -0.49811345 1.6373343 -2.4814878 0.8950376 -1.4795134 1.6055902 0.51463133
00000000: 1e09 de3f 321f 1840 c389 ba3e 9955 b5bf
00000010: b115 d23e fc89 74be af03 983f 9733 fc3e
00000020: 45e5 233f 6db4 57be 62b9 bfbe ac34 62be
00000030: 5263 09c0 1969 893f e4f9 bcbe 6a0a b6bf
00000040: 5aec 873f 51eb 9d3f 3646 cdbe b93c b73e
00000050: b2f7 973e 8738 c4bf bcd3 4d3f f762 fb3d
00000060: bffa 2ebe 521f c2bf 8e3e 4f3e aa0b f4bf
00000070: 07af 2e3f 94cf 0140 6f48 90bf 17b2 fc3e
00000080: a95f 153f acc7 c33e 7dcd 853f 6d68 40bf
00000090: 7b87 8cbe 9368 9bbe dc32 c93f c03f a03f
000000a0: f103 29c0 9f95 0f3e 91d7 4fbf 5bec 223e
000000b0: 0cbe b8bf 41e6 a43e c818 da3f 9f2e 6ebf
000000c0: 93c8 cabd f075 d6bd 8d40 a83f 56f1 eebe
000000d0: 90aa 59be a7f9 e83e aa84 10bf 572f 63bf
000000e0: 6139 de3e 6180 8fbd f17a a03f c019 edbe
000000f0: 3a9a 80bf fded 4f3f ef14 0f3f 9c03 6d3d
00000100: 00d6 46be c0e9 a53e 8387 883f 981d 3dbf
00000110: bed4 823f e01b c63f fa68 cb3f 4ed1 893f
00000120: a0b8 de3e 6f78 4ebf 90d3 f83f 1bce f9be
00000130: 265e 1b3f 0bb0 503f 6bfe 10bf 0eb2 af3f
00000140: b1ff c53e 596d 283f 6ba0 e63e 2b2b 13c0
00000150: d477 b23e 956e 063f 9527 80bf 18c2 b3be
00000160: 1468 7a3f 25a6 04bf 8857 853f 7fb0 8f3e
00000170: 3ba4 7a3f 7762 4bbf e7d8 febe e732 cfbd
00000180: a2c5 e13f 3a0a 6b3e 75e1 a5bf 253e aa3e
00000190: e2e5 583e d34a a3bf 46cc ae3d 48f4 1a3f
000001a0: 3b17 c3be 9551 e03e 5800 89bf 7eb2 203f
000001b0: 5e8e aa3e f884 21bf ff84 6bbe 1a14 25bf
000001c0: ea34 0d3f c86b 1a3e 64ff ef3e eed9 a23f
000001d0: 3d51 c5bf b55c ccbe 0281 3fbf 044e 40be
000001e0: 6caf 1ac0 41cd f93c e939 47be 40ad a33f
000001f0: 3f06 babf bea7 083e e6a3 05bf e51d 0fbf
00000200: 64ec 573f f9a7 acbf b353 5abf 4074 83bf
00000210: afa4 a83f c244 afbe 8015 633f 621e 55bf
00000220: 6e4c 1440 b136 0ec0 a8d8 39bf 5e1e 5ebf
00000230: bbaa 15bf 0730 c9bf 4492 103f 6b8e adbf
00000240: 3dd4 b13e c95a 14be ca2f 20bf 5f05 83bf
00000250: c3b3 bc3e 6ad0 81bf 765f 1cc0 694f 0abe
00000260: 33e4 28bf 48db adbf faef 4fbf aa39 8a3f
00000270: 3d19 34bf c9fb 50bf 3c99 723f 8d1b 813f
00000280: 7f1d 5cbf e728 bfbb 3add c6bf e143 97bf
00000290: 2214 d93e 309c b13f 42af 593f 8be9 41bc
000002a0: e858 013f 0f1b abbc 3f8a 95bf 64c5 5abf
000002b0: 1a26 2040 fff0 acbe 9d55 82be 18bb 04bf
000002c0: cae2 8e3f fa05 203f 35b8 0340 cebb 6dbf
000002d0: 55bd 4fbd a603 d33f e180 43bf 3743 c33f
000002e0: a8ad 7e3f 6288 a23f 6c7b f73e 32ea 60bf
000002f0: 4be3 a3be 6f4f 3d3e 5dc7 29bf 4545 593f
00000300: 82ec 8bbf 585f fc3e 78e1 7fbf 196e 653d
00000310: ddaa c53f f111 b53f 35c2 68be 900a 84bf
00000320: b289 25be 7a91 97bf ad68 eabf 7106 ef3e
00000330: 1542 e2bf db5f 783e 4e3f 1940 f49e ab3e
00000340: eb50 a0bf c3a7 44bf 34a9 e1bf fa86 373f
00000350: bcd4 3f3c acd1 933f 0486 0440 27e9 6ebe
00000360: 1f1a a0bf cae5 bdbf 9230 ad3e 38eb 9e3f
00000370: 4709 413f aed4 80be 9ae0 48bf aeb7 ae3f
00000380: 46e7 9c3f 01b5 acbe 7d9b 66bf a0bf 44bf
00000390: 779b 31be b12d 1bbe 6c0f 32bf e24f 03bf
000003a0: bed6 953e bd74 f6be b07c 12bf 1890 e13f
000003b0: 3f41 88be fa6f eebf 704a 383f 8bfb 82bf
000003c0: a04b 863e 8c83 87bf b474 8f3f 3761 13c0
000003d0: e1f0 2f3f 3e8e 0c3e 6773 9bbe 6411 8ebf
000003e0: 7581 493f ba08 ffbe 2c94 d13f b2d0 1ec0
000003f0: 2f21 653f b260 bdbf fb83 cd3f e1be 033f

fc_layers.0.weight f4 [32, 64]
0.21072508 0.0738054 -0.084326714 -0.12914428 -0.013553894 -0.48742443 0.3005311 0.30576316
-0.0006897332 0.29646853 0.020539401 -0.11270534 0.09498811 0.31563896 -0.23858364 -0.34572014
0.28419068 -0.0934032 0.16370293 -0.14582603 0.16120963 0.23620814 0.12761013 0.24506295
0.53551865 -0.09666234 -0.054139584 -0.06277783 0.11882706 0.026847389 0.055745784 0.21960476
0.31562507 0.30509567 -0.011786201 0.2883093 -0.22826402 -0.29250917 0.06461496 -0.05610189
0.63903904 0.12941507 0.45111638 -0.1463511 0.33434168 -0.36062232 0.20283441 0.443941
-0.024621058 0.02664179 0.146083 0.27944118 0.14671987 0.034575254 -0.3228967 -0.1135487
-0.16941534 -0.20327488 -0.22733757 0.48608154 -0.25684938 0.22398803 0.1391866 -0.4307717
0.09951476 -0.1304391 -0.32224643 0.026194321 0.10084458 0.15364686 -0.22253366 0.014040452
-0.03141265 0.39730775 0.04136021 -0.037455633 -0.16120505 -0.20620573 -0.071016595 -0.049765177
0.07411932 0.02032938 0.07343195 0.04584384 0.015267883 -0.18091398 0.056642164 -0.009826384
-0.08932414 -0.011688564 -0.14292291 -0.22150606 0.13222186 0.38050577 0.19214132 0.2746514
-0.04683385 0.1269375 -0.06584825 0.2571714 -0.29288712 0.08652625 -0.30855182 -0.29136038
-0.11827634 0.3198777 0.40774277 -0.75991565 0.25558737 -0.059687447 0.3491023 0.09954246
-0.10399393 0.06616433 0.48455468 -0.0062250383 0.40563267 0.24409443 0.30295032 -0.32026368
0.08500706 0.20203708 0.09191104 0.32558867 0.016035821 -0.296941 0.14196411 0.15879433
-0.069479436 0.0614578 -0.23163015 0.14881164 0.22971712 -0.10472433 0.07976964 -0.31431425
0.18659861 0.1625431 0.2757567 0.013051101 -0.06306532 -0.22187385 -0.23244068 0.16110842
0.3493795 0.18990819 -0.053811092 0.03291962 -0.010548509 0.033228073 -0.21614856 0.061540987
-0.31016356 -0.09872233 -0.15306681 -0.071036115 0.08714272 0.38310552 0.1298843 0.019886844
0.04391625 -0.16796055 0.029176442 -0.38367665 -0.26872766 0.32299381 0.17248252 -0.30484366
-0.07434595 -0.4436878 -0.15587977 -0.3354036 0.05107794 -0.12976716 0.3904608 0.21627568
0.11386549 0.028806694 -0.08371045 -0.0035151453 -0.5727037 0.6679943 -0.07995485 0.40644327
0.0860498 -0.102224186 -0.16896005 -0.5818304 -0.51552063 0.22808823 -0.010874462 -0.11154342
0.1408206 -0.024438292 -0.13922347 0.081479535 0.05573579 0.078954905 -0.002113968 0.21462715
0.15908921 -0.04494863 0.2512699 -0.1042116 -0.22739518 0.04522119 -0.25038588 -0.23068736
0.12226503 -0.045925975 0.16912942 -0.11788792 -0.11501777 -0.44284406 0.14054105 -0.02512835
-0.15092443 0.09244953 -0.0019083433 0.05078203 0.16571797 0.19440499 -0.072574064 0.11340028
-0.28776643 -0.08983309 -0.28625882 0.21577975 -0.109647155 -0.27889296 -0.5689782 -0.1638401
0.289131 -0.09582729 -0.61462486 0.05335893 -0.07623809 0.12023753 0.11336181 -0.08721176
-0.07548465 -0.026419528 -0.29612494 -0.031738553 -0.2631078 -0.2483941 -0.2497132 0.1674861
0.38753366 0.38021436 0.3434371 -0.17290248 0.07854147 -0.28247297 0.24124523 0.10881303
00000000: 51c8 573e 4927 973d 7cb3 acbd 663e 04be
00000010: 2711 5ebc b28f f9be 36df 993e fd8c 9c3e
00000020: 36cf 34ba b9ca 973e 3f42 a83c 0fd2 e6bd
00000030: 2089 c23d 6e9b a13e 454f 74be 3b02 b1be
00000040: 7181 913e 2d4a bfbd bea1 273e 6b53 15be
00000050: 2314 253e 8ce0 713e 3bac 023e c8f1 7a3e
00000060: c017 093f e8f6 c5bd 78c1 5dbd aa91 80bd
00000070: 9a5b f33d 0eef db3c b155 643d 12e0 603e
00000080: 9c99 a13e 8035 9c3e e91a 41bc 479d 933e
00000090: 0bbe 69be c3c3 95be d954 843d 18cb 65bd
000000a0: 1098 233f 6285 043e baf8 e63e 10dd 15be
000000b0: d52e ab3e 7da3 b8be d3b3 4f3e 3c4c e33e
000000c0: 1ab2 c9bc e23f da3c c896 153e ea12 8f3e
000000d0: bc3d 163e c89e 0d3d b752 a5be 398c e8bd
000000e0: 377b 2dbe 4a27 50be 2ecb 68be aedf f83e
000000f0: c381 83be 1e5d 653e ef86 0e3e 1c8e dcbe
00000100: 65ce cb3d d491 05be 7cfd a4be 7995 d63c
00000110: 9a87 ce3d 9a55 1d3e dddf 63be ed09 663c
00000120: 8daa 00bd ec6b cb3e 5369 293d 146b 19bd
00000130: f012 25be 9827 53be 2671 91bd 92d6 4bbd
00000140: dfcb 973d cd89 a63c 7d63 963d c0c6 3b3d
00000150: 2526 7a3c 8441 39be 9d01 683d d7fe 20bc
00000160: 93ef b6bd 6481 3fbc 625a 12be 7cd2 62be
00000170: 2b65 073e a7d1 c23e b2c0 443e 1c9f 8c3e
00000180: dad4 3fbd e7fb 013e 73db 86bd f8ab 833e
00000190: 4df5 95be ad34 b13d 81fa 9dbe 302d 95be
000001a0: de3a f2bd 03c7 a33e a9c3 d03e d589 42bf
000001b0: 59dc 823e d37a 74bd 89bd b23e ebdc cb3d
000001c0: c5fa d4bd 2a81 873d 8d17 f83e 68fb cbbb
000001d0: 16af cf3e e4f3 793e 4e1c 9b3e 9af9 a3be
000001e0: 2e18 ae3d cfe2 4e3e db3b bc3d 8fb3 a63e
000001f0: 8e5d 833c a708 98be 0a5f 113e fb9a 223e
00000200: 3c4b 8ebd 2dbb 7b3d 7430 6dbe 1462 183e
00000210: f73a 6b3e b679 d6bd 445e a33d cced a0be
00000220: b513 3f3e b371 263e fb2f 8d3e 49d4 553c
00000230: 6428 81bd e632 63be ee04 6ebe 9bf9 243e
00000240: dfe1 b23e 4b77 423e 0569 5cbd b9d6 063d
00000250: a7d3 2cbc 291a 083d 0c56 5dbe 6712 7c3d
00000260: c2cd 9ebe ef2e cabd 8cbd 1cbe 627b 91bd
00000270: e277 b23d 6826 c43e 6400 053e bce9 a23c
00000280: 87e1 333d dafd 2bbe 6f03 ef3c 4471 c4be
00000290: ac96 89be 725f a53e 429f 303e 7814 9cbe
000002a0: b042 98bd 0c2b e3be f29e 1fbe 05ba abbe
000002b0: 1a37 513d afe1 04be 7aea c73e 5f77 5d3e
000002c0: 4f32 e93d 04fc eb3c 6270 abbd 5a5e 66bb
000002d0: b69c 12bf ad01 2b3f 5ebf a3bd 5519 d03e
000002e0: e13a b03d ea5a d1bd dd03 2dbe d6f2 14bf
000002f0: 29f9 03bf f68f 693e cd2a 32bc e070 e4bd
00000300: 4633 103e d032 c8bc 9990 0ebe bede a63d
00000310: 364b 643d 1cb3 a13d 7f8a 0abb 38c7 5b3e
00000320: 48e8 223e 0e1c 38bd 73a6 803e e46c d5bd
00000330: 48da 68be db39 393d 9432 80be 4f39 6cbe
00000340: 1766 fa3d e01c 3cbd 4330 2d3e 396f f1bd
00000350: 708e ebbd 75bc e2be fee9 0f3e f8d9 cdbc
00000360: ef8b 1abe 2e56 bd3d 6021 faba d100 503d
00000370: f9b1 293e 1a12 473e b6a1 94bd 683e e83d
00000380: 1f56 93be 69fa b7bd 8490 92be 5ef5 5c3e
00000390: b08e e0bd 0fcb 8ebe 8ea8 11bf b3c5 27be
000003a0: fa08 943e 1941 c4bd 0e58 1dbf e58e 5a3d
000003b0: b722 9cbd 183f f63d 3d2a e83d 149c b2bd
000003c0: b297 9abd c46d d8bc b09d 97be 4900 02bd
000003d0: 11b6 86be 065b 7ebe d1b4 7fbe 7a81 2b3e
000003e0: d06a c63e 75ab c23e fdd6 af3e 590d 31be
000003f0: 5ada a03d 4ca0 90be fd08 773e 5ed9 de3d

fc_layers.0.bias f4 [32]
-0.29954082 0.25991258 -0.16301909 -0.05648415 -0.43283996 -0.16172864 -0.4970414 0.26717484
-0.6139417 -0.3698193 -0.4779286 -0.2418954 0.49351716 0.028712219 -0.4376764 -0.35835925
-0.40426186 -0.30745077 -0.33606848 0.3710822 0.0011354397 -0.3752944 -0.35527864 -0.44655186
-0.40753147 -0.5270478 -0.08696525 -0.28909016 -0.28573906 -0.24524346 -0.49483716 -0.07207343
00000000: 6a5d 99be 4313 853e 7aee 26be ed5b 67bd
00000010: 339d ddbe 319c 25be 367c febe 24cb 883e
00000020: 492b 1dbf f558 bdbe 0fb3 f4be 6eb3 77be
00000030: 48ae fc3e e335 eb3c 1f17 e0be dd7a b7be
00000040: 69fb cebe 306a 9dbe 2b11 acbe 7cfe bd3e
00000050: 09d3 943a 9626 c0be 15e7 b5be 72a2 e4be
00000060: f7a7 d0be 9bec 06bf d61a b2bd a003 94be
00000070: 644c 92be 1a21 7bbe 4c5b fdbe 3c9b 93bd

fc_layers.1.weight f4 [16, 32]
0.5830737 -0.21853553 0.31243092 -0.77428305 -0.28379977 -0.24284025 -0.20634094 0.20440277
0.48611873 0.61053884 0.057039287 0.6009794 0.056936912 0.43661416 0.5652101 0.2058933
-0.19752921 0.3346068 0.09366826 0.17723949 0.64099586 -0.10846902 0.11343455 0.057278425
0.044184607 0.35016832 0.24619794 0.18073894 -0.4507375 0.41274554 0.18442254 0.5341332
0.8032302 -0.56881195 0.348189 -0.02630407 0.25977296 -0.23862205 0.08030401 0.39505526
0.64775306 0.47911936 -0.21469909 0.45181945 -0.10247646 0.32859442 0.61927557 0.24533105
0.0420742 0.70970756 0.1950915 0.24073017 0.48019767 -0.021588815 0.12832609 -0.24506092
0.19045638 0.22079118 0.12481017 0.2885099 -0.14623241 0.5765551 0.10047388 0.25749278
0.7085408 -0.48312092 0.42127654 -0.14416808 0.1760176 -0.2318576 0.080139585 0.341903
0.47313392 0.37759322 -0.32671648 0.4204558 -0.043539837 0.39985725 0.6349606 0.13808003
0.2582684 0.7256621 0.07549618 0.19218145 0.5049992 -0.07859095 -0.04009475 -0.05874076
0.20829213 0.36523682 0.20186795 -0.03872479 0.063970365 0.5628325 0.057553973 0.31675237
-0.32081562 0.24719158 -0.7481083 0.50241673 -0.5705124 0.47376284 -1.0773356 0.70552117
-0.1079566 -0.13724196 -0.9784064 -0.06924595 0.6921247 0.47322443 0.40050873 -0.6771919
-1.0035156 0.14171997 -0.58511996 0.51609117 0.09487599 -0.9266499 -1.077305 -1.0657403
-0.7666003 -0.65490335 -0.25593215 -0.6437539 -0.7230865 -0.7247654 -0.62359387 0.32058752
-0.47179005 -0.034108777 -1.0411152 0.33569697 0.14508155 0.70969266 -0.35238075 0.39139098
0.40059245 -0.06985084 -1.4949164 0.7564604 0.5207922 0.25065243 -0.12809834 -0.18571042
-0.49836844 -0.80404335 -0.77762157 -0.23669508 0.17484024 -0.4831126 0.25777075 -0.15339415
-0.7405843 -0.008959641 -1.5720623 0.05075446 0.31006676 -0.9041613 -0.48223907 0.49484223
0.69932544 -1.6195978 0.0012946498 -0.54730535 -0.23307355 -1.0225223 0.15649681 0.2245354
0.33157706 0.23742668 0.19791824 0.18810046 -0.16388912 0.5539174 0.18796034 -0.2603758
-0.19565152 0.38111413 0.6378398 0.1677533 0.5527692 0.16181289 0.23047224 0.12813975
0.120280564 0.6455866 0.40012747 0.5978246 -0.23729442 0.22980867 0.38836345 0.8899256
-0.035401423 0.013202599 0.16138837 0.5969098 -1.308766 0.3715005 0.7335081 -0.27848545
-1.2360656 -0.10642821 0.38016626 -0.087009154 0.00021060469 0.03699423 0.12850197 0.8195404
0.2618279 -0.46950868 0.33685946 -0.28913683 -0.36582312 0.2939708 0.28861746 0.43956736
-0.47771934 -0.13793111 0.58997047 -0.34515277 0.41245174 0.38315293 0.37258288 -1.0223038
0.1667065 0.40587917 -0.536835 0.52382714 -0.7515592 0.5582591 -0.8744272 0.593859
-0.07704686 -1.3383461 -1.1178193 -0.1911662 0.47899288 0.5611063 -0.44277793 -1.8946651
-0.0026172048 -0.68969554 -0.84489655 0.33640736 0.33561587 -0.4255999 -0.24726146 -0.847827
-0.4642409 -0.07236697 -0.6591387 -0.2730947 -0.7166367 -0.82820004 -0.37393042 0.5004662
00000000: 5144 153f c7c7 5fbe f2f6 9f3e 6a37 46bf
00000010: 344e 91be 1dab 78be 0a4b 53be f64e 513e
00000020: 8ee4 f83e 464c 1c3f 07a2 693d c9d9 193f
00000030: ae36 693d e48b df3e 9cb1 103f b1d5 523e
00000040: 1945 4abe 9551 ab3e 25d5 bf3d 457e 353e
00000050: 4e18 243f 0125 debd 6050 e83d c89c 6a3d
00000060: ebfa 343d 4349 b33e 501b 7c3e a113 393e
00000070: 11c7 e6be 6253 d33e 43d9 3c3e f4bc 083f
00000080: 7fa0 4d3f a99d 11bf d445 b23e a27b d7bc
00000090: f600 853e 5759 74be 6e76 a43d af44 ca3e
000000a0: 25d3 253f 224f f53e 14da 5bbe e154 e73e
000000b0: 2edf d1bd 873d a83e d888 1e3f 1038 7b3e
000000c0: ff55 2c3d 65af 353f 11c6 473e f881 763e
000000d0: 78dc f53e 07db b0bc ea67 033e 40f1 7abe
000000e0: ff06 433e 1517 623e 799c ff3d 92b7 933e
000000f0: f3bd 15be 1d99 133f 40c5 cd3d 18d6 833e
00000100: ee62 353f a05b f7be 8fb1 d73e cca0 13be
00000110: f53d 343e 146c 6dbe 3920 a43d e90d af3e
00000120: 9c3e f23e e653 c13e 6247 a7be fc45 d73e
00000130: d456 32bd 17ba cc3e c78c 223f da64 0d3e
00000140: c13b 843e fec4 393f be9d 9a3d 37cb 443e
00000150: a147 013f 4bf4 a0bd 643a 24bd 279a 70bd
00000160: 884a 553e 5200 bb3e 79b6 4e3e e39d 1ebd
00000170: e502 833d ca15 103f b7bd 6b3d 5e2d a23e
00000180: f241 a4be ca1f 7d3e 0784 3fbf 629e 003f
00000190: 1a0d 12bf 0b91 f23e 22e6 89bf 099d 343f
000001a0: 5a18 ddbd 2889 0cbe d878 7abf d2d0 8dbd
000001b0: 162f 313f 794a f23e 7b0f cd3e 735c 2dbf
000001c0: 3373 80bf 0a1f 113e 6cca 15bf 8d1e 043f
000001d0: 584e c23d ee38 6dbf 21e5 89bf 2e6a 88bf
000001e0: eb3f 44bf bfa7 27bf 8a09 83be 0ecd 24bf
000001f0: 321c 39bf 3a8a 39bf d9a3 1fbf 0c24 a43e
00000200: 778e f1be a5b5 0bbd 4343 85bf 79e0 ab3e
00000210: 4290 143e 6bae 353f 406b b4be 6664 c83e
00000220: 741a cd3e f50d 8fbd 6c59 bfbf 64a7 413f
00000230: a352 053f 8455 803e 362c 03be df2a 3ebe
00000240: 262a ffbe c9d5 4dbf 3512 47bf 3260 72be
00000250: 5209 333e 895a f7be 87fa 833e 5b13 1dbe
00000260: ef96 3dbf 75cb 12bc 5639 c9bf e9e3 4f3d
00000270: 12c1 9e3e 1d77 67bf 0ae8 f6be f65b fd3e
00000280: fe06 333f fb4e cfbf 3db1 a93a 341c 0cbf
00000290: d5aa 6ebe 03e2 82bf b340 203e 9cec 653e
000002a0: 78c4 a93e fb1f 733e 14ab 4a3e 689d 403e
000002b0: 8dd2 27be 88cd 0d3f ad78 403e fa4f 85be
000002c0: df58 48be 6421 c33e 7849 233f 85c7 2b3e
000002d0: 4882 0d3f 47b2 253e ea00 6c3e 1137 033e
000002e0: a855 f63d 2a45 253f 82dd cc3e 080b 193f
000002f0: 4ffd 72be f752 6b3e 93d7 c63e 2ad2 633f
00000300: 1501 11bd b74f 583c fe42 253e 15cf 183f
00000310: a585 a7bf 5035 be3e 30c7 3b3f a595 8ebe
00000320: 6637 9ebf 09f7 d9bd 27a5 c23e db31 b2bd
00000330: c4d5 5c39 4387 173d 0596 033e 66cd 513f
00000340: 4e0e 863e 7163 f0be d878 ac3e be09 94be
00000350: 2b4d bbbe 5783 963e abc5 933e f90e e13e
00000360: a197 f4be d03d 0dbe 4e08 173f ddb7 b0be
00000370: e02c d33e 9f2c c43e 2fc3 be3e dada 82bf
00000380: 1cb5 2a3e 65cf cf3e 056e 09bf 8919 063f
00000390: 2f66 40bf 12ea 0e3f 76da 5fbf 2507 183f
000003a0: beca 9dbd ed4e abbf b414 8fbf 13c1 43be
000003b0: 8e3e f53e aaa4 0f3f cab3 e2be 6384 f2bf
000003c0: 6985 2bbb e38f 30bf 244b 58bf 963d ac3e
000003d0: d8d5 ab3e 3be8 d9be 1c32 7dbe 310b 59bf
000003e0: fcb0 edbe 2235 94bd 50bd 28bf 12d3 8bbe
000003f0: 8175 37bf eb04 54bf cf73 bfbe 8e1e 003f

fc_layers.1.bias f4 [16]
-0.4058721 -0.3137298 -0.03586704 0.8211441 0.5327801 -0.6527011 0.38824794 0.5422167
0.15053588 0.19517036 -0.5169935 0.2725315 0.7171554 0.5383474 -0.2657516 -0.36704305
00000000: 78ce cfbe 31a1 a0be 51e9 12bd 8036 523f
00000010: 4764 083f 6b17 27bf 6fc8 c63e b7ce 0a3f
00000020: 1426 1a3e bdda 473e b059 04bf 4089 8b3e
00000030: 7f97 373f 23d1 093f 9810 88be 11ed bbbe

affine_output.weight f4 [1, 16]
-1.073555 -0.69473535 -0.65101665 4.1055217 2.591371 -2.2273686 1.7301813 3.6839063
2.375768 2.249994 -1.0358479 3.9265287 4.284322 2.7640243 -0.82000554 -0.8909735
00000000: 406a 89bf 2dda 31bf 07a9 26bf 6f60 8340
00000010: 06d9 2540 358d 0ec0 9576 dd3f 1fc5 6b40
00000020: 950c 1840 e7ff 0f40 aa96 84bf 3f4c 7b40
00000030: 2a19 8940 c6e5 3040 e2eb 51bf d716 64bf
