checkpoints/MLP_Epoch6_HR0.1678_NDCG0.1636.model (torch, 261263 bytes, 7 tensors)

embedding_user.weight f4 [51, 32]
00000000: 6353 a8bf 9f6d b43f 1830 73be 0361 81bf
00000010: f7ec 983e bcaa 1bbf 9aae 24bf b219 95bf
00000020: 05cc c63f 835c e2bf a408 0bbe ac63 1cbf
00000030: 14e0 f5bc 9797 b0bf 16cd c93f 141b 87bf
00000040: e103 e93d 9436 343e 0ae6 96be 90b6 073f
00000050: 1bc7 abbe 84ff 9cbf 6cb0 8b3f 6b06 10c0
00000060: a325 29bf 9fd8 483f 5b70 6f3e 2343 d5be
00000070: 0894 55bd ebb6 2abf 1996 823e 99b6 b53c
00000080: 8251 c33e 2998 e2be 356e 57bf 10a5 653d
00000090: cf51 bb3d 548d dc3e 9414 963f 64c7 cebf
000000a0: 7235 163f 61d9 35bf 6855 85bf fe03 5a3e
000000b0: bb1a d73f 7364 90bf ad32 7dbf 104d 713e
000000c0: 5d8c 63bf 9bba 8dbe d27c 46c0 56cc 9fbe
000000d0: a619 38bd c519 e7be e7d9 4c3f 1555 46bc
000000e0: 6a75 b3bf 125b 91be 9735 863f a612 d6be
000000f0: 8f64 3a3f 8fb9 033f dbf3 94bf 1f7b df3f
00000100: ad80 893f 5a6e 393f 9bfc ab3f 7328 653e
00000110: 548e 693f 2ec9 603f 8d6e dabf 0184 883f
00000120: be11 0a3e ce2f 413f 798f e4bf 3fc5 9ebe
00000130: af24 bb3e 2ff8 5d3f 0fd0 2c3f a608 f8be
00000140: 16bb ba3e 227e c33f b87f 73bf 2ed3 203f
00000150: f468 2a40 b0be 203f 64d2 423f 52f9 4cbf
00000160: ed1d 9e3e 09a1 d53e 16dd 823f 58da 60be
00000170: 91db ff3f a944 2e3d c0f3 533f 5f47 833f
00000180: 99a3 2dbf d6b7 aabe f7f3 6bbe 4991 233e
00000190: 4816 5bbf 8a5f 0cbf 665e 5abd 99ce 83bf
000001a0: 99bc ce3e 7228 2a3e 6a5c c43e 406d debf
000001b0: 2a94 35bf 3aa4 3cbe 1932 8b3f 95bf 34bf
000001c0: ae54 183f be34 d63e c6d1 68bf a566 1740
000001d0: e579 973f 6953 cbbe 89d1 293f 7e78 d23e
000001e0: 3ab6 97be a00e 87be c2db 28bf 1eeb 853c
000001f0: badb 6dbe 0750 85be 02e3 e2bf bcbe 49bf
00000200: b9c5 3e3f 3b0e 5abe d651 9d3f 7bdc 0c40
00000210: c005 dd3f 5852 19bf ffce 0b3e ede4 bdbf
00000220: 8685 27bf 63b2 a03e 52b0 af3f a489 ea3f
00000230: 54bc 773d 5a70 81bd bef4 b03e 91b3 a03f
00000240: cb98 903f 9d0a 9c3f 90fe 203f 7a1b 7b3f
00000250: 7394 77bf 30df 2a40 356e b1bd cf06 723f
00000260: 7a36 dabe da1e 973e 3c8d 8cbe 1de3 193f
00000270: 15dc 513f 2010 683f a8ae d03e 60d5 ee3e
00000280: 9c47 84be 2506 b93f 7ac3 d53f 6041 d23e
00000290: d09f 833f c8f1 80bf 95da 4d3f 536a 10be
000002a0: ed10 44be ec98 4ac0 aa63 b3be a9b9 863f
000002b0: e92c 123e 2c44 913f 9c0d fb3e bbe0 97bf
000002c0: 1595 683f 6260 f2be fd35 9ebf 69e5 5e3f
000002d0: ca97 f4bf af66 4bbf b665 43c0 9c75 a7bf
000002e0: 430e cebe 5398 1cc0 522e 3c40 567d d23f
000002f0: 7633 413d a57a 06c0 9294 ec3e a229 a63e
00000300: d069 543e 46cd 86bf 74d8 5a3f 78b8 02bf
00000310: 74ae 433f 5fc8 2fbf 5066 8ebf 8ea4 8e3f
00000320: f249 48bf d304 283f 38f9 21bf 215a a6bd
00000330: f070 1ac0 2a50 dd3e 55d4 413f c8f5 40bf
00000340: f59c 113e 26e0 21be 8ffb ce3f 972b f3bf
00000350: 7244 ac3f eeb9 d13f ac30 883f 48e2 883f
00000360: 8354 62be 5713 ccbf f2f4 d9bf 0aff 79be
00000370: 9e23 a0bf c2af 863f 7f0c 1dbf 1d26 e33e
00000380: cf13 03c0 c17a 85bf b4d6 91be f9a3 b23f
00000390: 0400 c53f f472 b03f a219 a93f 2a2e f2bf
000003a0: 474c d9bf 6c3d 193f 4c64 153e 9fcd 8fbe
000003b0: 26fb b8bf 89c1 11c0 2cc8 9f3f c312 723f
000003c0: 9c6d eebd 494b 68bf 4cf3 b0bf 959f 1e3f
000003d0: edcb f9be b4dd 543f 35a2 18bf b843 c23f
000003e0: afd2 a8bf 1ed9 c8be 45e7 53bf bdff 0dbe
000003f0: 2f53 10bf de47 fcbe 8f71 fb3e b331 abbf
-1.3150448 1.4095954 -0.23748815 -1.0107731 0.2986829 -0.60807395 -0.6432892 -1.1648467
1.5531012 -1.7684482 -0.13577515 -0.6108959 -0.030014075 -1.3796262 1.5765712 -1.0555139
0.11377693 0.17598945 -0.2947238 0.53012943 -0.33550343 -1.2265477 1.0913215 -2.2503917
-0.66073054 0.7845554 0.23382704 -0.41652784 -0.052143127 -0.6668536 0.2550514 0.022181796
0.38148123 -0.44256714 -0.8415254 0.05606562 0.09146463 0.43076575 1.172503 -1.6154599
0.586753 -0.7103482 -1.0416689 0.21290585 1.6805032 -1.1280655 -0.9890545 0.23564553
-0.8888605 -0.2768143 -3.1013684 -0.31210583 -0.044946335 -0.45136848 0.8001999 -0.012105246
-1.4020207 -0.28389794 1.0485104 -0.41811103 0.7280969 0.51455015 -1.1636919 1.7459449
1.0742394 0.7243401 1.3436464 0.22378711 0.912328 0.87806976 -1.7064987 1.0665284
0.1348333 0.7546357 -1.7856284 -0.31009862 0.36551425 0.86706823 0.6750497 -0.48444098
0.3647086 1.5272868 -0.9511676 0.62822235 2.6626558 0.62790966 0.7610228 -0.8006793
0.30882207 0.41724423 1.022372 -0.21958292 1.9988881 0.04254595 0.8279381 1.0256156
-0.67827755 -0.3334338 -0.23042284 0.1597339 -0.85580873 -0.5483328 -0.05331268 -1.0297424
0.40378264 0.16616991 0.38351756 -1.737709 -0.70929205 -0.18422022 1.0874664 -0.7060483
0.5950421 0.41837114 -0.9094509 2.36564 1.1834074 -0.39712074 0.6633535 0.41107553
-0.29631215 -0.26378345 -0.65960324 0.016347464 -0.2322835 -0.2603762 -1.7725527 -0.7880666
0.7452045 -0.21294491 1.2290599 2.200957 1.726738 -0.5989127 0.13653181 -1.4835488
-0.65438116 0.31386098 1.3725684 1.8323255 0.060482338 -0.063202575 0.34561723 1.2554799
1.1296629 1.2190739 0.6288843 0.980888 -0.9671089 2.6698723 -0.086635984 0.9454164
-0.42619687 0.29515725 -0.27451503 0.6011217 0.81976444 0.90649605 0.40758252 0.46647167
-0.25835884 1.4455 1.670028 0.41065502 1.0283146 -1.0073786 0.80411655 -0.1410306
-0.19147082 -3.1655836 -0.35036975 1.0525409 0.14274944 1.134893 0.4903382 -1.1865457
0.9085248 -0.4733916 -1.2360226 0.870688 -1.9108822 -0.7945356 -3.053083 -1.3082767
-0.40245256 -2.4467971 2.9403272 1.64445 0.047168218 -2.1012356 0.462071 0.32453638
0.2074349 -1.0531394 0.8548653 -0.51062727 0.7643807 -0.6866512 -1.1124973 1.1143968
-0.7823783 0.6563236 -0.632709 -0.081226595 -2.4131432 0.43225223 0.7571462 -0.7537503
0.1422003 -0.15808162 1.617052 -1.8997678 1.3458388 1.6384866 1.0639853 1.0694056
-0.22102551 -1.5943402 -1.7027876 -0.24413696 -1.251087 1.0522387 -0.6134719 0.44365016
-2.048084 -1.0428087 -0.28484118 1.395629 1.539063 1.3785081 1.3210948 -1.8920338
-1.6976403 0.5985935 0.14589041 -0.28086564 -1.4451644 -2.2774374 1.2482963 0.9455988
-0.11642 -0.90739876 -1.3824248 0.6196225 -0.48788396 0.8315079 -0.5962251 1.5176916
-1.3189296 -0.39228147 -0.82774764 -0.13867088 -0.5637693 -0.4927358 0.49110076 -1.3374542

embedding_item.weight f4 [1889, 32]
00000000: 47f5 0f40 7113 1240 7a29 863e 9e2c f3bf
00000010: 20ec 1e3f 9d11 dbbe 7b26 9c3f ec24 ea3c
00000020: c773 823f 98e8 933d d851 e1be 2732 8abe
00000030: 5b20 26c0 c969 723f 54b5 04bf 5b9e c3bf
00000040: 337c a53f ac24 c03f dfa4 62bf 4e1d 1a3f
00000050: ce5d b03d 06b5 8cbf 2759 2c3f d770 0c3f
00000060: 9157 cabd 5df9 fdbf c239 043e 13dd 7fbf
00000070: 8c56 403f 9476 0240 9a71 65bf 3744 593f
00000080: e988 003e ddab 0d3f 155f 733f 8c5e 37bf
00000090: 6736 a6bf 002e 94be 51f2 c23f 9e91 bc3f
000000a0: 2f48 30c0 8af0 8c3e ccc7 4ebf e354 383e
000000b0: b69e b9bf 88dc bc3e e36a d33f bd1b 3fbf
000000c0: c405 3ebe 8280 2bbf 7cd0 d63f 7611 1dbf
000000d0: 0a1f 59be 35b7 a73e 0800 22bf f378 2dbf
000000e0: 6eb8 643f f52a 43be 8f9d a13f 6fdd c1be
000000f0: 31d7 34bf c0eb 8b3f fe77 e93e 60a3 523d
00000100: d57a 88be 2e1b 0e3f 6def 813f 3fd2 70bf
00000110: 10ea 873f 1d61 0140 0a43 d63f 95a9 8a3f
00000120: a943 b03e 6c42 80bf 637f 2140 cccf 43bf
00000130: 568d 243f 6a63 2e3f 07ee 00bf 696c ae3f
00000140: 51d0 7a3b 3b1f 383f f97a 683f 4643 31c0
00000150: 71cb 263e 2cda e23e 2e7a 39bf 94a8 19bf
00000160: 28aa 6e3f b025 29bf 7f22 9b3f 9974 b53d
00000170: 408d 283f 1127 c8be d7cc 41bf 86fc b0be
00000180: 254e e93f ccc2 8dbd 46ed adbf 82b8 c03e
00000190: 8ee3 aa3e e799 c1bf 7f83 333f 7cbe 503f
000001a0: dd28 c2be 7eb8 0b3f 1575 c5bf bf01 403f
000001b0: 4349 df3d 0f8c 0fbf c0ff 14bf 3851 1cbf
000001c0: 3fa4 d13e c044 843e f0c8 d93a 640e c93f
000001d0: d0c2 d1bf 6c5f eebe 472f 91bf 900d aaba
000001e0: b1c8 2ec0 5283 ad3e 71da 35be 7884 a03f
000001f0: c1a1 9fbf 7e44 963e c062 41bf 7f13 7cbf
00000200: 502e 803f 2560 8abf f4a7 abbf 7bd2 8cbf
00000210: b5d4 9b3f b0c7 ccbd a1f6 833f ace5 2fbf
00000220: 59d1 1c40 ab4d 05c0 1db6 11bf 858d 12bf
00000230: 1811 09bf e2b4 adbf ec78 4f3e b906 bbbf
00000240: 89c0 6abc c572 0cbf b229 3cbf 83cb bcbf
00000250: 23fe 8a3c 202c 8dbf c25e 1ec0 2902 ac3e
00000260: 3aad 45bf ca4d efbf 0e8a 56bf 4d04 a23f
00000270: ca7c 76bf 29d6 5bbf 95f3 eb3e 6931 b63f
00000280: 3bc0 5dbf 0daf b93d 1f3a ddbf f117 8fbf
00000290: 8d4c b13e 425c c93f 8bfe 853f 2ee3 09be
000002a0: db4f d83e 15a7 af3a 5b41 8abf 11bc 68bf
000002b0: e739 2940 b093 89be c26f 93be 0a53 26bf
000002c0: 1231 8f3f 20e2 783f ac33 0240 e3bd 3abf
000002d0: 60b4 833e 32db c33f 57be 06bf 058f f63f
000002e0: 5bd5 523f 22b2 5f3f e034 253f 99c5 5ebf
000002f0: cdae 01bf df51 d43e 1d0e 2abf 3144 873f
00000300: 5b80 74bf a310 fe3e 4f13 6dbf 6c10 823e
00000310: 79ab e13f 0a32 bf3f fbb2 97bd 698a 7abf
00000320: 4f32 07be 6a4c 89bf 189f 16c0 19d9 343f
00000330: f9b8 f8bf adb0 ca3e 77d5 0640 355a 84bd
00000340: 7c2a cfbf a3a4 6cbf 1207 cbbf ae4a 723f
00000350: 471e 823d 1322 893f e145 0740 0692 b9be
00000360: 9de1 84bf b8f2 dbbf a08c 053f 8aeb ba3f
00000370: e0f0 633f 2c15 13be e8f3 b0bf 6ef9 c53f
00000380: 904e 903f 78de cbbe 1463 10bf c4b6 1cbf
00000390: 4084 33be 9a42 90bd bdd6 15bf 8137 06bf
000003a0: 32c1 d03e c005 4dbf 4114 03bf c629 0740
000003b0: 3e79 5abe aeaf f7bf 51bf 543f c0ff 99bf
000003c0: a969 b83e 4f43 a4bf acf3 a43f d112 21c0
000003d0: a2bc db3e c8d1 d73d 0d50 fabe 1172 aabf
000003e0: 7b57 883f 1175 eabe 317d d53f 5097 1dc0
000003f0: 4307 6f3f a23e dbbf 370d dc3f c423 dc3e
2.2493455 2.2824366 0.2620352 -1.8997991 0.6207905 -0.42786875 1.2199243 0.028582059
1.0191582 0.07222098 -0.44007754 -0.26991388 -2.5957248 0.94692665 -0.51839185 -1.5282701
1.2928528 1.5011191 -0.88532823 0.60200965 0.08611642 -1.0992744 0.67323536 0.5485968
-0.09879983 -1.9841725 0.12912658 -0.9994671 0.7513206 2.0384874 -0.8962647 0.8486971
0.12552227 0.5534037 0.9506696 -0.7162864 -1.2985352 -0.28941345 1.5230199 1.4731939
-2.7544057 0.27527267 -0.80773616 0.18001132 -1.450156 0.36887002 1.6516994 -0.746517
-0.18556887 -0.6699296 1.6782374 -0.6135477 -0.21203247 0.32756963 -0.632813 -0.6776268
0.8934392 -0.19059356 1.2626208 -0.37864253 -0.70640856 1.093132 0.4559936 0.051425338
-0.26656213 0.5551022 1.0151192 -0.9407081 1.0618305 2.0215523 1.6739209 1.0833002
0.3442662 -1.002027 2.5234 -0.7648895 0.6427816 0.68120444 -0.503632 1.3626834
0.003827114 0.71922654 0.9081264 -2.769731 0.16288544 0.44307077 -0.72452056 -0.60022855
0.9322839 -0.6607313 1.2119902 0.0886013 0.6584053 -0.39092305 -0.75703186 -0.3456766
1.8226973 -0.0692192 -1.3588035 0.37640768 0.33376735 -1.5125092 0.7012252 0.81540656
-0.379218 0.5457839 -1.5426356 0.75002664 0.109026454 -0.5607309 -0.58202744 -0.6106143
0.40945622 0.25833702 0.001661567 1.5707517 -1.6387577 -0.46557176 -1.1342553 -0.0012974013
-2.7309992 0.33889252 -0.1775911 1.2540426 -1.2471238 0.2934913 -0.75541306 -0.9846725
1.0014133 -1.0810591 -1.341063 -1.1001734 1.2174288 -0.09999025 1.030964 -0.68709826
2.4502776 -2.0828655 -0.5691851 -0.5724719 -0.5354171 -1.3570826 0.20260972 -1.4611427
-0.0143281305 -0.54862624 -0.7350112 -1.4749607 0.016966885 -1.1029091 -2.4745336 0.33595398
-0.7721745 -1.8695614 -0.83804405 1.2657562 -0.96284163 -0.8587366 0.46084276 1.4233829
-0.86621445 0.090665914 -1.7283362 -1.1179181 0.34628716 1.573128 1.0468305 -0.13465568
0.42248425 0.0013401235 -1.0801195 -0.90911967 2.644159 -0.2687049 -0.28796202 -0.6497046
1.118685 0.9722004 2.0344038 -0.72945994 0.25723553 1.5301268 -0.52634186 1.9262396
0.82356805 0.87381184 0.64533806 -0.8702026 -0.5065735 0.41468713 -0.66427785 1.0567685
-0.95508355 0.49622068 -0.9260759 0.25403154 1.7630454 1.4937146 -0.07407185 -0.9786745
-0.13202785 -1.0726445 -2.3534603 0.70643765 -1.9431449 0.39587918 2.1067789 -0.06462518
-1.618484 -0.92438716 -1.5861533 0.946452 0.06353431 1.0713524 2.11364 -0.3624422
-1.0381352 -1.7183447 0.521677 1.4603131 0.8903942 -0.14363545 -1.3824434 1.5466745
1.1273975 -0.39818168 -0.5640118 -0.6121638 -0.17530918 -0.07043953 -0.5853079 -0.5242844
0.40772396 -0.800869 -0.5120278 2.1119246 -0.21335313 -1.9350488 0.83104426 -1.2031174
0.36018112 -1.2833041 1.2886863 -2.5167735 0.42917353 0.105380595 -0.488892 -1.331606
1.0651697 -0.4579244 1.667883 -2.4623604 0.93370456 -1.7128489 1.7191533 0.42996037

fc_layers.0.weight f4 [32, 64]
00000000: 5ae3 c93e 5c0d 773d a98c 95be 7169 87bd
00000010: bda5 423c 2c53 10bf 2b83 943e 0157 e33e
00000020: 1e1a 14be fd63 df3e 7817 633e b6aa 04bd
00000030: c40a 953c 3b05 9a3e 632a b5be 430c d1be
00000040: 38cc c63e c5cf 3dbe 6adf cd3d af97 15be
00000050: 37dd 8f3e 83d9 953e 15f0 2f3e 8bdd 423e
00000060: 940c 463f 6781 79be 1685 5cbe 74ee ecbd
00000070: a776 1d3e 092c 823d 3ce2 123e e53f 453e
00000080: bd44 113f 6562 e43e 696d 4a3d 2653 bb3e
00000090: 43d0 8bbe 7949 cfbe 530f 373d add8 ddbc
000000a0: 324f 593f 7921 813e 7764 113f c22b 59be
000000b0: b855 f73e 1a68 0dbf c077 903e ead9 103f
000000c0: f81a bb3c 42b9 12bd 7775 9d3b 262b b63e
000000d0: b175 c63d 8157 46bd 9ce6 fabe 4a27 6ebe
000000e0: 4781 74be 4c3e 51be b37f d1be 90c1 0e3f
000000f0: 8b06 c7be 1f51 7e3e 168d d93d c075 c9be
00000100: c3b2 683e ff8d 4bbe 5176 e2be 7e8d 853d
00000110: f3da 1e3e 3ecd 563e 9e1e a9be 9c4f b0bd
00000120: 3926 62bd 409c 143f aed2 023e d9bd a7bc
00000130: f80a 8fbe f2e8 57be a027 37be 8e65 e2bd
00000140: b404 893d 3203 43bd 0ed2 b63c d3f5 9c3d
00000150: 5845 c13c 0bf0 95be f1b6 bf3d 3a0d e5bc
00000160: fa3c 34be 887c 1cbc 83c7 7bbe f88f 93be
00000170: c588 ff3d ad4d f93e 4f64 9e3e c12f be3e
00000180: 5854 debd a84d 913e 74c7 57be f93e ab3e
00000190: f527 cfbe eef2 823d e50a 08bf 1f4d debe
000001a0: 44a5 10be 7f87 bd3e 517c cf3e bd00 92bf
000001b0: 260c cd3e 09dc 0abe 7b35 f83e ebf7 003e
000001c0: 6213 2dbe 2ba4 c93c d441 273f a982 db3c
000001d0: b613 1d3f 609c 9d3e dfd0 b93e d29f fabe
000001e0: 1d15 e33d 8293 723e 9260 e83d 2835 d53e
000001f0: 9fa7 993d bf1e b9be 5a8b a83e 6875 a53e
00000200: 4124 c9bd 8e3c 7c3d a058 8bbe d890 293e
00000210: 57df b33e 0b68 2bbe 4ce7 e93d e37b f4be
00000220: 2955 473e 2365 633e 76ae b73e de67 1e3d
00000230: 87b1 a5bd dc5f d2be 9527 e1be 7ce7 6a3e
00000240: 2702 dc3e b34f 753e 34ea 18be ed67 ec3d
00000250: c98b 043d a69a 84bd b378 7abe b6c3 793d
00000260: 4ff2 9dbe 5503 23be 9527 9dbe 2490 3dbe
00000270: df52 e13d f022 083f c289 793e 3c82 f83c
00000280: 2611 983d 5143 a5be 5c6e ccbc 3201 0ebf
00000290: 6513 f1be 19c3 c53e 6807 843e 402b b0be
000002a0: 73e6 d5bd 85e0 00bf 5710 93be aead d1be
000002b0: a517 703a 50f4 3fbe f508 383f 0da2 573e
000002c0: e2f3 593e 453e 5c3b 862f 1cbe bcbf f53d
000002d0: 0696 4bbf 9f3d 5e3f 608e 2ebe 0fc0 043f
000002e0: 2f8a 943d 4bb4 6cbe 259a 28be df6c 42bf
000002f0: 4a5f 4bbf 526d 603e 4b2c 68bd 3ccd 99bd
00000300: 9e85 793e eb3d 5dbd 41e6 5fbe fc8e 2e3e
00000310: 068f af3d 74da 183e 0b00 a8bd 6eaa 953e
00000320: c877 6b3e 93c1 b9bd 5b25 de3e 4495 8dbd
00000330: a09f bebe 45df 2dbd 94b8 b4be 52be bfbe
00000340: 26ab 453e da5e e7bc 8ac3 683e d66f dfbd
00000350: f893 e7bd 7891 1bbf 3b5a 943e 0ea6 d3bd
00000360: 8b46 a9be 1c7f a73c 21ef 7dbd 84c3 d23d
00000370: 78a0 9c3e 5e66 923e d1c2 afbd e522 5b3e
00000380: 1871 cabe c1b0 13be 963c c3be 6551 823e
00000390: 3cee 34be 4dcb 0abf 0059 4dbf 64ec 8bbe
000003a0: 2c5a e93e d829 4dbe fa19 4bbf 75f3 953d
000003b0: c73c 00be 99fc 203e bc5c 063e dd53 4fbe
000003c0: 7ce3 9ebd a867 96bd 9c14 d7be 8d1f 52be
000003d0: 1288 b0be d550 85be f272 a7be 72cc 9c3e
000003e0: 6969 0a3f cac4 093f 1704 933e 5549 7bbe
000003f0: 6d0d 903d 9528 b7be 9fd5 a63e bfd4 2d3e
0.39431268 0.060315475 -0.29208878 -0.06611908 0.011880335 -0.5637691 0.29006323 0.44402316
-0.14463088 0.43630973 0.22176921 -0.032389365 0.01819361 0.30082116 -0.353839 -0.40829667
0.38827682 -0.18536289 0.100523785 -0.14608644 0.2809846 0.2926751 0.17181428 0.19029824
0.7736294 -0.2436577 -0.21535143 -0.11568919 0.15377294 0.06356055 0.14344114 0.19262655
0.5674551 0.4460632 0.049420748 0.36586875 -0.2730733 -0.40485743 0.04469235 -0.027080858
0.8488647 0.2522085 0.5679392 -0.21208099 0.48307586 -0.5523697 0.28216362 0.5658251
0.022840008 -0.035821207 0.0048052627 0.35579795 0.096904166 -0.048423294 -0.49004066 -0.23257175
-0.2387744 -0.2043392 -0.4091774 0.557641 -0.3887218 0.24835633 0.10622613 -0.3934765
0.22724442 -0.19878386 -0.44230893 0.06521128 0.1551321 0.20976731 -0.33031172 -0.08608934
-0.055212233 0.5805092 0.1277568 -0.020476269 -0.27938056 -0.21084955 -0.1788621 -0.11054526
0.0669035 -0.04761047 0.022316959 0.07664075 0.023592636 -0.292847 0.09361065 -0.027960408
-0.17601386 -0.009551175 -0.24587826 -0.28820777 0.124772586 0.48692074 0.30935904 0.37145808
-0.10855931 0.2837956 -0.21072179 0.33446482 -0.40460172 0.063939914 -0.53141624 -0.43418214
-0.14125544 0.37017438 0.40524533 -1.1406475 0.4004833 -0.13560499 0.48478302 0.12594573
-0.16901925 0.024614414 0.6533482 0.026795702 0.613582 0.30783367 0.36292168 -0.48950058
0.110880114 0.23689082 0.11346544 0.41642118 0.07502674 -0.3615627 0.32918817 0.32316136
-0.09821368 0.061581187 -0.27216053 0.1655916 0.35131332 -0.16738908 0.114210695 -0.47750768
0.1946608 0.2220655 0.3587529 0.038673274 -0.08090501 -0.4108876 -0.4397551 0.22939867
0.42970392 0.23956184 -0.14933091 0.1154326 0.032359872 -0.06474809 -0.24460106 0.06097766
-0.3084893 -0.1591924 -0.3069426 -0.18512017 0.110021345 0.5317831 0.24368957 0.030335538
0.07425146 -0.3227792 -0.024954967 -0.55470574 -0.4708511 0.3862541 0.257869 -0.34407997
-0.10444345 -0.5034259 -0.28723404 -0.4095282 0.0009158797 -0.18745542 0.7188867 0.21057911
0.2128444 0.0033606451 -0.15252504 0.11999461 -0.7952579 0.86812776 -0.17046499 0.5185556
0.07252919 -0.23115651 -0.16465051 -0.75947374 -0.79442275 0.21916702 -0.056682866 -0.075098485
0.24367377 -0.054014128 -0.21865179 0.17046732 0.085722014 0.14927083 -0.08203133 0.2923159
0.22994912 -0.090701245 0.43387875 -0.06913236 -0.3723116 -0.042449255 -0.35297072 -0.3744989
0.19303569 -0.028243471 0.22730842 -0.10910003 -0.1130752 -0.6076884 0.2897509 -0.10334407
-0.33061633 0.020446353 -0.06199563 0.10291198 0.30591178 0.28593725 -0.0858208 0.2140003
-0.3953941 -0.14422895 -0.3813216 0.25452724 -0.17669004 -0.5421646 -0.8021393 -0.2732879
0.45576608 -0.20035493 -0.7933651 0.07321826 -0.12523185 0.15721358 0.13121313 -0.20246835
-0.07758233 -0.073439896 -0.4200791 -0.20519848 -0.34478813 -0.26038232 -0.32704884 0.3062473
0.54067093 0.538159 0.28714058 -0.24539693 0.07033811 -0.3577315 0.32584855 0.16975687

fc_layers.0.bias f4 [32]
00000000: d4b6 f7be 2439 9b3e d6be a1be 37a5 30bd
00000010: e9ec 21bf 94fc 02be 4a39 36bf 1c02 b73e
00000020: 5b47 5cbf a031 02bf b56e 1dbf a073 0ebf
00000030: 998c 223f b91b a1bd 888f 1fbf f8b3 00bf
00000040: 143d ffbe 9727 01bf 42e0 04bf 9648 be3e
00000050: 9264 58be a11e 04bf 87a9 07bf 717e 25bf
00000060: 3928 1bbf 473c 21bf 62f0 4abe 534b d4be
00000070: 0bb9 bebe a62b b3be 155f 2abf d405 44be
-0.48381674 0.30317032 -0.3159091 -0.04312631 -0.6325212 -0.12791663 -0.71181166 0.35743797
-0.8604638 -0.5085697 -0.6149705 -0.5564518 0.63495785 -0.07866616 -0.62328386 -0.5027461
-0.49851286 -0.50451034 -0.5190469 0.37164754 -0.21132115 -0.51609236 -0.52993053 -0.6464606
-0.6060825 -0.629826 -0.19818261 -0.41463718 -0.37250552 -0.3499424 -0.66551334 -0.19142848

fc_layers.1.weight f4 [16, 32]
00000000: 86e1 2f3f 2cd5 f4bd e4b4 be3e 01ed 7dbf
00000010: e60e d7be f08c 68be 9cd8 91be f268 993e
00000020: 8098 fd3e df25 5a3f b997 973d e81c 1b3f
00000030: 5c98 3d3d 2917 0e3f c4cf 283f a029 893e
00000040: 3232 25be 16eb e63e 446a 8f3d b458 393e
00000050: c196 3d3f b588 1fbd 0794 913e 69d5 ca3c
00000060: a6bd e43d 785c c43e 5ffc a53e daae 0d3e
00000070: fbc2 19bf 6831 d83e d34a f83d 430f 0a3f
00000080: b91a 673f 8fed 28bf 5e87 133f 487e 243e
00000090: f59f a13e 17d4 9bbe 4152 0b3e f203 073f
000000a0: 37b0 2c3f 9395 2e3f 5f55 a5be 3f36 333f
000000b0: 1875 2dbe 1cea 073f c062 443f 6725 0f3e
000000c0: 67ee 9c3e bc10 733f ee45 7b3e 4d22 b63e
000000d0: 8f1d e53e 7a2c 77bc 7ea6 543e ee5c 49be
000000e0: 8d7a ac3e 4866 823e e3eb cd3d b182 9a3e
000000f0: 2f3c e9bc fdec 3c3f 52f9 0d3e 0cb1 783e
00000100: d4fd 4c3f 398c 13bf d52f 273f 58ef 3a3d
00000110: bd05 7b3e c9e7 95be b278 f93d 3ca7 ec3e
00000120: c29c 013f 4831 143f a919 e0be f71a 263f
00000130: 42ac fdbd ff24 193f 1c37 473f 8ad9 503d
00000140: 32e0 063f 1e37 773f 036d e83d b186 9f3e
00000150: 940c f93e 92d8 debc d5ad 3b3d a216 93bd
00000160: 5e2e c53e 35cd c33e 7be3 ee3d 78b9 84bc
00000170: c214 323e 87c5 3a3f 5241 943d 8a70 9b3e
00000180: 9595 99be 64cf 473e dbbf 6bbf cef0 d63e
00000190: b643 2fbf 0a5f dc3e d702 a5bf 2e63 4a3f
000001a0: 96d1 c8bd 7b1a cf3c efb4 93bf a866 c13d
000001b0: 4fb1 393f bf05 0f3f f90b 293f 8633 38bf
000001c0: a447 a6bf b237 d23e baac ddbe 8a6d 313f
000001d0: 6303 6e3d 469e 74bf 8c84 97bf 5a80 90bf
000001e0: 802e 48bf 352a 26bf 5b8b adbe 434d 3cbf
000001f0: 45d9 5fbf 2d31 35bf b3cc 37bf 272a c13e
00000200: 3ac3 08bf 263f a23d 67e9 99bf 651e 803e
00000210: 1ee6 bc3e cfb1 573f c8f9 30bf ffc7 fc3e
00000220: 6e3e 133f 5158 e8bd cbf8 e1bf deb3 733f
00000230: 427f 243f 0d6f a53e d1c8 5dbd b90a 88be
00000240: 9b70 f9be 4b22 4cbf e681 42bf b8ce 99be
00000250: d281 523e bf55 d7be d31f 833e 7c73 70be
00000260: 9598 3abf 2bc7 1d3c 7220 e6bf 4a8c 3a3e
00000270: 3fe7 b93e f980 8abf 1bf1 48bf 42c3 0c3f
00000280: f4e0 113f 6375 05c0 3708 82bd e112 06bf
00000290: a0a6 9bbe c3b5 9cbf aaff 9b3e 46de 743e
000002a0: 8142 7f3e 9f43 d43d f8df 8c3e fdba 423e
000002b0: 75d3 30be f178 2a3f 72a5 5a3e a177 04be
000002c0: 92bc ccbe 1921 603e 8b53 563f b0a3 063e
000002d0: 7ffa 053f f44c 493e b4af 853e ff67 333e
000002e0: 8017 ee3d 0132 0a3f 6947 da3e d6e6 383f
000002f0: 7cff 19be ca32 7d3e d5d0 053f da00 753f
00000300: d1b2 39be fded ce3d 0f5d ac3e 5e39 393f
00000310: da33 02c0 559b 0f3f 6527 723f ee16 06bf
00000320: 8b0f acbf e688 37be 7554 d03e 8647 833c
00000330: 2c2b 933d 4d4d 70bd 630f 363d b0b8 723f
00000340: f9a8 ea3e d9d3 3ebf f6cd 983e 8d95 debe
00000350: edc5 2ebf 5791 bf3e 91bb f83e 965a 363f
00000360: 3e80 35bf 6fbc 80be 20ae 3e3f 7df1 cfbe
00000370: fdbb 173f 5ced c43e a810 dd3e 0f25 d8bf
00000380: 08b0 a93e a670 d33e dc68 f5be e395 003f
00000390: 2278 72bf 648f fb3e 37ec 8abf 8192 213f
000003a0: 2f8e 0fbc e524 c2bf 6c5f b0bf e912 82be
000003b0: fe92 eb3e af4a 253f 5e9e edbe 8adc 18c0
000003c0: 4682 a03d 6e8f 21bf d363 70bf cefc dc3e
000003d0: 805f d93e f2f8 56be 822f 24be ee9f 8abf
000003e0: 0acf c2be 8848 dabd 222d 21bf d0a0 2cbe
000003f0: 5146 42bf 134c 5abf f980 8cbe 7944 013f
0.68703496 -0.11954722 0.37247384 -0.99189764 -0.42003554 -0.22710013 -0.28485572 0.2996288
0.4953041 0.85214037 0.07401986 0.6059098 0.04628788 0.5550409 0.65942025 0.2678957
-0.16132429 0.4510123 0.070026904 0.18100244 0.7405816 -0.038948733 0.28433248 0.024759965
0.11168985 0.38351798 0.32419106 0.13836232 -0.6006314 0.42225194 0.121236466 0.5392954
0.9027515 -0.65987486 0.5762843 0.16063797 0.3156735 -0.3043525 0.13605596 0.52740395
0.6745638 0.6819698 -0.32291695 0.7000465 -0.16939199 0.530916 0.7671318 0.13979112
0.30650637 0.9494741 0.24538395 0.35573044 0.44749114 -0.015086288 0.20766637 -0.19664356
0.3368725 0.2546866 0.100547574 0.30177835 -0.02847108 0.73799115 0.1386464 0.24286288
0.8007481 -0.5763584 0.6530736 0.045638412 0.24513908 -0.292784 0.12181224 0.4622134
0.5062982 0.578877 -0.43769577 0.64884895 -0.12386371 0.59822077 0.77818465 0.05098871
0.52685845 0.9656848 0.11348917 0.3115745 0.4864241 -0.027202878 0.045820076 -0.07182051
0.38511938 0.38242498 0.11664482 -0.01620172 0.17390731 0.7295765 0.07239021 0.30359298
-0.29996935 0.19512707 -0.92089623 0.41980594 -0.68462694 0.4304126 -1.2891492 0.79057586
-0.098056 0.025281182 -1.1539592 0.09443408 0.72536176 0.5586814 0.66033894 -0.7195362
-1.2990613 0.41058117 -0.43295842 0.6930777 0.0581087 -0.95554006 -1.1837325 -1.128917
-0.78195953 -0.6490815 -0.33895382 -0.7355539 -0.874409 -0.7077816 -0.7179672 0.37727472
-0.5342289 0.07922201 -1.2024354 0.2502319 0.36894315 0.8425569 -0.69131136 0.49371335
0.57517135 -0.1134497 -1.765405 0.9519633 0.6425668 0.32311288 -0.05414659 -0.2657068
-0.48718724 -0.79739827 -0.7597946 -0.30040526 0.20557335 -0.42057607 0.25610217 -0.23481554
-0.7288907 0.009630005 -1.7978652 0.18217579 0.3630924 -1.0820609 -0.784929 0.5498544
0.56983876 -2.0852897 -0.06349223 -0.52372557 -0.30400562 -1.2242969 0.30468494 0.23912916
0.24927713 0.1036446 0.27514625 0.19016643 -0.17268164 0.6659079 0.21352175 -0.1293626
-0.39987618 0.21887626 0.83721226 0.1314838 0.5233535 0.19658262 0.26110613 0.1752014
0.11625576 0.5398255 0.42632607 0.7222723 -0.15038866 0.24726406 0.5227178 0.95704424
-0.1813462 0.101039864 0.33664748 0.7235316 -2.0344148 0.5609639 0.9459136 -0.5237874
-1.3442243 -0.17923316 0.40689436 0.016025316 0.07185969 -0.05866747 0.044448268 0.9481306
0.4583204 -0.74542004 0.29844636 -0.43473473 -0.6827076 0.37415573 0.48580602 0.71231973
-0.7089881 -0.25143763 0.74484444 -0.40613928 0.5927122 0.3846234 0.4317677 -1.6886309
0.33142114 0.4129688 -0.47931564 0.5022871 -0.9471456 0.49132836 -1.0853337 0.6311417
-0.008761927 -1.5167509 -1.377912 -0.25405052 0.46010584 0.64567083 -0.46409887 -2.3884606
0.07837348 -0.6310948 -0.9390232 0.43161625 0.42455673 -0.20993403 -0.16033748 -1.0830057
-0.38048583 -0.106583655 -0.6295949 -0.1685822 -0.75888544 -0.8527233 -0.27442148 0.50495106

fc_layers.1.bias f4 [16]
00000000: 41b4 17bf 057a e0be 88b7 19be 7bda 893f
00000010: 1425 3d3f 6644 73bf c6d2 1c3f 24cc 1e3f
00000020: 3c8e a63e 72fd e73e 3416 30bf 41ec 993e
00000030: 35e4 6f3f abd9 473f a30e e5be c763 03bf
-0.5925942 -0.43843094 -0.15011418 1.07698 0.738847 -0.9502624 0.61259115 0.62030244
0.3253039 0.4531055 -0.6878388 0.3006306 0.9370759 0.7806651 -0.4473773 -0.51324123

affine_output.weight f4 [1, 16]
00000000: f389 92bf e374 55bf 5bad 49bf 95d4 8d40
00000010: cbf1 4340 0bde 19c0 ea49 1b40 bf2d 7b40
00000020: 0407 3940 8843 3440 85e4 8fbf 89a7 8740
00000030: 3ec6 9140 cc45 5d40 6f8a 63bf 5d8f 85bf
-1.1448349 -0.8338148 -0.78780144 4.4322 3.0616329 -2.4041774 2.4263864 3.9246671
2.8910532 2.8166218 -1.1241614 4.239201 4.5554495 3.457385 -0.8888311 -1.0434376
