checkpoints/MLP_Epoch5_HR0.1618_NDCG0.1576.model (torch, 261263 bytes, 7 tensors)

embedding_user.weight f4 [51, 32]
00000000: 2b13 a8bf 993d b23f c91e 8dbe 0795 81bf
00000010: d929 9c3e f8db 15bf d4f4 0fbf 1fa9 8fbf
00000020: 085a c63f 213a e5bf a75b 79be ed64 37bf
00000030: 8eb3 2ebd d72d acbf 06e7 c83f d457 86bf
00000040: 42a4 483e 1917 4a3e e4b9 4dbe 9f57 053f
00000050: 9a26 91be dc49 9fbf cab7 833f df4b 10c0
00000060: 6c9a 20bf f12f 453f 63a2 6b3e cb30 ffbe
00000070: caa6 a4bd 9483 38bf 28f6 863e 760a 523d
00000080: 24fb db3e 33ae fabe aac3 64bf 7d98 df3d
00000090: 75c7 2b3b e140 e13e 53f3 953f 8d8e c4bf
000000a0: 7f7a 1c3f 7131 35bf 5609 86bf 4397 343e
000000b0: 6a6b d63f 6a4c 8abf f01b 77bf 73fb 3a3e
000000c0: b9c3 68bf beb8 a0be 89f1 46c0 7dde a3be
000000d0: 2843 63bd c7a5 eabe a73a 653f 0241 a53d
000000e0: 17e7 9ebf 8077 83be eedc 873f ccbc e6be
000000f0: 0edd 253f 4d10 d33e 3080 9dbf cb58 dd3f
00000100: c908 823f d2c7 263f 4504 993f b39b 583e
00000110: 7471 623f 47c1 503f 188d cdbf 768e 853f
00000120: 5a0d 553e 07ab 4e3f 35ff dbbf ea3a a2be
00000130: 8281 dd3e 9188 6b3f ee7f 353f c319 f6be
00000140: bba5 b73e 0669 c43f a230 82bf 3081 233f
00000150: b30b 2540 7349 213f ca54 193f deae 40bf
00000160: 725d 663e bc34 db3e 4581 823f 215a 16be
00000170: cd86 fe3f fcb6 043e c974 5c3f 44be 623f
00000180: ecab 40bf bdce 81be fc1c 59be c9cb 413e
00000190: d718 4fbf 196e 10bf 3b30 a8bd 85cd 8dbf
000001a0: 27d5 bf3e 5312 8b3e 6989 a03e e8a2 d9bf
000001b0: 58c9 29bf adef d2bd 7be1 8f3f 4900 2abf
000001c0: 472f 083f a784 c93e 3994 5dbf a3c9 1340
000001d0: a36f 8f3f bb3f abbe c3c9 123f d62a bf3e
000001e0: e012 6ebe 0ccf 86be 4633 3cbf 4b0e b63c
000001f0: 129f 84be c721 52be 3852 edbf 7716 61bf
00000200: 2efe 363f e863 2ebe c784 8e3f 2ece 0240
00000210: 41cb e63f 431d 1cbf 849a 323e e356 bfbf
00000220: 83ac 38bf 6ea9 d73e fa00 ad3f 11cf da3f
00000230: a042 d23c 2e37 46bc e8a0 bd3e 9e41 983f
00000240: 14e2 8f3f e439 943f b4de 0c3f ec0c 5b3f
00000250: b305 68bf a0da 2440 f796 75bd fa5e 6d3f
00000260: 07eb 06bf 54dc 923e 5a02 99be 8e4d 183f
00000270: 4624 5d3f dd0d 813f 1d6b c13e 9e4b 0f3f
00000280: 3bec 99be 64b5 b93f f3a5 db3f 3acf db3e
00000290: 0ac6 713f afc1 7bbf 2221 6e3f d47d 77bd
000002a0: ddaa 6fbe f44e 45c0 c69b b2be ab4c 883f
000002b0: 5a0a 5c3e 304d 953f 8dca ee3e deb2 96bf
000002c0: 7d7c 583f 1663 e8be fc05 a4bf 5e93 653f
000002d0: 38d3 ddbf 1d84 48bf f302 3ec0 18e8 abbf
000002e0: 0d88 b7be 001e 18c0 ad2a 3540 dc49 cb3f
000002f0: 4079 a03d 1083 04c0 7e81 d23e c315 b73e
00000300: 25c6 9c3e 09ea 90bf dea6 5f3f 31bf 1abf
00000310: a9dc 383f fb83 28bf eae7 93bf 3e71 8f3f
00000320: 5089 3abf d788 2a3f e31f 3dbf 229c 30be
00000330: 7d44 17c0 347f fd3e b5dd 403f 8356 34bf
00000340: 2732 3f3e 05f0 8ebd 6585 c63f f376 f7bf
00000350: cdbe a93f 42e6 bf3f f3b6 8a3f bdb9 833f
00000360: 892e 6fbe 4507 cabf 27d0 cfbf 2f6b 16be
00000370: bc10 acbf db64 8c3f dde9 e8be 4a72 e23e
00000380: 9510 03c0 243e 8ebf f688 87be 3f53 a73f
00000390: 2b2e be3f 4cc8 b03f f0a6 a93f e7c4 edbf
000003a0: 3e3e e0bf 8508 103f 6b81 033e 386d 97be
000003b0: 7a56 bbbf d0b9 0fc0 43dc a33f ef9e 593f
000003c0: 59c0 1abe 9b82 73bf 5fc4 a9bf 18e3 353f
000003d0: 8e14 00bf 9781 313f 5055 09bf 2b67 c43f
000003e0: 8ae0 a5bf 3f91 eebe ef70 41bf 7fe8 25be
000003f0: e51d 1fbf d6fb f4be 602c e83e b81a acbf
-1.313085 1.3925048 -0.2756255 -1.0123605 0.30500677 -0.5853877 -0.56232953 -1.1223487
1.5496225 -1.7908365 -0.24351369 -0.71638376 -0.042651705 -1.3451489 1.5695503 -1.0495553
0.1959391 0.19735374 -0.20090443 0.52086824 -0.28349763 -1.2444415 1.0290463 -2.2546308
-0.6273563 0.7702628 0.23011164 -0.49841914 -0.08039625 -0.7207577 0.26359677 0.051279508
0.42965043 -0.48961028 -0.8936106 0.10917757 0.0026211415 0.4399481 1.1714882 -1.5356003
0.61124414 -0.70778567 -1.0471599 0.17635827 1.675153 -1.080457 -0.96527004 0.18259983
-0.9092365 -0.31390947 -3.1084921 -0.32005683 -0.055483967 -0.45829603 0.8954262 0.0806904
-1.2414273 -0.2567711 1.0614297 -0.45065916 0.6479043 0.41223374 -1.2304745 1.7292722
1.0158931 0.6514865 1.1954428 0.21153145 0.88454366 0.8154492 -1.6058683 1.0434101
0.20805874 0.80729717 -1.7187258 -0.31685573 0.4326287 0.9200526 0.7089833 -0.4806653
0.3586863 1.5344551 -1.0171092 0.63869 2.578839 0.630027 0.59895 -0.75266826
0.22496584 0.4281367 1.01957 -0.14682819 1.9884888 0.12960428 0.861157 0.8857157
-0.7526233 -0.2535304 -0.21202463 0.18925394 -0.8089728 -0.56417996 -0.08212324 -1.1078345
0.3746731 0.27162418 0.31354836 -1.700284 -0.6632285 -0.10299621 1.1240686 -0.66406685
0.5319714 0.39359018 -0.86554295 2.309182 1.1205944 -0.3344706 0.57339114 0.3733737
-0.23249388 -0.2632984 -0.7351574 0.022223612 -0.2590261 -0.20520698 -1.8540716 -0.87924904
0.714816 -0.17030299 1.113427 2.0438342 1.8030778 -0.6098215 0.17441756 -1.4948391
-0.7213823 0.42121452 1.3515923 1.7094442 0.025666535 -0.012098117 0.37036824 1.1895025
1.1240869 1.1580167 0.5502732 0.8556659 -0.90633696 2.5758438 -0.059958424 0.9272305
-0.52702373 0.28683722 -0.29884607 0.5949334 0.86383474 1.0082356 0.37777033 0.5597476
-0.30063042 1.4508481 1.7160019 0.4293154 0.9444281 -0.9834241 0.93019307 -0.060422733
-0.23405023 -3.082944 -0.3488447 1.0648397 0.21488324 1.1664181 0.4663891 -1.1773336
0.84564954 -0.45388097 -1.2814326 0.8967799 -1.7330084 -0.7832659 -2.96893 -1.3430204
-0.35845986 -2.376831 2.8307297 1.5881915 0.078356266 -2.0704994 0.4111442 0.3575879
0.30619922 -1.1321422 0.87363994 -0.60447985 0.722117 -0.65826386 -1.155515 1.1206434
-0.7286577 0.6661505 -0.7387678 -0.1724706 -2.3635552 0.4951111 0.753383 -0.70444506
0.18671475 -0.06979374 1.5509459 -1.9333175 1.3261353 1.4992144 1.0837082 1.0291058
-0.23357596 -1.5783468 -1.6235398 -0.14689325 -1.3442607 1.0968279 -0.45490924 0.4422782
-2.047887 -1.1112714 -0.2647168 1.307228 1.4857839 1.3811126 1.325407 -1.8575715
-1.7518995 0.56263 0.12842338 -0.29575515 -1.4635766 -2.245716 1.2801594 0.8500814
-0.15112437 -0.95121163 -1.3263053 0.7104964 -0.50031364 0.69338363 -0.536458 1.5343984
-1.2959149 -0.4659519 -0.7556295 -0.16201971 -0.6215499 -0.47848386 0.45346355 -1.3445654

embedding_item.weight f4 [1889, 32]
00000000: e829 0e40 27cc 1340 c916 b13e 896d debf
00000010: 062c 283f a190 ebbe 77b8 963f 20f3 573d
00000020: 1bb5 813f 5e1b f5bc 580f c7be 8229 87be
00000030: 29eb 2bc0 695e 753f 75a0 fcbe 33d5 bcbf
00000040: 575b a53f 2f00 bf3f 41b2 51bf 0823 143f
00000050: 21bd d13d 5be6 8cbf 9781 2e3f 27c1 cd3e
00000060: 4960 d3bd 8857 e9bf 3497 0c3e 3111 a0bf
00000070: 3b41 473f 9897 0240 a23c 75bf c646 5d3f
00000080: 3acf 173e a626 013f faf3 793f 8c75 36bf
00000090: 7212 95bf 2105 93be 097c bd3f 5b0e b53f
000000a0: 5206 29c0 5e3f 893e 0c62 47bf b206 703e
000000b0: 2a58 b0bf e35f b83e d49b d33f a691 4fbf
000000c0: 93c9 26be 198b 18bf 975f c53f fa7a 0fbf
000000d0: 7deb 27be 96d9 5b3e 84f9 14bf c288 42bf
000000e0: 69dc 363f a8eb 8dbd 84a6 9d3f c9bd 8fbe
000000f0: 0cd3 46bf 85eb 883f d284 fc3e d1b6 c33d
00000100: 0fe9 a1be 1010 0b3f a936 7d3f a4be 6bbf
00000110: f543 7b3f ddba f63f 4d1b ca3f 6908 763f
00000120: b9fd 553e bf65 73bf 5bbe 1e40 28ea 36bf
00000130: 8909 183f 89d2 2a3f a295 d9be e260 ac3f
00000140: faff 073e 414e 393f 0acf 523f 4493 26c0
00000150: 42c2 293e d5e1 063f 44b8 45bf fb37 eebe
00000160: 7651 803f 842e 11bf 400b a33f 369a f53d
00000170: ae94 3b3f 6a49 f0be c2bb 4dbf 4173 bebe
00000180: 7223 e13f 5e24 17bd f2fb a7bf f40f 983e
00000190: 15b1 a73e 9cae bebf 937c 213f 784f 593f
000001a0: 6873 cfbe 4215 093f 9a96 c7bf d60b 323f
000001b0: e616 483e 38d9 03bf cf53 0dbf acc3 3cbf
000001c0: 19c6 e23e 4b0c 373e e289 d03b 025c c03f
000001d0: ccb2 d2bf 8a2c 04bf 11fe 88bf ac58 3dbd
000001e0: ff79 2bc0 e637 973e f8ae 8abe 7fe6 9a3f
000001f0: 08c9 adbf f34f 9a3e 3227 55bf 13fb 52bf
00000200: be19 863f aa44 8abf 69ed 9cbf 72dd 7ebf
00000210: f83f a43f b58f 31be 2fe1 7d3f 9bde 3dbf
00000220: a753 1940 2804 03c0 d946 18bf 0456 18bf
00000230: d4a4 24bf be84 adbf de65 713e 6b95 b8bf
00000240: 574e 113d 9d0a f5be 8a6d 27bf bbb4 b4bf
00000250: 2d57 bd3d 6b3d 90bf 853a 1cc0 f1cf 9a3e
00000260: c545 46bf 3408 e9bf d404 53bf e779 a33f
00000270: 0ef9 51bf 61db 65bf 3b8e 0e3f adeb b43f
00000280: 8ed0 6fbf 62b3 bc3d d066 debf b3ec 84bf
00000290: 90d2 ce3e f2af cb3f 8b38 6e3f 8715 19be
000002a0: 876d f63e 6e92 bb3b b40f 8cbf d88f 56bf
000002b0: 3a13 2440 601d b3be 00a7 97be f28b 2dbf
000002c0: de0b 9a3f df56 603f cc4b fe3f 4b0e 50bf
000002d0: 5cc9 093e a32a c93f 08d7 16bf 8a12 f33f
000002e0: ab2b 693f 2df3 7a3f 5361 1d3f 42c7 5abf
000002f0: cd07 04bf 504b c43e 81c0 28bf dc00 6f3f
00000300: be04 82bf 6ee8 043f a900 7bbf b2ea 4e3e
00000310: dbfc d83f 8140 bf3f 6197 5dbd 44fa 7bbf
00000320: ec2e b0bd 3e19 8dbf 04cc 0fc0 e507 493f
00000330: 488f fdbf 54f1 e03e d43d 0640 703f 193d
00000340: 1325 cfbf 0488 6bbf c30f c7bf 58ae 843f
00000350: 967f b53d 0670 863f 1731 0840 a7eb b6be
00000360: 1a97 89bf 6b75 d8bf 71b3 ec3e 56ad b63f
00000370: 45d0 613f 6714 ebbd d5db a3bf 84d4 c63f
00000380: 346c 9c3f 7e04 c4be e3ad 12bf c124 1dbf
00000390: 827f 1fbe cb81 12be d799 1cbf a267 e5be
000003a0: 2dae b63e 1db8 4bbf 1ffb ffbe c9fe 0140
000003b0: 720c 6fbe 57ad f8bf cdc5 5c3f c99f 90bf
000003c0: c9a0 ab3e 154c a1bf 6828 9d3f 18b1 18c0
000003d0: 76eb f73e dcbb d33d 2d96 d9be 3154 a3bf
000003e0: 3f48 7c3f 522b d8be 1c4d d23f 834e 23c0
000003f0: 683e 7b3f 7d82 e2bf 68fb db3f a6bd fc3e
2.2213078 2.3093355 0.34587696 -1.7377177 0.65692174 -0.4600878 1.1775044 0.052722096
1.0133394 -0.029920276 -0.38878894 -0.26398855 -2.686228 0.95847183 -0.4934117 -1.4752563
1.29185 1.4921931 -0.8191262 0.57865953 0.102411516 -1.1007799 0.6816649 0.40186426
-0.10321099 -1.8229837 0.13729554 -1.2505246 0.7783391 2.0405025 -0.95795643 0.86436117
0.14825144 0.504496 0.97637904 -0.7127311 -1.1646254 -0.2871485 1.4803478 1.4145006
-2.6410108 0.26806158 -0.7788398 0.23440054 -1.3776906 0.36010656 1.653193 -0.81081617
-0.16287832 -0.59587246 1.5419797 -0.5604702 -0.16398425 0.21469721 -0.5819323 -0.75989926
0.7143007 -0.069297135 1.2316442 -0.28074482 -0.7766578 1.0696875 0.49320084 0.09556354
-0.31623122 0.54321384 0.9891153 -0.9208777 0.9815057 1.9275776 1.5789582 0.9610658
0.20897569 -0.9507713 2.4803684 -0.71451044 0.5938955 0.667275 -0.42496973 1.3467066
0.13281241 0.7238503 0.82347167 -2.6027384 0.1657801 0.5268834 -0.7723429 -0.46527085
1.002486 -0.567116 1.2737808 0.11992304 0.7327374 -0.4693101 -0.8036462 -0.37197307
1.7588942 -0.036899917 -1.3123763 0.2969967 0.3275229 -1.4897037 0.6308071 0.84886885
-0.40517735 0.5354806 -1.5592835 0.6954931 0.19539985 -0.51503325 -0.55206007 -0.7373607
0.44291762 0.17875783 0.006364093 1.5028079 -1.6460814 -0.5163046 -1.0702535 -0.046227142
-2.679321 0.29534835 -0.27086616 1.2101592 -1.3576975 0.3013912 -0.8326293 -0.8241436
1.0476606 -1.0802205 -1.2259952 -0.9955665 1.2832022 -0.17339976 0.9917173 -0.74167794
2.3957307 -2.0471287 -0.59483105 -0.5950625 -0.6431401 -1.3556135 0.23574015 -1.4420599
0.0354751 -0.4785966 -0.6540152 -1.4117655 0.09245143 -1.1268743 -2.4410717 0.30236772
-0.7745021 -1.8205628 -0.8242924 1.2771577 -0.8202065 -0.8978787 0.55685776 1.4134423
-0.93677604 0.09213902 -1.7375126 -1.0384735 0.4039502 1.5913069 0.9305503 -0.14949618
0.48130438 0.005724243 -1.0942292 -0.8381324 2.5636735 -0.3498335 -0.29619598 -0.67791665
1.2034872 0.87632555 1.9866881 -0.8127181 0.13455719 1.5716137 -0.5892186 1.8990033
0.9108226 0.98027307 0.6147663 -0.85460293 -0.51574403 0.3833871 -0.6591874 0.93360686
-1.0157697 0.5191716 -0.9804788 0.20206717 1.6952165 1.494156 -0.054099444 -0.9842875
-0.086027 -1.1023328 -2.2468271 0.7852767 -1.9809351 0.4393412 2.0975237 0.037414014
-1.6183189 -0.9200442 -1.5551685 1.0365705 0.08862226 1.0502937 2.1279962 -0.35726663
-1.0749238 -1.6910833 0.46230653 1.4271648 0.8820842 -0.11478501 -1.2801462 1.5533605
1.2220521 -0.38284677 -0.5729658 -0.61384207 -0.15575984 -0.14307325 -0.6117224 -0.44805628
0.3567976 -0.7957781 -0.49996278 2.0311759 -0.23344591 -1.9427899 0.8623932 -1.1298763
0.33521107 -1.2601343 1.2277956 -2.385809 0.4842183 0.10338566 -0.42497388 -1.2760068
0.9854774 -0.4222055 1.6429782 -2.551667 0.981421 -1.7696072 1.7186098 0.4936344

fc_layers.0.weight f4 [32, 64]
00000000: f25d c13e c079 853d 24c8 78be b961 a9bd
00000010: b6a8 a0bb 6f3e 10bf 71f9 893e a109 db3e
00000020: d0e0 a5bd 5e8c c83e 1e6b 283e d7e8 8dbd
00000030: f2b1 de3c 24a1 8f3e 4928 a7be f98a cbbe
00000040: 0247 da3e bdd0 51be 13c2 c63d 5631 dfbd
00000050: c2e1 6a3e a661 7e3e 9dfc 453e e6ee 663e
00000060: 160e 3f3f 01fc 73be 4084 03be 1f2f dbbd
00000070: 33d1 383e ae52 2b3d ca3c 4b3e b811 2d3e
00000080: 07ba dd3e a7b3 d93e 82b6 8b3d 49b8 bb3e
00000090: 6051 59be fed5 d3be 2a94 ae3d e68d f0bc
000000a0: 5509 4a3f 1b89 3c3e afeb 033f 1b97 6bbe
000000b0: 90ec e73e ea39 00bf a14e 7f3e cb12 133f
000000c0: d494 78bd a3d5 2dbc 9bfc 9d3c 171c bf3e
000000d0: fd6c 123e 78b9 4d3b 2507 dfbe 467b 4abe
000000e0: bf95 71be f0d8 80be 4e99 afbe 933d 0d3f
000000f0: faf6 9dbe f6ac 913e 9478 2e3e d463 eabe
00000100: f224 193e dd2a 3fbe 5ead c2be 4bbc 193d
00000110: 083f 0f3e 2f0f 2e3e d8e6 a0be eb68 0fbd
00000120: b4c5 1fbd 6a0b 0c3f b776 963d 9c0f aebc
00000130: 0164 59be 5210 45be 0e36 22be 2914 cdbd
00000140: b99e 443d 5ffb a7bc a71b 1d3d e89b 453d
00000150: b00d 033d 1d89 7dbe 3b57 913d 35f0 0fbd
00000160: 9e8e 53be 69cb a13b 1c82 7abe 813d 78be
00000170: e8f4 133e a99b 083f af8d 8c3e 548f b43e
00000180: 54b0 cdbd 60f9 7b3e 2834 16be b666 b73e
00000190: aa8f cdbe 94ea da3d 52e8 01bf 0442 d3be
000001a0: f685 0bbe 5965 c33e f9e9 bd3e b02b 89bf
000001b0: 50c1 ae3e a24b 0dbe 7914 eb3e acd2 173e
000001c0: 6357 19be 36e2 2e3d a05f 153f 3304 933d
000001d0: 363f 153f b351 9a3e 1869 d73e 8e7b efbe
000001e0: 35a0 a83c 61ae 513e 3bb1 bf3d 86ac cc3e
000001f0: f7cb 563d 0987 c0be 8ebf 933e bd83 8f3e
00000200: c59b 04be c761 8d3d d0f4 7bbe 3de9 103e
00000210: 3155 af3e 2f3b a6bd 9cc8 013e 0078 eabe
00000220: 888a 343e eaac 3d3e c94f b33e 32b6 0e3d
00000230: d77d 9fbd 6b25 b4be 10f2 c8be 6d75 3e3e
00000240: 2be7 cf3e f277 783e d4bc d5bd b2f6 e23d
00000250: 85c1 433d daa1 0c3d 1501 71be e317 803d
00000260: 6769 68be 2aa2 cfbd e863 86be 4562 23be
00000270: ee2b 1f3e b047 f63e 08eb 383e 9af2 123d
00000280: c9e3 d03d 139b 85be a2b1 6bbb 3f8a f9be
00000290: 056c f2be 9cc8 cb3e 7464 6f3e 657d b9be
000002a0: c7d7 94bd 8659 0dbf 6f72 8dbe 456a bcbe
000002b0: 4b51 883d 585d 09be 5e63 203f 17cf 613e
000002c0: e122 023e a272 2bba 8fed 36be c214 923d
000002d0: cdb9 39bf cdfa 653f f8a8 40be 4ed1 ea3e
000002e0: e5ef ab3d 4d3c 35be 2e63 e1bd 5ca2 39bf
000002f0: 8d66 47bf 6aac 653e 8372 61bd ae95 c9bd
00000300: 47fb 353e 8de8 44bd c648 25be ca14 253e
00000310: ad4f b93d 2fcc fb3d 2321 5dbd 0f8a 903e
00000320: 63cc 7c3e 33ab a9bd 8142 c23e 7091 a7bd
00000330: 60d5 aabe 3dae 10bd 4f0b 99be 401f 9dbe
00000340: af10 243e 5490 25bd 9af1 6a3e f9ea d2bd
00000350: cb8a fbbd 0e84 17bf 0558 893e b0da adbd
00000360: 4154 99be 7123 eb3c 75bf 46bd 9d51 903d
00000370: 9200 833e 0c79 8d3e 4146 acbd bb93 3a3e
00000380: 9d57 c3be 4772 02be ceca 9fbe d603 603e
00000390: 84be 50be 6d6b f8be 4634 32bf 9b37 88be
000003a0: b873 d13e 8981 5ebe c974 4fbf 30aa a43d
000003b0: b654 cfbd 98c5 0b3e 0d60 2b3e 2e9e 0bbe
000003c0: 4703 a0bd 9a5e abbd d244 c6be 390a 0cbe
000003d0: ba9b b9be 9c2b 98be 7aa9 97be f0cc 973e
000003e0: e093 003f d7fe fe3e 8716 a03e 67da 3ebe
000003f0: cbe4 9d3d 1d28 cabe 5f62 ad3e 9776 243e
0.37766987 0.065173626 -0.24295098 -0.08270592 -0.0049029244 -0.56345266 0.2694812 0.42780784
-0.0809952 0.39169592 0.16447112 -0.06929176 0.02718446 0.28052628 -0.32647923 -0.39754465
0.426323 -0.20489784 0.097049855 -0.10898082 0.22937682 0.24841937 0.19334646 0.2255207
0.7463087 -0.238266 -0.12843418 -0.10702347 0.18048553 0.041826896 0.19847408 0.1690129
0.4330599 0.42519876 0.0682192 0.36664036 -0.21222448 -0.413742 0.08524354 -0.029364537
0.7892049 0.18411677 0.515315 -0.23006861 0.4529767 -0.5008837 0.24932338 0.5745055
-0.06068881 -0.010610017 0.01928549 0.37326118 0.14299388 0.0031391066 -0.43560138 -0.19773588
-0.2359228 -0.2516551 -0.3429665 0.5517208 -0.3085249 0.2845227 0.17038184 -0.45779288
0.149555 -0.18668695 -0.38022894 0.037533086 0.13988888 0.1699798 -0.3142612 -0.035012167
-0.039006904 0.54704916 0.07346862 -0.021247678 -0.21229555 -0.19244507 -0.15840933 -0.10013611
0.048002932 -0.020505605 0.03835645 0.048244387 0.031995475 -0.24759336 0.07096716 -0.03514119
-0.20659873 0.0049375785 -0.24463695 -0.24242212 0.14448893 0.5336252 0.27451846 0.352656
-0.100433975 0.24606848 -0.14668334 0.3582055 -0.4014867 0.106892735 -0.5074512 -0.41261303
-0.13625321 0.3816326 0.3709257 -1.0716457 0.3413186 -0.13798383 0.45914057 0.14826459
-0.14974742 0.0426962 0.5834904 0.07178535 0.5829958 0.30140457 0.42072368 -0.46773952
0.020584205 0.20476677 0.09359976 0.39975375 0.05244061 -0.37603024 0.28857082 0.28030196
-0.12950046 0.06903415 -0.24605107 0.14151473 0.34244683 -0.08116757 0.12674183 -0.45794678
0.1763097 0.18522993 0.3502181 0.034841724 -0.07787674 -0.35184798 -0.3924718 0.18599482
0.40606055 0.24264506 -0.10436407 0.1108221 0.047791976 0.03433404 -0.23535569 0.06254556
-0.22696458 -0.10138352 -0.26248097 -0.15955456 0.15544102 0.48101568 0.18058407 0.035875894
0.101996966 -0.26094875 -0.0035964032 -0.48738286 -0.47348037 0.3980149 0.23378164 -0.3622848
-0.07267719 -0.55214727 -0.27626368 -0.36799827 0.066561304 -0.13414514 0.6265162 0.22051655
0.12708618 -0.0006540214 -0.17864059 0.071328655 -0.72549134 0.89835817 -0.18814456 0.45862812
0.083953656 -0.17698784 -0.11005245 -0.72513366 -0.77890855 0.22429052 -0.055040848 -0.09843002
0.17771636 -0.04807334 -0.16141042 0.16121212 0.090484 0.12294804 -0.05398668 0.2823033
0.24687342 -0.08284607 0.37941363 -0.08182037 -0.33365917 -0.035322417 -0.2989144 -0.30687904
0.1602199 -0.040420845 0.22943726 -0.10298724 -0.12282332 -0.59185874 0.26824966 -0.08488977
-0.29947093 0.028703423 -0.04852243 0.070468165 0.25586373 0.27631414 -0.08411837 0.18220417
-0.3815278 -0.12738906 -0.31209415 0.21876463 -0.20385176 -0.4851946 -0.6961101 -0.26604924
0.409086 -0.21729101 -0.81037575 0.08040273 -0.10123579 0.13649595 0.16735859 -0.1363456
-0.07813125 -0.08367653 -0.3872438 -0.13675775 -0.36251622 -0.2972077 -0.29621488 0.29648542
0.5022564 0.49803802 0.31267187 -0.18638001 0.077096544 -0.3948373 0.33864114 0.16060863

fc_layers.0.bias f4 [32]
00000000: 586c ecbe 393a a03e 49d1 84be 2323 00bd
00000010: ab3f 16bf 5fab 1bbe b7f5 2abf b960 b23e
00000020: f1f4 47bf a711 fdbe 7c1d 1bbf 4120 fabe
00000030: 87c9 1d3f 4490 06bd 049b 19bf f7d4 efbe
00000040: 3230 08bf 0a73 efbe f8a1 fcbe eb4e cc3e
00000050: 2081 09be 1bdd f8be 7672 eebe 98c9 11bf
00000060: 8471 0cbf 0900 27bf f034 57be 9ff7 b3be
00000070: ca0c adbe a47b acbe d88d 1dbf e970 13be
-0.4617641 0.3129442 -0.25940922 -0.03128351 -0.586909 -0.15202092 -0.6678118 0.3483942
-0.78108126 -0.4942753 -0.60591865 -0.48852733 0.6163563 -0.032852426 -0.6000216 -0.46842167
-0.5319854 -0.46767455 -0.49342322 0.3990396 -0.13428164 -0.4860619 -0.46571702 -0.5694823
-0.5486071 -0.6523443 -0.21016288 -0.35149857 -0.3379882 -0.3368808 -0.6154456 -0.1439854

fc_layers.1.weight f4 [16, 32]
00000000: f2ff 323f ce93 18be 6373 b53e 04d1 6ebf
00000010: 0544 cbbe e1d7 6abe be74 8cbe a935 9e3e
00000020: bb0f 043f 154f 5a3f f5fb 1a3d 9291 243f
00000030: 9c6e 2a3d f4e2 0f3f d42b 273f 6275 923e
00000040: b76e 44be bd01 fa3e c917 e93d 986f 4b3e
00000050: 02b9 3a3f 9861 2bbd 8881 9f3e 8cd6 0dbd
00000060: 963b cc3d 2899 b93e b78a a63e 914d 283e
00000070: ef3f 19bf aa76 e03e d560 1e3e 972b 0c3f
00000080: d0fd 673f bb2c 2abf 2c19 0b3f 508b 0c3e
00000090: 5a70 a63e 5782 89be 41f3 133e bf1f 093f
000000a0: 6da4 323f e2b8 2d3f 7d34 b7be c0ee 313f
000000b0: 4638 2fbe 31a7 063f 0b7b 413f f5a1 293e
000000c0: ebf4 733e 9b7c 733f 317f 883e 86bd b53e
000000d0: 4ec6 ec3e 423b 83bc 68e0 7c3e 1e24 77be
000000e0: cea5 a73e 4c2c 673e 91c9 ee3d 8d66 a03e
000000f0: aed5 92bd 1f1b 3c3f 7b68 1e3e 752b 7e3e
00000100: c4b5 4e3f 2c64 14bf 1eda 1e3f 9aae 863c
00000110: 22b8 843e b3f0 83be fe79 053e a215 f23e
00000120: 3a87 073f da75 143f f7ab ebbe c5c4 243f
00000130: d14b 00be a2f9 173f 830c 453f c5a1 9d3d
00000140: ee9b ea3e d4b5 773f d8cd 0c3e d7c7 9e3e
00000150: 952f fc3e b01a d6bc e98d ab3d cd31 fdbd
00000160: dbd9 bd3e 88ba b63e 546b 093e a460 7c3a
00000170: 8a44 063e 78e6 393f 4248 c73d 363d 9d3e
00000180: 8ad9 86be 0f3e 593e 7370 69bf f19e d83e
00000190: 7e4a 1fbf ce35 eb3e 7d27 a3bf e2f2 443f
000001a0: f164 84bd d1d2 58bd c9d8 8cbf 757c 553d
000001b0: 084d 3c3f 030d 0b3f d870 1b3f 7094 3fbf
000001c0: d5ba 93bf ff44 b13e 12cb d8be b4d4 323f
000001d0: a209 ac3d a323 75bf 5d28 92bf d5f1 8cbf
000001e0: 7997 3bbf fdb9 27bf 212b 9abe 193d 36bf
000001f0: c850 50bf f8a3 36bf 1227 47bf 3109 be3e
00000200: 71de 09bf 082a 6b3d 4f63 94bf 6e1b 9a3e
00000210: 2405 963e a22d 4c3f 1b58 29bf 984f eb3e
00000220: 9074 033f dfae a8bd b979 ddbf b187 753f
00000230: 5c86 213f 9d7d 983e ba92 57bd e2b1 82be
00000240: 1b10 e8be d12b 62bf 0b2a 6bbf 3fc1 90be
00000250: 563e 623e 23af ccbe 5294 af3e 477d 11be
00000260: 4b0d 2fbf a93b 333d e201 debf ea94 0b3e
00000270: 9571 b73e 3296 8abf e42e 33bf 7490 073f
00000280: 9468 1c3f f12c fcbf 4ba4 a6bd 64fc 0dbf
00000290: c7df a6be 77e8 9bbf ddf3 983e 9487 793e
000002a0: 0ecc 893e 82dd 343e 9d94 5a3e a20b 6b3e
000002b0: ea48 1fbe 6c26 293f d037 673e 4478 e5bd
000002c0: 03b2 b8be 2692 903e fa21 6e3f f297 333e
000002d0: 2ea3 0c3f c1ad 163e d7a7 a23e 330b 023e
000002e0: 8034 ce3d b594 163f d59c d83e 101e 323f
000002f0: 8c8c 56be e364 7b3e f963 153f a940 753f
00000300: 6e41 40be ccf3 ea3d 0404 983e 7bdd 393f
00000310: e984 eebf 4e99 113f a3b5 6c3f 6847 f7be
00000320: ee18 acbf 2804 4bbe 3e33 d83e b0ad 93bb
00000330: 92be 293e 3c3a c5bc 0d59 a03d b69b 733f
00000340: 42d9 df3e 78b0 2dbf 0d79 ad3e 56e9 debe
00000350: e02b 16bf 9a96 b93e aed4 dd3e 127c 353f
00000360: 593d 40bf 4d7f 82be 07f6 433f 34e6 afbe
00000370: d955 113f f46e c23e c926 e73e 0ca1 ccbf
00000380: c0e9 893e 1ae6 cf3e b9a8 01bf 0262 ef3e
00000390: 2da0 6fbf 40b3 f83e 55d3 8ebf 0d86 213f
000003a0: f605 f23b 3bb6 abbf 111b aabf 7317 89be
000003b0: 0c1c f73e 6ecc 263f c426 d3be 0e2c 15c0
000003c0: f6f2 aa3d c7e2 30bf a912 6fbf 8b29 d73e
000003d0: ff33 cd3e ad09 88be 0f93 12be 5535 82bf
000003e0: ef2c d1be 3791 b7bd 62ab 24bf e400 17be
000003f0: c7d0 43bf 70ac 5bbf 65b3 8dbe 6938 083f
0.6992179 -0.14900133 0.35439596 -0.9328768 -0.39700332 -0.22933914 -0.27432817 0.30900314
0.515865 0.8527692 0.03783794 0.6428462 0.04160939 0.5620568 0.6530125 0.2860518
-0.1918286 0.4882945 0.1138149 0.19866788 0.7293855 -0.04184112 0.31153512 -0.034628436
0.099723026 0.3624966 0.32527706 0.16435839 -0.5986318 0.43840533 0.15466626 0.5475401
0.9062166 -0.66474503 0.54335284 0.13725019 0.32507592 -0.26857254 0.14448263 0.53564066
0.69782144 0.67860234 -0.35782233 0.6950493 -0.1711131 0.52598864 0.75578374 0.16565688
0.23823898 0.9511201 0.2665954 0.35496157 0.46245044 -0.016019467 0.24694979 -0.24134871
0.32743686 0.22575492 0.116595395 0.3132824 -0.071696624 0.73478884 0.15469544 0.24821265
0.807461 -0.5796535 0.6205157 0.016440678 0.25921732 -0.25769576 0.13034818 0.4728213
0.52940714 0.5799233 -0.46029636 0.64362746 -0.12528922 0.59365284 0.76972216 0.07696871
0.4582209 0.9676182 0.13750398 0.3101184 0.49255052 -0.026135772 0.083766766 -0.12363014
0.37080273 0.35689187 0.13419849 0.00096274377 0.13112083 0.7261729 0.09730579 0.30710763
-0.26337844 0.2121508 -0.9118721 0.42308763 -0.6222304 0.45939487 -1.2746426 0.7693311
-0.064645655 -0.052935425 -1.1003658 0.052120645 0.7355504 0.5431673 0.6071906 -0.7483587
-1.1541392 0.34622952 -0.4234243 0.6985581 0.08400275 -0.957575 -1.1418568 -1.1011301
-0.73278004 -0.6551817 -0.3011103 -0.7118698 -0.8137326 -0.71343946 -0.7779399 0.37116387
-0.53855044 0.05741313 -1.1592807 0.30099052 0.29300797 0.7975713 -0.66150063 0.45959163
0.51349735 -0.08236479 -1.7302772 0.95910174 0.6309564 0.29783335 -0.052630164 -0.2552634
-0.45324787 -0.8834811 -0.9186103 -0.28272435 0.22094092 -0.3997737 0.34292847 -0.14207946
-0.6837966 0.04375807 -1.7344325 0.13631025 0.35828844 -1.0827086 -0.69993424 0.5295479
0.61097074 -1.9701215 -0.08136805 -0.5546324 -0.32592604 -1.2180318 0.29873553 0.24368125
0.26913494 0.17662624 0.21345754 0.22953656 -0.15555158 0.6607425 0.22579885 -0.112045795
-0.36073312 0.28236502 0.93020594 0.17538431 0.5493649 0.1471472 0.31768677 0.12699585
0.10068607 0.5882066 0.42307153 0.6957712 -0.20952052 0.24550204 0.5835567 0.9580179
-0.1877496 0.11472282 0.29690564 0.7260358 -1.8634311 0.5687455 0.92464656 -0.48296666
-1.3445108 -0.19825804 0.42226595 -0.004506789 0.16576603 -0.02407562 0.07829485 0.9515947
0.43720442 -0.67847395 0.33881417 -0.43537396 -0.586607 0.36247712 0.43326324 0.7089244
-0.7509361 -0.25487748 0.7654728 -0.3435532 0.5677162 0.37975276 0.45146778 -1.5986648
0.2693615 0.4060524 -0.50648075 0.46754462 -0.93603784 0.48574257 -1.1158243 0.6309517
0.0073859645 -1.3414987 -1.328951 -0.26775703 0.48263586 0.65155685 -0.41240513 -2.330814
0.08347122 -0.69096035 -0.9338785 0.42023882 0.40078732 -0.26569882 -0.14313911 -1.0172526
-0.40854594 -0.089632444 -0.6432401 -0.14746433 -0.76490444 -0.85809994 -0.2767593 0.53211075

fc_layers.1.bias f4 [16]
00000000: 55fb 0cbf faab cebe ace0 edbd d9fa 833f
00000010: 27f2 3a3f 225b 62bf 440a 1d3f 2f6b 1b3f
00000020: 5587 bf3e 0924 b43e 260e 26bf 8bc1 a23e
00000030: 9349 663f 6441 3d3f 080a cfbe 2707 f9be
-0.55071 -0.40365583 -0.116151184 1.0310928 0.73025745 -0.8842031 0.6134379 0.60710424
0.37407938 0.35183743 -0.6486534 0.31788287 0.89956015 0.73927903 -0.4043734 -0.4863827

affine_output.weight f4 [1, 16]
00000000: 4a00 98bf 52e6 5ebf d86f 51bf 3dfb 8c40
00000010: ef29 4240 a345 1dc0 b747 1b40 484e 7a40
00000020: 1f10 3b40 d8c0 3640 9d7a 94bf 65ae 8840
00000030: 738c 9140 384b 5f40 c27c 71bf 935e 8abf
-1.1875088 -0.8707019 -0.81811285 4.4056687 3.0338094 -2.4573753 2.4262521 3.911028
2.922859 2.8555202 -1.1599919 4.2712884 4.5483947 3.488966 -0.9433099 -1.0810112
