checkpoints/MLP_Epoch4_HR0.1571_NDCG0.1514.model (torch, 261263 bytes, 7 tensors)

embedding_user.weight f4 [51, 32]
000000 c4 93 9c bf a4 11 ad 3f a0 ab 85 be 70 9c 79 bf
       -1.2232594 1.3521008 -0.26107502 -0.9750433
000010 5c 7f 8f 3e 1e ba d6 be 6e 55 27 bf 55 34 8a bf
       0.28026855 -0.4193887 -0.6536473 -1.079722
000020 52 9c bf 3f 01 59 f9 bf 65 54 6e be 70 7d 21 bf
       1.496958 -1.9480287 -0.23274381 -0.6308203
000030 88 d9 d8 bd e7 fd b1 bf ef e3 c2 3f 83 14 86 bf
       -0.10588366 -1.390561 1.522581 -1.047501
000040 ae ea d3 3d 6a 21 68 3e b9 2c 4e be d4 c3 0f 3f
       0.10347496 0.22668996 -0.20134248 0.56158185
000050 75 d2 98 be c1 b4 a1 bf c1 10 81 3f 8b 1a 10 c0
       -0.29848066 -1.2633287 1.0083238 -2.25162
000060 b9 e0 f4 be 2d b2 36 3f 53 eb 34 3e 88 7e ef be
       -0.478277 0.71365625 0.17667894 -0.46776223
000070 d1 dc 48 bd 40 2a 3c bf 87 53 76 3e 79 f7 e3 bc
       -0.049038712 -0.7350197 0.240553 -0.027827965
000080 5e 7d bd 3e f2 67 ef be 35 7d 4e bf 47 ca 0f 3e
       0.3700971 -0.4675899 -0.806598 0.14042006
000090 4a 92 26 3d ba c1 b7 3e 3f 59 94 3f 9f be c4 bf
       0.040666856 0.3588999 1.1589736 -1.5370673
0000a0 ff f5 15 3f 6f 3b 24 bf d9 b9 81 bf 6a 8b 66 3e
       0.58578485 -0.6415319 -1.0134841 0.2251412
0000b0 5b 92 e2 3f d0 c7 86 bf 6d 2e 71 bf c6 34 83 3e
       1.7700914 -1.0529728 -0.94211465 0.256262
0000c0 9c eb 5e bf 48 28 a2 be fc 8a 48 c0 59 b4 ad be
       -0.8707826 -0.31671357 -3.133483 -0.33926657
0000d0 53 8a 4e bd 71 00 d1 be f0 fe 64 3f 05 c3 52 3d
       -0.050424885 -0.4082065 0.89451504 0.051455516
0000e0 0f 90 a3 bf 0a 52 5e be 43 d9 82 3f aa c7 e6 be
       -1.2778338 -0.21710983 1.0222553 -0.45074207
0000f0 9e 3f 29 3f f3 db d5 3e 23 90 8e bf 3a dd df 3f
       0.661127 0.4176937 -1.1137737 1.7489388
000100 1b 45 83 3f af a7 2a 3f 9c 9e 9d 3f 8d 7a 8c 3e
       1.0255464 0.66662115 1.2314029 0.2743725
000110 eb 49 6c 3f 39 a2 3f 3f 80 60 c6 bf f6 1e 84 3f
       0.9230029 0.7485691 -1.54982 1.0321949
000120 26 d1 4c 3e 7d 3f 51 3f cf c1 db bf 80 1a a9 be
       0.20001659 0.817375 -1.7168521 -0.3302803
000130 d2 0d d4 3e 37 af 63 3f 48 e5 13 3f 78 9d e6 be
       0.41416794 0.8893923 0.5777173 -0.45042014
000140 bc 4c ad 3e 4b 06 c0 3f 52 30 82 bf bb cc 22 3f
       0.33847606 1.500192 -1.0170996 0.63593644
000150 8f 3e 28 40 ec a7 2d 3f ff 14 1e 3f f3 9c 33 bf
       2.6288183 0.67834353 0.6175079 -0.7016136
000160 8d 61 82 3e 51 3c 06 3f 52 52 7c 3f c1 e3 2e be
       0.2546505 0.52435786 0.9856311 -0.17079069
000170 89 11 f2 3f 28 69 09 3e ce ce 4a 3f 36 88 3c 3f
       1.8911601 0.1341902 0.7922181 0.7364534
000180 ea 41 46 bf be 0b 89 be ff b8 61 be 92 df 0a 3e
       -0.77444327 -0.2676677 -0.22043227 0.13561848
000190 ae c8 4d bf ba 16 14 bf 50 1d 01 be 3d 1e 84 bf
       -0.8038434 -0.5784718 -0.12608838 -1.0321728
0001a0 b3 05 c3 3e f6 f1 9f 3e ab ea 87 3e 5f 23 de bf
       0.38090286 0.3123929 0.26546225 -1.7354544
0001b0 53 23 2d bf 6a d7 b1 bd fa 6a 8e 3f 50 fb 27 bf
       -0.67632025 -0.08683665 1.1126397 -0.6561785
0001c0 55 a8 fb 3e 5b 0d ad 3e 19 5c 3b bf fa bd 17 40
       0.49151865 0.33799252 -0.73187405 2.3709702
0001d0 c7 3f 91 3f c4 57 ba be 7b 99 16 3f 50 a9 a6 3e
       1.1347588 -0.36395085 0.5882794 0.3255105
0001e0 60 09 84 be c6 3d 4e be 4b d1 32 bf d3 55 0a 3d
       -0.25788403 -0.20140752 -0.69850606 0.033773255
0001f0 47 d2 60 be 76 6b 0f be 35 1e db bf aa bd 59 bf
       -0.21955214 -0.14005837 -1.7118593 -0.8505503
000200 27 f5 4c 3f bf 3d 5c be 6b dc 89 3f 21 8a 02 40
       0.8006157 -0.2150793 1.0770391 2.0396807
000210 7c 96 e9 3f 83 af 12 bf a3 cd 2f 3e eb 1e ba bf
       1.8249049 -0.5729906 0.17168288 -1.4540685
000220 7b 97 34 bf 6e f5 e3 3e 35 b2 b5 3f c2 0f d8 3f
       -0.7054364 0.44523185 1.419501 1.6879809
000230 a2 5d 89 bd ae 87 99 3c bf 3e b2 3e 20 e4 90 3f
       -0.06707312 0.018741455 0.34813496 1.1319618
000240 04 14 8c 3f f1 47 8f 3f 18 3f 12 3f e1 7b 59 3f
       1.0943608 1.119383 0.57127523 0.8495465
000250 97 03 66 bf 06 a6 1e 40 2e 86 9b bd 1a c1 5a 3f
       -0.8984923 2.4788833 -0.07593952 0.854509
000260 38 84 03 bf 67 7b 6a 3e c1 44 c1 be d0 da 19 3f
       -0.51373625 0.22898637 -0.37747768 0.60099506
000270 89 da 52 3f 22 c4 7e 3f a0 25 c1 3e b6 bb 01 3f
       0.8236471 0.99518025 0.37724018 0.5067705
000280 49 36 9b be ce c1 b7 3f 1a ce de 3f d8 86 c3 3e
       -0.30314854 1.435602 1.7406647 0.38188815
000290 63 9d 3e 3f 6e 83 67 bf c7 3f 6f 3f 21 0f 94 bd
       0.74458903 -0.9043492 0.9345669 -0.07229448
0002a0 ca 8c 77 be 5a 81 40 c0 ca b2 d8 be 4e 1f 87 3f
       -0.241748 -3.007895 -0.42323905 1.0556428
0002b0 d9 2a b3 3e 06 63 a1 3f eb 41 f0 3e e3 c4 94 bf
       0.34993628 1.2608345 0.4692529 -1.1622585
0002c0 0d 41 66 3f 12 16 e4 be a0 80 b7 bf 9e 4c 74 3f
       0.8994301 -0.44548088 -1.4336128 0.9542941
0002d0 d1 d2 cb bf 1d 44 59 bf 4a 4c 36 c0 a8 82 ad bf
       -1.5923711 -0.8486956 -2.8484063 -1.3555498
0002e0 99 e8 f2 be dd 4f 28 c0 2d 1c 32 40 d8 a1 ba 3f
       -0.47443083 -2.6298745 2.7829697 1.4580641
0002f0 12 ad c7 3d 8b 7f 07 c0 23 75 fe 3e 84 27 c0 3e
       0.097498074 -2.1171596 0.49698743 0.37530148
000300 5b 5a ba 3e 7c 47 9b bf 8c 16 3f 3f 1a 32 22 bf
       0.3639706 -1.213119 0.7464378 -0.633577
000310 8a e8 35 3f 87 92 31 bf f2 51 97 bf 4c 39 87 3f
       0.7105795 -0.6936421 -1.1821883 1.0564361
000320 93 d8 31 bf 8e f0 45 3f 6a b4 23 bf 5a c1 2e be
       -0.6947109 0.7732018 -0.63947165 -0.17065945
000330 6c 3c 17 c0 23 a0 10 3f 18 87 5a 3f cf 61 57 bf
       -2.3630629 0.5649435 0.85362387 -0.8413362
000340 a1 3a 76 3e 65 97 44 bc df 52 c7 3f 37 b5 e8 bf
       0.24045803 -0.011998986 1.5572165 -1.8180302
000350 39 77 9a 3f 2b b3 af 3f 88 53 6c 3f ef 85 82 3f
       1.2067634 1.3726553 0.9231496 1.0197123
000360 e8 0b 6b be b5 8a b8 bf b9 d1 c7 bf e5 6e 81 be
       -0.2295376 -1.441733 -1.5610877 -0.25279918
000370 3c 54 af bf 15 f6 74 3f 2d 24 03 bf c8 2f 02 3f
       -1.3697581 0.9568799 -0.51227075 0.5085416
000380 a8 50 01 c0 c4 ab 89 bf c1 ce 88 be 2e 95 a3 3f
       -2.0205479 -1.0755544 -0.2672024 1.2779901
000390 ba 6d c0 3f 69 e5 a9 3f 66 81 ae 3f 4f 9f f1 bf
       1.5033486 1.3273135 1.3633239 -1.8876742
0003a0 68 05 e2 bf f2 04 03 3f ab e8 18 3e 3d 75 b9 be
       -1.76579 0.5117942 0.14932506 -0.36222258
0003b0 7d 80 b5 bf 2b 06 0f c0 de f0 a6 3f 8a 22 70 3f
       -1.4179837 -2.2347515 1.3042257 0.938027
0003c0 f5 1a 41 bd d6 8d 5c bf 5a 2e b6 bf 2c 5e 2a 3f
       -0.04714485 -0.86153924 -1.4232895 0.66549945
0003d0 64 13 f0 be 82 9f 3f 3f a4 0b 0e bf ca 25 c0 3f
       -0.46889794 0.74852765 -0.5548651 1.5011532
0003e0 dd 6b 9e bf 32 7c 0d bf 3c bd 33 bf e6 6f cf bd
       -1.2376667 -0.5526763 -0.70210624 -0.10128765
0003f0 2a e2 22 bf 8d f3 ca be 89 37 bd 3e 82 1e a8 bf
       -0.6362635 -0.3963894 0.36956432 -1.313431

embedding_item.weight f4 [1889, 32]
000000 b7 5b 08 40 68 c2 13 40 82 77 c0 3e 2d 72 e6 bf
       2.1305978 2.3087406 0.37591177 -1.8003594
000010 f7 78 19 3f c9 67 bb be bc 9d 98 3f d1 95 c7 3d
       0.599502 -0.3660262 1.1923137 0.09745372
000020 fd 3c 71 3f d8 db 78 bd f2 6e c9 be 56 f5 8c be
       0.94233686 -0.060756534 -0.39342457 -0.27530926
000030 18 a4 27 c0 77 54 7d 3f 64 71 f7 be 55 97 b6 bf
       -2.6193905 0.9895701 -0.48328698 -1.4264933
000040 47 9a a0 3f f1 5e ac 3f f6 b2 45 bf f8 83 07 3f
       1.2547082 1.3466474 -0.772262 0.52935743
000050 9e f1 e9 3d ea 63 92 bf 80 df 38 3f 44 60 b7 3e
       0.11423038 -1.1436741 0.72216034 0.35815632
000060 2d e7 e3 bd ee 0d d9 bf 83 b7 d5 3d 3d 3c a8 bf
       -0.11128078 -1.6957376 0.10435393 -1.3143383
000070 2d d3 42 3f 00 a6 02 40 ad 62 72 bf 6c 14 48 3f
       0.7610348 2.0413818 -0.9468182 0.7815616
000080 59 c6 30 3e 2e 23 e8 3e 69 6e 84 3f fb 13 5d bf
       0.17263164 0.4533934 1.0346195 -0.8635861
000090 7b 6c 80 bf 83 ab 8c be 30 ad c4 3f ec 31 b1 3f
       -1.0033106 -0.27474603 1.5365353 1.384336
0000a0 13 11 2c c0 77 ab 71 3e 01 c8 43 bf 38 da 5c 3e
       -2.6885421 0.23600565 -0.76477057 0.21567619
0000b0 d5 4b ae bf 9b a9 b1 3e 9d b3 d3 3f 06 00 4d bf
       -1.3616892 0.3469971 1.6539189 -0.8007816
0000c0 a1 99 fa bd cd c6 05 bf d3 43 c2 3f d2 f1 07 bf
       -0.12236334 -0.5225647 1.5176948 -0.53103364
0000d0 03 7c 4d be af 1a a0 3e 8f e5 12 bf 58 6a 3f bf
       -0.20066838 0.31270358 -0.5738153 -0.7477164
0000e0 7a 2b 22 3f d2 8a 2a bd aa 8a a8 3f 40 33 c4 be
       0.6334759 -0.041636296 1.3167317 -0.3832035
0000f0 ca 11 69 bf ec 32 7e 3f 82 7b f7 3e f7 2f b4 3d
       -0.9104277 0.9929645 0.48336416 0.08798211
000100 26 1f 5c be 66 32 16 3f 23 9a 7e 3f 75 68 5b bf
       -0.21496257 0.5867065 0.99453944 -0.85706264
000110 20 5f 62 3f 22 23 e1 3f 11 75 ca 3f d2 c8 72 3f
       0.884264 1.7588847 1.5816976 0.9483768
000120 9d 1b 82 3e b7 2d 6a bf 93 1b 19 40 43 3b 28 bf
       0.25411692 -0.91476005 2.392308 -0.65715426
000130 3a 85 23 3f 45 0b 38 3f 5e 70 b4 be 1d 66 b0 3f
       0.6387516 0.71892196 -0.3524198 1.3781163
000140 49 d0 09 3e 70 d1 37 3f 73 07 38 3f a5 8c 1c c0
       0.1345836 0.7180395 0.71886367 -2.4460843
000150 ef 90 88 3e ce 9b fc 3e 2f c6 43 bf 77 e2 fe be
       0.26673076 0.4933762 -0.7647428 -0.49782154
000160 3d c5 6b 3f 31 ee 0c bf 8b 8c af 3f 98 cd 57 3e
       0.92097837 -0.5505095 1.3714765 0.21074522
000170 54 f1 52 3f eb 10 17 bf 69 79 2e bf 9b fa aa be
       0.8239949 -0.5901019 -0.6815401 -0.33394322
000180 7a 9d db 3f 70 9b e2 3c a7 dc a5 bf 6f dc d7 3e
       1.7157433 0.027662009 -1.2957963 0.42160365
000190 b3 85 ab 3e 97 19 b8 bf a3 42 11 3f 83 2f 41 3f
       0.33500442 -1.4382809 0.56742305 0.7546312
0001a0 89 ab aa be 13 0d 0d 3f 7b c5 bd bf 77 28 29 3f
       -0.33333996 0.55098075 -1.4825891 0.6607737
0001b0 a6 8a 31 3e af 7f fd be 50 9e 05 bf 9f 58 55 bf
       0.17338046 -0.49511477 -0.5219469 -0.8333835
0001c0 01 ed d3 3e e0 4a d4 3d 16 25 8d 3d c1 1d bb 3f
       0.41391757 0.10365844 0.06891839 1.4618455
0001d0 e7 3c cc bf 3f 4e 0a bf 9b 29 7e bf 5d dc c7 bd
       -1.5956086 -0.54025644 -0.99282235 -0.09758828
0001e0 06 d9 29 c0 e5 a2 8f 3e ad a4 71 be 0f c4 9f 3f
       -2.653871 0.28053966 -0.23597975 1.2481707
0001f0 1f 95 b6 bf 4a 6e 6f 3e fa d7 4b bf c9 31 25 bf
       -1.4264258 0.23381916 -0.7962643 -0.6452909
000200 8d 6d 6e 3f a3 b4 8f bf be 1a a5 bf c4 c7 7d bf
       0.9313591 -1.1227001 -1.2898786 -0.99132943
000210 7a 25 a5 3f 8c c9 75 be 87 a6 73 3f 26 86 50 bf
       1.2902062 -0.24002665 0.95175976 -0.81454694
000220 81 a8 1b 40 1d d2 03 c0 5f 35 2a bf e0 4c 1c bf
       2.4321597 -2.0596993 -0.6648769 -0.610548
000230 e8 0b 37 bf aa 62 a2 bf bc ba 8c 3e 52 fe c2 bf
       -0.7150254 -1.268636 0.27486217 -1.5233862
000240 50 d8 dc 3d 21 38 be be 87 6a 31 bf 4d e2 b0 bf
       0.10783446 -0.37152198 -0.6930317 -1.3819062
000250 ba 13 96 3e 5f d2 93 bf 38 8e 19 c0 41 81 2e 3e
       0.29311925 -1.1548575 -2.3993053 0.17041494
000260 5f 78 45 bf 92 dc da bf fb eb 3f bf a3 65 a4 3f
       -0.77136797 -1.7098563 -0.7496945 1.2843517
000270 b0 74 47 bf 2f 4c 5f bf 1a 3f 2e 3f e6 35 ac 3f
       -0.77912426 -0.8722562 0.68065035 1.3453948
000280 e8 4b 57 bf db 00 09 3d d3 81 d6 bf c1 e7 7f bf
       -0.841002 0.03344808 -1.6758369 -0.99963003
000290 42 75 dc 3e ee 49 d0 3f 09 7d 5e 3f ab 04 3c be
       0.4305821 1.6272562 0.8690954 -0.18361156
0002a0 cc bc fe 3e 6f 50 4e 3d 30 b1 82 bf c7 5f 53 bf
       0.49753416 0.050369676 -1.0210323 -0.8256802
0002b0 80 8c 24 40 a4 6b df be d5 04 ab be fc 2b 39 bf
       2.5710754 -0.4363681 -0.33402124 -0.7233274
0002c0 2e 93 9c 3f 81 39 57 3f 21 41 00 40 40 2f 47 bf
       1.2232416 0.8407212 2.0039752 -0.7780647
0002d0 6b 1f 25 3e 6b 03 c9 3f b3 ba 0e bf 8d 48 ec 3f
       0.16125266 1.5704168 -0.5575363 1.8459641
0002e0 83 e3 6e 3f e4 fe 7d 3f 6b 49 1a 3f 5b d7 4d bf
       0.93315905 0.9921706 0.60268277 -0.8040673
0002f0 ab be 05 bf 44 a4 c6 3e 39 bd 33 bf 5d a1 66 3f
       -0.5224406 0.387972 -0.70210606 0.9008997
000300 7a f4 85 bf ce 73 06 3f c4 ee 80 bf 12 3b 31 3e
       -1.0465233 0.52520454 -1.0072865 0.1730769
000310 6b 31 d1 3f 6f 9a bc 3f 8c b9 7f bd eb da 75 bf
       1.6343206 1.4734629 -0.06243281 -0.9603717
000320 e5 c6 84 bd b9 0c 92 bf f5 52 0e c0 37 86 46 3f
       -0.064832486 -1.1410133 -2.2238133 0.77548546
000330 b9 41 fe bf b6 55 d1 3e 9a b8 0b 40 08 be a0 3d
       -1.9863807 0.40885705 2.1831422 0.078487456
000340 2a 90 c3 bf eb 81 6e bf 7d 8c c4 bf 37 b6 7b 3f
       -1.527837 -0.9316699 -1.5355374 0.9832491
000350 56 f6 1a 3d 4e 69 8e 3f 96 f6 05 40 83 d8 8d be
       0.03783258 1.1125886 2.0931754 -0.27704248
000360 f6 92 86 bf bd 91 d0 bf 62 f2 dd 3e fc e7 b4 3f
       -1.0513599 -1.6294476 0.43348986 1.4133296
000370 07 01 51 3f 88 e6 21 be 3e 45 9a bf b6 6c bf 3f
       0.8164219 -0.15810597 -1.2052381 1.4955051
000380 dd b0 a0 3f 1c a8 c5 be 7a 2e 1a bf aa c8 2f bf
       1.2553974 -0.3860482 -0.6022717 -0.68665564
000390 d4 5c f2 bd db 68 28 be 38 4e 3f bf eb c7 d3 be
       -0.11834112 -0.16446249 -0.7472873 -0.41363463
0003a0 5c 70 a1 3e 65 3c 44 bf 11 fc d7 be 74 07 fd 3f
       0.31531036 -0.76654655 -0.421845 1.97679
0003b0 b3 a9 7e be 05 45 ff bf 2e c8 58 3f 6f 63 8b bf
       -0.24869423 -1.9942938 0.8468045 -1.088972
0003c0 ce d7 d9 3e 4a 42 9d bf 2d 01 98 3f 3c a2 14 c0
       0.42547458 -1.2285855 1.1875359 -2.322402
0003d0 1f 07 1e 3f 24 95 16 3e f6 2c f0 be d0 54 9e bf
       0.61729616 0.1470533 -0.46909302 -1.2369633
0003e0 e8 42 6f 3f af 61 d7 be ba 10 cb 3f 1d 6f 23 c0
       0.93461466 -0.42066714 1.586448 -2.5536568
0003f0 6f 98 86 3f 12 3f dc bf 01 79 d1 3f ae 7a 0f 3f
       1.0515269 -1.7206748 1.6365052 0.5604657

fc_layers.0.weight f4 [32, 64]
000000 d5 6f 99 3e fd 0a 85 3d 0d b8 23 be d6 96 e4 bd
       0.29968134 0.064962365 -0.15988179 -0.11161582
000010 a4 16 d0 bc 15 6c 12 bf 92 31 80 3e df aa d8 3e
       -0.02540142 -0.5719617 0.2503782 0.42317864
000020 96 34 6a bd c2 be b2 3e a2 89 e6 3d 54 b8 7c bd
       -0.057179056 0.34911162 0.1125672 -0.061699226
000030 ab c8 59 3d 00 9b 8e 3e f4 64 ae be 9a e8 bf be
       0.053169888 0.2785263 -0.34061396 -0.37482148
000040 64 a6 cb 3e 65 7a 41 be 4d 2a e1 3d a3 91 50 bd
       0.39775383 -0.18894346 0.10994396 -0.05092014
000050 11 3f 54 3e 6d 98 80 3e df a6 1e 3e 6b 6f 6a 3e
       0.20727183 0.25116292 0.15493344 0.22894065
000060 8d f8 34 3f 6d 41 77 be 32 8f d7 bd 77 5f 02 be
       0.7069176 -0.24146052 -0.10525359 -0.1273173
000070 74 b5 1d 3e 00 13 44 3d 55 85 34 3e b9 b1 18 3e
       0.1540125 0.047869682 0.17628987 0.14911546
000080 a2 e8 eb 3e c4 de c1 3e 7f b3 5c 3d c7 fd c3 3e
       0.46075922 0.3786527 0.05388212 0.38279554
000090 63 44 71 be 9c ff d9 be 9e a7 cf 3d fa 05 39 bd
       -0.23561244 -0.42577827 0.10139392 -0.045171715
0000a0 9a 5d 4f 3f bd 3a 41 3e 07 66 ff 3e 39 2d 83 be
       0.810022 0.18870063 0.49882528 -0.2562044
0000b0 57 d9 d4 3e 13 65 f2 be 20 db 6f 3e 6e 28 11 3f
       0.41572067 -0.47342739 0.23423433 0.56702316
0000c0 1f 9e d0 3b fc 23 d6 3a df 0c 72 3d 28 71 cd 3e
       0.0063665058 0.0016337628 0.059094306 0.40125394
0000d0 df 0e 12 3e ba ad 83 bc f3 2b eb be 9a 59 4e be
       0.14263485 -0.01607405 -0.45931968 -0.20151368
0000e0 f0 79 71 be 16 2e 5e be 9a 6a bc be ee 1e 10 3f
       -0.23581672 -0.21697268 -0.3680008 0.56297195
0000f0 bb f9 9f be 84 80 7b 3e 10 e4 27 3e 21 27 eb be
       -0.31245217 0.24560744 0.16395593 -0.4592829
000100 66 cb 24 3e d3 3e 42 be 25 6c c0 be 49 f2 33 3d
       0.16093215 -0.18969278 -0.37582508 0.043932233
000110 46 cb 06 3e 7f 77 36 3e bf 15 9b be 06 a0 5d bd
       0.1316348 0.17819022 -0.30290028 -0.05410769
000120 86 61 7d bd ce 5c 07 3f 02 92 bb 3d 72 08 9b bc
       -0.061860584 0.52875984 0.09158708 -0.018924925
000130 a4 d5 4e be 6d e8 6f be d9 f5 35 be 99 f5 20 be
       -0.20198685 -0.23428507 -0.17769565 -0.15718688
000140 7d f3 a4 3c b1 c0 1f bc a6 d6 c9 3c c3 41 49 3d
       0.020135636 -0.009750531 0.024638485 0.04913498
000150 b3 8a a9 3a 0c f7 74 be d2 80 a1 3d db e4 20 bd
       0.0012935012 -0.23922366 0.07885899 -0.039280754
000160 f5 c8 4f be 4f 76 db bc 58 a0 86 be 41 d8 8d be
       -0.20291503 -0.026789812 -0.26294208 -0.2770405
000170 54 78 34 3e 75 ae 07 3f 9f d3 89 3e 99 06 b7 3e
       0.17624027 0.53000575 0.26919267 0.3574722
000180 c7 25 d1 bd cb 6b 72 3e 72 99 13 be 46 30 a1 3e
       -0.102122836 0.23673932 -0.14414003 0.31482142
000190 68 16 c5 be 85 25 dd 3d c8 2d 02 bf 3d f3 bf be
       -0.38493657 0.10798172 -0.50851107 -0.37490264
0001a0 43 e1 16 be b4 05 ca 3e 63 f3 c3 3e 9a 19 86 bf
       -0.14734368 0.39457476 0.38271627 -1.0476563
0001b0 99 30 b3 3e f0 78 ab bd 3b 38 e0 3e 73 0c dd 3d
       0.34998015 -0.08372676 0.437929 0.1079339
0001c0 bd af 30 be fc aa 2f 3c 84 8f 11 3f 66 5c 3e 3c
       -0.17254539 0.010721918 0.5685961 0.011618709
0001d0 b8 15 0f 3f b3 00 ac 3e 49 c4 ad 3e 39 bf d6 be
       0.55892515 0.33594283 0.33938816 -0.41942766
0001e0 44 54 26 3c 8f 80 64 3e 16 f5 9d 3d c5 17 d3 3e
       0.010151926 0.22314666 0.07712762 0.41229072
0001f0 5b f4 77 3d 57 c1 a8 be d9 2a 88 3e c4 c7 8d 3e
       0.06053577 -0.32960007 0.2659519 0.27691472
000200 8c f6 e5 bd 13 97 62 3d ce 83 81 be 9a f6 35 3e
       -0.11228666 0.055319857 -0.25295871 0.17769852
000210 a7 89 a0 3e 65 80 f9 bd 91 5a f7 3d 52 b2 ec be
       0.3135502 -0.121826924 0.12077821 -0.46229798
000220 58 21 4b 3e bc cf 34 3e 29 1b 9d 3e 9b 55 a2 3c
       0.19836938 0.1765737 0.30684784 0.01981621
000230 10 fe 80 bd 1f cc ac be e2 f7 bf be 07 18 55 3e
       -0.062984586 -0.33749482 -0.37493807 0.20809947
000240 a3 7c bf 3e 3d 82 6c 3e fd b8 10 be 34 0c a1 3d
       0.37399778 0.23096557 -0.14133067 0.07863656
000250 3d 8a 16 3d 10 2d 0a bb a8 62 88 be bb 92 13 3d
       0.036752928 -0.0021083988 -0.2663777 0.036028605
000260 b8 91 8c be 86 a5 1a be 5c 60 89 be f0 76 25 be
       -0.27454925 -0.15102205 -0.2683133 -0.16158652
000270 89 6d 2e 3e 24 26 04 3f 0a c9 52 3e 29 a3 1e 3d
       0.17033972 0.516207 0.20584503 0.03872982
000280 bb e7 a4 3d ef 30 3d be 9f ba 38 3d ca fb 07 bf
       0.080520116 -0.18475698 0.04509985 -0.53118575
000290 eb e8 cd be c8 8a ad 3e af 02 84 3e e7 44 c0 be
       -0.40216765 0.33894944 0.25783297 -0.37552568
0002a0 8e 65 95 bd 4e d8 08 bf 8d 23 90 be 26 c1 d0 be
       -0.07294761 -0.53455055 -0.28152123 -0.4077236
0002b0 78 13 be 3d 22 ad 24 be 4c d6 17 3f e8 f4 56 3e
       0.09281057 -0.1608167 0.59311366 0.20991862
0002c0 ff b4 1d 3e c2 92 65 3c 3a 18 00 be 23 0b 09 bb
       0.15401076 0.014012041 -0.12509242 -0.002091118
0002d0 18 76 33 bf 4a cd 59 3f 7f b5 3e be df 00 e5 3e
       -0.7010207 0.8507887 -0.18623923 0.44727227
0002e0 a6 e3 3f 3d 14 61 53 be fc 2b 12 be 18 56 33 bf
       0.04684796 -0.20642501 -0.14274591 -0.70053244
0002f0 f0 5c 3a bf 7e 6d 55 3e dd 11 a6 bc e0 ab 8c bd
       -0.7279806 0.20842549 -0.02027219 -0.0686872
000300 1b 43 23 3e f1 ac 38 bd 46 01 43 be 5d b1 1e 3e
       0.15943567 -0.045086805 -0.19043455 0.15497346
000310 fb 86 e1 3d ce 96 e7 3d 74 d9 dc bc f1 67 94 3e
       0.110120736 0.113080606 -0.026959158 0.2898555
000320 08 67 75 3e 38 8f 80 bd 3f 7c ba 3e f4 b3 c4 bd
       0.23965085 -0.06277317 0.36422917 -0.09604636
000330 eb 0a 9f be 49 da 1f 3c 76 7d 9c be 5c c4 98 be
       -0.31063017 0.009756633 -0.3056447 -0.2983731
000340 15 ed 37 3e 1d 04 61 bc 31 a6 63 3e 60 bc b3 bd
       0.17961533 -0.013733891 0.22231366 -0.08776164
000350 29 31 03 be df b5 11 bf 75 fa 78 3e 5e 24 39 bd
       -0.12811722 -0.5691814 0.24314292 -0.045200698
000360 d4 57 97 be 26 bf f1 3c b4 87 92 bc 33 52 99 3d
       -0.29559195 0.029510092 -0.017886974 0.074863814
000370 82 82 7a 3e a8 70 97 3e 0a 66 b7 bd 34 5d 1c 3e
       0.24463847 0.29578137 -0.08955009 0.15269929
000380 4a e9 be be d4 68 c8 bd 72 4e a4 be 3d 9a 25 3e
       -0.3728736 -0.097856194 -0.320911 0.16172118
000390 af eb 1d be 24 51 f1 be a5 8f 2f bf fd 82 86 be
       -0.15421937 -0.47132218 -0.6857856 -0.2627181
0003a0 1b db cd 3e bf b8 1c be 56 05 4e bf 29 a3 37 3d
       0.40206227 -0.1530485 -0.8047689 0.044833336
0003b0 9e db bc bd 1b bd 02 3e 58 8f 1c 3e 30 5f 04 be
       -0.09221576 0.1276745 0.15289056 -0.12926936
0003c0 0b a3 81 bd 24 58 9f bd 58 75 ba be db 17 f8 bd
       -0.06329926 -0.07780483 -0.3641765 -0.12113925
0003d0 c0 e3 b3 be 5b d5 a0 be 83 c3 a6 be 76 64 82 3e
       -0.35134697 -0.31412777 -0.3257104 0.2546727
0003e0 0c d4 f8 3e 4b b3 fa 3e 45 5a 9f 3e 92 f9 21 be
       0.4859928 0.48964915 0.31123558 -0.1581786
0003f0 68 c7 b5 3d 06 f7 bb be ca ae 9b 3e bd 83 de 3d
       0.08875924 -0.367119 0.3040679 0.10864971

fc_layers.0.bias f4 [32]
000000 56 ab dc be 38 ef 97 3e 73 96 82 be 74 39 71 bd
       -0.4309947 0.29674697 -0.2550541 -0.058892682
000010 c1 b9 12 bf ca 25 27 be e8 35 2a bf a9 96 a5 3e
       -0.5731469 -0.16323009 -0.66488504 0.32341507
000020 35 09 44 bf 06 04 f6 be 0a 29 19 bf f0 a2 eb be
       -0.7657655 -0.48049945 -0.59828246 -0.4602275
000030 b7 cc 19 3f 30 40 80 bc c3 7c 13 bf 5c 6a e4 be
       0.60077995 -0.015655607 -0.57612246 -0.44612396
000040 8d 88 08 bf a3 9a dd be f4 a4 fc be d3 bc b6 3e
       -0.5333336 -0.4328204 -0.493446 0.35690936
000050 d0 2e f4 bd a9 86 f3 be ff 7d e2 be cd ed 0d bf
       -0.11922991 -0.47563675 -0.44236752 -0.5544098
000060 04 8f 07 bf 94 80 21 bf 9f e5 4b be 50 9a b8 be
       -0.529526 -0.6308682 -0.19911812 -0.3605523
000070 86 03 b8 be cd fe b0 be 8c 3a 1e bf a4 f5 1d be
       -0.35940188 -0.34569398 -0.61808085 -0.15425736

fc_layers.1.weight f4 [16, 32]
000000 81 f8 30 3f 76 5d 04 be d3 8e b6 3e 0d 80 68 bf
       0.69129187 -0.12926278 0.3565584 -0.9082039
000010 16 ab c4 be b2 f8 76 be 2e 71 82 be 4d 77 9e 3e
       -0.38411778 -0.24118307 -0.25476974 0.30950394
000020 d8 33 06 3f 65 d2 4f 3f c4 df 35 3d 68 10 24 3f
       0.5242286 0.8118041 0.044402853 0.64087534
000030 b7 d7 4f 3d 9e 6b 0d 3f 64 13 24 3f 5e 40 89 3e
       0.05074283 0.55242336 0.6409209 0.2680692
000040 24 05 30 be b8 81 f7 3e 6f 44 de 3d a7 3d 48 3e
       -0.17189461 0.48341155 0.108528964 0.19554769
000050 2b 28 3c 3f 85 45 5c bd 9b 42 8f 3e 1a cb 35 bd
       0.7349879 -0.053777236 0.27980503 -0.044383146
000060 87 5e 80 3d b9 52 ac 3e ad cc a5 3e 08 45 33 3e
       0.0626803 0.33656862 0.32382718 0.17506802
000070 d6 41 15 bf a3 6c d5 3e 85 fe 1d 3e c4 9e 0a 3f
       -0.5830358 0.41684446 0.15429123 0.5414851
000080 be c0 66 3f 23 52 24 bf 7e 03 09 3f ff de ec 3d
       0.9013785 -0.6418783 0.53520954 0.11565971
000090 cc 02 a2 3e 0e cf 83 be 48 58 16 3e a0 8f 09 3f
       0.3164276 -0.25743908 0.14682114 0.5373478
0000a0 0e 4e 35 3f e0 6c 23 3f 15 b4 af be 29 f9 27 3f
       0.70822227 0.63838005 -0.3431708 0.65614563
0000b0 b3 58 23 be b5 26 00 3f cc d6 3d 3f d8 02 2c 3e
       -0.15951805 0.5005906 0.7415588 0.1679796
0000c0 d0 00 73 3e e8 c8 6a 3f 73 c9 71 3e 1e 61 ac 3e
       0.23730779 0.9171281 0.23612003 0.33667845
0000d0 cb 44 f6 3e e3 d5 1a bd e2 ab 5f 3e 8d 97 6c be
       0.4809936 -0.037801635 0.21842912 -0.23104687
0000e0 af df 96 3e d3 d7 43 3e c5 1c fe 3d 5b 79 a1 3e
       0.29467532 0.19125299 0.12407831 0.315379
0000f0 4a c4 b8 bd 90 25 2f 3f c0 43 ff 3d 16 75 70 3e
       -0.09021814 0.6841669 0.12464094 0.23482165
000100 6d c0 4d 3f 87 f4 0e bf 7a 7c 1c 3f f0 58 fa bb
       0.80371743 -0.5584187 0.61127436 -0.0076399967
000110 d7 54 6e 3e 2b 0a 86 be 75 0c 0b 3e 12 c3 f3 3e
       0.23274551 -0.26179633 0.1357897 0.47609764
000120 a4 1e 0a 3f fa de 0b 3f 44 d9 ea be ba e9 1e 3f
       0.53953004 0.5463711 -0.45868886 0.6207539
000130 20 bf f0 bd b5 7a 11 3f d6 72 41 3f 45 8b a2 3d
       -0.11755204 0.5682786 0.7556585 0.0793672
000140 13 d7 e9 3e 66 0d 6f 3f 02 7f db 3d 65 33 93 3e
       0.456719 0.9337982 0.10717584 0.28750148
000150 1d ba f9 3e 10 bb 93 bd 65 29 5d 3d 02 17 11 be
       0.48774806 -0.07213414 0.053994555 -0.14168933
000160 c6 7c a5 3e f1 04 b0 3e 37 be 17 3e cc 3a 56 3b
       0.32321757 0.3437877 0.14818655 0.0032688854
000170 63 c5 e9 3d 5a 9e 2c 3f a5 e2 8c 3d e0 3d 9b 3e
       0.11414602 0.67429125 0.068791665 0.30320644
000180 7a 68 89 be 5d 33 61 3e e8 27 66 bf 31 54 e1 3e
       -0.26837522 0.2199225 -0.8990464 0.44009545
000190 d9 82 17 bf 34 8e f5 3e 81 24 a2 bf 56 83 42 3f
       -0.5918403 0.47960055 -1.266739 0.7598165
0001a0 16 a9 9f bd 33 50 5f bd 72 4d 8c bf cf 74 c8 3d
       -0.077959225 -0.054519843 -1.0961134 0.097879045
0001b0 d5 ee 3c 3f 9e f6 0a 3f 25 30 14 3f 04 8c 3f bf
       0.7380193 0.5428256 0.5788596 -0.7482302
0001c0 35 64 90 bf 8d e5 a8 3e fa 0e e8 be 30 71 2d 3f
       -1.1280581 0.32987633 -0.45323926 0.67750835
0001d0 7b da 8d 3d 28 4b 6c bf 68 6a 8b bf 52 a9 90 bf
       0.069264375 -0.9230218 -1.0891848 -1.1301672
0001e0 1d 72 41 bf 04 b4 1e bf 1b ec 91 be 62 77 2e bf
       -0.7556475 -0.6199343 -0.28500447 -0.68150914
0001f0 2e 42 50 bf 3d 18 37 bf 4e df 30 bf 87 6d c2 3e
       -0.8135098 -0.7152136 -0.69090736 0.37974188
000200 18 46 03 bf 55 22 41 3d 3c 4e 90 bf c1 f4 8c 3e
       -0.5127883 0.047151882 -1.1273875 0.27530482
000210 2b af 90 3e e8 09 47 3f 4e 81 18 bf c4 de f3 3e
       0.28258643 0.7774949 -0.59572303 0.47630894
000220 cf 0e 07 3f b6 bb 8c bd 9d 06 d7 bf 38 08 76 3f
       0.5275697 -0.068717405 -1.6798893 0.9610629
000230 25 6d 22 3f eb 64 9a 3e 7f 8a 4e bd 60 a5 82 be
       0.6344779 0.3015512 -0.05042505 -0.25516796
000240 3e 4d 06 bf 52 8e 6b bf 3c f1 5c bf f7 fd 94 be
       -0.5246161 -0.9201404 -0.86305594 -0.2910001
000250 0d 43 6e 3e 05 c6 c6 be d6 41 bf 3e 1b 47 24 be
       0.23267765 -0.38822952 0.37354916 -0.1604275
000260 59 00 35 bf 35 34 91 3d 66 e7 df bf ee 84 0b 3e
       -0.70703655 0.07090036 -1.7492492 0.13624927
000270 42 4b b7 3e f7 42 87 bf 5a f8 2c bf 67 40 06 3f
       0.35799605 -1.0567311 -0.67566454 0.5244202
000280 0f 97 20 3f 30 3d f8 bf 2d 63 26 bd 82 8c 10 bf
       0.627305 -1.9393673 -0.040621925 -0.564644
000290 f3 a7 ac be ae 85 9c bf 9a b6 8d 3e b0 6f 7c 3e
       -0.33721885 -1.2228296 0.27678376 0.2465198
0002a0 06 af 94 3e f7 64 12 3e 82 46 53 3e 27 bb 42 3e
       0.29039782 0.14296328 0.20632365 0.19016705
0002b0 49 14 1d be 6b c8 26 3f 66 bc 57 3e cc dd 00 be
       -0.1533977 0.65149564 0.21067962 -0.12584609
0002c0 c4 68 b8 be 47 bb 94 3e 99 48 61 3f 97 93 3c 3e
       -0.3601743 0.2904913 0.880014 0.18415676
0002d0 ff 36 0c 3f 5b 2a eb 3d 29 d4 96 3e 80 93 df 3d
       0.5477142 0.11482688 0.2945874 0.10916805
0002e0 66 3b a8 3d 5e 84 12 3f 5e e3 d1 3e e5 e9 2e 3f
       0.08214454 0.57233226 0.4099378 0.68325645
0002f0 d5 f0 5d be f4 08 6f 3e 23 1f 0b 3f 5e 15 70 3f
       -0.21673901 0.23343259 0.54344386 0.93782604
000300 c8 84 3a be 74 b1 dd 3d 7d a0 8d 3e e5 61 35 3f
       -0.18214715 0.10824862 0.27661505 0.708525
000310 25 ba e4 bf 75 42 09 3f 4d 74 64 3f 90 c8 e2 be
       -1.7869307 0.5361703 0.8923996 -0.44293642
000320 8c d6 ad bf da a9 42 be 8c b1 e7 3e f7 79 4d bc
       -1.35811 -0.19010106 0.45252645 -0.012541286
000330 a7 ba 09 3e 10 ff 75 bc e9 d3 5f 3d 73 04 76 3f
       0.13450108 -0.015014425 0.054645453 0.9610054
000340 3f 0f dd 3e da e3 15 bf 37 e0 b8 3e ce ef e2 be
       0.43175694 -0.585508 0.36108562 -0.4432358
000350 13 09 0c bf a3 09 c4 3e 8e 18 c5 3e da 67 29 3f
       -0.54701346 0.38288602 0.38495296 0.6617409
000360 d0 c5 3e bf 8a 75 84 be da c7 3b 3f 27 06 ac be
       -0.7452059 -0.25870925 0.73351824 -0.33598444
000370 d6 a1 0f 3f 66 68 b5 3e 1f df d7 3e 05 97 c6 bf
       0.5610632 0.35431212 0.42162415 -1.5514838
000380 27 bd 85 3e 0e 80 c2 3e 31 2b 06 bf 78 8f f1 3e
       0.26120874 0.37988323 -0.52409655 0.4717977
000390 76 c1 67 bf 35 c4 01 3f 61 15 8e bf 45 fc 20 3f
       -0.9052957 0.50690013 -1.1100274 0.6288493
0003a0 ff 12 a3 3a 73 f4 a9 bf 1a b5 a8 bf 2c 0e 68 be
       0.0012441574 -1.3277725 -1.3180268 -0.22661656
0003b0 3b c4 f6 3e f9 ce 25 3f 0c a2 ce be 68 90 11 c0
       0.48196587 0.6476894 -0.40358007 -2.2744389
0003c0 83 8b 68 3d 39 2e 28 bf 03 b7 5e bf 39 d4 ca 3e
       0.056773674 -0.6569553 -0.86998004 0.39615038
0003d0 0f 85 c2 3e 6e 7d 8b be 12 43 12 be a0 26 80 bf
       0.3799214 -0.27244133 -0.14283398 -1.0011787
0003e0 23 d0 cc be 4b b6 31 bd b0 60 19 bf c4 ac 20 be
       -0.40002546 -0.04338674 -0.5991316 -0.15690905
0003f0 de 7c 49 bf 44 f2 5c bf 83 3c 83 be 05 24 08 3f
       -0.7870616 -0.8630717 -0.25632104 0.5317996

fc_layers.1.bias f4 [16]
000000 f0 d6 05 bf 70 67 c4 be 1a 4d bc bd ef b3 80 3f
       -0.52281094 -0.38360167 -0.091943935 1.0054911
000010 42 ef 39 3f de 37 5b bf a0 78 12 3f af 5c 19 3f
       0.72630703 -0.8563212 0.5721531 0.5990705
000020 87 67 a7 3e 14 ef a9 3e 3f 6b 1f bf e3 be 99 3e
       0.32696173 0.33190215 -0.6227302 0.30028448
000030 7a a5 60 3f a0 9e 33 3f 3f d4 c3 be c4 27 ed be
       0.877525 0.7016392 -0.38247868 -0.463194

affine_output.weight f4 [1, 16]
000000 a0 c1 97 bf a3 86 5b bf 4b 0c 4e bf 3b c6 8c 40
       -1.1855965 -0.85752314 -0.8048751 4.399198
000010 65 54 41 40 24 f5 1c c0 73 ba 14 40 fd f4 79 40
       3.020776 -2.4524622 2.32388 3.905578
000020 22 81 38 40 c6 d9 33 40 57 27 94 bf 9a 4e 87 40
       2.8828816 2.8101668 -1.1574506 4.228345
000030 34 ec 90 40 c3 08 5b 40 ca c2 70 bf e6 83 88 bf
       4.5288334 3.4224098 -0.94047225 -1.0665252
