checkpoints/MLP_Epoch10_HR0.1758_NDCG0.1736.model (torch, 261263 bytes, 7 tensors)

embedding_user.weight f4 [51, 32]
000000 40 0a b7 bf 86 bc b2 3f 89 9f b7 be 31 bc 88 bf
       -1.4300003 1.3963783 -0.35863903 -1.0682431
000010 d8 5b a7 3e 58 6e 2d bf f8 5a 14 bf c8 c5 96 bf
       0.3268726 -0.67746496 -0.5795131 -1.1779108
000020 cf 20 c4 3f f7 32 e6 bf 5b 8c 73 be e8 9a 2e bf
       1.5322512 -1.7984303 -0.2378401 -0.6820512
000030 43 f6 b7 bd 88 96 ab bf cc 66 ce 3f a4 7e 84 bf
       -0.089825176 -1.3405313 1.6125121 -1.0351148
000040 ab 80 6b 3e 0f 9b 0a 3e 0c ec 5c be 3b 5a f0 3e
       0.22998302 0.13535713 -0.2157442 0.4694384
000050 f5 44 a2 be 2e df 96 bf 3b 4e 9c 3f 7f 64 0f c0
       -0.31693235 -1.1786859 1.2211374 -2.2405088
000060 54 2a 33 bf 17 37 3a 3f 4a d8 18 3e 34 90 db be
       -0.6998646 0.7274031 0.14926258 -0.42883456
000070 62 4b 6d bd 11 1a 33 bf f9 d8 54 3e 17 44 f2 3d
       -0.05793322 -0.6996165 0.20785893 0.11829393
000080 7a 72 17 3f 53 1e d5 be 9d 09 64 bf 66 32 17 3d
       0.5915905 -0.41624698 -0.8907717 0.036913298
000090 40 be 63 3e e7 27 cc 3e e1 7c 6c 3f 58 00 de bf
       0.22240543 0.39874193 0.9237805 -1.7343855
0000a0 3c c3 fc 3e 86 12 37 bf 3a 47 88 bf 95 65 32 bb
       0.49367702 -0.7151264 -1.0646737 -0.0027221192
0000b0 1b fb da 3f 35 15 9d bf 4e 93 78 bf 8a 95 62 3e
       1.7107881 -1.2272097 -0.9709977 0.22127357
0000c0 eb 49 5d bf 3d 5b c7 be 46 0d 43 c0 0c 0f 99 be
       -0.86440915 -0.38936797 -3.0476851 -0.29894292
0000d0 a4 97 c5 bd 4c 3c e9 be 45 81 48 3f 66 30 bc bd
       -0.09648064 -0.45553815 0.7832225 -0.09188919
0000e0 7a 21 96 bf 31 75 ac be d1 17 a3 3f ff 6c f5 be
       -1.1728966 -0.3368316 1.2741643 -0.4793472
0000f0 97 2a 59 3f ef a0 cb 3e 7f 9a 97 bf 1e 72 ea 3f
       0.8483061 0.3977122 -1.1844023 1.8316076
000100 0e ae 99 3f 55 e2 26 3f 08 e2 a4 3f 66 fb b5 3e
       1.2006242 0.65189105 1.2881479 0.35543364
000110 95 c1 65 3f d0 73 83 3f de 53 ef bf ed 88 8d 3f
       0.8974851 1.0269718 -1.8697469 1.1057411
000120 da 14 2c be b2 cf 68 3f 7e c3 eb bf b2 b4 57 be
       -0.16804829 0.9094192 -1.8419034 -0.21065024
000130 3a 35 84 3e e9 9d 43 3f 92 df 44 3f 47 0b d2 be
       0.2582186 0.76412827 0.7690364 -0.4102423
000140 c4 54 d5 3e 04 f6 d0 3f 4c 5f 76 bf 15 60 2f 3f
       0.41666234 1.6325078 -0.9623916 0.68505985
000150 d9 7c 2f 40 e6 a5 30 3f e7 59 4d 3f b7 ef 85 bf
       2.741995 0.6900314 0.80215305 -1.046378
000160 57 82 e2 3e 0c 80 a2 3e 53 b6 83 3f 49 73 47 be
       0.44240066 0.31738317 1.0290016 -0.19477572
000170 78 2e 01 40 56 c5 c7 3d 08 38 65 3f b7 df 9a 3f
       2.0184612 0.09754436 0.8953862 1.2099522
000180 f8 b7 2a bf 88 a1 c3 be c4 ad be be 5d 72 8b 3d
       -0.66686964 -0.38209176 -0.37241948 0.068089224
000190 62 32 62 bf c8 da a0 be a2 2d 2e be b1 e2 84 bf
       -0.8835813 -0.31416917 -0.17009595 -1.0381681
0001a0 dc c3 9b 3d ba 49 d0 3e f4 fc bc 3e 1b e5 f0 bf
       0.076057166 0.4068125 0.36911738 -1.8819917
0001b0 4f 7b 1e bf 93 95 01 bf 07 e5 76 3f 95 ea 32 bf
       -0.61906904 -0.5061886 0.9644322 -0.69889194
0001c0 df 5a 23 3f ab 05 ef 3e 65 b0 8e bf b9 b2 05 40
       0.63810533 0.46684012 -1.1147581 2.0890334
0001d0 32 d4 a2 3f 57 5b 93 be 81 86 3a 3f 36 d9 f0 3e
       1.2721007 -0.28780624 0.72861487 0.4704072
0001e0 b2 02 a6 be 14 9d bf be 72 e9 58 bf d4 e6 8a 3d
       -0.3242393 -0.3742453 -0.8473121 0.06782308
0001f0 f0 01 3f bd d7 da 36 be 86 ea d3 bf 7b cc 29 bf
       -0.046632707 -0.17856918 -1.6555946 -0.6632764
000200 96 90 1a 3f 0b 11 85 be 68 04 a5 3f d3 18 1a 40
       0.6037687 -0.25989565 1.289197 2.4077652
000210 cc 35 ee 3f 7b 14 33 bf 5f 00 18 3e 73 c5 c6 bf
       1.8610168 -0.69953126 0.14843892 -1.5529007
000220 c3 ff 13 bf f2 bc 94 3e a0 59 bb 3f 29 47 f6 3f
       -0.57812136 0.29050404 1.4636726 1.9240466
000230 25 b4 cf bd 4d 02 48 be 24 a9 b5 3e 7b 96 aa 3f
       -0.10141782 -0.19532128 0.35480607 1.3327173
000240 77 a1 91 3f 5e 2b 9e 3f 46 67 a9 3e 07 cb 88 3f
       1.13774 1.2356985 0.33086604 1.0686959
000250 a6 dc 4d bf 05 14 2a 40 58 50 71 3d 06 9a 77 3f
       -0.8041481 2.657472 0.058914512 0.96719396
000260 30 86 0e bf a1 9d d9 3e ee 05 16 be 4e d1 12 3f
       -0.55673504 0.42503074 -0.146507 0.57350624
000270 20 b4 41 3f 0d e0 8b 3f 44 05 ed 3e d0 b0 da 3e
       0.75665474 1.092775 0.4629308 0.42713022
000280 02 0d a7 be b1 6c b6 3f 16 9c cf 3f e5 d0 09 3f
       -0.32627112 1.425192 1.6219509 0.5383437
000290 4f 59 84 3f d2 82 85 bf ee 5d 59 3f 4b fa 7b be
       1.0339755 -1.0430548 0.8490895 -0.24607198
0002a0 10 b8 b7 be f5 0f 43 c0 7e 45 98 be b0 a1 86 3f
       -0.35882616 -3.047849 -0.29740518 1.0518093
0002b0 6d 86 91 3e 22 a3 a2 3f 05 8f 04 3f 1d c9 8e bf
       0.2842287 1.2706034 0.5178073 -1.1155125
0002c0 bf 6b 81 3f 06 b9 ab be 40 09 b8 bf 45 70 81 3f
       1.0111006 -0.335396 -1.4377823 1.0112387
0002d0 dd 43 ed bf 47 31 41 bf 35 1f 45 c0 68 27 90 bf
       -1.8536335 -0.75465816 -3.0800297 -1.1262026
0002e0 11 0b c3 be 0b 84 17 c0 14 4a 45 40 61 8b c0 3f
       -0.3809438 -2.3674343 3.0826464 1.5042535
0002f0 3f d0 68 3d 0c 93 00 c0 29 2e b4 3e d3 61 e1 3e
       0.056839224 -2.008975 0.35191467 0.44019946
000300 71 21 98 3e 84 74 6f bf 9a de 64 3f ca 41 41 bf
       0.29713014 -0.93537164 0.89402163 -0.7549101
000310 62 d8 1a 3f 59 46 4c bf 19 62 9a bf 0a 1a 99 3f
       0.60486424 -0.7979484 -1.2061187 1.1961071
000320 c6 b3 72 bf 1a 1f 1a 3f e7 3a 26 bf a3 9c 69 bd
       -0.9480556 0.6020371 -0.6493363 -0.057034146
000330 98 43 23 c0 c8 4b c7 3e 2b 67 69 3f f4 35 0e bf
       -2.5510006 0.38925004 0.91173047 -0.55551076
000340 23 34 8b 3e 6e bc 27 3c c7 b8 bc 3f b7 3b f9 bf
       0.27188215 0.010237796 1.474389 -1.9471349
000350 4b 55 bc 3f 10 ed d1 3f dd b5 9f 3f 44 df 7e 3f
       1.4713529 1.6400471 1.2477375 0.99559426
000360 5c 49 20 be 86 76 ef bf b9 8c f6 bf 19 02 da bd
       -0.15652984 -1.8708045 -1.9261695 -0.10644931
000370 ed b9 93 bf 30 a1 85 3f 58 63 06 bf 9b eb 39 3f
       -1.1541115 1.0439816 -0.52495337 0.7262513
000380 bc 6d 08 c0 21 59 84 bf 48 5d af be 95 4f c8 3f
       -2.1316977 -1.03397 -0.34250855 1.5649287
000390 bb b1 c8 3f 75 3f b7 3f 9c 95 c4 3f d8 a0 05 c0
       1.5679239 1.431624 1.5358157 -2.0879421
0003a0 b4 c0 c7 bf 17 a2 2f 3f 54 53 a5 3e 64 6e 89 be
       -1.5605683 0.68606704 0.32290137 -0.26842034
0003b0 ab 35 af bf d5 3a 15 c0 81 16 a1 3f cb 6e 75 3f
       -1.3688253 -2.3317158 1.2584993 0.9587218
0003c0 29 21 77 bd e5 4e 69 bf 35 c6 a8 bf 54 a3 2b 3f
       -0.06033436 -0.9113601 -1.3185488 0.67046094
0003d0 54 30 19 bf a4 74 5a 3f a5 71 06 bf 06 fb ce 3f
       -0.5983937 0.8533423 -0.5251716 1.6170356
0003e0 c7 b2 ba bf 91 26 e4 be da 84 50 bf d6 83 66 be
       -1.4585809 -0.44560674 -0.81452715 -0.22511229
0003f0 03 d9 44 bf c2 fa 5c bf 80 1d dd 3e 48 c2 c0 bf
       -0.76893634 -0.86320126 0.4318657 -1.505929

embedding_item.weight f4 [1889, 32]
000000 f6 2b 1f 40 80 b6 0b 40 b8 a1 84 3e 4b 4c 0f c0
       2.4870582 2.183014 0.25904632 -2.2390316
000010 2c dc 25 3f 93 51 8f be 88 e5 b4 3f 1b f8 c4 bd
       0.6478908 -0.27991924 1.4132547 -0.09617635
000020 9c bb 57 3f 87 3f 0e bd 83 f6 e6 be 6d 9c 32 be
       0.84270644 -0.034728553 -0.4510995 -0.17442484
000030 29 8e 3a c0 d9 98 60 3f 4b aa 0e bf 83 a9 cf bf
       -2.9149268 0.87733227 -0.55728596 -1.6223606
000040 23 05 af 3f 3f d7 ce 3f 3d 6b 59 bf c2 ec 2a 3f
       1.3673443 1.6159438 -0.8492926 0.66767514
000050 95 19 a3 3d 9f 96 8a bf d7 b6 19 3f a8 e8 42 3f
       0.07963864 -1.0827216 0.60044616 0.76136255
000060 cf 30 3f be e7 67 02 c0 e8 c5 44 3e 38 a1 5c bf
       -0.18670963 -2.0375917 0.1921612 -0.861835
000070 9b 1b 2d 3f 4e d7 01 40 6b db 63 bf 3c 34 60 3f
       0.6762025 2.0287662 -0.8900668 0.87579703
000080 20 df 46 3e 1c 63 09 3f 35 af 7e 3f 7e 73 01 bf
       0.19421053 0.53666854 0.99486095 -0.5056685
000090 8e ad b8 bf 7d d0 50 be 0f 14 b8 3f e9 69 d7 3f
       -1.4427965 -0.20392032 1.4381121 1.6829196
0000a0 c9 62 33 c0 d5 d7 91 3e 3d 3b 6c bf 4c b7 65 3e
       -2.8029044 0.2848498 -0.9227789 0.22433203
0000b0 fa 78 b5 bf 7e 40 83 3e 37 fc ca 3f 6f db 39 bf
       -1.4177544 0.2563514 1.585822 -0.72600454
0000c0 13 59 8f bd 57 06 46 bf 06 9d c2 3f 05 54 e6 be
       -0.069994114 -0.77353424 1.520417 -0.44985977
0000d0 11 f4 38 be b3 3c a5 3e 00 e0 2c bf 07 ff 2a bf
       -0.18061854 0.32272872 -0.67529297 -0.6679539
0000e0 fd 08 5d 3f 5a f9 7d be c6 25 a8 3f 3e 61 b5 be
       0.8634184 -0.24802151 1.3136528 -0.35425752
0000f0 c7 79 21 bf fc 38 8e 3f 7b 7d ed 3e ff 40 e2 bb
       -0.6307644 1.111114 0.46384797 -0.006904721
000100 4c 45 d1 be 90 07 27 3f de 34 89 3f 76 8d 87 bf
       -0.40873182 0.65245914 1.0719259 -1.0590045
000110 fa e2 93 3f c2 96 06 40 40 b0 ce 3f d4 54 88 3f
       1.1553643 2.1029515 1.6147537 1.0650887
000120 b4 7a a5 3e c9 8c 8c bf 58 20 24 40 a3 9b 21 bf
       0.32320178 -1.0980464 2.564474 -0.6312811
000130 9e ff 10 3f c3 70 18 3f ba 82 14 bf 04 2e 97 3f
       0.5664004 0.5954706 -0.5801197 1.1810918
000140 bd 98 cf 3c 43 fc 58 3f b0 5e 88 3f 46 b7 31 c0
       0.025341386 0.8475992 1.0653896 -2.7768111
000150 10 a0 b2 3d 3d c7 bd 3e 78 94 27 bf 82 1e 3b bf
       0.08721936 0.3706607 -0.6546092 -0.73093426
000160 4b a4 80 3f e4 68 04 bf ac 53 b1 3f d5 01 15 3d
       1.0050138 -0.5172255 1.385366 0.0363787
000170 f3 b4 24 3f ff 7e 9b be 0f 6d 47 bf 7b 95 c8 be
       0.64338607 -0.30370328 -0.77900785 -0.39176545
000180 a0 8b f0 3f aa da 50 be c1 39 a2 bf 4e 2b 0c 3f
       1.879261 -0.20395914 -1.2673875 0.5475358
000190 6a 45 47 3e d7 cc bc bf a0 06 55 3f 59 9f 5a 3f
       0.19460073 -1.4750012 0.83213234 0.85399395
0001a0 06 0a d5 be 5b b2 2d 3f d7 43 ce bf f6 6a 33 3f
       -0.4160921 0.67850274 -1.6114453 0.70085084
0001b0 2c e3 3a 3e fe e0 08 bf 43 d4 31 bf 08 d3 ec be
       0.18250722 -0.5346831 -0.6946451 -0.46254754
0001c0 4b a7 b3 3e c6 7f 94 3e 33 17 9d be c3 8e d8 3f
       0.35088572 0.29003733 -0.30681762 1.6918567
0001d0 e7 3d dd bf c4 e2 b1 be eb 84 8e bf b5 0b d6 3c
       -1.7284516 -0.3474332 -1.1134313 0.02612863
0001e0 8e 1a 37 c0 dc ee d9 3e 93 6e 61 be 00 db a5 3f
       -2.8609958 0.42565048 -0.22014837 1.2957458
0001f0 17 75 9f bf a5 16 92 3e aa 0f 37 bf 4c ef 84 bf
       -1.2457608 0.285329 -0.71508276 -1.0385528
000200 80 8b 83 3f dc 71 7b bf a7 c2 c8 bf a4 73 98 bf
       1.0276947 -0.9822061 -1.5684403 -1.1910291
000210 d4 c9 aa 3f 6b 8e c0 bd 54 d8 81 3f 58 45 22 bf
       1.3342843 -0.09402164 1.0144143 -0.6338706
000220 15 e7 25 40 4b 6f fc bf 51 e0 13 bf b1 7d c6 be
       2.5922291 -1.9721464 -0.57764155 -0.3876777
000230 4b ba f0 be 72 29 b6 bf 91 1d 1c 3e d2 d1 a2 bf
       -0.4701713 -1.4231398 0.15245654 -1.2720282
000240 88 26 10 bd de 3f 2a bf 95 d4 2e bf 60 c8 dc bf
       -0.035192996 -0.66503704 -0.68293124 -1.724865
000250 f2 8e 02 be f4 b3 89 bf ea 0c 28 c0 a1 20 9b 3e
       -0.12749842 -1.0758042 -2.6257882 0.3029833
000260 2a 09 34 bf 03 41 04 c0 a3 6f 63 bf 84 19 a1 3f
       -0.70326483 -2.066468 -0.8884222 1.2585912
000270 51 f6 89 bf b2 8f 5a bf 5b 20 35 3e 2c ee ae 3f
       -1.0778295 -0.8537551 0.17688124 1.3666434
000280 d5 26 4a bf f5 2e e8 3d d2 25 dc bf f6 6c b4 bf
       -0.789655 0.11337081 -1.7199042 -1.4095752
000290 aa 0d 99 3e 48 7e e6 3f 01 fa aa 3f 25 44 ca bd
       0.29893237 1.8007288 1.3357545 -0.09876279
0002a0 f0 9e a1 3e eb 56 e1 3c 77 74 44 bf 7d 47 50 bf
       0.31566572 0.027507266 -0.7674021 -0.8135908
0002b0 88 de 27 40 5d 82 c3 be e5 49 8a be 26 5b 44 bf
       2.6229572 -0.38185397 -0.27009502 -0.7670158
0002c0 5b 92 94 3f 02 80 62 3f 74 2e 07 40 cd 2d 28 bf
       1.1607164 0.88476574 2.1122103 -0.65694886
0002d0 89 c4 b5 3e d1 86 aa 3f 02 db e9 be 57 a8 f5 3f
       0.35501507 1.3322393 -0.45674902 1.9191998
0002e0 f2 2b 73 3f 45 42 80 3f 25 44 3a 3f 87 f3 41 bf
       0.9498893 1.0020224 0.7276023 -0.7576222
0002f0 4e 78 03 bf 90 68 e9 3e 1f 67 1a bf fa 84 78 3f
       -0.51355445 0.45587587 -0.603136 0.97077906
000300 84 f9 51 bf 94 70 25 3f 04 09 a1 bf 15 bb a2 3e
       -0.82021356 0.64624906 -1.2580876 0.31783357
000310 39 48 e5 3f c6 84 ce 3f 8f d9 94 3d c5 73 80 bf
       1.7912666 1.6134269 0.072680585 -1.003533
000320 5c 07 85 be 23 3b 7b bf 06 7e 1e c0 41 08 1d 3f
       -0.25982177 -0.9813711 -2.4764419 0.6134072
000330 64 60 03 c0 61 44 d0 3e 37 75 0d 40 6d 71 d4 bd
       -2.0527582 0.4067717 2.2102792 -0.10373197
000340 91 78 e6 bf 02 8e 7f bf 8a f8 bd bf a7 c7 29 3f
       -1.8005544 -0.9982606 -1.4841473 0.6632027
000350 f2 87 5a 3e dc 1f 8d 3f 4a 9f 11 40 6e 86 d3 be
       0.21340922 1.1025348 2.2753472 -0.413135
000360 fb f3 87 bf 4f ca e2 bf b2 99 03 3f bf e8 ce 3f
       -1.0621332 -1.771799 0.51406395 1.6164778
000370 23 55 4d 3f 29 c2 5c bd 01 fd b5 bf d9 b3 c2 3f
       0.80208033 -0.053896103 -1.4217836 1.5211135
000380 da 77 8f 3f aa e7 d2 be 3c 7c ce be ae 4a 22 bf
       1.1208451 -0.4119237 -0.40329158 -0.633952
000390 e0 84 96 bd cd a6 89 3d 78 8a 23 bf b9 2f ef be
       -0.07349563 0.06721268 -0.6388316 -0.46716097
0003a0 da c7 9d 3e 3b a1 5f bf 69 05 98 be 5f 02 09 40
       0.30816537 -0.87355393 -0.29691628 2.1407697
0003b0 8c 58 a4 be 01 48 03 c0 b3 03 79 3f 05 91 a0 bf
       -0.32098806 -2.0512698 0.9727127 -1.2544256
0003c0 60 8e 04 3f 40 c3 ab bf 41 28 af 3f 8f 0b 1e c0
       0.51779747 -1.341896 1.368416 -2.4694555
0003d0 28 93 b7 3e b4 10 21 3e 4b e1 01 bf 1a d7 a6 bf
       0.3585446 0.15729028 -0.50734395 -1.3034394
0003e0 ac 48 91 3f e4 0e 0b bf c1 68 d6 3f 63 7c 1a c0
       1.1350303 -0.54319596 1.6750718 -2.413842
0003f0 8b 70 80 3f 5e 0a d3 bf c8 24 d3 3f ba 05 bf 3e
       1.0034345 -1.6487539 1.64956 0.37309057

fc_layers.0.weight f4 [32, 64]
000000 eb 9c eb 3e 27 c2 8a 3d 49 2c a1 be d1 a5 1d be
       0.46018156 0.06775313 -0.314791 -0.15395285
000010 0a f8 80 bd 4b d8 11 bf a0 b4 87 3e c8 e7 0b 3f
       -0.0629731 -0.5697066 0.26504993 0.54650545
000020 99 4b 35 be 31 f7 da 3e 74 5f 4b 3e 38 9a 7c bd
       -0.1770462 0.42766717 0.19860631 -0.061670512
000030 01 78 e2 bc 2b e8 b1 3e f2 68 d4 be 09 78 01 bf
       -0.027645113 0.34747443 -0.41486317 -0.50573784
000040 ed bd af 3e 2b f7 75 be 69 4c 1c 3d f8 6d 12 be
       0.3432459 -0.24020068 0.038158808 -0.14299762
000050 01 04 90 3e 31 0b b8 3e fe c1 77 3e af 9c 45 3e
       0.28128055 0.35946038 0.24195096 0.19298051
000060 65 13 4b 3f e0 1e b4 be b9 b1 7e be 90 bc f3 bd
       0.7932647 -0.35179806 -0.24872483 -0.119012
000070 df fd 5f 3e 74 99 79 3d f4 c8 4c 3e 05 30 3b 3e
       0.21874188 0.06093736 0.19998533 0.18280037
000080 bf fa 16 3f de 8f 06 3f d9 bb 76 3d ec d2 85 3e
       0.5897636 0.52563274 0.06023774 0.26137483
000090 5f ec b4 be 3b 9c 04 bf 5d 8b 76 bc 18 35 3f 3c
       -0.35336587 -0.5180089 -0.015047875 0.011670373
0000a0 fa 3a 63 3f 2a b4 a3 3e 97 1f 12 3f e4 85 89 be
       0.88761866 0.31973392 0.5707945 -0.26859963
0000b0 40 03 05 3f d8 ba 18 bf fd a4 73 3e 21 bc 34 3f
       0.51958084 -0.596601 0.23793407 0.7059956
0000c0 9a b0 8e bd 57 26 2d bd 91 fd 1b bd 72 84 fd 3e
       -0.06967278 -0.04227289 -0.038083617 0.4951511
0000d0 4c eb 50 3c bb 4a 26 bd 83 51 11 bf c7 06 77 be
       0.012751412 -0.040598612 -0.56765 -0.24123679
0000e0 12 f9 93 be 5c 1e 89 be 34 d9 bd be 5c 7d 14 3f
       -0.28900963 -0.26780975 -0.37079775 0.58003783
0000f0 45 cb a0 be f1 8c c1 3e f5 1f 7e 3e 28 2d dc be
       -0.31405082 0.37802842 0.24816878 -0.430032
000100 03 b1 7d 3e ca b4 69 be 2c 53 fc be e5 e7 e8 3d
       0.24774556 -0.22822872 -0.49282205 0.11372355
000110 67 d6 40 3e 5e 87 81 3e cb b2 a5 be 8f f8 7b bd
       0.18831788 0.2529859 -0.3236297 -0.06151634
000120 68 f2 f4 bd b8 66 23 3f 4e ab e4 3d e9 7f 1f bc
       -0.11960298 0.6382861 0.11165486 -0.009735086
000130 79 eb 92 be 3e c2 64 be e7 e6 91 be de cd bc bd
       -0.28695276 -0.22339723 -0.28496477 -0.092189535
000140 de 40 82 3d 55 d2 87 bc 38 22 17 3d ca 17 d4 3d
       0.06360029 -0.016579786 0.036897868 0.103561
000150 a3 6d 5a 3d 84 df a6 be a2 3b 91 3d b7 98 05 3d
       0.053327214 -0.32592404 0.07091452 0.032616343
000160 6f 96 34 be 79 f7 8b bc 8c 2a 8d be a0 ca 93 be
       -0.17635511 -0.017085778 -0.27571523 -0.28865528
000170 b2 27 05 3e 1c 10 0e 3f 4e b7 af 3e 65 09 ba 3e
       0.13003424 0.5549333 0.34319538 0.36335292
000180 71 23 a4 bd 67 56 97 3e f3 1d 88 be f2 02 99 3e
       -0.080145724 0.29558107 -0.2658535 0.2988506
000190 14 5f 00 bf a1 01 ff 3d ad 48 13 bf 08 64 0f bf
       -0.5014508 0.124514826 -0.5753277 -0.5601201
0001a0 6f 55 f5 bd ba 6e e5 3e 23 72 e3 3e 71 84 9e bf
       -0.11979186 0.4481104 0.44423017 -1.2384168
0001b0 d1 61 d7 3e 63 f9 a8 bd f6 f5 14 3f 0c c3 a6 3d
       0.42066815 -0.08250692 0.58187807 0.08142671
0001c0 41 b5 2e be a2 6d d7 bc 76 16 21 3f 03 14 df 3d
       -0.1706133 -0.026297394 0.629249 0.10892489
0001d0 6d 3e 22 3f a5 61 c1 3e fb 88 d2 3e 75 b8 f9 be
       0.63376504 0.3776981 0.41120133 -0.48773542
0001e0 db 35 d8 3d 35 0d 63 3e 6f 87 7c 3d 60 f3 ec 3e
       0.10557147 0.22173007 0.061652597 0.4627943
0001f0 fb d7 3b 3e 2e 2e be be 3c b2 c0 3e 4e c7 de 3e
       0.18344109 -0.37144607 0.37635982 0.43511432
000200 d9 f5 f6 bd 31 46 57 3d b9 29 a0 be 8c 42 18 3e
       -0.120586105 0.052557174 -0.31281832 0.14869136
000210 da 52 af 3e 6c ac 49 be 99 1b c4 3d 14 05 fc be
       0.34242898 -0.1969468 0.09575576 -0.49222624
000220 1c 08 30 3e 32 9b 9d 3e 50 a5 b8 3e 2a f5 90 3d
       0.17190593 0.30782467 0.36063623 0.07078011
000230 8a cc 98 bd dc 94 e7 be ff 76 e9 be ca e2 61 3e
       -0.07460888 -0.45230758 -0.455986 0.2205917
000240 39 5c 06 3f f9 3f 8a 3e 14 c9 37 be 30 03 08 3e
       0.5248447 0.27001932 -0.17947799 0.13282466
000250 3c 38 c9 3d 40 0d d4 bc 00 94 83 be f5 b1 30 3e
       0.09825179 -0.025885224 -0.25698853 0.17255385
000260 9e b8 8c be b2 b8 d5 bd f9 70 b2 be ea 65 5f be
       -0.27484602 -0.104356185 -0.34851816 -0.21816221
000270 8a c9 e2 3d e3 9a 1f 3f 37 39 84 3e eb 91 f2 3c
       0.11073597 0.62345713 0.258249 0.029610595
000280 2f e6 88 3d 80 37 b5 be 10 82 01 bd 22 bf 1a bf
       0.06684529 -0.35393906 -0.031618178 -0.60447896
000290 0a 84 1d bf 33 e9 e4 3e 17 02 93 3e 04 b1 b2 be
       -0.615296 0.44709167 0.28712532 -0.34900677
0002a0 b4 9b fd bd 2b ab 0d bf ca 48 a7 be 40 c0 e3 be
       -0.12383214 -0.55339307 -0.3267272 -0.44482613
0002b0 e8 d0 67 3d e6 ba 38 be 02 3c 45 3f ea 6e 27 3e
       0.056595713 -0.18040046 0.7704469 0.16350904
0002c0 86 02 4b 3e 2b f8 a6 b9 0f e6 2e be 04 bf 19 3e
       0.19825181 -0.00031846887 -0.17079948 0.15014273
0002d0 bc b4 48 bf 32 33 74 3f 05 21 63 be 78 ca 02 3f
       -0.7840078 0.9539062 -0.22180565 0.5109019
0002e0 48 eb e4 3d 7b cc 2b be 90 35 3c be a8 57 4a bf
       0.11177689 -0.16777222 -0.18379807 -0.7904
0002f0 c8 c3 53 bf f7 f0 57 3e 70 76 a9 bd d0 3c bf bd
       -0.82720613 0.21088015 -0.08274543 -0.09337771
000300 23 33 5f 3e 35 15 75 bd d7 63 7a be c7 58 19 3e
       0.21796851 -0.059834678 -0.24452148 0.14975272
000310 e0 0a 0a 3e 9c b4 26 3e f2 3c 70 bd 4b 95 8b 3e
       0.13480711 0.16279835 -0.058651872 0.2726234
000320 c2 1b 77 3e 5d 9c cd bd 37 8d e8 3e 69 e0 e2 bd
       0.24131683 -0.100395896 0.45420238 -0.11077959
000330 5a 60 e6 be 53 d4 07 bd b6 d3 bd be 89 12 b9 be
       -0.44995385 -0.033161473 -0.37075585 -0.36146954
000340 0c 10 0e 3e 7e 7e 00 bb 85 26 a5 3e 9c 93 02 be
       0.13873309 -0.0019606645 0.3225595 -0.12751621
000350 cf f2 03 be 07 ce 2e bf 29 90 bf 3e 54 7a 6c bd
       -0.12885593 -0.6828312 0.37414673 -0.05773385
000360 7e 9b c0 be b1 26 c0 bc 22 1a 80 bc b3 a0 96 3d
       -0.3761863 -0.02345595 -0.015637461 0.0735487
000370 98 d3 a7 3e 81 61 aa 3e 9d b8 d8 bd 6f ba 8f 3e
       0.3277862 0.33277515 -0.10582087 0.28071925
000380 24 67 ce be 2f 6a 22 be c1 5f cf be e9 65 a5 3e
       -0.40313065 -0.15860818 -0.40502742 0.32304314
000390 76 36 d3 bd e8 39 21 bf 8a 79 51 bf 22 e4 92 be
       -0.10313122 -0.6297898 -0.8182608 -0.28689677
0003a0 a1 27 e9 3e 2e e9 61 be a1 d0 72 bf 24 9f 9c 3c
       0.45538047 -0.22061607 -0.9484959 0.019118853
0003b0 21 6f a6 bd 6a 3f 1b 3e 8f 20 45 3e 30 1c 34 be
       -0.08126665 0.1516091 0.19250701 -0.17588878
0003c0 0b 6f 77 bd 15 cf df bc ea 2d c2 be 74 6d 26 be
       -0.060408633 -0.027320424 -0.37925655 -0.1625269
0003d0 f5 5e bd be c7 ce aa be b7 38 c6 be b5 f2 ab 3e
       -0.3698651 -0.33360884 -0.38715145 0.33583608
0003e0 3c 84 0a 3f 53 e0 15 3f 45 cb c9 3e e5 77 9a be
       0.54108024 0.58545417 0.39412895 -0.30169597
0003f0 0d 0d a9 3d f8 d2 c4 be 7f d7 9b 3e 34 8a 2c 3e
       0.08254442 -0.38442206 0.30437848 0.16849595

fc_layers.0.bias f4 [32]
000000 a5 02 1d bf a7 ac a1 3e ee 95 b6 be 8c 82 0b bd
       -0.6133216 0.31577036 -0.35661262 -0.034060046
000010 49 93 34 bf 2a 0c 0b be 2b 1c 46 bf 3b 65 b0 3e
       -0.7053724 -0.13578859 -0.7738673 0.34452233
000020 43 d4 67 bf ab 92 11 bf 05 64 28 bf f1 8b 24 bf
       -0.9055826 -0.5686442 -0.6577762 -0.64276034
000030 cd a5 2e 3f 80 bf 8a bd fe c8 2e bf cf ba f8 be
       0.6822174 -0.06774807 -0.6827544 -0.48580024
000040 77 89 0e bf 21 69 12 bf cb 5b 0d bf 1b 2f bd 3e
       -0.55678505 -0.57191664 -0.5521819 0.3695
000050 84 30 65 be 52 33 09 bf 1a 58 16 bf cf 5f 35 bf
       -0.22381788 -0.53593934 -0.5872818 -0.7084932
000060 8d 90 20 bf 76 fd 2a bf c4 e0 7a be ee 49 e3 be
       -0.62720567 -0.66793 -0.24499804 -0.4439234
000070 9c 04 f4 be bd ff bf be 4d 6e 42 bf 9e f2 5c be
       -0.47659767 -0.374998 -0.75949556 -0.21576926

fc_layers.1.weight f4 [16, 32]
000000 da 9a 3f 3f fe e1 aa bd 23 2c ce 3e 5c f8 79 bf
       0.7484566 -0.08343886 0.4026805 -0.9764459
000010 5a e4 d0 be 0d e1 1e be 00 3d 92 be b8 91 b1 3e
       -0.40799218 -0.15515538 -0.28562164 0.34681487
000020 5c 1a 0e 3f 11 1b 68 3f 9c da ae 3d ff 73 29 3f
       0.5550897 0.906663 0.0853779 0.6619262
000030 1e c3 6f 3d 86 65 15 3f 25 6e 36 3f eb 8c 9c 3e
       0.058535688 0.5835804 0.7126182 0.30576262
000040 a3 45 5a be 05 6d 06 3f b7 db 0f 3e 1b 54 34 3e
       -0.21315627 0.525101 0.14048658 0.17610209
000050 f1 fc 4c 3f c7 df 48 3d 53 3b cd 3e 10 4a 87 bb
       0.8007346 0.049041536 0.40084323 -0.004128702
000060 04 62 2f 3e fa 0e e2 3e b4 72 b4 3e 56 ce f2 3d
       0.17127234 0.4415205 0.35243762 0.11855762
000070 9f 7a 14 bf d5 8d e9 3e 7f 92 00 3e 41 4b 18 3f
       -0.57999605 0.45616022 0.12555884 0.5948983
000080 cb ab 7a 3f ca 2b 3e bf ca ab 19 3f 9e 49 44 3e
       0.97918385 -0.74285567 0.60027754 0.19168708
000090 33 60 b9 3e 68 2c a7 be 97 18 3c 3e 38 d5 0e 3f
       0.36206207 -0.32651067 0.18368755 0.55794096
0000a0 a2 e1 37 3f c1 86 3b 3f 91 fd e7 be 56 6f 46 3f
       0.71828663 0.73252493 -0.45310643 0.77513635
0000b0 94 e6 25 be 93 13 11 3f f7 9f 50 3f 38 62 35 3e
       -0.1620124 0.5667049 0.81494087 0.17713249
0000c0 c6 3d b1 3e 5d 17 8a 3f 6c b0 a4 3e 08 04 c6 3e
       0.34617442 1.078838 0.3216585 0.3867495
0000d0 14 61 d6 3e 41 1e 1e bd 00 40 a5 3e d0 d1 8d be
       0.4187094 -0.03860307 0.3227539 -0.27699137
0000e0 dc d1 b2 3e 38 8d 93 3e 71 3b fd 3d 54 b5 a5 3e
       0.34925735 0.2881868 0.12364853 0.32364905
0000f0 40 47 4e bc df a0 4b 3f 1f b6 0f 3e c6 eb 6c 3e
       -0.0125902295 0.79542345 0.14034317 0.23136815
000100 e7 c0 5f 3f 2a f8 20 bf 2c d0 2e 3f 8e 1b f0 3d
       0.8740372 -0.6287867 0.68286395 0.11724006
000110 5a 8c 9f 3e 14 85 91 be b1 ab 3f 3e 4e e3 fc 3e
       0.31161767 -0.28421843 0.18717839 0.4939217
000120 66 aa 0d 3f 55 13 21 3f 77 eb 03 bf 0b 19 3b 3f
       0.5533813 0.62920123 -0.51531166 0.7308509
000130 d5 b1 e7 bd c3 41 22 3f 21 2e 53 3f c3 7e b4 3d
       -0.11313216 0.63381594 0.8249226 0.088132404
000140 94 d4 11 3f f0 15 8c 3f a9 3f 41 3e b6 b4 b4 3e
       0.56964993 1.0944195 0.1887194 0.35294122
000150 78 60 fd 3e a4 54 83 bc e3 6e 28 3e 8c 79 f3 bd
       0.49487662 -0.01603157 0.1644855 -0.118884176
000160 b2 c0 d8 3e 73 50 dc 3e cf 5d 03 3e 9d aa 68 3b
       0.42334515 0.43030128 0.12828754 0.0035502084
000170 e3 22 3f 3e da 55 49 3f 9d f7 8e 3d 03 d5 a3 3e
       0.18665652 0.78646624 0.06980822 0.31998453
000180 b2 f1 94 be 75 1f 28 3e 06 6b 6d bf 20 03 e6 3e
       -0.2909065 0.1641825 -0.9274143 0.4492426
000190 cb e8 2e bf 4b 31 dc 3e c5 ce a8 bf 58 a7 4e 3f
       -0.68323964 0.43006358 -1.3188101 0.80724096
0001a0 55 92 83 bd 36 93 e9 bc 05 9b 8e bf 54 d7 d1 3d
       -0.06424395 -0.028512578 -1.1141058 0.10246149
0001b0 ed b8 3c 3f b9 7f 1d 3f 52 75 28 3f ae 80 38 bf
       0.73719674 0.61523014 0.65804017 -0.7207135
0001c0 82 b9 a9 bf 2a 84 da 3e 9c de dd be 25 2b 46 3f
       -1.3259737 0.42678958 -0.433339 0.77409583
0001d0 74 cf 86 3d ea 92 77 bf 26 5a a1 bf b2 b1 8d bf
       0.06582537 -0.9670855 -1.2605636 -1.1069853
0001e0 7a 32 49 bf 9a ff 1c bf 84 9d cc be a7 f1 38 bf
       -0.78592646 -0.6132752 -0.39963925 -0.7224373
0001f0 66 ae 67 bf ea 76 28 bf 66 00 40 bf 6b 56 d3 3e
       -0.90500486 -0.6580645 -0.7500061 0.4127687
000200 30 03 03 bf aa c2 10 3e 6d bf 9a bf 34 e0 7c 3e
       -0.5117674 0.14136758 -1.2089669 0.24694902
000210 a5 e0 a8 3e 4a 2c 58 3f af d7 2f bf c3 7a 0c 3f
       0.3298389 0.8444258 -0.6868848 0.5487482
000220 2f 3a 07 3f 4a 62 2b be 48 b4 f1 bf fb 2b 76 3f
       0.52823156 -0.16736713 -1.8883142 0.9616086
000230 be ce 32 3f ae 95 b7 3e 94 17 8e bd d5 bd b4 be
       0.69846714 0.35856384 -0.06938091 -0.3530108
000240 64 cd e0 be 2d a5 4c bf 9c 1e 54 bf c9 23 a0 be
       -0.439067 -0.7993954 -0.82859206 -0.31277302
000250 84 29 5e 3e c4 ba ab be 34 b8 2b 3e 07 14 8d be
       0.21695524 -0.33540928 0.16769487 -0.27554342
000260 e9 58 28 bf 46 03 83 bc 08 2d e6 bf da ff 7d 3e
       -0.65760666 -0.015992772 -1.7982492 0.24804631
000270 24 e9 c4 3e dc f6 8e bf bb 3d 4f bf 08 a9 0c 3f
       0.38459122 -1.1169086 -0.8095357 0.5494542
000280 af 5d 10 3f f8 11 0a c0 b1 58 62 bd d7 36 ff be
       0.5639295 -2.1573467 -0.055260364 -0.49846527
000290 dd 6c 86 be ca 70 9e bf d2 80 95 3e 01 53 63 3e
       -0.2625493 -1.237817 0.29199845 0.22199632
0002a0 20 64 52 3e a0 7f 0f 3e 06 6f 84 3e b4 79 46 3e
       0.20546007 0.14013529 0.25865954 0.19382364
0002b0 7a 85 19 be 20 24 2b 3f af 91 64 3e b9 2f aa bd
       -0.14992324 0.66852 0.22321199 -0.083098836
0002c0 81 6d d6 be 2d 9f 86 3e 05 8f 7a 3f 9c 9f 0a 3e
       -0.4188042 0.26293316 0.9787448 0.13537449
0002d0 a8 7c 08 3f 79 76 74 3e 2e cc b5 3e 7f 1f 21 3e
       0.5331521 0.23873319 0.3550734 0.15734671
0002e0 30 88 f5 3d 88 ae 0b 3f 62 cf e4 3e 8e 19 2e 3f
       0.11988866 0.5456319 0.4468947 0.68007743
0002f0 76 92 14 be a6 ba 72 3e 2a d7 08 3f 74 16 83 3f
       -0.14508995 0.23704013 0.53453314 1.0241227
000300 9d 06 64 be 18 8c ba 3d a8 b2 c4 3e b8 1d 30 3f
       -0.22268148 0.09108752 0.38417554 0.6879535
000310 8d 5a 09 c0 67 6b 13 3f dd 24 7a 3f a1 05 08 bf
       -2.1461518 0.5758576 0.977125 -0.5313359
000320 bb f2 c3 bf 8b 09 0e be 30 6b 02 3f 05 b1 73 3d
       -1.530845 -0.13870828 0.50944805 0.05949499
000330 41 c0 42 3c e6 78 d0 bd 2c be 4c bd bb 9e 82 3f
       0.011886657 -0.101793095 -0.04998605 1.0204691
000340 2f 72 e8 3e 43 82 4f bf 7b a3 8b 3e 03 aa fe be
       0.45399615 -0.8105814 0.27273163 -0.49739084
000350 22 13 3b bf 7c 56 d8 3e 09 e1 ee 3e 96 03 52 3f
       -0.7307607 0.42253482 0.46656063 0.8203672
000360 3a a0 32 bf 1c 2a 9b be 26 ce 57 3f 72 2c 13 bf
       -0.69775736 -0.30305564 0.8429893 -0.57489693
000370 f0 c1 24 3f 4e b9 94 3e 98 fc f5 3e 70 5c e9 bf
       0.64358425 0.29047626 0.48044276 -1.8231335
000380 34 ae ac 3e a5 34 e2 3e 83 cf 0d bf 63 a9 e7 3e
       0.33726656 0.4418079 -0.5539476 0.4524642
000390 f2 a5 7f bf 61 17 ff 3e 8e e1 8f bf c0 1f 16 3f
       -0.9986259 0.49822524 -1.1240709 0.58642197
0003a0 86 47 1c bc dd d1 b5 bf 5d 19 b6 bf 12 36 ab be
       -0.009538537 -1.420467 -1.422649 -0.3343969
0003b0 45 17 e8 3e 1e bc 24 3f 06 2e cf be 2b 06 20 c0
       0.45330253 0.64349544 -0.404648 -2.5003765
0003c0 48 03 c9 3d dd ac 1a bf a1 7e 7e bf fd 23 fc 3e
       0.09815079 -0.6042002 -0.9941197 0.49246207
0003d0 8f 14 d6 3e 25 df 86 bd 61 3a 3c be 89 d6 82 bf
       0.4181256 -0.0658553 -0.18381645 -1.0221721
0003e0 39 d1 ce be 83 55 d4 bd cf 99 22 bf 43 63 1a be
       -0.40394 -0.103678726 -0.63515943 -0.15076928
0003f0 6d 28 54 bf 14 c3 53 bf 03 c5 95 be e0 a5 14 3f
       -0.82874185 -0.8271954 -0.2925187 0.58065605

fc_layers.1.bias f4 [16]
000000 a3 39 1f bf b5 c6 06 bf 23 44 55 be de ac 99 3f
       -0.6219732 -0.5264695 -0.20826773 1.200588
000010 b0 f6 4f 3f 86 66 82 bf 66 fb 3d 3f 96 c9 2d 3f
       0.8123579 -1.0187538 0.7421173 0.6788572
000020 f7 be ad 3e 1e 5c 0b 3f e0 8b 3d bf 04 97 b1 3e
       0.33934757 0.54437435 -0.7404156 0.34685528
000030 1a 0c 86 3f 8c ac 47 3f 65 1a f6 be a6 17 18 bf
       1.0472443 0.7799766 -0.48067012 -0.59411085

affine_output.weight f4 [1, 16]
000000 f0 b9 93 bf 57 fd 5c bf 37 bb 4e bf 8f bd 8d 40
       -1.1541119 -0.86324066 -0.8075442 4.4293895
000010 00 f6 49 40 c1 76 1b c0 d8 46 28 40 02 0d 78 40
       3.1556396 -2.4291232 2.629324 3.875794
000020 70 e3 43 40 10 db 41 40 6a b8 91 bf 3b 64 87 40
       3.0607567 3.0289955 -1.1384404 4.230985
000030 14 a4 92 40 9d f7 68 40 a9 78 65 bf c1 cc 89 bf
       4.582529 3.640113 -0.8963724 -1.0765611
