checkpoints/MLP_Epoch7_HR0.1716_NDCG0.1688.model (torch, 261263 bytes, 7 tensors)

embedding_user.weight f4 [51, 32]
000000 1a bf ac bf 63 54 b9 3f 0b 8b 7b be 46 5e 83 bf
       -1.349582 1.4478878 -0.2456476 -1.0263145
000010 7f ad 8d 3e 3e f4 26 bf a4 49 19 bf 37 cd 91 bf
       0.2767143 -0.65216434 -0.5987799 -1.1390752
000020 d7 86 c6 3f e0 04 e7 bf 70 87 6c be 22 43 34 bf
       1.55099 -1.8048363 -0.2309854 -0.70414937
000030 46 05 83 bd a7 5a a3 bf 1b 6c ca 3f c9 5d 8e bf
       -0.0639749 -1.276204 1.5814241 -1.1122371
000040 1d 6e 8c 3e 11 c0 4f 3e b8 b4 1d be 98 b1 05 3f
       0.2742776 0.20288111 -0.1540097 0.5222411
000050 7f 7b bf be 3a d2 9d bf 43 23 9e 3f 33 7e 0c c0
       -0.37398908 -1.2329781 1.2354511 -2.1952026
000060 a3 0c 29 bf 0e 07 53 3f 3f 4e 70 3e e7 ae df be
       -0.6603491 0.8243264 0.23467349 -0.43688127
000070 4b 29 25 be 05 33 34 bf b4 a3 57 3e cf ef 1f 3e
       -0.16129033 -0.7039035 0.21058542 0.15618823
000080 3e 61 ef 3e 63 06 f3 be 9f a4 58 bf 9d 57 88 3d
       0.46753877 -0.4746581 -0.8462619 0.06657336
000090 6a f8 0a 3e 80 64 df 3e f6 25 81 3f b0 f7 d0 bf
       0.13571325 0.43631363 1.008971 -1.6325588
0000a0 fe 9a 22 3f 9a 73 43 bf 67 ee 8f bf be ee 33 3e
       0.6351775 -0.7634827 -1.124463 0.17571542
0000b0 1c 5f da 3f 30 9d 93 bf 30 29 88 bf 00 32 d5 3d
       1.7060275 -1.1532345 -1.063757 0.10409927
0000c0 d2 58 5e bf 78 85 a1 be 66 cb 46 c0 59 05 96 be
       -0.8685428 -0.3154714 -3.1061645 -0.29300955
0000d0 92 d1 97 bd e7 99 e5 be 55 3b 44 3f ea a9 4a bd
       -0.07413019 -0.4484398 0.76653033 -0.04947845
0000e0 84 8c a0 bf 14 1a a1 be 81 50 90 3f f6 29 dc be
       -1.2542882 -0.3146521 1.1274568 -0.43000764
0000f0 a0 b5 56 3f 75 13 d2 3e 92 32 9c bf ed 10 d9 3f
       0.8387089 0.4103047 -1.2202933 1.695829
000100 49 8b 8a 3f 49 89 41 3f 95 49 b0 3f e4 04 5a 3e
       1.0823756 0.75600106 1.3772455 0.21290928
000110 21 2e 62 3f 50 79 6c 3f 80 ca d5 bf 08 f1 8b 3f
       0.8835164 0.9237261 -1.6702423 1.0932932
000120 fa f8 61 bd 1e d8 6a 3f 15 22 e0 bf eb b1 85 be
       -0.055169083 0.9173602 -1.7510401 -0.26112303
000130 2f 2b c9 3e 6b 82 58 3f c0 b1 3e 3f c2 a6 d3 be
       0.3929076 0.84574 0.74489975 -0.41338164
000140 0c 6a b4 3e 97 29 cf 3f 14 4e 82 bf 5b 2a 25 3f
       0.35237157 1.6184567 -1.0180078 0.64517754
000150 6a 79 2c 40 41 04 2f 3f 82 0b 28 3f 4a 96 57 bf
       2.6949105 0.68365866 0.6564256 -0.842137
000160 35 a1 76 3e 28 2e c3 3e fe 05 70 3f 06 02 32 be
       0.24084933 0.38121152 0.93759143 -0.17383584
000170 4d 32 f9 3f 7a 43 26 3d 39 4b 54 3f 97 19 83 3f
       1.9468476 0.040591694 0.8292728 1.0242184
000180 2c 80 25 bf 29 27 a8 be f2 a6 c4 be dd dd 0f 3e
       -0.646487 -0.32842377 -0.3840862 0.14049478
000190 e2 56 64 bf dd 1a f4 be cb fd f0 bd a4 58 88 bf
       -0.8919507 -0.47676745 -0.11767157 -1.0652051
0001a0 47 e2 87 3e 41 0b 58 3e 6f 76 b1 3e 23 c8 f2 bf
       0.26539823 0.21098043 0.3466067 -1.8967327
0001b0 4b c0 33 bf e9 be a9 be 01 88 89 3f 4c 53 37 bf
       -0.7021529 -0.33153465 1.074463 -0.71611476
0001c0 8f 5a 21 3f 6d 7c d8 3e 81 44 87 bf a9 18 09 40
       0.63028806 0.4228243 -1.0567781 2.1421301
0001d0 3a 01 a9 3f 8b e1 9f be ea ba 35 3f 5c cb d0 3e
       1.3203499 -0.31226763 0.70988333 0.4078015
0001e0 c4 46 90 be 16 02 b5 be 84 49 3e bf 08 11 e3 3d
       -0.2817899 -0.35353154 -0.74330926 0.11087233
0001f0 d4 d1 14 be 2c b7 30 be ab 5a e7 bf 2e 2c 29 bf
       -0.14533168 -0.17257375 -1.8074545 -0.6608304
000200 a6 7b 1b 3f 48 f2 64 be 94 13 a1 3f 7e 5d 0d 40
       0.6073555 -0.22358048 1.25841 2.2088313
000210 a5 67 ef 3f b5 8f 2f bf 4a 65 3c 3e 32 f2 ca bf
       1.8703505 -0.68578655 0.18398014 -1.5855162
000220 df 32 22 bf 95 7f a2 3e 1a 70 bb 3f 82 22 f2 3f
       -0.63358873 0.31737962 1.4643586 1.8916781
000230 af 6a f8 ba 4f 43 c3 bd f8 a1 b5 3e 37 ac a0 3f
       -0.0018952693 -0.095343225 0.35475135 1.2552556
000240 26 78 94 3f 54 a9 9a 3f 71 a0 ec 3e 92 f6 82 3f
       1.1599166 1.2082925 0.46216157 1.0231497
000250 fd 1c 5e bf 97 1b 2d 40 af 40 b2 bb 3c f5 62 3f
       -0.8676298 2.704809 -0.00543984 0.8865545
000260 69 17 f4 be e4 d6 b0 3e bc c7 77 be 88 c9 14 3f
       -0.4767411 0.3453895 -0.24197286 0.5812001
000270 e7 14 56 3f ef b5 84 3f 1d a8 c7 3e 9c a2 06 3f
       0.83625644 1.0368022 0.38995448 0.5259187
000280 ca 78 9a be 09 1b bb 3f 36 67 d0 3f 8c 41 e9 3e
       -0.3017028 1.4617625 1.6281497 0.4555782
000290 fe 2f 83 3f 11 ee 83 bf 23 cf 5b 3f f7 df 40 be
       1.0249021 -1.0307027 0.8586294 -0.18835436
0002a0 4c e0 8a be 8a 5e 44 c0 ff 3a bf be 9e 03 7f 3f
       -0.2712425 -3.0682702 -0.37349698 0.99614894
0002b0 11 0e 89 3e 4c 0f 92 3f 09 dd 05 3f 82 13 99 bf
       0.26768544 1.1410918 0.522904 -1.1959078
0002c0 a4 c5 6a 3f 68 24 f8 be ca bb 9c bf bf f0 4c 3f
       0.91707826 -0.48465276 -1.2244809 0.8005485
0002d0 94 51 f7 bf ac a8 3d bf b9 79 43 c0 d7 3a 9a bf
       -1.9321771 -0.740855 -3.0543044 -1.2049206
0002e0 01 c4 b6 be 50 ad 1c c0 e7 de 45 40 b7 64 d4 3f
       -0.35696414 -2.4480782 3.0917299 1.6593236
0002f0 e5 e8 29 3d c4 dd 02 c0 2a 10 d5 3e 1b 80 b2 3e
       0.04148187 -2.0447855 0.41613895 0.34863362
000300 2b 5b 6e 3e 2f 43 7b bf a8 34 59 3f 26 fd 1a bf
       0.23276965 -0.9814939 0.8484597 -0.60542524
000310 da bc 49 3f 48 c4 36 bf 59 bd 92 bf 42 b6 87 3f
       0.7880379 -0.7139325 -1.1464034 1.0602496
000320 b6 be 41 bf ab 2f 29 3f 95 7e 1e bf 53 68 79 bd
       -0.75681627 0.6608836 -0.619119 -0.060890507
000330 a7 03 1e c0 70 61 c7 3e 7e 0a 5c 3f 50 cf 24 bf
       -2.468973 0.38941526 0.8595351 -0.64378834
000340 4d f8 4a 3e a8 84 4f bd 67 a0 c7 3f 54 3b f6 bf
       0.19821282 -0.05066362 1.5595826 -1.9236856
000350 a7 2b a3 3f d8 f6 d1 3f a0 e8 83 3f 46 8c 84 3f
       1.2747697 1.6403456 1.0305367 1.0355308
000360 dd f4 53 be 2d d0 db bf 3a ca e6 bf 1c bb 60 be
       -0.20698877 -1.7172905 -1.8030465 -0.21946377
000370 44 28 9d bf 8e 97 8e 3f 3c 38 13 bf e4 51 cd 3e
       -1.2277913 1.1140001 -0.5750768 0.4010154
000380 af a6 00 c0 34 8f 87 bf 57 02 ae be 7c ea bc 3f
       -2.0101736 -1.0590577 -0.3398616 1.4759059
000390 95 c6 c7 3f fb 9b b6 3f 9d 72 b0 3f 08 22 fc bf
       1.5607477 1.4266351 1.3784977 -1.9697886
0003a0 29 d3 d7 bf 24 e6 1f 3f 27 a0 2a 3e 13 7c 91 be
       -1.6861316 0.6246054 0.16662656 -0.28414974
0003b0 08 35 c4 bf ce b1 18 c0 bb 7f 9e 3f 59 93 78 3f
       -1.5328684 -2.3858523 1.238273 0.97099835
0003c0 f5 11 b2 bd c6 61 66 bf 3c fc a9 bf 81 3e 28 3f
       -0.08694831 -0.8999294 -1.3280101 0.65720373
0003d0 82 94 0b bf 94 2b 31 3f f0 04 0d bf eb d8 c1 3f
       -0.5452348 0.6920712 -0.5508566 1.5144323
0003e0 49 56 b4 bf 83 f9 bc be fe eb 3c bf 9c a9 01 be
       -1.4088832 -0.36909112 -0.73797596 -0.12662357
0003f0 41 6c 1f bf ff 1a 30 bf 12 2f db 3e 7a 27 b6 bf
       -0.6227456 -0.6879119 0.4280935 -1.4230797

embedding_item.weight f4 [1889, 32]
000000 b0 6b 18 40 de 9c 13 40 20 3d 02 3e 0b 9d 09 c0
       2.3815727 2.3064494 0.1271863 -2.1502101
000010 b8 d5 14 3f ee f3 ae be c1 05 a1 3f 19 04 3d 3c
       0.5813861 -0.3417048 1.2579881 0.0115366215
000020 2a 32 6d 3f de 6d a1 3d 91 e1 df be 80 33 19 be
       0.9265467 0.07882284 -0.4372678 -0.14961052
000030 b1 4b 30 c0 a8 fd 65 3f 92 82 10 bf f1 97 c8 bf
       -2.7546198 0.89840174 -0.56449234 -1.5671369
000040 c6 0f ad 3f 4b 99 c8 3f 55 1f 5a bf ca ab 11 3f
       1.3520439 1.5671781 -0.8520406 0.56902754
000050 87 a8 19 3d a2 0a 89 bf 82 7a 19 3f 78 76 39 3f
       0.037514236 -1.070637 0.5995256 0.72446394
000060 81 e9 2b be a8 2d 01 c0 c7 52 01 3e fa 45 53 bf
       -0.16788293 -2.0184116 0.12629233 -0.8252865
000070 6b 1c 56 3f 8a 53 f8 3f f6 f1 6b bf 40 85 46 3f
       0.8363711 1.9400494 -0.9216608 0.77547073
000080 92 8d 11 3e 85 47 f2 3e 0d 9f 7c 3f 28 03 18 bf
       0.14214161 0.4732019 0.9868019 -0.59379816
000090 d8 68 af bf e2 0e 99 be 00 b4 c2 3f 78 15 d1 3f
       -1.3703871 -0.29894167 1.5211182 1.6334677
0000a0 fd e8 37 c0 17 9e 84 3e 38 f9 60 bf 68 cf 4d 3e
       -2.8735955 0.25901863 -0.8788028 0.2009865
0000b0 7c 32 be bf 6d ec ac 3e d7 55 ce 3f 47 46 3a bf
       -1.4859157 0.3377413 1.6119946 -0.72763485
0000c0 45 fa 22 be e3 08 3c bf cd ba c9 3f c2 92 ef be
       -0.15915783 -0.7345106 1.5760132 -0.46791655
0000d0 6b 02 b4 bd 90 02 95 3e 87 b0 20 bf 71 21 26 bf
       -0.08789524 0.29103518 -0.6276936 -0.6489478
0000e0 7d 2b 63 3f 39 0e 92 be ad ae a3 3f 6e 6c ce be
       0.8873823 -0.28526476 1.2787682 -0.403171
0000f0 36 2d 24 bf 6c 7f 97 3f 8d 5f f3 3e 28 ef a9 3c
       -0.64131486 1.1835761 0.47533837 0.020743921
000100 a7 f6 90 be c0 78 1c 3f 1c ae 82 3f 8a 7b 8a bf
       -0.2831318 0.6112175 1.0209384 -1.0818951
000110 02 c7 94 3f d9 4b 00 40 52 74 d7 3f 3a ea 8c 3f
       1.1623232 2.0046294 1.6832373 1.100898
000120 90 fd b0 3e e3 fb 8a bf 4f 80 1e 40 40 83 37 bf
       0.34568453 -1.085812 2.4765813 -0.71684647
000130 1d 50 0e 3f c1 6d 17 3f 18 49 0c bf ff 36 a6 3f
       0.55590993 0.59151846 -0.5479903 1.2985533
000140 eb 3d f7 3d 18 fc 38 3f 57 1d 71 3f 03 cc 2e c0
       0.12072357 0.72259665 0.94185394 -2.731202
000150 5d b0 e7 bb 8f 17 f4 3e 97 a5 59 bf 66 ab 19 bf
       -0.0070705847 0.47674224 -0.85018295 -0.6002716
000160 d6 0c 85 3f ce 22 1d bf 33 a7 96 3f f9 c0 0c 3c
       1.0394542 -0.6138123 1.1769775 0.00859093
000170 91 5d 39 3f 39 d3 ac be 86 67 5d bf 92 0c c4 be
       0.72408396 -0.337549 -0.8648609 -0.3829084
000180 0c 2e e9 3f c9 3c 05 be 02 13 ae bf ef e1 f1 3e
       1.8217177 -0.13011469 -1.3599551 0.47242686
000190 24 e9 8e 3e e5 39 c0 bf 8c 45 34 3f 38 75 58 3f
       0.27912247 -1.5017668 0.7041862 0.8455386
0001a0 c2 88 d8 be 01 53 11 3f 91 c6 c6 bf 29 6d 36 3f
       -0.42291838 0.5676728 -1.5529348 0.71260315
0001b0 fc 9d cc 3d 78 85 0e bf 5d 59 1a bf 7d cc 1c bf
       0.09991071 -0.5567241 -0.6029261 -0.61249524
0001c0 9c f3 c8 3e 76 27 8b 3e 13 fa ce bd 3a c0 d0 3f
       0.3924836 0.27178544 -0.101062916 1.6308663
0001d0 44 88 d5 bf fc 50 bc be 29 37 90 bf 17 f1 5e 3d
       -1.668221 -0.36780536 -1.1266834 0.05442914
0001e0 62 f1 31 c0 b5 4a b9 3e 32 12 60 be ad 54 a1 3f
       -2.7803578 0.3618981 -0.21881941 1.2603966
0001f0 37 80 9f bf 68 af 9a 3e bd 52 43 bf 82 a8 7a bf
       -1.2461003 0.3021195 -0.76298124 -0.9791337
000200 25 42 7d 3f ad 02 8c bf 25 c1 b3 bf ad 74 92 bf
       0.98929054 -1.0938317 -1.4043318 -1.1441857
000210 cb 91 9e 3f b2 1f 1b be 57 ee 7e 3f ec d9 1d bf
       1.2388242 -0.1514881 0.9958243 -0.6166065
000220 ce 64 22 40 8a 20 03 c0 5a 72 16 bf d1 5e f1 be
       2.5374026 -2.048861 -0.58768237 -0.47142652
000230 33 a4 f3 be 68 57 b2 bf 68 7b 21 3e cb c8 be bf
       -0.47586212 -1.3932924 0.15769732 -1.4905027
000240 e1 12 07 bd 2a fa 19 bf cc ea 58 bf f4 66 d1 bf
       -0.03297699 -0.60147345 -0.8473327 -1.6359544
000250 5d 80 0c 3c ce 63 85 bf 65 9c 20 c0 7f bf ab 3e
       0.008575526 -1.0421083 -2.5095456 0.33544537
000260 29 2b 3d bf e3 25 ec bf f4 6c 59 bf b9 79 a3 3f
       -0.7389398 -1.8449062 -0.84931874 1.2771522
000270 bd 08 86 bf d9 90 65 bf 18 48 d0 3e 79 9c b8 3f
       -1.0471417 -0.89674145 0.40680003 1.4422752
000280 4a d7 52 bf 4b a9 bc 3d 12 76 dd bf 26 42 89 bf
       -0.82359755 0.092119776 -1.7301657 -1.0723312
000290 07 db 9e 3e 17 61 d3 3f cb 1a 91 3f 14 d8 40 be
       0.3102648 1.6514004 1.1336302 -0.18832427
0002a0 53 31 c4 3e f0 31 76 3d 6b 6e 68 bf 80 d7 59 bf
       0.3831888 0.060106218 -0.90793484 -0.8509445
0002b0 7e 66 28 40 be 3c ba be 36 6e 9b be 74 55 28 bf
       2.6312556 -0.36374468 -0.30357522 -0.6575539
0002c0 fc 79 95 3f 34 11 80 3f a2 24 03 40 6c b9 41 bf
       1.1677852 1.000525 2.049111 -0.75673556
0002d0 87 06 a7 3e 11 70 c0 3f b2 91 0a bf 51 97 fa 3f
       0.32622167 1.50342 -0.54128563 1.9577428
0002e0 c7 05 5d 3f 0e b4 6e 3f f5 e4 3b 3f 21 84 4c bf
       0.8633694 0.9324349 0.73396236 -0.7988911
0002f0 b9 db 02 bf 1c f2 e0 3e 91 4f 27 bf 49 1d 7c 3f
       -0.5111652 0.43934715 -0.65355784 0.98482186
000300 bb 5c 61 bf 91 fb 20 3f 49 a1 8d bf 48 be 92 3e
       -0.8803212 0.6288386 -1.1064845 0.28660798
000310 29 5d e9 3f 68 0a cb 3f 68 4d 60 3d 7b fe 7d bf
       1.8231555 1.5862551 0.05476132 -0.9921643
000320 86 e0 22 be a6 01 81 bf de 2a 14 c0 87 ea 36 3f
       -0.15905961 -1.0078628 -2.3151164 0.7145161
000330 1f d7 01 c0 c7 2d ee 3e 74 74 03 40 da be 28 3d
       -2.028755 0.465193 2.0539827 0.041197635
000340 31 2e dc bf 4b f4 7d bf ba 35 bd bf 49 09 55 3f
       -1.7201596 -0.99200886 -1.4782021 0.83217293
000350 12 d1 4d 3e 57 a3 7a 3f a3 17 0f 40 eb ef c2 be
       0.20099285 0.97905487 2.2358177 -0.38073668
000360 79 85 91 bf 9e 3f e2 bf 74 0e e5 3e 44 24 b8 3f
       -1.1368858 -1.7675664 0.4473759 1.4386067
000370 b3 66 66 3f 63 5a f2 bc ec 7b ad bf 74 5e c7 3f
       0.90000457 -0.029584115 -1.3553443 1.55757
000380 9e a2 8e 3f 21 b7 f0 be 5f ee e2 be 40 7b 0f bf
       1.1143377 -0.47014716 -0.44322488 -0.5604744
000390 0c 48 8e bd ec 00 3b bd 79 8f 1f bf eb 3d 01 bf
       -0.069473356 -0.045655176 -0.62328297 -0.50485104
0003a0 40 11 c4 3e c0 7c 4e bf dc be e9 be 09 5d 08 40
       0.3829441 -0.80659103 -0.45653427 2.1306784
0003b0 94 ba 96 be e8 16 f9 bf c2 92 5b 3f fc 28 99 bf
       -0.29439223 -1.9460115 0.8577081 -1.1965632
0003c0 e6 8b f3 3e 92 b3 9f bf ed b3 a1 3f 74 01 20 c0
       0.47567672 -1.2476676 1.2633034 -2.5000887
0003d0 89 db be 3e 90 67 de 3d 94 ae 0c bf 7d 25 a4 bf
       0.37276867 0.10859597 -0.54953885 -1.282394
0003e0 75 60 87 3f 3b 4c 0a bf e5 38 db 3f b4 52 1c c0
       1.0576311 -0.5402257 1.7126738 -2.4425478
0003f0 9b 9d 6e 3f 95 d2 d6 bf c4 f7 d3 3f 95 d4 c1 3e
       0.93209237 -1.6783015 1.6559987 0.378575

fc_layers.0.weight f4 [32, 64]
000000 3a e9 d7 3e 59 bd 87 3d e0 80 99 be 66 0a 9c bd
       0.42170125 0.06627912 -0.29981136 -0.07619171
000010 8c 76 31 bb 3f 8c 1d bf b0 83 a1 3e b3 1f 03 3f
       -0.0027078716 -0.61542124 0.31545782 0.51220244
000020 43 89 0f be b6 6e dc 3e 85 12 37 3e 2c b8 50 bb
       -0.14017205 0.43053216 0.17878158 -0.0031848056
000030 05 c5 8c 3c 57 30 b1 3e 34 33 e4 be 75 13 ef be
       0.01718379 0.34607193 -0.44570315 -0.46694532
000040 12 0c c2 3e 94 09 44 be 15 37 bf 3d 4f db cd bd
       0.37899834 -0.19144279 0.09336678 -0.100515954
000050 69 95 7a 3e 45 be a6 3e 48 da 5f 3e e8 2a 56 3e
       0.24471058 0.3256704 0.21860611 0.20914805
000060 d4 f4 4e 3f 43 8b b0 be 2e 8c 29 be 73 1b 02 be
       0.8084233 -0.34481248 -0.1655738 -0.12705784
000070 df b7 36 3e 24 8c b9 3c 1e 23 43 3e 35 0c 73 3e
       0.17843579 0.022649832 0.19056365 0.23735125
000080 d5 5f 0c 3f c6 ab ed 3e ec 27 d4 3d f1 c2 b9 3e
       0.5483373 0.46420115 0.10359177 0.3628154
000090 ca 2d 89 be 03 f6 e5 be b1 05 9b 3c dc 4d 44 3c
       -0.26792747 -0.44914255 0.018923612 0.011981454
0000a0 6e 2c 61 3f 06 67 8b 3e aa b5 f5 3e 4e 6c 8e be
       0.8795842 0.27227038 0.4799016 -0.27817005
0000b0 5a ac ef 3e 51 cc 16 bf 41 ae 96 3e b7 f3 1d 3f
       0.4681118 -0.5890551 0.2942982 0.61700004
0000c0 de 2f 6e bd 1e a1 86 3b d9 6f 88 bb 34 26 b7 3e
       -0.05815112 0.004108562 -0.004163724 0.35771334
0000d0 d5 98 18 3e 15 a9 e9 3c 43 68 0c bf fb 69 68 be
       0.14902051 0.028523007 -0.5484659 -0.22696678
0000e0 0c 5a 84 be 4b 31 7f be a5 11 c4 be bf 89 12 3f
       -0.2584995 -0.24921148 -0.38294712 0.57241434
0000f0 67 13 b9 be 3e e6 8b 3e fa a0 1d 3e 2b b1 dd be
       -0.36147615 0.27324098 0.15393439 -0.4329923
000100 e6 21 6f 3e df c0 4f be bb 72 f3 be 1c 9e 75 3d
       0.23352775 -0.20288418 -0.4754847 0.059965238
000110 80 b4 1e 3e 7c aa 5c 3e e9 74 a8 be cf a4 bf bd
       0.15498543 0.2154941 -0.32901695 -0.093576066
000120 f1 33 ea bd e5 55 1f 3f 81 52 02 3e 53 21 a2 bc
       -0.11435688 0.6224044 0.12726785 -0.01979128
000130 7b a0 8c be e4 e4 3b be f8 8b 53 be 4d d2 02 be
       -0.27466187 -0.18349034 -0.20658863 -0.12775536
000140 5a e1 b2 3d 6b 5a 22 bd f5 0e 17 3c 22 90 95 3d
       0.08734389 -0.03963701 0.009219875 0.07302882
000150 02 92 85 3c 0e b0 a3 be 4f 32 95 3d 69 02 4a bc
       0.016304974 -0.31970257 0.07284986 -0.012329676
000160 62 dc 36 be c5 bf 85 bd 9f 0c 8b be cd 4a 9a be
       -0.17857507 -0.06530718 -0.27158067 -0.30135193
000170 79 fd dc 3d a9 55 01 3f a2 c8 a8 3e 73 59 be 3e
       0.107905336 0.5052133 0.3296557 0.3717762
000180 71 5a e0 bd d0 8c 93 3e 10 b7 6b be 62 9d 9f 3e
       -0.1095475 0.2881837 -0.23019052 0.3117476
000190 4e 13 d1 be eb 1e b4 3d e1 a6 0d bf 42 74 f7 be
       -0.4083504 0.0879496 -0.5533276 -0.48330885
0001a0 00 88 2b be 15 3f b7 3e ac 07 dc 3e d0 73 97 bf
       -0.16751099 0.35790315 0.42974603 -1.1832218
0001b0 be 5e c1 3e 61 d2 18 be f3 7d 04 3f 07 52 2e 3e
       0.37767595 -0.14924003 0.51754683 0.17023478
0001c0 dd 6c 26 be 31 7c 06 bd 6c 98 22 3f c0 6e 52 3d
       -0.16252466 -0.032833282 0.6351383 0.05137515
0001d0 0f 0d 1b 3f e2 2d b6 3e e9 b0 bd 3e 45 c5 03 bf
       0.605668 0.3558188 0.37049034 -0.51472884
0001e0 2f ae e3 3d 71 e8 81 3e e6 2e 97 3d 82 5e e0 3e
       0.11117207 0.2537265 0.07381992 0.43822104
0001f0 43 79 e6 3d 15 22 c6 be 21 0a aa 3e 86 1d ba 3e
       0.112535976 -0.38697878 0.33210853 0.3635065
000200 ce f2 c6 bd f6 62 89 3d 6e 76 89 be ef 21 34 3e
       -0.0971428 0.067083284 -0.26848167 0.1759107
000210 25 46 b6 3e 61 bf 45 be 08 af fa 3d 1f 04 fd be
       0.3560039 -0.19311287 0.12240416 -0.49417207
000220 04 de 22 3e fc 97 73 3e 7b aa bb 3e 6d 9a 17 3d
       0.15905005 0.23788446 0.36653504 0.037012506
000230 67 b4 aa bd f2 4f e1 be 11 c3 ea be 1b 12 60 3e
       -0.0833519 -0.44006306 -0.4585195 0.21881907
000240 ee db f4 3e 2c 2c 79 3e 5b 94 24 be 50 3a a7 3d
       0.47824043 0.24333256 -0.16072218 0.08165419
000250 5f 2a ba 3d ae 09 cc bc ae e5 83 be a1 ff e8 3d
       0.09090113 -0.02490696 -0.2576117 0.11376882
000260 20 69 93 be 75 ca f1 bd 36 8e 97 be fd 7b 32 be
       -0.28791142 -0.11806194 -0.29600686 -0.1743011
000270 16 87 04 3e e6 65 13 3f e9 1a 5e 3e 77 53 d9 3b
       0.12942156 0.5757736 0.21689953 0.0066322642
000280 80 ea a4 3d e3 68 b6 be d0 1a ac bd 61 2f 0e bf
       0.0805254 -0.35626897 -0.084035516 -0.55541044
000290 0a 90 0a bf 8a 22 e5 3e 62 2d 7c 3e 05 83 a9 be
       -0.54126036 0.44752914 0.24626687 -0.33107772
0002a0 e7 85 d6 bd 6f db 09 bf 00 13 8c be 60 a6 db be
       -0.104747586 -0.53850454 -0.27358246 -0.42900372
0002b0 b0 0a 73 3c 8d 67 5a be ba 68 39 3f fd 0f 51 3e
       0.014834091 -0.21328564 0.72425425 0.20416255
0002c0 a0 b6 60 3e 9c c6 ef bb 72 86 40 be 7b c4 da 3d
       0.21944666 -0.0073173773 -0.18801287 0.10682007
0002d0 4d 5f 48 bf aa 97 6c 3f da 13 27 be eb cc 04 3f
       -0.7827042 0.9241892 -0.16316167 0.5187518
0002e0 a8 f4 02 3e e1 bd 3c be 8a d9 32 be 1e 4c 3f bf
       0.12788641 -0.18431808 -0.17465797 -0.7472552
0002f0 1c b9 55 bf e3 0d 61 3e 59 2e 8e bc 58 97 21 bd
       -0.8348558 0.21977954 -0.017356085 -0.039450973
000300 bf 7e 69 3e 2a 6d 95 bd c2 08 69 be 02 8e 21 3e
       0.22802256 -0.07296212 -0.22757247 0.15776828
000310 4a 2e b1 3d d1 ab 1f 3e c4 dc d1 bd e1 81 a0 3e
       0.08651407 0.15592887 -0.10247186 0.3134909
000320 e8 d9 76 3e 9b 36 ea bd b8 71 dc 3e c1 9f b2 bd
       0.24106562 -0.114361964 0.4305551 -0.08721877
000330 50 07 d0 be 6b 8d 08 bd 23 e5 a9 be f3 f2 a3 be
       -0.4063058 -0.03333799 -0.3318263 -0.32021293
000340 7f 34 b5 3d 35 97 59 bd f8 b3 92 3e 97 3e da bd
       0.088479035 -0.053122718 0.2865293 -0.10656469
000350 0d 0d 90 bd ae 2e 28 bf 84 63 b7 3e 6b 7a 99 bd
       -0.07033739 -0.6569623 0.35818112 -0.074940525
000360 aa 36 a1 be 6b 5e 12 3d 31 fd d6 bc e1 c8 b2 3d
       -0.31487018 0.035734575 -0.026243778 0.08729721
000370 94 2a 9a 3e c6 1f 98 3e 63 2b e5 bd e0 be 62 3e
       0.3011061 0.2971174 -0.11189916 0.22143126
000380 9b 2a ce be d4 a2 51 be 2b cf d7 be d3 f7 92 3e
       -0.4026688 -0.2047227 -0.42150244 0.287047
000390 3a 8e f5 bd a4 4e 15 bf 89 32 53 bf f4 c3 7d be
       -0.11990018 -0.5832312 -0.82498986 -0.24781781
0003a0 40 f5 f4 3e 63 db 85 be 55 02 6a bf bf ec cd 3d
       0.4784336 -0.2614394 -0.9140981 0.10054921
0003b0 80 0f 00 be f6 e9 4d 3e 97 fb 0d 3e 4a 3c 44 be
       -0.12505913 0.2010878 0.13865505 -0.19163623
0003c0 42 97 3e bd 45 bb 56 bd e2 7b d3 be e7 3a 29 be
       -0.04653097 -0.052424688 -0.41305453 -0.16526376
0003d0 37 6c b5 be 78 ca 89 be 5f cf a8 be 1b 87 97 3e
       -0.35434124 -0.26912284 -0.32970712 0.29595265
0003e0 7f ea 08 3f 26 c2 0d 3f 9d be 96 3e f8 05 68 be
       0.5348281 0.5537437 0.294423 -0.22658527
0003f0 f1 29 72 3d 07 8e b1 be aa 40 ac 3e b5 80 36 3e
       0.05912203 -0.3467867 0.33643085 0.17822535

fc_layers.0.bias f4 [32]
000000 cf ca 0d bf ab 02 9e 3e 9c c8 a6 be 1e 67 29 bd
       -0.55387586 0.3086141 -0.32574928 -0.041358106
000010 48 db 25 bf 8a 9b e5 bd a8 25 3e bf 05 8d b5 3e
       -0.6478772 -0.11211307 -0.7427621 0.35459152
000020 0a 76 5c bf ea 4c 0b bf 12 14 1c bf 3f df 12 bf
       -0.86117613 -0.54414237 -0.60968125 -0.57371897
000030 7d ff 26 3f 77 db 9a bd 35 95 1f bf da c1 f5 be
       0.65233594 -0.07561391 -0.62337047 -0.4799946
000040 8e 56 0b bf 5d 6d 0b bf 95 50 06 bf 3e 6a ba 3e
       -0.54428947 -0.5446375 -0.5246671 0.3640918
000050 54 fc 42 be 84 fe f8 be 92 2b 08 bf 6a 09 26 bf
       -0.19041568 -0.4863168 -0.53191483 -0.64858115
000060 6d ec 14 bf 33 ab 27 bf c0 1c 81 be c5 d7 d0 be
       -0.5817326 -0.65495604 -0.25217247 -0.4078962
000070 a2 00 db be b2 44 c4 be 14 b4 36 bf 48 bf 3b be
       -0.4277392 -0.3833366 -0.7136853 -0.18334687

fc_layers.1.weight f4 [16, 32]
000000 65 5b 30 3f 3f 9f 0c be 2d a3 bf 3e 6a da 7e bf
       0.68889457 -0.13732623 0.3742918 -0.99552023
000010 d5 71 d4 be 3d 9f 5f be 2b de 9a be c9 c5 99 3e
       -0.41493097 -0.21838088 -0.30247626 0.3003371
000020 4b c0 fe 3e d7 44 5d 3f d9 58 7a 3d 1a de 1e 3f
       0.49756083 0.86433166 0.061119888 0.6205765
000030 e9 78 41 3d bc 5c 12 3f 54 1b 2e 3f 78 17 96 3e
       0.04723445 0.5717275 0.6801045 0.2931478
000040 ce a1 23 be 64 08 fd 3e 36 e9 cb 3d 25 3c 43 3e
       -0.15979692 0.49420464 0.09956591 0.19065912
000050 2a d3 43 3f 40 93 e3 3c 81 05 b0 3e a1 19 8c bb
       0.76494086 0.027780175 0.343792 -0.004275516
000060 d1 bd 0b 3e 2c 60 d8 3e 4b fb ac 3e b1 80 eb 3d
       0.13646628 0.42260873 0.3378547 0.11499155
000070 d8 03 14 bf 02 39 d3 3e 20 9b ec 3d 06 f0 09 3f
       -0.57818365 0.4125443 0.11553025 0.5388187
000080 e1 b8 69 3f 5b 9c 35 bf 98 dc 14 3f 72 3f 33 3e
       0.9129773 -0.70941705 0.581491 0.17504671
000090 c4 ba 97 3e c1 b4 a9 be df ca 15 3e 5d 19 06 3f
       0.29634678 -0.33145717 0.1462817 0.5238245
0000a0 90 79 2b 3f 25 c5 31 3f 0a f0 c8 be 4a 99 37 3f
       0.66982365 0.69441444 -0.39245635 0.71718276
0000b0 10 23 31 be 82 96 0d 3f bc 05 49 3f 83 2a 20 3e
       -0.17298532 0.5530778 0.78524375 0.15641217
0000c0 de f4 a5 3e 65 56 7f 3f 56 75 8f 3e db f6 be 3e
       0.3241338 0.997412 0.28019208 0.3729771
0000d0 30 79 e0 3e 9d ed 28 3c 82 8f 85 3e db bd 7b be
       0.4384246 0.010310558 0.2608605 -0.24584143
0000e0 02 1f af 3e fb 23 97 3e fa 53 e1 3d 9c f9 99 3e
       0.34203345 0.29519638 0.110023454 0.3007325
0000f0 5f 35 4e bc 49 51 3a 3f 1c 0b 0b 3e 81 b5 6b 3e
       -0.012585967 0.7278028 0.13578457 0.23018457
000100 5f 57 4f 3f ae b4 23 bf fd a3 28 3f 83 e8 66 3d
       0.8099269 -0.6394757 0.65875226 0.056374084
000110 10 c1 60 3e 56 c2 a3 be 99 4d 05 3e ee 5c ea 3e
       0.21948647 -0.31984204 0.13017882 0.45774025
000120 03 83 00 3f 81 db 16 3f 4f f7 01 bf ce b6 29 3f
       0.5019991 0.58928686 -0.5076799 0.6629456
000130 df d6 03 be 6d c3 1e 3f dd 93 4b 3f 6d 31 8a 3d
       -0.12874936 0.62016946 0.79522496 0.067477085
000140 e0 8b 0b 3f 2d b3 81 3f e7 6a 17 3e fc a5 a7 3e
       0.5451031 1.0132805 0.14786874 0.32743824
000150 81 40 f6 3e 14 6d 11 bc f0 84 cc 3d 2c 76 f5 bd
       0.48096088 -0.008876104 0.09986293 -0.1198543
000160 03 01 c9 3e 39 0e d3 3e d2 0a fa 3d 0f e5 9e bc
       0.39258584 0.4122179 0.12209095 -0.019396333
000170 35 b9 41 3e 29 23 38 3f 26 d0 8b 3d 0a a5 8f 3e
       0.18918307 0.7192865 0.068268105 0.28055602
000180 31 f4 8e be 26 c9 52 3e f6 50 6a bf 4b 5e ee 3e
       -0.27920678 0.20584545 -0.91529787 0.46556315
000190 bb d8 2e bf 54 6b e7 3e dc c8 a5 bf fb 3a 4e 3f
       -0.68299454 0.45199072 -1.2951922 0.8055875
0001a0 e1 0f a6 bd e1 8f 18 bc 4e 20 93 bf c2 7a ab 3d
       -0.081084974 -0.009311647 -1.1494234 0.083730236
0001b0 51 ff 3d 3f ee 73 16 3f 15 4b 2c 3f 71 0a 30 bf
       0.74217707 0.58770645 0.67302066 -0.6876593
0001c0 c7 5f a1 bf 3d 25 d3 3e 5a 52 dd be e1 e6 3c 3f
       -1.2607354 0.41239348 -0.43226892 0.73789793
0001d0 10 49 68 3d 61 8e 7b bf 67 a7 9a bf 6b 60 8a bf
       0.056710303 -0.9826413 -1.2082337 -1.0810674
0001e0 32 4d 42 bf 1b d8 2f bf ed ca a7 be c4 f1 36 bf
       -0.7589904 -0.68689126 -0.32772008 -0.71462655
0001f0 63 f1 66 bf 5a 74 2a bf b0 6d 33 bf 20 5e d3 3e
       -0.90212077 -0.6658379 -0.70089245 0.4128275
000200 cc 12 08 bf f8 78 f3 3d 36 dc 98 bf 41 10 80 3e
       -0.5315368 0.11888307 -1.1942203 0.250124
000210 c5 39 a3 3e f7 e6 55 3f 4c c2 31 bf d0 3f 03 3f
       0.31880012 0.8355555 -0.694371 0.51269245
000220 aa c4 03 3f c6 d9 f3 bd 05 c4 e9 bf 01 0a 75 3f
       0.5147196 -0.11906771 -1.8262945 0.9571839
000230 4d f9 2a 3f 02 1e 97 3e 14 f5 82 bd f2 ec 8e be
       0.6678665 0.29515082 -0.06394401 -0.2791515
000240 99 d8 f5 be 3b 91 46 bf 1f dd 5c bf 7c cb 91 be
       -0.48016813 -0.77565354 -0.86274904 -0.2847556
000250 c3 13 30 3e fa 3b d0 be cf f0 55 3e 60 47 69 be
       0.17195038 -0.40670758 0.20892642 -0.22781134
000260 1d 3b 39 bf 4e 83 18 bc 62 0a eb bf f2 70 6a 3e
       -0.72355825 -0.009308649 -1.8362544 0.22894648
000270 18 37 ba 3e f6 ea 8f bf fb 57 4d bf b3 ca 0d 3f
       0.36370158 -1.1243579 -0.8021237 0.5538742
000280 0b b1 04 3f 8e 01 0a c0 f3 3d 88 bd f5 f5 01 bf
       0.51832646 -2.156345 -0.06652441 -0.50765926
000290 97 ca a8 be 2c 46 a1 bf 50 e2 8c 3e 3e 46 5e 3e
       -0.32967064 -1.259954 0.27516413 0.21706483
0002a0 27 95 3e 3e 03 62 16 3e e5 5c 81 3e d8 1a 21 3e
       0.18611585 0.14685826 0.25266185 0.15732896
0002b0 ef ba 2c be 55 38 2b 3f b2 5b 60 3e 04 0a e8 bd
       -0.16868185 0.6688283 0.21909979 -0.11330035
0002c0 28 de d3 be a8 e8 69 3e d0 78 68 3f f6 c2 0d 3e
       -0.4138043 0.22842658 0.90809345 0.13843903
0002d0 46 f1 0b 3f 21 26 64 3e 4c 68 97 3e 92 d4 e0 3d
       0.5466503 0.2228017 0.2957176 0.109780446
0002e0 1b 54 01 3e 8c 95 15 3f e8 9f de 3e 57 d0 35 3f
       0.1262974 0.58431315 0.43481374 0.71021026
0002f0 46 f5 21 be 68 36 78 3e 6e f8 0c 3f a7 bc 72 3f
       -0.1581622 0.24239504 0.55066574 0.9481911
000300 60 3e 02 be 09 e6 d9 3d c6 46 bb 3e c6 bd 3c 3f
       -0.12719107 0.10639579 0.36577433 0.7372707
000310 1b b8 07 c0 3a c3 0d 3f 45 19 6c 3f 04 2f f8 be
       -2.120612 0.5537602 0.9222606 -0.4847337
000320 57 c0 c0 bf cc 8b 5f be b9 aa fe 3e c4 b0 78 3d
       -1.5058697 -0.21830672 0.49739626 0.06071545
000330 ec cb 67 3d a8 2a 4f bd cf 9e 69 3c f1 0e 77 3f
       0.05659096 -0.05057779 0.014259054 0.96507174
000340 1c fc f0 3e 99 73 38 bf 96 97 92 3e de 0b e2 be
       0.47067344 -0.7205139 0.28631276 -0.4414968
000350 00 96 25 bf 18 c0 a8 3e cc 05 f0 3e 46 a6 33 3f
       -0.64682007 0.32959056 0.46879423 0.7017559
000360 cb 12 3d bf f8 d0 42 be 8d 8d 42 3f 90 6b e1 be
       -0.738568 -0.19025028 0.7599724 -0.44027376
000370 c2 69 1b 3f fd 64 c3 3e 22 78 ef 3e ac 41 e1 bf
       0.6070825 0.38162985 0.46771342 -1.7598166
000380 0d c0 a7 3e 0a c9 e4 3e 97 8a 02 bf 51 ef 02 3f
       0.3276371 0.4468463 -0.5099272 0.5114642
000390 2e 34 76 bf 65 76 0a 3f 86 60 8c bf b3 4a 1f 3f
       -0.9617337 0.54086906 -1.0966957 0.62223357
0003a0 0d 85 a4 bc ef 3b be bf 88 ea b8 bf 6d 4c 79 be
       -0.020082975 -1.486204 -1.4446573 -0.2434556
0003b0 43 44 ed 3e c2 e7 22 3f bb 1d dd be 98 29 1b c0
       0.46341142 0.63634884 -0.43186745 -2.4244137
0003c0 75 47 93 3c fc 80 24 bf 04 3a 6e bf f1 e6 dd 3e
       0.01797841 -0.64259315 -0.93057275 0.43340257
0003d0 c7 49 da 3e 85 e3 11 be 93 f9 16 be 73 8d 85 bf
       0.42634413 -0.14246948 -0.14743643 -1.0433792
0003e0 01 b9 cc be 2a cc 19 be 5c 82 25 bf 3c d6 29 be
       -0.39984897 -0.15019289 -0.6465204 -0.1658563
0003f0 62 d8 48 bf 8a bc 4f bf 8c c9 95 be 6b db 05 3f
       -0.78455174 -0.8114706 -0.2925533 0.5228793

fc_layers.1.bias f4 [16]
000000 b3 49 1c bf 16 a4 f1 be d6 c2 42 be e8 6e 91 3f
       -0.61049956 -0.471955 -0.19019637 1.1361971
000010 69 5d 43 3f 13 4e 7e bf 5a 4e 2a 3f 73 85 1e 3f
       0.7631441 -0.9933788 0.66525805 0.6192238
000020 78 f8 ba 3e dd 5b f8 3e 79 e0 38 bf 41 21 9e 3e
       0.36517692 0.48507586 -0.7221752 0.30884746
000030 c3 ae 7c 3f cf 80 40 3f 7c 0f ef be 67 37 0b bf
       0.98704165 0.75196546 -0.466915 -0.5438141

affine_output.weight f4 [1, 16]
000000 9d 2f 91 bf be 3b 55 bf fd c6 48 bf 32 8d 8c 40
       -1.1342655 -0.83294284 -0.7842863 4.3922358
000010 02 db 46 40 7a 9a 1a c0 5c 20 1d 40 8d 40 77 40
       3.1071172 -2.4156785 2.4551 3.8633149
000020 4f 89 3d 40 ca 70 37 40 9c 69 8f bf 03 2d 87 40
       2.9615057 2.866259 -1.1204104 4.2242446
000030 ac bb 91 40 a3 da 5f 40 6b 20 61 bf d3 ef 85 bf
       4.554159 3.4977195 -0.8794009 -1.0463814
