checkpoints/MLP_Epoch8_HR0.1736_NDCG0.1711.model (torch, 261263 bytes, 7 tensors)

embedding_user.weight f4 [51, 32]
000000 c5 2d b0 bf 68 74 b8 3f d2 f6 95 be 84 fb 8d bf
       -1.3763968 1.4410524 -0.2928987 -1.1092381
000010 dc c4 a9 3e fb d6 25 bf 50 96 22 bf 16 33 94 bf
       0.33158004 -0.6478116 -0.6351061 -1.157809
000020 49 5c c3 3f bd 35 e3 bf f6 d8 5b be af 96 40 bf
       1.5262538 -1.7750775 -0.21469483 -0.75229925
000030 98 8b d5 bd f1 fc a0 bf bf ac c9 3f b0 7e 85 bf
       -0.10427016 -1.2577192 1.5755843 -1.0429287
000040 e8 7a 8d 3e 7b 92 45 3e ab 37 80 be 43 fd eb 3e
       0.27632833 0.19294159 -0.2504247 0.4609166
000050 33 a5 c0 be 43 ad 98 bf 6b f2 95 3f e4 5e 0f c0
       -0.37626037 -1.1927875 1.1714605 -2.2401667
000060 28 9f 31 bf 36 d5 54 3f d2 0f 87 3e b7 83 d3 be
       -0.6938348 0.83137834 0.26379257 -0.41311428
000070 f1 0d 03 be 29 94 2e bf 81 d1 40 3e 77 94 01 3e
       -0.12798287 -0.68194824 0.1882992 0.12654291
000080 3d 0c 02 3f af b7 d6 be 4e 33 55 bf da 64 32 3c
       0.50799924 -0.41937014 -0.8328141 0.010888303
000090 98 53 17 3e 93 45 e8 3e 67 ed 7c 3f c4 ed dc bf
       0.14777982 0.4536558 0.9879975 -1.726006
0000a0 db 03 07 3f 97 71 32 bf 88 0f 93 bf ab 68 e4 3d
       0.5274026 -0.69704574 -1.1489115 0.11152776
0000b0 78 77 d9 3f c4 67 96 bf 85 8a 82 bf a6 bd 26 3e
       1.6989584 -1.1750417 -1.0198523 0.16283283
0000c0 f6 bf 56 bf 11 40 8d be eb 8a 42 c0 01 29 a1 be
       -0.8388666 -0.2758794 -3.0397289 -0.31476596
0000d0 d1 d5 b2 bd 8a 00 ea be 65 5b 4a 3f 1b 16 24 bd
       -0.087321885 -0.45703536 0.79045707 -0.040060144
0000e0 94 07 a6 bf a7 70 ba be a5 7c 8f 3f 32 78 d7 be
       -1.2971063 -0.36414072 1.1209913 -0.4208389
0000f0 18 a0 55 3f 48 5f d0 3e b7 e9 8e bf 9a a1 e4 3f
       0.8344741 0.40697694 -1.1165074 1.7861817
000100 a0 92 95 3f 21 97 44 3f 14 fe ae 3f e5 df 7e 3e
       1.1685371 0.76793104 1.3671288 0.24890096
000110 09 82 65 3f 13 3e 68 3f c3 07 e1 bf 10 ca 8a 3f
       0.8965154 0.9071972 -1.7580494 1.0842915
000120 4b 59 ac bd c3 a6 6d 3f 2f 55 dd bf 2f 9e 58 be
       -0.08415469 0.92832583 -1.7291621 -0.21154092
000130 b2 bb b4 3e c2 be 57 3f a4 bc 38 3f 1d 09 e1 be
       0.3529945 0.8427545 0.7216284 -0.43952265
000140 e5 6b be 3e c5 f2 cd 3f 39 67 85 bf bf 0f 21 3f
       0.37191692 1.6089712 -1.0422126 0.6291465
000150 7d a7 2c 40 d3 93 31 3f 3b 05 1d 3f 46 a1 6f bf
       2.6977227 0.69366187 0.61336106 -0.9360546
000160 e0 55 7a 3e 60 1a ce 3e de 47 6b 3f f0 3b f6 bd
       0.24446821 0.40254498 0.91906536 -0.12023151
000170 f2 a1 fd 3f 38 0e b3 3c 83 58 55 3f d7 ee 79 3f
       1.9815047 0.021857366 0.83338183 0.97630066
000180 3a 25 30 bf 9d 13 76 be be 3e bd be 87 de 0f 3d
       -0.68806803 -0.2403092 -0.3696193 0.035124328
000190 45 55 4d bf 12 ec d1 be 7d d1 06 be 96 e6 8b bf
       -0.80208236 -0.4100042 -0.13165851 -1.0929744
0001a0 c4 0d 79 3e f0 ad 8f 3e e3 30 c2 3e db 86 f2 bf
       0.24321657 0.2806239 0.37927923 -1.8947405
0001b0 cd 74 3a bf 41 18 c1 be 82 e0 67 3f ad 90 4c bf
       -0.72834474 -0.37713817 0.90576947 -0.7990826
0001c0 1a ba 21 3f 05 bb c3 3e 0d 01 85 bf ca 94 04 40
       0.63174593 0.38228622 -1.0390946 2.0715814
0001d0 e8 2e a3 3f 21 18 a8 be 3e 87 44 3f 1a b2 ce 3e
       1.274869 -0.3283091 0.76768863 0.40370256
0001e0 95 2e 90 be 61 8e a1 be 0b f6 41 bf e5 1d 9e 3d
       -0.2816054 -0.3155394 -0.75766057 0.07720546
0001f0 5e 44 da bd bd 07 5b be 6e f3 ef bf 14 c6 1c bf
       -0.10657571 -0.2138967 -1.8746164 -0.61239743
000200 88 c3 1f 3f 4d 26 8c be 41 ec 9f 3f d8 2e 10 40
       0.6240773 -0.2737297 1.2493974 2.252859
000210 ab d6 e8 3f 66 9b 23 bf 8c ca 0a 3e 0a 8f c4 bf
       1.8190511 -0.63908994 0.13553828 -1.5356152
000220 83 a9 11 bf 53 38 b5 3e ca 45 b8 3f 9e a2 ed 3f
       -0.5689928 0.35394534 1.4396298 1.8565252
000230 7a c9 47 3c ad 24 04 be 84 52 90 3e ea 1a a9 3f
       0.012194032 -0.12904616 0.28187954 1.3211339
000240 e2 a2 91 3f 9b da 94 3f 25 39 ed 3e b3 76 85 3f
       1.1377833 1.1629213 0.4633266 1.0426849
000250 bd 52 60 bf df f5 2b 40 57 cd d1 3d 92 d3 66 3f
       -0.8762625 2.6868818 0.102442436 0.9016658
000260 66 33 eb be 59 0f d7 3e 50 0b 44 be 5a 49 21 3f
       -0.4593765 0.42003897 -0.1914494 0.6300255
000270 a4 5f 43 3f 3b 5f 84 3f 9a 58 df 3e b1 78 e9 3e
       0.7631781 1.0341562 0.43622285 0.45599893
000280 fb 5f bf be ae c8 c4 3f 2f d0 cf 3f a9 fe dd 3e
       -0.37377915 1.5373743 1.6235408 0.43358353
000290 ff e0 81 3f b3 29 84 bf 47 e0 74 3f 71 65 68 be
       1.0146788 -1.0325226 0.9565472 -0.22694947
0002a0 98 a7 a1 be 1f b2 42 c0 05 95 aa be 52 38 76 3f
       -0.31573176 -3.0421216 -0.33316818 0.9617969
0002b0 31 59 ac 3e 7a 51 98 3f d2 e7 10 3f ed 02 95 bf
       0.33661798 1.1899865 0.5660373 -1.1641518
0002c0 a4 59 7a 3f c5 ee d8 be b7 a7 a7 bf fe 97 48 3f
       0.9779303 -0.42369667 -1.3098058 0.7835692
0002d0 6f 5d f9 bf c9 78 38 bf 02 b2 40 c0 93 64 91 bf
       -1.9481639 -0.72059304 -3.0108647 -1.1358818
0002e0 e4 86 b4 be a0 32 18 c0 22 4b 47 40 df 81 cd 3f
       -0.35259163 -2.37809 3.1139607 1.6055259
0002f0 aa 8d 33 3d 25 24 05 c0 26 e5 cd 3e 8d 68 de 3e
       0.043836273 -2.080331 0.4021389 0.4343914
000300 08 9a 8e 3e 7b 58 6b bf fa de 56 3f 73 bf 36 bf
       0.27851892 -0.91931885 0.83933985 -0.7138588
000310 3b 40 40 3f 24 78 49 bf 76 c9 8c bf 58 24 8a 3f
       0.7509801 -0.78698945 -1.0998981 1.0792341
000320 83 0a 56 bf d5 20 3c 3f 50 63 1f bf 02 e0 a4 bd
       -0.8360979 0.734876 -0.62260914 -0.080505386
000330 26 f9 22 c0 e9 e2 ce 3e 06 26 5d 3f 60 da 1c bf
       -2.5464568 0.40407494 0.86386144 -0.61270714
000340 86 e5 64 3e 73 bb dc bd ec 22 c4 3f 2e bb f6 bf
       0.22353181 -0.107779406 1.5323157 -1.9275873
000350 49 8d a7 3f d0 8e cf 3f 1d 85 89 3f b7 68 76 3f
       1.3089992 1.6215458 1.0743748 0.9625353
000360 32 9e 4b be e0 b9 e2 bf 6f 2f f1 bf d1 49 59 be
       -0.19884565 -1.7712975 -1.88426 -0.21219565
000370 31 74 9e bf b2 33 87 3f 75 a4 07 bf b1 09 e3 3e
       -1.2379209 1.0562651 -0.52985317 0.4434333
000380 b0 a2 06 c0 b6 2c 84 bf b0 4e d5 be 07 c0 bf 3f
       -2.1036797 -1.0326145 -0.41661596 1.4980477
000390 48 41 c7 3f 1e 9f b8 3f 33 6a b6 3f 1a 50 ff bf
       1.5566797 1.4423559 1.425116 -1.994632
0003a0 4c 96 cb bf d0 f8 28 3f fe 9c 36 3e dc 4a a7 be
       -1.5905242 0.6600466 0.17833325 -0.326743
0003b0 ef 8c b6 bf 90 67 12 c0 5d bc a5 3f 22 ee 7a 3f
       -1.426176 -2.287571 1.2948109 0.9801961
0003c0 1b 93 b7 bd ef de 71 bf cb 0c aa bf b0 45 24 3f
       -0.08963605 -0.94480795 -1.3285154 0.64168835
0003d0 b1 f1 02 bf 89 7b 40 3f bc 2b 0e bf c3 69 c6 3f
       -0.5115004 0.751885 -0.55535483 1.5501026
0003e0 b9 04 c0 bf a9 39 ae be b2 47 3c bf ef 68 49 be
       -1.5001441 -0.34028366 -0.735469 -0.19668935
0003f0 f1 3f 20 bf bd 3e 3a bf 18 d1 c6 3e b2 5d b8 bf
       -0.62597567 -0.7275198 0.388314 -1.4403594

embedding_item.weight f4 [1889, 32]
000000 6e 18 20 40 d4 23 11 40 a9 3e 0f 3e 93 5a 07 c0
       2.501491 2.2678118 0.13988747 -2.1149032
000010 0b c5 2c 3f 3d cc c5 be 77 65 a0 3f c3 cb 27 3d
       0.67488164 -0.38632384 1.2530965 0.040965807
000020 a1 1f 65 3f 42 1b ad 3d d4 f2 c5 be 16 89 28 be
       0.89501387 0.08452465 -0.38661826 -0.16458544
000030 47 ae 2f c0 e3 f6 5e 3f 26 27 1f bf 69 51 c7 bf
       -2.745012 0.8709547 -0.6216911 -1.557172
000040 f7 a8 b2 3f 90 9b bf 3f 30 01 57 bf 81 5b 03 3f
       1.3957814 1.4969349 -0.83986187 0.513115
000050 3f bd 24 3d 52 0f 90 bf 8b 7c 1c 3f 15 12 4c 3f
       0.04021954 -1.1254675 0.6112754 0.7971509
000060 e5 75 6c be c7 4e 01 c0 ac 24 8c 3d 30 27 54 bf
       -0.23091848 -2.0204332 0.06842932 -0.82872295
000070 3f 98 50 3f c7 18 f5 3f a8 17 6c bf 97 02 64 3f
       0.8148231 1.9148186 -0.92223597 0.8906645
000080 14 c3 3b 3e 50 b7 f1 3e 68 ca 7e 3f 8c ee 10 bf
       0.18336135 0.4721017 0.995276 -0.56613994
000090 20 eb af bf a5 7a 7c be 54 5e b7 3f ae 91 df 3f
       -1.374363 -0.2465616 1.4325662 1.7466333
0000a0 54 69 33 c0 07 37 98 3e cf 5e 6b bf 11 1e 99 3e
       -2.8033037 0.29729483 -0.9194154 0.2990575
0000b0 49 b3 b4 bf ae 1b 8b 3e f5 18 cc 3f 1b 6f 4c bf
       -1.4117213 0.27169555 1.5945116 -0.79857033
0000c0 d2 a8 01 be c8 b0 4a bf a0 78 c2 3f d7 74 04 bf
       -0.12662056 -0.79175997 1.5193062 -0.51740783
0000d0 45 44 bc bd bb 05 a1 3e 82 b0 2b bf 72 4e 2d bf
       -0.09192709 0.31449685 -0.67066205 -0.67697823
0000e0 70 76 5d 3f 75 17 9b be c8 f3 a7 3f 79 4c b1 be
       0.86508846 -0.30291334 1.3121271 -0.34628657
0000f0 54 e4 25 bf 1b 58 96 3f ef f1 cf 3e 09 35 ea bc
       -0.64801526 1.1745638 0.40614268 -0.028589742
000100 ff cd 9e be 56 1e 1d 3f fc 2d 83 3f 18 5e 8a bf
       -0.31016538 0.61374414 1.0248408 -1.0809965
000110 0c bd 8f 3f b3 5f 04 40 0a 2b d1 3f 43 7d 8b 3f
       1.1229568 2.068341 1.634126 1.0897602
000120 ff 56 9b 3e 30 b3 8c bf bc 2d 22 40 d6 69 2a bf
       0.3033981 -1.0992184 2.5340414 -0.6656774
000130 cc 89 14 3f d3 86 0c 3f 31 8e 0b bf 8c cd 9f 3f
       0.5802276 0.54893225 -0.5451384 1.2484603
000140 57 f4 f5 3d 3c dc 3c 3f 29 46 80 3f 74 4e 31 c0
       0.12009495 0.7377355 1.0021411 -2.7704134
000150 9e 56 7c 3c 71 e0 d3 3e 8c de 52 bf 1a f2 26 bf
       0.0154015105 0.41382173 -0.8237083 -0.6521317
000160 f8 22 89 3f 16 d1 12 bf f4 da 9e 3f 73 18 e4 3c
       1.0713797 -0.5735029 1.2410569 0.02784369
000170 48 4c 30 3f 63 dc a8 be 2e 49 5c bf 37 68 d2 be
       0.68866396 -0.32980642 -0.86049163 -0.41095135
000180 41 f1 ec 3f 7d f5 58 be 1f 9a a8 bf 20 cc 07 3f
       1.8511125 -0.21187396 -1.3172034 0.53045845
000190 e5 01 48 3e 07 3b bd bf c3 49 4e 3f d1 48 60 3f
       0.19531973 -1.4783639 0.805813 0.8761111
0001a0 0f 2e d2 be 2c 7a 27 3f 9d 72 cc bf 0c 9e 2a 3f
       -0.41050765 0.65420794 -1.5972477 0.6664741
0001b0 91 93 46 3e b7 c1 08 bf 21 e3 34 bf d5 3b 10 bf
       0.1939223 -0.53420585 -0.7065907 -0.56341296
0001c0 8b 06 ad 3e 77 76 89 3e 8e d7 80 be 98 26 d8 3f
       0.33794054 0.26848194 -0.25164455 1.6886778
0001d0 16 11 df bf ec af a5 be 4b 02 88 bf 46 e0 56 3c
       -1.7427089 -0.3236078 -1.06257 0.013114994
0001e0 57 ef 35 c0 a4 ab c4 3e b7 ac 6a be 02 82 a4 3f
       -2.8427331 0.384122 -0.22917448 1.2852175
0001f0 5d bb a5 bf 08 30 93 3e 9c 78 35 bf 45 94 7a bf
       -1.2947804 0.28747582 -0.7088716 -0.9788249
000200 2a 23 82 3f 38 31 8a bf 04 e0 b7 bf 0a 74 93 bf
       1.0166981 -1.079627 -1.4365239 -1.1519787
000210 a2 d7 a6 3f f9 9d 09 be d5 63 80 3f 79 f1 2a bf
       1.3034556 -0.13439168 1.0030466 -0.6677471
000220 3b 60 21 40 43 68 03 c0 a5 0b 13 bf f6 c4 eb be
       2.5214984 -2.0532386 -0.57439643 -0.46048707
000230 e9 1c f4 be 4c 6d ba bf da 3d 64 3e 75 38 b6 bf
       -0.47678307 -1.4564605 0.2228922 -1.4235979
000240 28 c0 5e 3c 3c 72 1c bf 0f da 45 bf 87 bc cc bf
       0.013595618 -0.6111181 -0.77285856 -1.5995034
000250 8a 51 55 bd 64 ee 86 bf 83 cd 20 c0 0a a6 b1 3e
       -0.052079715 -1.0541501 -2.5125434 0.3469699
000260 20 f5 40 bf 29 2c f0 bf cb f3 5c bf b8 12 a3 3f
       -0.7537403 -1.8763477 -0.863095 1.2740088
000270 89 f7 79 bf 32 1d 64 bf 2c 64 c2 3e bb 5d b2 3f
       -0.97643334 -0.8910705 0.3796705 1.3934854
000280 29 61 55 bf 42 b1 bf 3d 07 5a de bf b7 cd 99 bf
       -0.8335138 0.09359981 -1.7371224 -1.2015904
000290 2e e1 89 3e 8c 46 d9 3f 26 28 99 3f 35 95 16 be
       0.2692961 1.6974654 1.1965377 -0.14705355
0002a0 74 ad ac 3e f6 6c fd bb 32 b6 63 bf 37 07 6a bf
       0.33726084 -0.0077339364 -0.88949883 -0.9141726
0002b0 28 1b 2a 40 b5 1a 9a be c7 1f 94 be bd 83 1c bf
       2.6579075 -0.300985 -0.28930494 -0.61138517
0002c0 de 85 8d 3f 00 b4 7a 3f b8 7b 04 40 64 46 2d bf
       1.1056478 0.9793091 2.0700512 -0.6768553
0002d0 4e 22 9b 3e 29 ac c4 3f 90 3a 0d bf 27 77 ff 3f
       0.3029961 1.5365039 -0.55167484 1.9958237
0002e0 73 bf 57 3f c0 50 74 3f 97 12 2e 3f 3a b4 5c bf
       0.84276503 0.95435715 0.67997116 -0.86212504
0002f0 52 f2 f8 be a4 9c da 3e 40 13 25 bf 3d f2 85 3f
       -0.48622376 0.42697632 -0.644825 1.046455
000300 14 bd 39 bf 02 59 1a 3f c5 db 9d bf 2e a1 99 3e
       -0.72554135 0.60292065 -1.2332693 0.30005783
000310 e5 3b df 3f 47 ca ce 3f 55 7c 38 3d 05 99 6b bf
       1.7440153 1.615548 0.045040447 -0.92030364
000320 95 51 93 be 2f bd 7d bf 15 f9 1b c0 c2 32 18 3f
       -0.2877318 -0.99116796 -2.4370778 0.5945245
000330 6e e7 00 c0 2d 51 d5 3e 2e 08 07 40 ac c7 17 3b
       -2.0141253 0.41663495 2.1098742 0.0023159785
000340 f0 7c d9 bf b8 36 81 bf bb 8b bd bf 36 3c 25 3f
       -1.6991253 -1.0094824 -1.4808267 0.64545
000350 d5 9e 80 3e 79 32 88 3f ad 69 0d 40 8c f1 ae be
       0.2512118 1.0640403 2.209575 -0.3416866
000360 a5 65 8c bf 35 1e e6 bf 30 a4 f4 3e 82 b0 c9 3f
       -1.096852 -1.7977968 0.47781515 1.5756991
000370 2a 57 72 3f b6 98 00 bd 72 1d b1 bf b0 39 ba 3f
       0.9466425 -0.031395636 -1.3837111 1.4548855
000380 56 06 8f 3f fb 6b f1 be 6d b8 e1 be fc af 1f bf
       1.1173809 -0.47152695 -0.44086018 -0.62377906
000390 65 b4 06 be 11 09 84 3c 3a 53 10 bf 63 0a e3 be
       -0.13154753 0.016117604 -0.56376994 -0.44343862
0003a0 1d 16 a7 3e ee 53 59 bf 4f d9 c9 be 2b 23 08 40
       0.3263406 -0.8489369 -0.39423606 2.1271465
0003b0 d5 a0 96 be f3 7d 00 c0 b8 bb 6b 3f 1e 29 99 bf
       -0.2941958 -2.0076873 0.9208331 -1.1965673
0003c0 d4 b2 f3 3e 14 1a a7 bf 38 5e a9 3f 61 05 20 c0
       0.47597373 -1.3054833 1.3231878 -2.5003283
0003d0 3d c1 9e 3e 85 d6 2d 3e 53 d8 0f bf 27 38 a4 bf
       0.31006804 0.16976364 -0.5618946 -1.2829636
0003e0 93 74 8f 3f 40 07 f4 be 56 eb d3 3f d4 6e 1c c0
       1.1207451 -0.4766178 1.6556194 -2.4442644
0003f0 7d 27 7a 3f ef d5 cf bf a1 1c d4 3f c8 e7 c1 3e
       0.97716504 -1.6237162 1.6571237 0.37872148

fc_layers.0.weight f4 [32, 64]
000000 fe 65 d8 3e 9b 46 cc 3d c1 0e af be 4e ee f9 bd
       0.42265314 0.099744044 -0.34190944 -0.12203656
000010 dd a2 27 ba b8 6b 1b bf 25 f1 a2 3e 86 f4 f4 3e
       -0.0006394813 -0.6071124 0.31824604 0.47842807
000020 ff 25 dc bd 67 fd f6 3e 52 8a 36 3e f6 34 2d bd
       -0.10749435 0.48240206 0.17826203 -0.042286836
000030 12 78 b7 3b e2 b8 bb 3e 13 1b d1 be 11 3c 01 bf
       0.0055990303 0.36664492 -0.40840968 -0.5048228
000040 0d 99 ca 3e 6f 4f 33 be a6 fd 04 3e 02 5f f8 bd
       0.39569893 -0.1751077 0.12987384 -0.12127496
000050 07 65 84 3e cd 4f ac 3e 5a 16 2d 3e 4a 00 3e 3e
       0.25858328 0.33654633 0.16903058 0.18554798
000060 9e e1 57 3f 94 1d 9b be e2 ff 2c be 38 97 3a be
       0.8432864 -0.30296004 -0.16894487 -0.18221748
000070 e5 7a 58 3e bd ed 02 bd b5 99 21 3e 9d 02 9a 3e
       0.2114063 -0.031965006 0.15781291 0.3008012
000080 77 84 0f 3f f5 7a f1 3e 49 08 c3 3d 0e 3d 9b 3e
       0.560615 0.4716412 0.09523065 0.3032002
000090 11 b3 93 be 33 b1 06 bf f3 57 ff bc 3d 3d c2 bc
       -0.28847554 -0.52614135 -0.031169867 -0.023710841
0000a0 97 24 6a 3f 7f 66 a4 3e 21 c6 10 3f 3b ce af be
       0.9146208 0.32109448 0.5655232 -0.3433703
0000b0 d3 f7 d5 3e 93 4f 19 bf 4a 44 a5 3e 58 b1 2a 3f
       0.41790637 -0.59887046 0.32278663 0.66676855
0000c0 53 be 0e bd d1 45 02 bc aa 57 83 3c 3e bf d2 3e
       -0.034849476 -0.007951216 0.016033012 0.4116153
0000d0 6d 17 c1 3d 7f 15 b6 3c 64 1a 0c bf fa 06 8a be
       0.09428296 0.022227047 -0.5472777 -0.26958448
0000e0 a3 67 8d be d0 2a 91 be 8e b9 d8 be 5f 5b 18 3f
       -0.2761813 -0.28352976 -0.42329067 0.5951442
0000f0 d8 8b 92 be af 18 93 3e ef e0 66 3e fa 3e e5 be
       -0.28622317 0.2872977 0.22546743 -0.4477461
000100 79 89 77 3e b8 da 35 be e4 df ee be 41 b8 85 3d
       0.24173535 -0.17759216 -0.4665519 0.06529284
000110 44 f8 2b 3e 97 05 55 3e 55 3b b0 be 95 a2 80 bd
       0.16793925 0.20802914 -0.34420267 -0.0628101
000120 86 32 06 be 14 cc 1f 3f 69 76 f3 3d 0b c4 23 bd
       -0.1310521 0.62420774 0.11887819 -0.039981883
000130 91 f7 8a be a6 04 5f be bd d7 7c be a5 4b c5 bd
       -0.27142003 -0.21779117 -0.24691673 -0.09633569
000140 af 76 c6 3d 3d 60 10 bd 4e fc 36 3b 99 e5 a5 3d
       0.09690606 -0.03524803 0.0027921381 0.08100433
000150 a8 dd 31 3d 77 de 9f be 98 2a 8d 3d e5 c9 56 3c
       0.04342428 -0.31224415 0.0689289 0.013109659
000160 fd 4e 36 be 43 a1 f0 bc 35 39 87 be 94 08 8c be
       -0.17803569 -0.02937377 -0.26410833 -0.27350295
000170 24 2f 02 3e 60 50 07 3f 4a 98 a9 3e 46 0c c2 3e
       0.12713295 0.5285702 0.33124 0.3789999
000180 94 bd d0 bd e8 5b 81 3e a0 b7 82 be bb 8a 9b 3e
       -0.10192409 0.2526543 -0.2553072 0.3037928
000190 22 1c d4 be 17 6c f7 3d e0 32 0a bf 80 e2 05 bf
       -0.41427714 0.120811634 -0.5398388 -0.52298737
0001a0 e6 49 15 be 18 11 c5 3e ce c2 e5 3e e8 18 9e bf
       -0.14578971 0.38489604 0.44875187 -1.2351351
0001b0 81 56 d3 3e 4d 1e f6 bd e1 ca 05 3f 1d 6f 18 3e
       0.41276935 -0.12017498 0.52262694 0.14886136
0001c0 ab 0f 14 be a2 30 c5 3b 82 2c 24 3f 2e 18 b9 3d
       -0.14459102 0.0060177604 0.64130414 0.09037815
0001d0 bb ec 2d 3f cc b0 bb 3e 29 a8 c5 3e bf 11 fb be
       0.6793935 0.36658323 0.3860486 -0.49036977
0001e0 4d d1 e8 3d 64 73 57 3e e2 dd 98 3d 25 59 f0 3e
       0.11368046 0.21040112 0.07464196 0.46943012
0001f0 d5 7c 04 3e 5a ce c6 be ec c7 ae 3e 3f b5 c6 3e
       0.12938245 -0.3882931 0.34136903 0.38810155
000200 3c 42 a9 bd e1 aa 15 3d 1c 1a 92 be 8c dc 3e 3e
       -0.08264586 0.036539916 -0.28535545 0.1863882
000210 cb 60 b7 3e a9 52 3b be 38 46 c9 3d 34 12 ee be
       0.35816035 -0.18293251 0.09827846 -0.46498263
000220 22 c0 40 3e 5d 15 60 3e 39 01 b3 3e c7 0f 1d 3d
       0.18823293 0.2188315 0.3496187 0.038345125
000230 15 22 a0 bd 30 88 ea be 66 eb e9 be e1 f9 79 3e
       -0.07819001 -0.45807028 -0.45687407 0.24411727
000240 02 73 e7 3e 91 26 80 3e c2 0d 4f be a7 7a d4 3d
       0.45204931 0.25029424 -0.20220092 0.103749566
000250 9b f6 02 3e 15 b5 8f bc 08 1a 82 be 8e 60 11 3e
       0.12789385 -0.017542401 -0.25410485 0.14196989
000260 19 87 97 be 1d ef 11 be 09 01 ba be 71 49 32 be
       -0.2959526 -0.1425137 -0.36328915 -0.17410828
000270 79 21 0a 3e b3 d1 21 3f 81 65 80 3e 91 e3 02 bb
       0.13489331 0.632106 0.2507744 -0.0019972066
000280 ce 78 14 3d e2 61 b2 be ca 86 ec bc a3 6e 1f bf
       0.03624802 -0.34840304 -0.028872866 -0.62278193
000290 0b 2a 00 bf 24 79 f4 3e e3 f5 8c 3e f1 57 c1 be
       -0.5006415 0.47748673 0.27531347 -0.37762406
0002a0 61 45 b2 bd bb 12 09 bf 24 ec 9e be 97 2d e2 be
       -0.08704639 -0.53544205 -0.31039536 -0.44175407
0002b0 0e 90 67 3d 27 a7 7e be 18 fb 2b 3f c6 bb 73 3e
       0.056533866 -0.24868451 0.67180014 0.23802099
0002c0 81 42 86 3e b1 fe 78 bc 9f ae 2c be eb a5 bb 3d
       0.26222613 -0.015197442 -0.16863488 0.09162506
0002d0 e0 c7 44 bf 57 09 75 3f 22 69 14 be 48 b5 08 3f
       -0.76867485 0.95717376 -0.1449323 0.53401613
0002e0 07 0a d5 3d 2b c5 34 be 83 bc 55 be be 87 3e bf
       0.10402303 -0.17653339 -0.20872693 -0.74425876
0002f0 21 da 4d bf 02 ee 57 3e 41 b9 78 bd b2 9d ad bd
       -0.80410963 0.21086887 -0.060723547 -0.084773436
000300 ce 7f 6a 3e 69 76 a5 bd de 62 62 be 62 22 2b 3e
       0.22900316 -0.080792256 -0.22108027 0.16712335
000310 b5 83 c7 3d 86 2e 20 3e 3b a0 bc bd ea 5e 90 3e
       0.09741918 0.15642747 -0.09210249 0.28197414
000320 43 bf 7b 3e a7 94 e6 bd 38 41 dc 3e bd 33 09 be
       0.2458468 -0.11258822 0.43018508 -0.13398643
000330 72 d4 e1 be 1b 5b 55 bc 8a 11 a5 be e7 a6 b5 be
       -0.44107395 -0.0130222095 -0.32239944 -0.354789
000340 3d 58 ca 3d a5 e7 8f bb 0a ef ab 3e 21 40 10 be
       0.09880111 -0.004391628 0.3358081 -0.14086963
000350 dc 74 d3 bd 98 70 26 bf 40 7b ad 3e d6 34 af bd
       -0.103250235 -0.65015554 0.33883095 -0.085549995
000360 4a 93 b3 be c3 b6 50 3d 39 9f 48 bc 74 5e be 3d
       -0.3507331 0.050955545 -0.012244993 0.09295359
000370 a1 98 a9 3e 4c 73 a0 3e 97 e3 0c be 2e 21 8d 3e
       0.3312426 0.31337965 -0.13758694 0.27564377
000380 5c a1 d3 be a8 fb 49 be 91 f4 c6 be 7f d1 8f 3e
       -0.41334045 -0.19724905 -0.38858464 0.2808952
000390 2a e2 06 be 3e 3f 13 bf 68 c8 51 bf b2 7d 91 be
       -0.13172212 -0.57518375 -0.8194642 -0.2841621
0003a0 c1 61 fb 3e 8d 75 78 be 6d 95 6b bf 96 2e b0 3d
       0.49098018 -0.24263592 -0.9202488 0.086026356
0003b0 4c 4d b2 bd d8 58 19 3e df a3 34 3e 9b a0 44 be
       -0.087061495 0.14975297 0.17640637 -0.19201891
0003c0 65 30 3e bd 4e 23 fd bc cc 6e cd be 7f be 18 be
       -0.04643287 -0.030900624 -0.40123594 -0.14916418
0003d0 ff 08 b6 be d3 95 95 be 11 83 ce be b2 71 8f 3e
       -0.35553738 -0.2921587 -0.4033437 0.2801643
0003e0 df 91 0b 3f 54 b9 1f 3f 11 9a ac 3e ce 6e 8d be
       0.54519457 0.62392163 0.33711293 -0.276236
0003f0 39 a5 78 3d 83 6b b7 be 39 01 ad 3e 75 dd 04 3e
       0.060704444 -0.35824212 0.33789995 0.12975104

fc_layers.0.bias f4 [32]
000000 c6 33 07 bf 4e a4 a6 3e d1 9a b2 be c5 c0 ba bc
       -0.52813375 0.3254723 -0.3488374 -0.022796998
000010 a0 84 2b bf 19 8e f1 bd ea 36 3d bf 99 ff b0 3e
       -0.66999245 -0.11794681 -0.7391192 0.34570006
000020 8c 86 66 bf d1 26 15 bf 2c 39 23 bf cc 97 14 bf
       -0.9004905 -0.58262354 -0.6375911 -0.58044124
000030 b0 74 28 3f d7 37 7d bd da 59 22 bf 7e 0a f3 be
       0.6580305 -0.06182083 -0.6341835 -0.47468942
000040 e4 26 0f bf af 79 10 bf c3 8a 09 bf 5d fc b7 3e
       -0.5591872 -0.56435674 -0.5372736 0.35934725
000050 3c c5 60 be 28 c7 01 bf 8a 8f 0e bf 9c 10 28 bf
       -0.21950239 -0.50694513 -0.55687773 -0.65650344
000060 32 a5 1c bf 92 be 2d bf 63 b4 93 be 9e cb d7 be
       -0.6118957 -0.6786891 -0.28848562 -0.42147535
000070 46 6a dd be 52 ce ba be d4 46 37 bf 37 e3 39 be
       -0.43245143 -0.36485535 -0.7159245 -0.18153082

fc_layers.1.weight f4 [16, 32]
000000 36 67 36 3f a6 68 00 be d6 d9 c7 3e 69 7c 81 bf
       0.7125124 -0.1253992 0.39033383 -1.0116092
000010 51 85 ca be e1 3b 38 be cb 1a 9e be 88 3b ac 3e
       -0.39554837 -0.17991592 -0.30879816 0.3363917
000020 76 e1 fc 3e 31 4e 5d 3f a5 6a 95 3d 54 a7 20 3f
       0.49390763 0.86447436 0.072957315 0.6275532
000030 cf d4 84 3d 53 a8 13 3f 12 ee 30 3f 5e 09 9b 3e
       0.064859025 0.5767872 0.69113266 0.30280584
000040 09 db 2e be 85 1f 02 3f 9c b3 c1 3d 0a d9 45 3e
       -0.17075743 0.50829345 0.09458086 0.19321075
000050 56 3c 4a 3f ee 64 0f 3d bf be b1 3e ac 5f 95 bc
       0.78998315 0.035008363 0.3471584 -0.018234096
000060 f4 48 0e 3e ce 1a cf 3e 34 9b aa 3e 9a b6 e0 3d
       0.13895017 0.40450138 0.33321536 0.109723285
000070 63 aa 13 bf 0f 8f dc 3e cd 37 fc 3d 03 38 10 3f
       -0.57681865 0.43077895 0.12315331 0.5633547
000080 93 70 70 3f 6a 28 3b bf b1 5f 17 3f 34 7a 2b 3e
       0.93921775 -0.7310854 0.5913039 0.16745836
000090 2d 8f a4 3e 8f 9e a8 be f2 c9 26 3e 7f 46 0e 3f
       0.32140484 -0.3293347 0.16287974 0.5557632
0000a0 3b af 29 3f 78 77 32 3f 26 ed d6 be cb 21 3d 3f
       0.66283005 0.69713545 -0.41977805 0.7387969
0000b0 56 57 1f be 79 5c 0f 3f 2d 99 4b 3f 18 70 27 3e
       -0.1556066 0.5600048 0.795306 0.16351354
0000c0 65 66 ad 3e 94 17 85 3f 19 4e 8f 3e 5f 47 c4 3e
       0.33867183 1.039782 0.2798927 0.38335702
0000d0 69 89 dc 3e d8 3d ab bc 66 70 84 3e 2f 7e 93 be
       0.43073586 -0.020903513 0.25867003 -0.28807208
0000e0 c6 83 a6 3e 02 79 94 3e 87 f2 dd 3d 91 fe 99 3e
       0.3252241 0.28998572 0.10837274 0.3007703
0000f0 0a f8 c1 bb d2 f9 42 3f 48 dd 0b 3e 3c c5 78 3e
       -0.005919461 0.76162446 0.13658631 0.24293989
000100 17 a5 55 3f bd bd 25 bf da 8f 2c 3f b2 ca 8b 3d
       0.8345503 -0.6474264 0.67407 0.068257704
000110 f7 42 87 3e a4 49 90 be 88 6f 12 3e 0c 59 fa 3e
       0.26418278 -0.28181183 0.14300358 0.48896062
000120 31 f1 fe 3e 43 b5 17 3f 25 71 01 bf 69 48 2e 3f
       0.4979339 0.5926096 -0.5056327 0.6807924
000130 e2 2f d6 bd d3 92 20 3f 31 2c 4e 3f 8b c1 98 3d
       -0.10458352 0.62724036 0.8053618 0.074587904
000140 6e f3 0f 3f ac 1a 87 3f 3b 86 16 3e 6b 5f b3 3e
       0.5623082 1.0555015 0.14699642 0.35033736
000150 20 2b 02 3f ca 26 82 bc 10 65 cd 3d 11 4e e6 bd
       0.50847054 -0.015887637 0.10029042 -0.11245359
000160 be 3c ca 3e eb b1 c7 3e 62 15 e9 3d 6d bb 9b bc
       0.39499468 0.39002928 0.113810316 -0.01901027
000170 8c d9 48 3e c7 e3 40 3f bf 58 8b 3d 1d 1b 98 3e
       0.19614238 0.7534756 0.06804036 0.29708186
000180 cb 0f 96 be a9 1a 48 3e 08 65 6e bf 43 5a ef 3e
       -0.29308924 0.1954142 -0.9312291 0.46748552
000190 06 0f 34 bf cd 25 e6 3e 60 09 a4 bf d0 90 4b 3f
       -0.70335424 0.44950715 -1.2815361 0.7951784
0001a0 43 ec 7c bd 41 5b 80 bc 8f 62 8d bf ba 3a af 3d
       -0.061748754 -0.015668513 -1.1045703 0.08556123
0001b0 05 b5 3d 3f 34 02 17 3f 4f 0b 33 3f d9 1d 2e bf
       0.7410434 0.58987737 0.6993913 -0.68014294
0001c0 5a b5 a4 bf 1e 86 ca 3e e8 02 de be 35 05 3b 3f
       -1.2867844 0.39555448 -0.43361592 0.7305482
0001d0 e6 13 6e 3d 94 1f 6f bf 82 47 9a bf c3 80 8b bf
       0.058124445 -0.9340756 -1.2053072 -1.089867
0001e0 d5 f2 47 bf d7 b1 23 bf 60 96 a9 be e5 61 33 bf
       -0.7810491 -0.6394324 -0.3312254 -0.7007125
0001f0 dd c4 64 bf 2a e3 32 bf 36 87 35 bf 7a 43 d4 3e
       -0.8936289 -0.69877875 -0.7090944 0.4145773
000200 d0 5c 08 bf 26 cf 0c 3e 0b 6c 96 bf 95 c4 83 3e
       -0.5326662 0.13750896 -1.1751722 0.25735918
000210 69 04 98 3e 91 8a 4e 3f c9 74 27 bf 9d a0 04 3f
       0.29690865 0.80680186 -0.65412575 0.51807576
000220 8c d9 04 3f 00 bf 12 be 20 79 ed bf f1 a1 71 3f
       0.5189445 -0.14330673 -1.855259 0.9438773
000230 9b 63 24 3f 9c 36 9d 3e 33 90 7b bd 31 80 90 be
       0.64214486 0.30705726 -0.061416816 -0.28222802
000240 50 3e f0 be 31 59 52 bf b2 46 54 bf e0 6d 95 be
       -0.4692254 -0.82167345 -0.8292037 -0.2918539
000250 1c 5b 3f 3e c7 8d ca be 11 8b 38 3e a2 6c 84 be
       0.18687099 -0.39561293 0.180218 -0.2586413
000260 b8 87 36 bf a7 65 a6 3c 9c 69 eb bf 30 17 5d 3e
       -0.7130084 0.020312143 -1.8391604 0.21590877
000270 54 89 b6 3e e2 e3 91 bf 8d bf 4d bf 01 58 08 3f
       0.35651648 -1.1397669 -0.8037041 0.53259283
000280 cd 22 0b 3f 66 4f 0b c0 2a 19 53 bd 38 6e 01 bf
       0.54349977 -2.176721 -0.05153767 -0.50558805
000290 34 67 92 be ae 72 9f bf a8 2d 92 3e c1 ee 5c 3e
       -0.28594363 -1.2456872 0.28550458 0.21575452
0002a0 02 19 2e 3e c7 80 04 3e b6 0f 88 3e 59 16 2c 3e
       0.17001727 0.1293975 0.26574486 0.168054
0002b0 7a 86 13 be af cd 2d 3f 87 de 6a 3e ec 66 fd bd
       -0.14406767 0.67891973 0.2293645 -0.123731464
0002c0 b1 88 d6 be 0a 35 79 3e 56 7b 6a 3f 40 57 1b 3e
       -0.41901162 0.24336639 0.91594446 0.15170002
0002d0 83 a8 0a 3f ed 70 66 3e 13 f9 a3 3e 9b 43 b2 3d
       0.5416338 0.22504015 0.32025966 0.08704301
0002e0 d0 3f 0b 3e 36 1d 0b 3f bb 52 da 3e 3e 09 30 3f
       0.13598561 0.5434145 0.42641243 0.687641
0002f0 8d 75 1f be fa a1 81 3e 38 23 06 3f ef 88 7b 3f
       -0.15572186 0.2531889 0.5239749 0.9825582
000300 d8 56 30 be a9 30 da 3d e3 bb b2 3e 52 e2 35 3f
       -0.17220628 0.106538124 0.3490897 0.7104846
000310 71 4e 08 c0 28 f1 11 3f 3f e5 75 3f 49 7e 07 bf
       -2.1297877 0.570086 0.96052927 -0.5292707
000320 65 40 c2 bf 3e 9d 18 be 41 cf fe 3e 39 e4 30 3c
       -1.5175902 -0.14903733 0.49767497 0.0107966
000330 fe 6f 60 3d b4 8d 95 bd ca 47 29 ba 49 60 78 3f
       0.054794304 -0.07302418 -0.0006457536 0.9702192
000340 3c f7 01 3f 7b a9 45 bf 1f 52 8b 3e a3 8b e9 be
       0.50767875 -0.7721173 0.2721109 -0.45614347
000350 1b 61 37 bf c9 6b a6 3e 62 6b fe 3e 9c 83 49 3f
       -0.71632546 0.3250411 0.49691302 0.78716445
000360 83 e4 30 bf ed 0f 8e be be c8 4a 3f 77 25 e3 be
       -0.6909868 -0.27746525 0.7921256 -0.4436452
000370 c8 e5 23 3f 99 a2 ac 3e 8c ed ec 3e ed 0a e0 bf
       0.64022493 0.33717802 0.46274984 -1.7503334
000380 1a 2d a4 3e e0 e4 ea 3e 43 ff 01 bf 20 76 01 3f
       0.3206566 0.45877743 -0.50780123 0.5057087
000390 66 f8 7c bf 6d 91 00 3f b4 64 8f bf 26 21 16 3f
       -0.98816526 0.502219 -1.1202607 0.5864433
0003a0 f8 e1 2d bc 28 b4 bc bf a2 ff b4 bf 4e a2 92 be
       -0.010612957 -1.4742479 -1.4140513 -0.28639454
0003b0 5b 4d e4 3e bd 89 28 3f 4c 28 c9 be 1f 7d 1e c0
       0.44590268 0.6583517 -0.39288557 -2.4763868
0003c0 16 c3 4f 3d 2b 49 27 bf 2c a3 76 bf 4b 32 f0 3e
       0.050723158 -0.6534602 -0.9634273 0.4691337
0003d0 83 df c8 3e 4a 30 eb bd da c2 12 be c5 49 83 bf
       0.39233026 -0.1148382 -0.14332142 -1.0256888
0003e0 60 3f c9 be 72 f2 ff bd 7b 7a 22 bf cb fb 00 be
       -0.39306164 -0.12497415 -0.6346814 -0.12596051
0003f0 ea 0b 54 bf d4 79 53 bf c6 ab 8f be 06 84 03 3f
       -0.8283068 -0.8260777 -0.2806074 0.51373327

fc_layers.1.bias f4 [16]
000000 ce 4b 1c bf 62 bf f6 be 11 33 41 be ed 1c 94 3f
       -0.6105317 -0.48192888 -0.18867137 1.1571327
000010 f5 5c 45 3f fd 3e 7e bf 6f 93 2d 3f 55 b3 25 3f
       0.77094966 -0.9931486 0.6780309 0.64726764
000020 0c db b4 3e bc c7 f8 3e 74 96 3b bf 0a 42 9d 3e
       0.3532337 0.48589885 -0.7327645 0.30714446
000030 dc de 82 3f a3 f3 3e 3f ea aa f2 be fe ce 09 bf
       1.0224261 0.7459051 -0.47396022 -0.5383147

affine_output.weight f4 [1, 16]
000000 65 db 91 bf 98 db 58 bf cc d3 4b bf c0 d7 8c 40
       -1.1395079 -0.84710073 -0.7962005 4.4013367
000010 d6 ce 45 40 3d 56 1b c0 1d 28 20 40 82 54 78 40
       3.0907493 -2.4271386 2.5024483 3.880158
000020 a3 a2 40 40 52 0c 3c 40 ca f3 8f bf 3f 82 87 40
       3.0099266 2.938252 -1.1246274 4.234649
000030 c4 04 92 40 cc f5 61 40 60 46 62 bf e1 b9 87 bf
       4.5630817 3.5306273 -0.88388634 -1.0603601
