checkpoints/MLP_Epoch9_HR0.1772_NDCG0.1748.model (torch, 261263 bytes, 7 tensors)

embedding_user.weight f4 [51, 32]
-1.4267119 1.4720862 -0.28082553 -1.1012319 0.34956956 -0.6827994 -0.5921022 -1.1439822
1.5000707 -1.804031 -0.21847497 -0.72060245 -0.05293947 -1.2819532 1.5561724 -1.027083
0.2446291 0.16533986 -0.27990502 0.44103187 -0.34869748 -1.1641638 1.2165757 -2.1850877
-0.7228754 0.7997312 0.24618927 -0.39914644 -0.09321932 -0.7092739 0.15651229 0.10918307
0.58692807 -0.46483287 -0.8404042 0.07830316 0.15945001 0.42622283 0.9169476 -1.7240921
0.5122486 -0.7167805 -1.1278325 0.09441078 1.7333329 -1.1966529 -1.0441415 0.18966101
-0.79770887 -0.28997326 -3.0700228 -0.26175687 -0.08845716 -0.49851984 0.70486414 -0.059976667
-1.1842726 -0.41120264 1.1920439 -0.4755093 0.87958056 0.43956384 -1.0941436 1.7717838
1.170326 0.6974545 1.3546356 0.16849275 0.80808747 1.005237 -1.7774206 1.0947366
-0.13057427 0.9109991 -1.8167893 -0.16585843 0.37636825 0.7994845 0.7392186 -0.4277296
0.39705685 1.6187651 -0.9995817 0.6814626 2.6932914 0.69453305 0.65975225 -0.9151752
0.37575945 0.3242981 0.9940929 -0.16695432 1.9809712 -0.00016317284 0.84892184 1.0427008
-0.69375056 -0.29908124 -0.30335176 0.025075648 -0.8311457 -0.35278362 -0.14426115 -0.99249053
0.21386847 0.35224614 0.38101718 -1.8739855 -0.6456271 -0.38856205 0.88792974 -0.77472705
0.7046419 0.45312962 -1.0984081 2.0800004 1.2973436 -0.3371573 0.7405754 0.42525634
-0.34071845 -0.3675321 -0.7777996 0.092581175 -0.101877 -0.2196148 -1.7718749 -0.6389641
0.64288986 -0.25701267 1.2550335 2.367825 1.8266792 -0.6758617 0.17339419 -1.6101514
-0.5843171 0.36500952 1.4243457 1.9423401 -0.039271127 -0.1573028 0.339548 1.3413153
1.1397116 1.1635878 0.38636523 1.0917108 -0.8443467 2.6622715 0.046967987 0.97688687
-0.54239595 0.41361922 -0.14080098 0.5711641 0.7614854 1.0577852 0.51412815 0.4587698
-0.37321264 1.5222281 1.6819323 0.42798385 1.0084769 -0.96767026 0.90602535 -0.33072746
-0.35823935 -3.0791497 -0.32695088 0.987134 0.30823433 1.1666127 0.54939187 -1.1579996
0.9357641 -0.44077253 -1.373632 0.875811 -1.8649778 -0.7090396 -3.013621 -1.2348497
-0.37172765 -2.3841474 3.041843 1.5891007 0.11777511 -2.1029665 0.3878767 0.4216044
0.2780191 -0.887758 0.85853726 -0.7209195 0.64579004 -0.84357756 -1.0844293 1.1449453
-0.88672894 0.6571053 -0.61846024 -0.07383845 -2.5825295 0.36395848 0.93697554 -0.6041881
0.2635902 -0.047050316 1.5056202 -1.9839522 1.4238942 1.6691512 1.2044402 0.96881527
-0.18038054 -1.844278 -1.9200267 -0.1670514 -1.1280801 1.0596185 -0.4893197 0.738119
-2.142507 -1.0549164 -0.32708073 1.5753292 1.5548319 1.4467125 1.4524308 -2.0224288
-1.5403122 0.6121791 0.21526578 -0.30818832 -1.4118799 -2.3290162 1.2702916 0.9642577
-0.058756955 -0.916739 -1.3653635 0.67833376 -0.48389852 0.8107998 -0.53094536 1.5757612
-1.5211995 -0.4596094 -0.76062393 -0.16351764 -0.60216933 -0.7231281 0.38985512 -1.4917871
00000000: 7f9e b6bf 526d bc3f 5dc8 8fbe 2bf5 8cbf
00000010: c8fa b23e f1cb 2ebf 0394 17bf 026e 92bf
00000020: 5102 c03f 7dea e6bf e7b7 5fbe 6779 38bf
00000030: 0fd7 58bd 0b17 a4bf a830 c73f 7577 83bf
00000040: 0d80 7a3e da4e 293e b64f 8fbe eece e13e
00000050: 7a88 b2be 5203 95bf c1b8 9b3f 7ad8 0bc0
00000060: 5d0e 39bf 2fbb 4c3f 0a19 7c3e ec5c ccbe
00000070: c5e9 bebd f992 35bf c244 203e 609b df3d
00000080: eb40 163f 93fe edbe bb24 57bf 685d a03d
00000090: dd46 233e e139 da3e 14bd 6a3f 0daf dcbf
000000a0: b922 033f ed7e 37bf d15c 90bf 705a c13d
000000b0: dadd dd3f ec2b 99bf 6ea6 85bf 7f36 423e
000000c0: a636 4cbf 6077 94be 417b 44c0 ff04 86be
000000d0: 0729 b5bd fe3d ffbe fa71 343f 18aa 75bd
000000e0: 3f96 97bf 2789 d2be e594 983f f475 f3be
000000f0: 312c 613f 830e e13e e60c 8cbf d0c9 e23f
00000100: 3ecd 953f 618c 323f b364 ad3f 5d89 2c3e
00000110: d2de 4e3f 9bab 803f 8582 e3bf 5420 8c3f
00000120: 43b5 05be 3d37 693f 8d8c e8bf cbd6 29be
00000130: 57b3 c03e 04ab 4c3f 6e3d 3d3f 60ff dabe
00000140: 094b cb3e b233 cf3f 96e4 7fbf 5574 2e3f
00000150: e35e 2c40 ebcc 313f 86e5 283f ec48 6abf
00000160: 8b63 c03e 670a a63e df7c 7e3f 13f6 2abe
00000170: 7790 fd3f 6019 2bb9 f152 593f 3877 853f
00000180: a399 31bf 2d21 99be ec50 9bbe 726b cd3c
00000190: f7c5 54bf 0ea0 b4be 32b9 13be dc13 7ebf
000001a0: 5600 5b3e 9b59 b43e af14 c33e c2de efbf
000001b0: d147 25bf 9bf1 c6be 5d4f 633f 8354 46bf
000001c0: 6963 343f 9b00 e83e a398 8cbf ba1e 0540
000001d0: 5b0f a63f e29f acbe 5996 3d3f 33bb d93e
000001e0: a672 aebe 2b2d bcbe e01d 47bf 339b bd3d
000001f0: e3a4 d0bd b4e2 60be cccc e2bf 2793 23bf
00000200: 6e94 243f 2a97 83be f0a4 a03f 728a 1740
00000210: a0d0 e93f 4605 2dbf 3f8e 313e 7119 cebf
00000220: ce95 15bf 87e2 ba3e f650 b63f 9a9e f83f
00000230: c3da 20bd fc13 21be 3cd9 ad3e 38b0 ab3f
00000240: 12e2 913f 72f0 943f aad1 c53e 2ebd 8b3f
00000250: 1b27 58bf a862 2a40 8161 403d 4215 7a3f
00000260: 76da 0abf e6c5 d33e 222e 10be cf37 123f
00000270: b5f0 423f 8165 873f e79d 033f e0e3 ea3e
00000280: ba15 bfbe 5fd8 c23f 8f49 d73f b320 db3e
00000290: c515 813f 3db9 77bf 47f1 673f 1c55 a9be
000002a0: 266b b7be ca10 45c0 1b66 a7be d0b4 7c3f
000002b0: e4d0 9d3e 9153 953f f2a4 0c3f 5539 94bf
000002c0: 3c8e 6f3f f0ac e1be 2cd3 afbf 2635 603f
000002d0: 98b7 eebf 9f83 35bf 2bdf 40c0 8e0f 9ebf
000002e0: 1653 bebe df95 18c0 8ead 4240 a767 cb3f
000002f0: 1434 f13d 0197 06c0 c697 c63e 88dc d73e
00000300: 8558 8e3e 1c44 63bf 19c9 5b3f 2e8e 38bf
00000310: 7f52 253f b3f4 57bf 94ce 8abf 918d 923f
00000320: ab00 63bf 0e38 283f 6953 1ebf 9d38 97bd
00000330: 2a48 25c0 c458 ba3e a1dd 6f3f 12ac 1abf
00000340: 4bf5 863e d5b7 40bd 2ab8 c03f 25f2 fdbf
00000350: 2a42 b63f bfa6 d53f 192b 9a3f 4704 783f
00000360: adb5 38be 4d11 ecbf 6fc3 f5bf 860f 2bbe
00000370: ee64 90bf 94a1 873f 1d88 fabe 5ef5 3c3f
00000380: d61e 09c0 8007 87bf 2077 a7be 63a4 c93f
00000390: bb04 c73f e02d b93f 41e9 b93f 796f 01c0
000003a0: f328 c5bf c5b7 1c3f a26e 5c3e dcca 9dbe
000003b0: 7bb8 b4bf 9a0e 15c0 ea98 a23f 98d9 763f
000003c0: 22ab 70bd 68af 6abf 3bc4 aebf 48a7 2d3f
000003d0: 8cc1 f7be 9390 4f3f 09ec 07bf 8bb2 c93f
000003e0: aab6 c2bf ec51 ebbe 40b8 42bf 2b71 27be
000003f0: c527 1abf ec1e 39bf 179b c73e e1f2 bebf

embedding_item.weight f4 [1889, 32]
2.4991815 2.241718 0.21567942 -2.2031448 0.6565827 -0.37667444 1.30431 -0.024638515
0.8928574 0.069207385 -0.39881703 -0.18271853 -2.7697778 0.8764048 -0.61509556 -1.5503579
1.3994836 1.5198236 -0.90458214 0.5704286 0.032247104 -1.0520352 0.6167367 0.7655106
-0.21235621 -2.024452 0.08630222 -0.84919417 0.75280434 1.9338082 -0.87175983 0.9010092
0.20032808 0.4728665 0.9925245 -0.566269 -1.3816582 -0.2639255 1.4310144 1.7382754
-2.8071232 0.28280255 -0.9185214 0.2857574 -1.418288 0.25557482 1.5981897 -0.7210796
-0.12017367 -0.77611524 1.5230128 -0.50500077 -0.122194305 0.32506523 -0.6795405 -0.66735554
0.86350447 -0.30877376 1.3104656 -0.3580551 -0.6302462 1.1688191 0.40631035 -0.001310022
-0.39339548 0.6243557 1.0635889 -0.99424934 1.0960907 2.1028388 1.5412956 1.1043252
0.31020886 -1.0038438 2.5237029 -0.6539081 0.61158943 0.559732 -0.57615036 1.2189263
0.09710406 0.82576203 0.99394834 -2.782153 0.112836435 0.32211265 -0.7150622 -0.74416476
1.035778 -0.54382616 1.3351803 0.119461834 0.6554854 -0.2857415 -0.87561333 -0.38431543
1.8514177 -0.18565814 -1.2819645 0.5498352 0.19259149 -1.4862903 0.79783344 0.87783754
-0.41469353 0.66244507 -1.6461177 0.7007899 0.19182004 -0.53560966 -0.6854215 -0.48588356
0.3487963 0.26503986 -0.28965592 1.675012 -1.7436247 -0.35723442 -1.0981102 0.0033081735
-2.8135035 0.41558015 -0.20820314 1.2900056 -1.2650462 0.27916136 -0.68881947 -1.0387722
1.0485123 -0.98313874 -1.5969195 -1.157219 1.3600948 -0.11910707 1.0068191 -0.6126091
2.532288 -2.0806742 -0.5704871 -0.47055545 -0.5578258 -1.4137673 0.13049264 -1.3869584
-0.044049248 -0.6410869 -0.7209071 -1.6944218 -0.04318843 -1.1490346 -2.5946975 0.29498926
-0.73015887 -2.0012565 -0.88011557 1.2690598 -0.9351293 -0.85275275 0.21142258 1.4195334
-0.8097647 0.037962195 -1.7500042 -1.3111194 0.30960882 1.737095 1.2394059 -0.15815525
0.3382394 0.074822225 -0.8611967 -0.82085115 2.6163402 -0.32844883 -0.33976415 -0.70662594
1.1567405 1.0009763 2.004322 -0.68667614 0.27653727 1.4361587 -0.5536486 1.9752257
0.8925417 0.96519375 0.6806758 -0.83878094 -0.5853485 0.5548993 -0.68541294 0.9750461
-0.75819904 0.66741693 -1.2484577 0.28867057 1.8182564 1.60045 0.09292532 -0.91782564
-0.226946 -0.9556953 -2.4145603 0.6132597 -2.0861712 0.45363256 2.1327102 -0.046132084
-1.7671266 -0.98575747 -1.4298831 0.64570504 0.25462842 1.0806313 2.2626586 -0.39172503
-1.1183671 -1.7957664 0.4569394 1.5980111 0.861912 -0.004110645 -1.367351 1.4741403
1.1038904 -0.37699714 -0.45361772 -0.62746644 -0.11356803 0.04203748 -0.6659332 -0.4144639
0.33851358 -0.89298415 -0.3112087 2.1593447 -0.28844437 -2.0298066 1.0104285 -1.2647314
0.48386347 -1.3170904 1.3422133 -2.5042553 0.3340831 0.15868813 -0.570579 -1.2834458
1.1229254 -0.48680165 1.6909033 -2.3880694 0.9803781 -1.6206396 1.6208861 0.35394627
00000000: 97f2 1f40 4f78 0f40 11db 5c3e 5300 0dc0
00000010: ce15 283f 79db c0be a1f3 a63f b6d6 c9bc
00000020: 4d92 643f 9abc 8d3d bf31 ccbe 911a 3bbe
00000030: 0a44 31c0 115c 603f e776 1dbf 2172 c6bf
00000040: 4722 b33f 9489 c23f b292 67bf 9c07 123f
00000050: 8a15 043d 17a9 86bf 75e2 1d3f 81f8 433f
00000060: e873 59be 9f90 01c0 38bf b03d ca64 59bf
00000070: c9b7 403f 0787 f73f a72b 5fbf 8aa8 663f
00000080: ce22 4d3e 8f1b f23e 1616 7e3f 01f7 10bf
00000090: 2dda b0bf 3e21 87be 7b2b b73f cf7f de3f
000000a0: e8a7 33c0 7fcb 903e 3824 6bbf cb4e 923e
000000b0: 768a b5bf b4da 823e 7b91 cc3f ac98 38bf
000000c0: 9d1d f6bd 7daf 46bf 15f2 c23f bb47 01bf
000000d0: 0241 fabd f36e a63e 5ef6 2dbf d0d7 2abf
000000e0: a10e 5d3f 9817 9ebe 56bd a73f 0053 b7be
000000f0: d157 21bf dd9b 953f e907 d03e 0bb5 abba
00000100: 226b c9be c6d5 1f3f ae23 883f 2087 7ebf
00000110: b34c 8c3f e994 0640 2d49 c53f 875a 8d3f
00000120: b2d3 9e3e f47d 80bf 5984 2140 8566 27bf
00000130: 2091 1c3f 994a 0f3f 977e 13bf c705 9c3f
00000140: 7ede c63d 2465 533f 6673 7e3f cb0e 32c0
00000150: ca16 e73d f3eb a43e 510e 37bf 9581 3ebf
00000160: 6094 843f 3138 0bbf 30e7 aa3f 68a8 f43d
00000170: e4cd 273f b64c 92be 3228 60bf fec4 c4be
00000180: 41fb ec3f 2b1d 3ebe 6a17 a4bf 00c2 0c3f
00000190: b436 453e c33e bebf d03e 4c3f f6b9 603f
000001a0: b652 d4be 0096 293f fcb3 d2bf f866 333f
000001b0: 796c 443e b71d 09bf c977 2fbf bbc5 f8be
000001c0: 6e95 b23e 4eb3 873e c84d 94be cb66 d63f
000001d0: 182f dfbf 6ee7 b6be e08e 8cbf f1cd 583b
000001e0: 7110 34c0 ecc6 d43e 3433 55be e71e a53f
000001f0: 09ed a1bf 3dee 8e3e 7956 30bf 7df6 84bf
00000200: a735 863f fbae 7bbf dc67 ccbf c11f 94bf
00000210: 9617 ae3f 68ee f3bd 73df 803f f3d3 1cbf
00000220: 0211 2240 c429 05c0 710b 12bf a5ec f0be
00000230: accd 0ebf 54f6 b4bf dd9f 053e da87 b1bf
00000240: fc6c 34bd 451e 24bf 5e8d 38bf d0e2 d8bf
00000250: 5ae6 30bd 9113 93bf 860f 26c0 d508 973e
00000260: b1eb 3abf 9614 00c0 414f 61bf 8d70 a23f
00000270: a264 6fbf 014e 5abf 297f 583e 45b3 b53f
00000280: bd4c 4fbf 3f7e 1b3d 2300 e0bf c3d2 a7bf
00000290: 0c85 9e3e 2159 de3f daa4 9e3f 73f3 21be
000002a0: b72d ad3e 653c 993d 6377 5cbf 4d23 52bf
000002b0: 1e72 2740 722a a8be 91f5 adbe 70e5 34bf
000002c0: 1310 943f fe1f 803f d046 0040 02ca 2fbf
000002d0: 4b96 8d3e 0cd4 b73f eabb 0dbf 32d4 fc3f
000002e0: 9d7d 643f f016 773f c540 2e3f 59ba 56bf
000002f0: 66d9 15bf e10d 0e3f 3977 2fbf 9f9c 793f
00000300: 5519 42bf d6db 2a3f 76cd 9fbf a1cc 933e
00000310: a0bc e83f 8cdb cc3f a14f be3d 9ff6 6abf
00000320: 8864 68be 72a8 74bf 2888 1ac0 96fe 1c3f
00000330: d483 05c0 8742 e83e 537e 0840 fff4 3cbd
00000340: 3431 e2bf 9a5a 7cbf 6906 b7bf ed4c 253f
00000350: a85e 823e 2052 8a3f 66cf 1040 2f90 c8be
00000360: a726 8fbf acdb e5bf f6f3 e93e a18b cc3f
00000370: 44a6 5c3f 97b2 86bb 5c05 afbf a1b0 bc3f
00000380: 484c 8d3f c505 c1be 9540 e8be a4a1 20bf
00000390: 5b96 e8bd 7e2f 2c3d 997a 2abf 9d34 d4be
000003a0: a751 ad3e 9c9a 64bf bf56 9fbe b432 0a40
000003b0: fbae 93be 5ae8 01c0 b955 813f b8e2 a1bf
000003c0: f4bc f73e 6b96 a8bf a5cd ab3f b845 20c0
000003d0: f10c ab3e 247f 223e 7711 12bf f447 a4bf
000003e0: 05bc 8f3f 113e f9be 856f d83f 21d6 18c0
000003f0: 0ffa 7a3f 1e71 cfbf 3279 cf3f 7238 b53e

fc_layers.0.weight f4 [32, 64]
0.43835694 0.07024072 -0.35640264 -0.17202342 -0.058644343 -0.5795979 0.31172466 0.5073316
-0.18850975 0.43616366 0.19566858 -0.07218646 -0.009951353 0.310214 -0.44015208 -0.54820526
0.40394706 -0.22187625 0.060827002 -0.12803644 0.28933716 0.32831573 0.23062983 0.16893142
0.8032128 -0.3195863 -0.21199103 -0.1296958 0.21201095 0.05260176 0.13326734 0.22465132
0.5920889 0.5026861 0.053056274 0.27974504 -0.3077378 -0.5234876 0.009879201 0.0076147052
0.8810827 0.31958282 0.60626614 -0.26890388 0.46339887 -0.5967251 0.25650933 0.71577305
-0.06938798 -0.016469127 0.019806303 0.44932413 0.08096003 -0.0022486083 -0.5762362 -0.24950726
-0.30230153 -0.30498376 -0.4240291 0.5722607 -0.25627315 0.2937132 0.24369071 -0.43728322
0.24848324 -0.22228011 -0.50025725 0.102369234 0.17009589 0.25622025 -0.3328123 -0.0412433
-0.10902286 0.6164724 0.121379286 -0.01963865 -0.28819203 -0.21758859 -0.2887227 -0.08656856
0.08255017 -0.00446892 0.02198072 0.092485026 0.037386596 -0.3431185 0.072749674 0.050937556
-0.21075542 -0.04053544 -0.24408221 -0.2804067 0.12593788 0.5634265 0.36531436 0.35276976
-0.0962175 0.30150858 -0.25081635 0.3244622 -0.44773796 0.12827846 -0.56960547 -0.5887064
-0.1304072 0.4260988 0.44324982 -1.2101154 0.3961945 -0.07470761 0.5629609 0.09138767
-0.14525335 0.00395468 0.66449445 0.08718052 0.6558809 0.3768468 0.38469094 -0.46980533
0.13702802 0.20734715 0.06574168 0.46628675 0.09693028 -0.4267051 0.3498767 0.41707283
-0.14100167 0.08377567 -0.30771577 0.14370497 0.34185115 -0.19745286 0.11102649 -0.4709081
0.1865602 0.27919632 0.3358547 0.024610303 -0.08716859 -0.42881536 -0.45331296 0.23219188
0.50127614 0.24963164 -0.15221892 0.0965048 0.09996496 0.014019221 -0.23707251 0.20498942
-0.255647 -0.12197564 -0.32704756 -0.1910455 0.13033172 0.6008081 0.22574697 0.02464322
0.047908287 -0.35013095 -0.055278048 -0.6120109 -0.561876 0.49983197 0.3213412 -0.36182982
-0.12536958 -0.5464608 -0.3902685 -0.41411814 0.09679484 -0.22795503 0.72776395 0.22729808
0.25500163 -0.026939893 -0.17005792 0.08106397 -0.79204327 0.9599177 -0.17900735 0.531119
0.12582679 -0.16508429 -0.16633722 -0.7981137 -0.7876926 0.18486694 -0.0532573 -0.07867729
0.22255011 -0.07895792 -0.2500681 0.14211468 0.10839679 0.15981181 -0.07822892 0.274013
0.23931077 -0.119046725 0.45303246 -0.13002795 -0.45844367 -0.043198608 -0.31698427 -0.3808568
0.14255172 -0.017530004 0.2968688 -0.15519671 -0.10520618 -0.66350406 0.36309987 -0.076566815
-0.34177533 0.018280674 0.0013109734 0.08722458 0.32216337 0.33901116 -0.13135813 0.25232586
-0.40587533 -0.16036941 -0.4307729 0.269112 -0.11753089 -0.610149 -0.8091531 -0.26510635
0.44541582 -0.25618646 -0.95354354 0.072457 -0.0998527 0.1668513 0.16520235 -0.2107285
-0.07643687 -0.05242153 -0.38971862 -0.19646218 -0.3483583 -0.30949292 -0.3728431 0.30735052
0.5528481 0.5957163 0.39534763 -0.29407477 0.04256232 -0.38278788 0.34362167 0.13544089
00000000: 5270 e03e 5eda 8f3d 687a b6be e826 30be
00000010: 0d35 70bd 8760 14bf 609a 9f3e 7ce0 013f
00000020: b308 41be d850 df3e 585d 483e 7fd6 93bd
00000030: 000b 23bc 5fd4 9e3e 9d5b e1be 2e57 0cbf
00000040: 26d2 ce3e 8733 63be bc25 793d fc1b 03be
00000050: 0024 943e 0019 a83e 3a2a 6c3e 5cfc 2c3e
00000060: 5b9f 4d3f d1a0 a3be 2d14 59be face 04be
00000070: 6619 593e f174 573d 3c77 083e ff0a 663e
00000080: 2393 173f 09b0 003f 8951 593d be3a 8f3e
00000090: cf8f 9dbe 4903 06bf 5fdc 213c c784 f93b
000000a0: a38e 613f 5ca0 a33e 4234 1b3f c5ad 89be
000000b0: 9e42 ed3e fac2 18bf 3155 833e e73c 373f
000000c0: 491b 8ebd 43ea 86bc d440 a23c d00d e63e
000000d0: 5fce a53d 635d 13bb 3784 13bf d57e 7fbe
000000e0: 44c7 9abe d526 9cbe 581a d9be ad7f 123f
000000f0: 3c36 83be 9461 963e 0f8a 793e 96e3 dfbe
00000100: 6472 7e3e 669d 63be dc10 00bf f6a6 d13d
00000110: 9e2d 2e3e 4d2f 833e 6066 aabe bcee 28bd
00000120: 6147 dfbd 23d1 1d3f b495 f83d 3ce1 a0bc
00000130: e88d 93be 8bcf 5ebe 76d3 93be db4a b1bd
00000140: 1010 a93d 0570 92bb e910 b43c ca68 bd3d
00000150: b022 193d 3aad afbe c8fd 943d e6a3 503d
00000160: 45d0 57be 7d08 26bd b0f0 79be 7891 8fbe
00000170: dcf5 003e b83c 103f 7c0a bb3e 3d9e b43e
00000180: ae0d c5bd 555f 9a3e 006b 80be e91f a63e
00000190: e93d e5be 6e5b 033e aad1 11bf 76b5 16bf
000001a0: 7789 05be 9f29 da3e a4f1 e23e 10e5 9abf
000001b0: 01da ca3e 4e00 99bd 351e 103f 7529 bb3d
000001c0: 4bbd 14be 4396 813b 4f1c 2a3f b38b b23d
000001d0: d0e7 273f 10f2 c03e 36f6 c43e 538a f0be
000001e0: 1351 0c3e d052 543e 93a3 863d 23bd ee3e
000001f0: 6283 c63d 1779 dabe 0a23 b33e 928a d53e
00000200: be62 10be 9492 ab3d ec8c 9dbe 6527 133e
00000210: 1d07 af3e 1531 4abe db61 e33d de1a f1be
00000220: a309 3f3e d2f2 8e3e 26f5 ab3e 8c9b c93c
00000230: 7285 b2bd b08d dbbe a318 e8be b5c3 6d3e
00000240: a253 003f 709f 7f3e 47df 1bbe 4fa4 c53d
00000250: 6eba cc3d e0b0 653c 23c3 72be bfe8 513e
00000260: 2ae4 82be 5dce f9bd c772 a7be 6ea1 43be
00000270: ae75 053e 8fce 193f 372a 673e 94e0 c93c
00000280: 7b3b 443d 5d44 b3be 3c6b 62bd bfac 1cbf
00000290: 1bd7 0fbf fae9 ff3e d586 a43e c241 b9be
000002a0: e260 00be dbe4 0bbf 46d1 c7be 4b07 d4be
000002b0: 603c c63d 0b6d 69be bd4e 3a3f d4c0 683e
000002c0: 938f 823e 0db1 dcbc aa23 2ebe de04 a63d
000002d0: 59c3 4abf 2bbd 753f b44d 37be 6af7 073f
000002e0: bdd8 003e db0b 29be 4e54 2abe 2e51 4cbf
000002f0: 39a6 49bf c24d 3d3e 5424 5abd 8f21 a1bd
00000300: 2de4 633e b1b4 a1bd ed08 80be 8386 113e
00000310: 23ff dd3d b5a5 233e 7c36 a0bd 6f4b 8c3e
00000320: e20d 753e c5ce f3bd dff3 e73e 0c26 05be
00000330: 21b9 eabe 06f1 30bd c34b a2be aaff c2be
00000340: 14f9 113e 159b 8fbc 30ff 973e e3eb 1ebe
00000350: 5676 d7bd 67db 29bf 3ae8 b93e 10cf 9cbd
00000360: 2dfd aebe 5ac1 953c f8d4 ab3a cda2 b23d
00000370: 99f2 a43e df92 ad3e bf82 06be db30 813e
00000380: e4ce cfbe e137 24be 448e dcbe 0cc9 893e
00000390: 09b4 f0bd ba32 1cbf a824 4fbf 05bc 87be
000003a0: 8b0d e43e df2a 83be 6e1b 74bf 5664 943d
000003b0: 937f ccbd 11db 2a3e ce2a 293e 36c9 57be
000003c0: ef8a 9cbd f5b7 56bd 3389 c7be 622d 49be
000003d0: 055c b2be db75 9ebe 4ae5 bebe 0c5d 9d3e
000003e0: 7487 0d3f dd80 183f 016b ca3e f890 96be
000003f0: d455 2e3d c6fc c3be 2eef af3e 04b1 0a3e

fc_layers.0.bias f4 [32]
-0.57230735 0.29103613 -0.32463813 -0.029911248 -0.6701226 -0.10978152 -0.7372443 0.3582637
-0.9082872 -0.545986 -0.6550649 -0.59833264 0.666358 -0.0478217 -0.6621636 -0.47000384
-0.541091 -0.5867208 -0.5338961 0.34785625 -0.22301494 -0.5365272 -0.5785546 -0.68681324
-0.62728125 -0.6766 -0.29505727 -0.43320295 -0.46788266 -0.373041 -0.7154833 -0.17504238
00000000: bc82 12bf b002 953e f836 a6be 6f08 f5bc
00000010: 288d 2bbf 22d5 e0bd 0bbc 3cbf 576e b73e
00000020: 8385 68bf bdc5 0bbf 55b2 27bf 542c 19bf
00000030: 7096 2a3f b0e0 43bd 8e83 29bf 58a4 f0be
00000040: f184 0abf 5633 16bf 6aad 08bf 371a b23e
00000050: 075e 64be d959 09bf 271c 14bf fed2 2fbf
00000060: 8195 20bf a835 2dbf bf11 97be c7cc ddbe
00000070: 518e efbe 3bff bebe ea29 37bf 4f3e 33be

fc_layers.1.weight f4 [16, 32]
0.73719615 -0.09352725 0.3842864 -0.99116266 -0.4078577 -0.15656616 -0.30723214 0.3448861
0.51834947 0.8946339 0.0733479 0.6333693 0.067458905 0.58315414 0.7046908 0.29010123
-0.19715244 0.49570635 0.14599104 0.16305491 0.8106955 0.048250258 0.37661716 -0.006939377
0.17892848 0.431237 0.3359843 0.12576234 -0.5923974 0.4575478 0.12481 0.5819246
0.9680528 -0.7239031 0.5817865 0.19600382 0.36119965 -0.29832685 0.1606278 0.56098986
0.6881536 0.7219988 -0.43650413 0.742162 -0.14299986 0.5660208 0.8081631 0.16182998
0.3498311 1.0360092 0.32609147 0.38981017 0.45774907 -0.015080129 0.2929864 -0.25706184
0.36123824 0.27776477 0.11091011 0.33103827 -0.018990805 0.79721856 0.13867104 0.23773718
0.8629731 -0.63598937 0.6636121 0.09747406 0.29143283 -0.27911222 0.16424578 0.49590695
0.5232587 0.61835086 -0.5231536 0.6954897 -0.10258729 0.63318074 0.8181591 0.07288958
0.573382 1.0516617 0.19308491 0.3416345 0.5100847 -0.014268234 0.13463329 -0.11672819
0.42773852 0.41995436 0.115657195 0.011348252 0.18308131 0.788297 0.07020741 0.30652297
-0.2825244 0.16889854 -0.93267417 0.4737322 -0.67146516 0.42562124 -1.292964 0.80335206
-0.05734282 -0.034431532 -1.1128677 0.103322886 0.72513324 0.6172763 0.6507422 -0.72095746
-1.3034252 0.43244472 -0.4544808 0.7549447 0.062622845 -0.9426844 -1.2018924 -1.1264194
-0.7906534 -0.6306336 -0.37074643 -0.7163291 -0.8909417 -0.69848293 -0.7282568 0.42769638
-0.5109375 0.14190726 -1.1839045 0.27003697 0.31092417 0.7994434 -0.6408709 0.5187197
0.53175676 -0.154553 -1.8857428 0.968886 0.6592133 0.34953988 -0.08943195 -0.30328834
-0.41850948 -0.7797509 -0.87402093 -0.24674584 0.20124236 -0.39740545 0.2066933 -0.28442797
-0.6812979 0.018352726 -1.8244133 0.22044466 0.37756833 -1.1373886 -0.8297659 0.54553497
0.55795366 -2.1499553 -0.08892146 -0.49376923 -0.28300533 -1.242057 0.28170428 0.2232037
0.20018135 0.14277609 0.2698204 0.15703228 -0.13910216 0.6582455 0.22077546 -0.11674891
-0.41174322 0.22203842 0.9651464 0.13376759 0.55585 0.24183686 0.33937255 0.13532285
0.13592567 0.5574283 0.42368189 0.7048533 -0.1659469 0.26002303 0.5163063 1.0115339
-0.1798257 0.086490266 0.4158843 0.7114456 -2.1454012 0.589191 0.9810169 -0.5186768
-1.5107591 -0.14461829 0.51811755 0.07774792 0.060461767 -0.089990474 -0.036203228 0.99796146
0.5263176 -0.78392684 0.26620346 -0.4200946 -0.7306297 0.36827397 0.44622487 0.7964438
-0.6883583 -0.27132833 0.85242116 -0.5258311 0.6738772 0.32891533 0.4923797 -1.8097353
0.34793752 0.4535458 -0.5350268 0.4692189 -0.9618932 0.49476993 -1.1113362 0.5985855
-0.004514334 -1.4492365 -1.395835 -0.28339076 0.45370924 0.6689976 -0.38731223 -2.5098934
0.06709422 -0.57891315 -1.0021466 0.5163743 0.40100002 -0.095056936 -0.18260226 -1.0222348
-0.42877015 -0.11939736 -0.6587729 -0.13094522 -0.8090713 -0.8246377 -0.3033126 0.55499274
00000000: e3b8 3c3f 378b bfbd 30c1 c43e d6bc 7dbf
00000010: b9d2 d0be e152 20be 884d 9dbe e994 b03e
00000020: 8db2 043f ba06 653f 6c37 963d 7e24 223f
00000030: e527 8a3d 9749 153f 9e66 343f 2688 943e
00000040: 54e2 49be 39cd fd3e ad7e 153e def7 263e
00000050: be89 4f3f 10a2 453d f7d3 c03e b763 e3bb
00000060: 0739 373e 19cb dc3e 2206 ac3e d8c7 003e
00000070: 5ba7 17bf b543 ea3e 639c ff3d 03f9 143f
00000080: 4fd2 773f b751 39bf f6ef 143f 3ab5 483e
00000090: 29ef b83e 4cbe 98be 9d7b 243e 089d 0f3f
000000a0: d62a 303f ead4 383f 787d dfbe 54fe 3d3f
000000b0: 8e6e 12be bde6 103f c7e3 4e3f c2b6 253e
000000c0: 101d b33e f39b 843f 76f5 a63e 3395 c73e
000000d0: 165e ea3e a512 77bc 5002 963e 9c9d 83be
000000e0: 38f4 b83e 2f37 8e3e d724 e33d d97d a93e
000000f0: 9b92 9bbc 8416 4c3f c8ff 0d3e 6071 733e
00000100: ceeb 5c3f 33d0 22bf 7ce2 293f 7ba0 c73d
00000110: af36 953e cce7 8ebe 0c30 283e 84e7 fd3e
00000120: 48f4 053f 3e4c 1e3f 65ed 05bf 9d0b 323f
00000130: 4919 d2bd 2218 223f e072 513f 2247 953d
00000140: 2ac9 123f da9c 863f 0db8 453e b8ea ae3e
00000150: e994 023f 50c5 69bc 4fdd 093e 300f efbd
00000160: 8b00 db3e 4204 d73e aedd ec3d 05ee 393c
00000170: ab79 3b3e d5cd 493f e7c8 8f3d 94f0 9c3e
00000180: 0aa7 90be bdf3 2c3e bcc3 6ebf 078d f23e
00000190: 24e5 2bbf 07eb d93e d87f a5bf 7ba8 4d3f
000001a0: 4ee0 6abd 1408 0dbd 7372 8ebf f39a d33d
000001b0: 55a2 393f d205 1e3f 0a97 263f ab90 38bf
000001c0: a3d6 a6bf 6569 dd3e b5b1 e8be 0e44 413f
000001d0: 6840 803d c453 71bf 9cd7 99bf 832e 90bf
000001e0: 4368 4abf 3471 21bf 7ad2 bdbe 5861 37bf
000001f0: c114 64bf c7cf 32bf 0a6f 3abf 05fb da3e
00000200: cdcc 02bf 2350 113e 2f8a 97bf 4942 8a3e
00000210: 7431 9f3e 53a8 4c3f 1e10 24bf d0ca 043f
00000220: 3621 083f 2443 1ebe 0560 f1bf ea08 783f
00000230: 34c2 283f e4f6 b23e 1928 b7bd 9c48 9bbe
00000240: e046 d6be c19d 47bf d6bf 5fbf f1aa 7cbe
00000250: 7a12 4e3e ba78 cbbe 69a7 533e 8ba0 91be
00000260: 8a69 2ebf 7558 963c 6086 e9bf 3fbc 613e
00000270: a350 c13e f395 91bf 8a6b 54bf 2ea8 0b3f
00000280: 0dd6 0e3f de98 09c0 741c b6bd 52cf fcbe
00000290: 13e6 90be b9fb 9ebf 8b3b 903e 838f 643e
000002a0: 57fc 4c3e e533 123e e625 8a3e 12cd 203e
000002b0: cc70 0ebe c782 283f f612 623e 0d1a efbd
000002c0: 02d0 d2be 0a5e 633e d613 773f 5ffa 083e
000002d0: 304c 0e3f 15a4 773e 3dc2 ad3e 1392 0a3e
000002e0: 1930 0b3e 9fb3 0e3f d5ec d83e 4471 343f
000002f0: fced 29be bd21 853e a62c 043f f179 813f
00000300: 3a24 38be cf21 b13d c9ee d43e 4d21 363f
00000310: 414e 09c0 39d5 163f ec23 7b3f 01c8 04bf
00000320: 8e60 c1bf d116 14be 5aa3 043f 4d3a 9f3d
00000330: c2a6 773d ed4c b8bd d649 14bd 677a 7f3f
00000340: c0bc 063f 6eaf 48bf d24b 883e a416 d7be
00000350: 8c0a 3bbf 688e bc3e 9677 e43e bee3 4b3f
00000360: 4038 30bf 8ceb 8abe 4638 5a3f de9c 06bf
00000370: 3783 2c3f 9767 a83e 3119 fc3e 68a5 e7bf
00000380: de24 b23e 2837 e83e 84f7 08bf 763d f03e
00000390: a23e 76bf 7c52 fd3e 4440 8ebf e63c 193f
000003a0: faec 93bb 9580 b9bf b9aa b2bf 9818 91be
000003b0: 944c e83e 6d43 2b3f ca4d c6be 18a2 20c0
000003c0: b268 893d a733 14bf 5746 80bf 1b31 043f
000003d0: e04f cd3e 36ad c2bd 16fc 3abe 97d8 82bf
000003e0: c387 dbbe 9a86 f4bd 57a5 28bf 8116 06be
000003f0: 4c1f 4fbf 751b 53bf ca4b 9bbe 0114 0e3f

fc_layers.1.bias f4 [16]
-0.6057281 -0.4887871 -0.19137034 1.1682903 0.8008298 -0.994875 0.748593 0.6604632
0.35361844 0.5131812 -0.71843815 0.34087297 1.031627 0.77012885 -0.46544203 -0.55530137
00000000: ff10 1bbf 4e42 fabe 96f6 43be 898a 953f
00000010: 2f03 4d3f 21b0 7ebf caa3 3f3f 1e14 293f
00000020: 7a0d b53e d85f 033f 90eb 37bf e786 ae3e
00000030: 5b0c 843f 2a27 453f 6b4e eebe 3b28 0ebf

affine_output.weight f4 [1, 16]
-1.1527734 -0.8648651 -0.8096747 4.4113517 3.1227028 -2.438241 2.627929 3.8943603
3.0359015 2.9837303 -1.1369458 4.2456875 4.5789056 3.5569332 -0.89753586 -1.0770719
00000000: 148e 93bf cd67 5dbf d746 4fbf cb29 8d40
00000010: 5dda 4740 240c 1cc0 fd2f 2840 333d 7940
00000020: 364c 4240 70f5 3e40 7187 91bf acdc 8740
00000030: 6586 9240 cba4 6340 e9c4 65bf 7edd 89bf
