checkpoints/MLP_Epoch2_HR0.1359_NDCG0.1263.model (torch, 261263 bytes, 7 tensors)

embedding_user.weight f4 [51, 32]
0	0xbf98e395	-1.1944453
1	0x3fa30a95	1.2737604
2	0xbe573beb	-0.2101895
3	0xbf6b3fc6	-0.91894186
4	0x3e68a343	0.2271853
5	0xbebd33f6	-0.36953706
6	0xbf2be141	-0.67140585
7	0xbf8f8f24	-1.1215558
8	0x3fbf176b	1.4929022
9	0xbff0dce5	-1.8817412
10	0xbebab296	-0.36464375
11	0xbeedcbbc	-0.464445
12	0xbd09f84d	-0.033684064
13	0xbfce064f	-1.6095675
14	0x3fae5533	1.3619751
15	0xbf81c94b	-1.0139555
16	0x3d051743	0.032492887
17	0x3e919043	0.28430375
18	0xbe16a291	-0.14710452
19	0x3f12c117	0.5732588
20	0xbe70b9f3	-0.23508434
21	0xbfa362c3	-1.2764515
22	0x3f75c65f	0.96005815
23	0xc00d38de	-2.206596
24	0xbeb7ae4d	-0.35875168
25	0x3f22cb34	0.63591313
26	0x3dcc9e35	0.09991113
27	0xbf03d863	-0.51502055
28	0x3d4f1856	0.050560318
29	0xbf35d41c	-0.7102678
30	0x3ed05021	0.40686134
31	0xbdf1ba17	-0.11803072
32	0x3f0d027a	0.55081904
33	0xbefe0874	-0.49615824
34	0xbf69649c	-0.9116914
35	0x3e74bce0	0.23900175
36	0x3e05cbbd	0.13066001
37	0x3e0062da	0.12537709
38	0x3f931b01	1.1492616
39	0xbfbc093a	-1.4690316
40	0x3f1cd5ff	0.6126403
41	0xbf2ed479	-0.6829296
42	0xbf6d3620	-0.92660713
43	0x3eb4e291	0.35329106
44	0x3fd25130	1.6431026
45	0xbf6d4570	-0.9268408
46	0xbf81819f	-1.0117682
47	0x3db8850a	0.0900975
48	0xbf4b7dd3	-0.7948887
49	0xbe4c5a29	-0.19956268
50	0xc03fb9ec	-2.9957228
51	0xbe9e799a	-0.3095215
52	0xbe96d146	-0.29456538
53	0xbee49da0	-0.44651508
54	0x3f88a99b	1.067676
55	0x3d9daa24	0.076984674
56	0xbf9c963b	-1.2233347
57	0xbe1b5edf	-0.15172909
58	0x3f3f7c21	0.7479878
59	0xbeac9555	-0.3370768
60	0x3f014fd0	0.5051241
61	0x3ef10500	0.47074127
62	0xbf4e73b0	-0.80645275
63	0x3fec261d	1.8449131
64	0x3f80e6c1	1.007042
65	0x3f217e70	0.63083553
66	0x3f8e7eeb	1.1132482
67	0x3edbd546	0.42936152
68	0x3f5c7b0d	0.8612526
69	0x3f230f5f	0.6369533
70	0xbfaea8fc	-1.364532
71	0x3f738dc4	0.9513819
72	0x3e75f076	0.2401751
73	0x3f5b1aa6	0.8558754
74	0xbfd6f849	-1.6794521
75	0xbebb8c4a	-0.3663047
76	0x3ebb7f6a	0.36620647
77	0x3f6e9cb6	0.9320787
78	0x3efdc77a	0.4956625
79	0xbec1056f	-0.37699458
80	0x3ea5dfcb	0.32397303
81	0x3fc19fbc	1.5126872
82	0xbf82ab74	-1.0208573
83	0x3f2c03cb	0.6719329
84	0x40206ff3	2.5068328
85	0x3f2c504f	0.6731004
86	0x3f24577f	0.6419601
87	0xbf191429	-0.59796387
88	0x3e29a443	0.16566567
89	0x3f2514c9	0.6448484
90	0x3f7a925e	0.9787959
91	0xbe2689e9	-0.16263546
92	0x3fd6ff7d	1.6796719
93	0x3e47c57f	0.19508933
94	0x3f3bbd9d	0.733362
95	0x3ed9b59d	0.42521372
96	0xbf490553	-0.7852375
97	0xbe85a1b8	-0.26099944
98	0xbe18cff4	-0.14923078
99	0x3e3a10fb	0.1817054
100	0xbf0d53d0	-0.5520601
101	0xbf23c3c2	-0.6397058
102	0xbe4697e2	-0.19393876
103	0xbf834e23	-1.025822
104	0x3f18a57f	0.59627527
105	0x3e6dab4e	0.23209879
106	0x3dfe39d4	0.124133736
107	0xbfcdea28	-1.6087084
108	0xbf307cfc	-0.6894071
109	0x3d83bf24	0.064329416
110	0x3f8220a3	1.016621
111	0xbf6fa379	-0.93608814
112	0x3f0c106e	0.5471257
113	0x3def76d3	0.11692586
114	0xbf33af2a	-0.70189154
115	0x401740ef	2.3633382
116	0x3f8c6c5c	1.0970569
117	0xbee966af	-0.45586154
118	0x3f0d7b82	0.5526658
119	0x3e8243b5	0.2544228
120	0xbe4cfb7f	-0.20017813
121	0xbe576502	-0.21034625
122	0xbf10d82e	-0.56579864
123	0xbddbb8f6	-0.10728638
124	0xbe5c339f	-0.21504067
125	0xbd2f34d6	-0.042774998
126	0xbfc1f4b2	-1.51528
127	0xbf84e659	-1.0382797
128	0x3f6a48fc	0.91517615
129	0xbe1ba719	-0.15200461
130	0x3f87577a	1.0573571
131	0x3ff7f759	1.937236
132	0x3ff4332e	1.9078119
133	0xbf1e92fb	-0.61943024
134	0x3d1d9401	0.038471226
135	0xbfb6da9e	-1.4285467
136	0xbf53edc8	-0.827847
137	0x3ee8a3d1	0.45437482
138	0x3fad31e7	1.3530854
139	0x3fcda915	1.6067225
140	0xbddb5cec	-0.10711083
141	0x3d3bc508	0.0458422
142	0x3ed645fe	0.41850275
143	0x3f9b1702	1.2116396
144	0x3f59b118	0.8503585
145	0x3f9535e5	1.1657072
146	0x3ef7a527	0.4836819
147	0x3f47b9eb	0.78018063
148	0xbf617c13	-0.8807995
149	0x401b0969	2.4224494
150	0xbccdccae	-0.025122013
151	0x3f41b42a	0.75665534
152	0xbeac6897	-0.33673546
153	0x3e886b5a	0.26644403
154	0xbe7b46ff	-0.24538802
155	0x3ee1b1e6	0.44081038
156	0x3f5fde14	0.8744824
157	0x3f7b5fc8	0.98193026
158	0x3e753837	0.23947226
159	0x3f19d315	0.6008771
160	0xbeb98d43	-0.36240587
161	0x3faddce0	1.3583031
162	0x3fc989aa	1.5745137
163	0x3ed439c8	0.41450334
164	0x3f168e79	0.58811146
165	0xbf6a0a25	-0.9142173
166	0x3f5e83f8	0.8692012
167	0xbc89bec6	-0.0168146
168	0xbea30a92	-0.31844002
169	0xc0410bf7	-3.0163553
170	0xbedf9eac	-0.43675745
171	0x3f8357a8	1.0261126
172	0x3f0a01eb	0.53909177
173	0x3f8c87a6	1.0978897
174	0x3efdf079	0.4959753
175	0xbf973128	-1.1811876
176	0x3f5509f4	0.8321831
177	0xbefee8b7	-0.49786922
178	0xbfb5ca93	-1.4202446
179	0x3f62a492	0.88532364
180	0xbfb9ba4e	-1.4509981
181	0xbf330c1d	-0.6994036
182	0xc02c66a0	-2.6937637
183	0xbfb5364d	-1.4157196
184	0xbece68af	-0.40314242
185	0xc02f3891	-2.7378275
186	0x4026949c	2.6028204
187	0x3fa80757	1.312724
188	0x3e374750	0.17898297
189	0xc001844e	-2.0237002
190	0x3f03c3ad	0.5147045
191	0x3e9a36f1	0.30120042
192	0x3ec6e695	0.38847795
193	0xbfb134d2	-1.3844244
194	0x3f09d4e9	0.538405
195	0xbf28f16d	-0.65993387
196	0x3f2a8547	0.66609615
197	0xbf3a7056	-0.7282766
198	0xbf947546	-1.1598289
199	0x3f85ebe3	1.0462612
200	0xbf168adf	-0.5880565
201	0x3f677aeb	0.9042193
202	0xbef2c5a1	-0.47416404
203	0xbe77719e	-0.24164435
204	0xc018746b	-2.3821056
205	0x3f224927	0.6339287
206	0x3f63076e	0.8868321
207	0xbf681eb7	-0.9067187
208	0x3e8e3ee8	0.2778237
209	0x3df0e974	0.11763278
210	0x3fd9f393	1.7027458
211	0xbfbfb8fb	-1.4978327
212	0x3f7b6bae	0.9821118
213	0x3f8e4ac0	1.1116562
214	0x3f3a1981	0.72695166
215	0x3f814b03	1.0101017
216	0xbe60d916	-0.21957812
217	0xbfa01c30	-1.2508602
218	0xbfbc2ac4	-1.4700551
219	0xbdce3611	-0.10068906
220	0xbfad7645	-1.3551718
221	0x3f6409e4	0.8907759
222	0xbf2694a5	-0.65070564
223	0x3f04b0f0	0.51832485
224	0xbff07bb9	-1.8787757
225	0xbf94a005	-1.1611334
226	0xbe9072b4	-0.28212512
227	0x3fa62c30	1.2982235
228	0x3fc105e8	1.5079927
229	0x3fa4a417	1.2862576
230	0x3f96cba2	1.1780894
231	0xbfe496b2	-1.7858489
232	0xbfea68e3	-1.8313259
233	0x3ea228b5	0.31671682
234	0x3e2d2f33	0.16912536
235	0xbeb1a725	-0.34697834
236	0xbfbfe39a	-1.4991333
237	0xc00e077f	-2.2192075
238	0x3fa694dc	1.3014178
239	0x3f751257	0.9573111
240	0x3bbff8cd	0.005858517
241	0xbf55fb09	-0.83586174
242	0xbfc48c82	-1.535538
243	0x3f172be5	0.5905135
244	0xbef3369c	-0.475026
245	0x3f0db162	0.5534879
246	0xbf03a328	-0.5142083
247	0x3fbb1e67	1.4618653
248	0xbf85f9c6	-1.046685
249	0xbf1368b5	-0.57581645
250	0xbf295f84	-0.6616137
251	0xbcb2755f	-0.021784483
252	0xbf2dc58a	-0.67879546
253	0xbec97171	-0.3934436
254	0x3ec1283e	0.37726015
255	0xbfaba888	-1.3410807

embedding_item.weight f4 [1889, 32]
0	0x3ff4fb17	1.9139127
1	0x40153446	2.3313155
2	0x3ee6adf2	0.45054585
3	0xbfd98501	-1.6993715
4	0x3f041cf5	0.51606685
5	0xbead19b1	-0.33808663
6	0x3f99f970	1.2029247
7	0x3e8c355f	0.2738447
8	0x3f5d103e	0.8635291
9	0xbe741f4a	-0.23840061
10	0xbebc49aa	-0.3677495
11	0xbe79e903	-0.24405293
12	0xc01cc148	-2.449297
13	0x3f7a73ca	0.9783293
14	0xbea51eac	-0.32249963
15	0xbfb5f0e1	-1.4214135
16	0x3f956d64	1.1674008
17	0x3fa42f8f	1.2827014
18	0xbf01c953	-0.5069782
19	0x3f030945	0.5118602
20	0x3e2c5d2d	0.16832419
21	0xbf9b012c	-1.2109733
22	0x3f3daf54	0.74095654
23	0x3e96650b	0.29373965
24	0xbe079cbb	-0.13243382
25	0xbfcd7055	-1.6049906
26	0x3e43b675	0.1911257
27	0xbfde66d1	-1.7375127
28	0x3f3284f2	0.6973411
29	0x4002b475	2.0422642
30	0xbf856ab3	-1.0423187
31	0x3f1979f2	0.599517
32	0x3ee0dadd	0.4391698
33	0x3ec3b801	0.3822632
34	0x3f905816	1.1276882
35	0xbf600ac8	-0.8751645
36	0xbf1e56e9	-0.61851364
37	0xbe722679	-0.23647489
38	0x3fc923f2	1.5714095
39	0x3fa81b61	1.3133355
40	0xc02b4b5f	-2.6764753
41	0x3e71eee8	0.23626292
42	0xbf4f1442	-0.80890286
43	0x3e4d486d	0.2004716
44	0xbfaaa42f	-1.3331355
45	0x3ecd3f6e	0.40087456
46	0x3fc965a1	1.573414
47	0xbf3ee8b0	-0.745738
48	0xbe2aa6ff	-0.16665266
49	0xbeafdfcc	-0.3435043
50	0x3fbed748	1.4909449
51	0xbf02930f	-0.51005644
52	0xbe9f023d	-0.31056395
53	0x3eb7c417	0.35891792
54	0xbefa8829	-0.48932007
55	0xbf38369e	-0.7195834
56	0x3ef73dfb	0.48289475
57	0xbcf33082	-0.029686216
58	0x3fa7d13b	1.3110727
59	0xbec889ab	-0.39167532
60	0xbf88948e	-1.0670335
61	0x3f42d04a	0.76099074
62	0x3f038a4b	0.51382893
63	0x3d8d3704	0.06895259
64	0xbe7aa90e	-0.24478552
65	0x3ee58520	0.4482813
66	0x3f864f8f	1.0493029
67	0xbf4226e2	-0.7584058
68	0x3f6e724c	0.93143153
69	0x3fd00b94	1.6253533
70	0x3fca8b08	1.5823679
71	0x3f87c982	1.060837
72	0x3ed20178	0.41016746
73	0xbf498e36	-0.7873262
74	0x400634f5	2.0969822
75	0xbf467ca7	-0.77533954
76	0x3f29190c	0.66053843
77	0x3f4554e4	0.7708266
78	0xbf0b50ab	-0.54419965
79	0x3fa75661	1.3073236
80	0x3e6147b9	0.22000016
81	0x3f38d96b	0.72206753
82	0x3f1a755e	0.6033534
83	0xc0195999	-2.3960936
84	0x3eb0eeea	0.34557277
85	0x3f0b7725	0.54478675
86	0xbf514e2b	-0.817599
87	0xbeee724e	-0.46571583
88	0x3f7545ef	0.95809835
89	0xbef32884	-0.47491848
90	0x3f8d9690	1.1061573
91	0x3e96bebf	0.29442403
92	0x3f652ce1	0.89521605
93	0xbf28b8ed	-0.65907174
94	0xbf03473b	-0.51280564
95	0xbe13a0c4	-0.14416796
96	0x3fe1e29c	1.7647281
97	0x3e4cbeeb	0.19994704
98	0xbfa246ee	-1.2677896
99	0x3ec5f1bd	0.38660994
100	0x3e7c92da	0.24665394
101	0xbfa2b025	-1.2710005
102	0x3e82c7b5	0.2554299
103	0x3ee6a149	0.45044926
104	0xbeb129d4	-0.34602225
105	0x3ef60a00	0.48054504
106	0xbfa79fe9	-1.3095676
107	0x3f12a944	0.5728953
108	0x3e63c721	0.2224393
109	0xbf2651e3	-0.649687
110	0xbe9aa49d	-0.30203715
111	0xbf4134ba	-0.7547108
112	0x3f0510fb	0.51979035
113	0x3e14c8e9	0.14529766
114	0x3e93eadd	0.28890124
115	0x3fb5f84e	1.4216402
116	0xbfdaac6b	-1.7083868
117	0xbed8cfeb	-0.4234613
118	0xbf62c0d6	-0.88575494
119	0xbe4acafb	-0.19803993
120	0xc0140993	-2.3130844
121	0x3dcf1fc6	0.10113482
122	0xbe818c9f	-0.25302598
123	0x3fa7ea5e	1.3118398
124	0xbfc0c489	-1.5059978
125	0x3e9e6ae6	0.30940932
126	0xbf1f665d	-0.6226557
127	0xbf242d9b	-0.6413209
128	0x3f61b914	0.8817303
129	0xbfa8d643	-1.3190387
130	0xbf85855c	-1.0431323
131	0xbf927701	-1.1442567
132	0x3fa78c7b	1.3089746
133	0xbe9dbe1f	-0.30809113
134	0x3f668f0b	0.90062016
135	0xbf5efe37	-0.8710665
136	0x40188a9a	2.3834596
137	0xc00637a7	-2.0971467
138	0xbf53aa2e	-0.8268155
139	0xbf43ca9c	-0.7648103
140	0xbf16804a	-0.58789504
141	0xbfb849e7	-1.4397553
142	0x3f0b4b9d	0.5441225
143	0xbfb6d6c0	-1.4284286
144	0x3e94aeab	0.2903951
145	0xbe3bfd85	-0.18358429
146	0xbf4982fd	-0.787155
147	0xbf8584c6	-1.0431144
148	0x3eac0940	0.33600807
149	0xbf84c7f1	-1.0373517
150	0xc01c2410	-2.439701
151	0xbce0c51d	-0.027437741
152	0xbf2c637b	-0.67339295
153	0xbfcebd60	-1.6151543
154	0xbf4b46ce	-0.79404914
155	0x3f8e2c43	1.1107258
156	0xbf2dd886	-0.67908514
157	0xbf5140c5	-0.81739455
158	0x3f696a53	0.9117786
159	0x3f91ec2d	1.14002
160	0xbf574c04	-0.84100366
161	0xbd305ebc	-0.043059096
162	0xbfd93782	-1.6970065
163	0xbf85619a	-1.0420411
164	0x3ed7936d	0.42104664
165	0x3fb063ca	1.3780453
166	0x3f5953e3	0.84893626
167	0xbcaeea63	-0.021351999
168	0x3effdd18	0.4997337
169	0x3cae30ee	0.021263566
170	0xbf9af57e	-1.2106168
171	0xbf604912	-0.87611496
172	0x4026f3f8	2.6086407
173	0xbecf20b1	-0.4045463
174	0xbe7f93e5	-0.24958761
175	0xbf25a889	-0.6471029
176	0x3f959ea7	1.1689042
177	0x3f2f9071	0.68579775
178	0x3ffb5c8b	1.9637617
179	0xbf6894ef	-0.90852255
180	0x3d8b1c59	0.06792516
181	0x3fcf1a60	1.6179924
182	0xbf28af45	-0.6589244
183	0x3fd0d7f0	1.6315899
184	0x3f878f56	1.0590618
185	0x3f9734af	1.1812953
186	0x3f066b25	0.5250724
187	0xbf5bb82b	-0.85827893
188	0xbecae4d2	-0.396277
189	0x3e94b633	0.29045257
190	0xbf2f721b	-0.68533486
191	0x3f5f7bbf	0.87298197
192	0xbf92a57c	-1.1456752
193	0x3f01d0b8	0.50709105
194	0xbf815464	-1.0103879
195	0x3e1c6c2d	0.15275641
196	0x3fc67924	1.5505719
197	0x3fbfe36e	1.4991281
198	0xbdb302b8	-0.08740753
199	0xbf76b935	-0.96376354
200	0xbe053891	-0.1300986
201	0xbf98cfb7	-1.193839
202	0xc003a530	-2.0569572
203	0x3f175426	0.59112775
204	0xbff96bb4	-1.9485993
205	0x3ebbcc61	0.36679366
206	0x4011ad13	2.2761886
207	0x3e4e6cc6	0.20158681
208	0xbfb613e7	-1.4224824
209	0xbf62aae0	-0.88541985
210	0xbfc7bc52	-1.5604346
211	0x3f66660c	0.8999946
212	0x3dd4d1de	0.103915915
213	0x3f8d4a24	1.1038251
214	0x400b4a45	2.176408
215	0xbe95447f	-0.2915382
216	0xbf9f59d8	-1.2449293
217	0xbfcdf3c0	-1.6090012
218	0x3ed7c1df	0.421401
219	0x3fb51f59	1.4150192
220	0x3f376654	0.71640515
221	0xbe485592	-0.19563892
222	0xbf86d48f	-1.0533618
223	0x3fb49aad	1.4109703
224	0x3f9297fb	1.1452631
225	0xbec4e3a1	-0.38454917
226	0xbf442c5b	-0.7663018
227	0xbf450a7d	-0.7696913
228	0xbd6e60dd	-0.058197845
229	0xbe4e373e	-0.2013826
230	0xbf431120	-0.76198006
231	0xbef4f75c	-0.4784497
232	0x3ed02031	0.4064956
233	0xbf24bf9d	-0.6435488
234	0xbf1c1bb2	-0.6097976
235	0x3fee9f23	1.8642315
236	0xbe6c9d44	-0.23106867
237	0xbfebe202	-1.8428347
238	0x3f44af57	0.7683005
239	0xbf946ecf	-1.1596316
240	0x3eaab4d9	0.333411
241	0xbf8a0f12	-1.0785849
242	0x3f87b0c1	1.0600816
243	0xc014aeaf	-2.3231618
244	0x3f1c4c93	0.61054343
245	0x3db1c549	0.08680207
246	0xbf060a3a	-0.52359354
247	0xbf9ab806	-1.208741
248	0x3f5c582d	0.86072046
249	0xbf01022f	-0.50393957
250	0x3fd31d73	1.6493362
251	0xc01cb7d0	-2.448719
252	0x3f6d66fd	0.9273527
253	0xbfc76169	-1.5576602
254	0x3fd3a6e9	1.6535312
255	0x3efab761	0.48968032

fc_layers.0.weight f4 [32, 64]
0	0x3e877e57	0.26463577
1	0x3da0c17d	0.07849405
2	0xbe065b73	-0.13120823
3	0xbd957b56	-0.07298915
4	0xbd37d323	-0.04487909
5	0xbf0050bd	-0.50123197
6	0x3e95739c	0.29189765
7	0x3ebdcc8a	0.37070113
8	0xbcbf21d1	-0.023331555
9	0x3ea89e50	0.32933283
10	0x3d3649db	0.044504028
11	0xbdb9469b	-0.0904667
12	0x3d9511a2	0.07278754
13	0x3ea30cd4	0.31845725
14	0xbe8c9daf	-0.27464053
15	0xbec588d9	-0.3858097
16	0x3ec01d4d	0.37522355
17	0xbe075430	-0.13215709
18	0x3e0a3b03	0.13499074
19	0xbdebdeff	-0.115171425
20	0x3e2fc571	0.17165162
21	0x3e7e6709	0.24843992
22	0x3e1f523d	0.15558715
23	0x3e88af67	0.2669632
24	0x3f1bf037	0.60913414
25	0xbe3b4e6b	-0.18291633
26	0xbd8c99bc	-0.0686526
27	0xbd8400a1	-0.064454325
28	0x3e0bc88c	0.13650721
29	0x3cd23a35	0.02566252
30	0x3dda811a	0.106691554
31	0x3e25dd8f	0.16197799
32	0x3ebe6610	0.37187243
33	0x3e953078	0.2913854
34	0x3d4f91ea	0.050676264
35	0x3e9e47e3	0.3091422
36	0xbe71b37a	-0.23603621
37	0xbeba389b	-0.36371312
38	0x3dff9a44	0.12480596
39	0xbcbf7cfc	-0.023375027
40	0x3f2f945e	0.68585765
41	0x3e2ae23a	0.16687861
42	0x3edd8165	0.43262783
43	0xbe6f5ea7	-0.23375951
44	0x3eb5c9c0	0.35505486
45	0xbef21425	-0.47280994
46	0x3e779d12	0.24181011
47	0x3efc32af	0.4925742
48	0xbc235ed3	-0.009971338
49	0x3d47e9df	0.04880702
50	0x3dab2384	0.083563834
51	0x3eae3ce5	0.34030834
52	0x3e1edc68	0.15513766
53	0xbc97f29b	-0.0185483
54	0xbecb6663	-0.39726552
55	0xbdeb6c8b	-0.11495312
56	0xbe726943	-0.23672967
57	0xbe3966e7	-0.1810566
58	0xbe929b04	-0.28633893
59	0x3f062fb6	0.5241655
60	0xbe9480d0	-0.29004526
61	0x3e812d6a	0.2522996
62	0x3e264677	0.16237818
63	0xbed87083	-0.4227334
64	0x3dbe8320	0.09302354
65	0xbe1a0c75	-0.15043814
66	0xbeac826f	-0.33693263
67	0x3b7aabea	0.0038249441
68	0x3e0ea562	0.13930276
69	0x3e347c27	0.17625485
70	0xbe806e32	-0.25084072
71	0xbb577aa5	-0.0032879498
72	0xbd8058e8	-0.062669575
73	0x3eeba738	0.46026015
74	0x3d92f256	0.07175128
75	0x3ae42f4c	0.0017409115
76	0xbe4b524e	-0.19855615
77	0xbe606542	-0.21913627
78	0xbddeba9e	-0.10875438
79	0xbda23666	-0.07920532
80	0x3da672ee	0.0812739
81	0xbc803ada	-0.015653063
82	0x3d55b9d2	0.052179165
83	0x3d7ac53e	0.06122326
84	0x3d07c8bd	0.033150423
85	0xbe5c4e30	-0.21514201
86	0x3d747d7d	0.059689987
87	0xbcbce27a	-0.023057211
88	0xbe013076	-0.12616143
89	0xbc3b27b0	-0.011423036
90	0xbe431aec	-0.19053239
91	0xbe780e26	-0.24224147
92	0x3e043cf8	0.12913883
93	0x3edc9543	0.43082628
94	0x3e790340	0.24317646
95	0x3ea0dbc6	0.31417674
96	0xbdada7ed	-0.08479295
97	0x3e4b688c	0.198641
98	0xbda01625	-0.07816724
99	0x3ea4b1c9	0.3216689
100	0xbea0b5fa	-0.31388837
101	0x3dfcc3f4	0.123420626
102	0xbebb7024	-0.36608994
103	0xbebbad7f	-0.36655805
104	0xbdf55cb7	-0.119805746
105	0x3ebdd067	0.3707306
106	0x3ecb52f7	0.39711735
107	0xbf6945ee	-0.9112233
108	0x3e99e329	0.30056122
109	0xbde7381e	-0.112900004
110	0x3ec7c9e7	0.39021227
111	0x3dea8bc7	0.11452442
112	0xbe0c4522	-0.13698247
113	0x3d7005d1	0.058599297
114	0x3f09ce8c	0.5383079
115	0xbc5452b9	-0.012959176
116	0x3ef75431	0.4830642
117	0x3e8429e4	0.2581321
118	0x3ea85854	0.3287989
119	0xbecb5fb7	-0.39721462
120	0x3d981199	0.074252315
121	0x3e5a6685	0.2132817
122	0x3dd8c074	0.105835825
123	0x3ebb694e	0.3660378
124	0x3d11f59e	0.03563463
125	0xbeb36016	-0.35034245
126	0x3e36c57e	0.17848775
127	0x3e3dc5a3	0.18532424
128	0xbdb759d7	-0.089526825
129	0x3d834f00	0.064115524
130	0xbe808e3d	-0.2510852
131	0x3e3495e3	0.17635302
132	0x3e995bc6	0.2995283
133	0xbe00b580	-0.12569237
134	0x3df39e88	0.11895472
135	0xbec67408	-0.387604
136	0x3e405e31	0.18785931
137	0x3e2e6d91	0.17033984
138	0x3e91ff59	0.28515127
139	0x3c9aaff7	0.018882735
140	0xbd6ddf18	-0.058074087
141	0xbea117df	-0.31463525
142	0xbea02a58	-0.31282306
143	0x3e808434	0.25100863
144	0x3ec3ba6e	0.38228172
145	0x3e558897	0.20852886
146	0xbd9d0b6f	-0.076681964
147	0x3d82ec54	0.06392732
148	0xba7513d6	-0.0009348964
149	0x3c4f7548	0.012662239
150	0xbe72ea87	-0.23722278
151	0x3d440e98	0.04786548
152	0xbe874688	-0.26421
153	0xbddf8777	-0.1091451
154	0xbe47ed9b	-0.19524233
155	0xbe07856b	-0.13234489
156	0x3dfb7d1f	0.12279724
157	0x3ed4942d	0.415193
158	0x3e30a316	0.17249712
159	0x3c953806	0.01821519
160	0x3d8e0c14	0.069358975
161	0xbe50f8ef	-0.2040746
162	0x3c84e42e	0.016222086
163	0xbee1b577	-0.4408376
164	0xbea8defa	-0.32982618
165	0x3ea44a59	0.32087973
166	0x3e7516c5	0.23934467
167	0xbec1feee	-0.37889808
168	0xbddb685b	-0.107132636
169	0xbf002b2e	-0.50065887
170	0xbe4c0886	-0.19925126
171	0xbebe8d1d	-0.37217036
172	0x3d6c5462	0.05769766
173	0xbe1cb780	-0.15304375
174	0x3f00ee3a	0.50363505
175	0x3e549556	0.20760092
176	0x3dd54280	0.104130745
177	0x3cd7d0d9	0.026344704
178	0xbde2b197	-0.11069029
179	0xbc16fc71	-0.00921546
180	0xbf26bb58	-0.65129614
181	0x3f52c085	0.8232501
182	0xbddcd79d	-0.107833125
183	0x3ee856f3	0.45378837
184	0x3db2cb9b	0.08730241
185	0xbdf86d04	-0.12130168
186	0xbe22ffd7	-0.15917908
187	0xbf253221	-0.64529616
188	0xbf24e618	-0.64413595
189	0x3e70c25a	0.23511639
190	0xbd44a065	-0.048004527
191	0xbd9f898e	-0.07789908
192	0x3e3b1f46	0.18273649
193	0xbd5e2159	-0.05423102
194	0xbe1bb383	-0.15205197
195	0x3de83c77	0.11339658
196	0x3d3d0946	0.046151422
197	0x3deaede6	0.11471157
198	0xbd840c86	-0.06447701
199	0x3e7ee91b	0.2489361
200	0x3e38a455	0.18031438
201	0xbd49754b	-0.049184125
202	0x3e9bb1aa	0.30408984
203	0xbddb1f38	-0.10699314
204	0xbe8578cc	-0.26068723
205	0x3c5fd1af	0.013660832
206	0xbe8aa94f	-0.27082297
207	0xbe7fbbfc	-0.24974054
208	0x3e02cc46	0.12773237
209	0xbd053d0c	-0.032528922
210	0x3e3a02f2	0.18165186
211	0xbe04a3dc	-0.12953132
212	0xbdb4ca21	-0.088276155
213	0xbf01ece3	-0.50752085
214	0x3e47acd7	0.19499527
215	0xbdbb4b64	-0.09145239
216	0xbe53cb92	-0.20683125
217	0x3d60c7cb	0.054878037
218	0xbcb31ec8	-0.021865264
219	0x3d8bb9e4	0.06822565
220	0x3e4965d8	0.19667757
221	0x3e6e8e5e	0.23296496
222	0xbdaf79ea	-0.08568175
223	0x3e19d62a	0.15023103
224	0xbeb8f826	-0.36126822
225	0xbe279e4b	-0.16368978
226	0xbe902e65	-0.28160396
227	0x3e6068d5	0.2191499
228	0xbe068736	-0.13137516
229	0xbec056ef	-0.37566325
230	0xbf22c01e	-0.635744
231	0xbe6eb5f6	-0.233116
232	0x3eb1bb24	0.3471309
233	0xbe0cbb0f	-0.13743232
234	0xbf31c186	-0.6943592
235	0x3d03dadb	0.03219114
236	0xbd356860	-0.044288993
237	0x3e12d2c3	0.14338212
238	0x3e2a53e3	0.16633563
239	0xbdb69a16	-0.08916108
240	0xbd8baf5e	-0.06820558
241	0xbd400795	-0.04688223
242	0xbea7ae90	-0.32750368
243	0xbd2e6d80	-0.042584896
244	0xbeae470e	-0.34038585
245	0xbe897b00	-0.26851654
246	0xbe915461	-0.28384688
247	0x3e5d4e35	0.21611865
248	0x3ee1fd7e	0.44138712
249	0x3ecd1bb9	0.40060213
250	0x3ec56012	0.38549858
251	0xbe509ce1	-0.20372345
252	0x3da7e00f	0.08197033
253	0xbead5522	-0.33854014
254	0x3e7f2ec2	0.2492018
255	0x3e1da6e2	0.15395692

fc_layers.0.bias f4 [32]
0	0xbec62b97	-0.3870513
1	0x3e901ddd	0.28147784
2	0xbe6254f6	-0.22102723
3	0xbd981601	-0.07426072
4	0xbf04837f	-0.5176315
5	0xbe16760f	-0.14693473
6	0xbf153d85	-0.58296996
7	0x3ea084e0	0.31351376
8	0xbf32683f	-0.69690317
9	0xbedece86	-0.4351694
10	0xbf086cca	-0.53291
11	0xbeb57816	-0.3544318
12	0x3f0d6126	0.5522636
13	0x3cc57246	0.024102341
14	0xbf020935	-0.507953
15	0xbed038b7	-0.4066827
16	0xbed0015c	-0.40626037
17	0xbeb1d607	-0.34733602
18	0xbecfac1a	-0.4056099
19	0x3ec8b9dc	0.392043
20	0xbd198a83	-0.03748561
21	0xbed5b8ab	-0.41742453
22	0xbedf278b	-0.43584856
23	0xbf00ec29	-0.5036035
24	0xbef24cae	-0.47324127
25	0xbf17ca38	-0.59292936
26	0xbe1e1eac	-0.15441388
27	0xbea93425	-0.33047596
28	0xbea1a03c	-0.31567562
29	0xbe8fe1a4	-0.28101838
30	0xbf10210f	-0.56300443
31	0xbe02610b	-0.12732331

fc_layers.1.weight f4 [16, 32]
0	0x3f1d95fe	0.61556995
1	0xbe3662d2	-0.17811134
2	0x3ebcd56c	0.36881578
3	0xbf5a1534	-0.85188603
4	0xbe9d6e03	-0.30747995
5	0xbe77a01d	-0.24182172
6	0xbe840ef6	-0.25792664
7	0x3e7f55c2	0.24935058
8	0x3eff1e0d	0.49827614
9	0x3f3c1781	0.73473364
10	0x3d7599cd	0.05996113
11	0x3f1f413c	0.62208915
12	0x3d829e7f	0.06377887
13	0x3efa4652	0.48881775
14	0x3f1c7432	0.611148
15	0x3e63b5c6	0.2223731
16	0xbe5e42b8	-0.21705139
17	0x3ecc2a9f	0.39876267
18	0x3e051b36	0.12998661
19	0x3e562c15	0.20915253
20	0x3f30687f	0.6890945
21	0xbd886258	-0.066593826
22	0x3e56b15e	0.20966098
23	0x39b0a03c	0.0003368872
24	0x3d0f0c2d	0.03492372
25	0x3eb6676c	0.3562578
26	0x3e975ca6	0.29562873
27	0x3e2c2efe	0.16814801
28	0xbf0a8480	-0.5410843
29	0x3edad712	0.4274221
30	0x3e3c62ed	0.18397112
31	0x3f0bfce1	0.5468274
32	0x3f55712d	0.8337582
33	0xbf1f07ce	-0.62121284
34	0x3ef9e6c1	0.48808864
35	0x3d67d670	0.056600988
36	0x3e9d0497	0.30667564
37	0xbe71046b	-0.23536842
38	0x3dcc87e2	0.09986855
39	0x3ef753ec	0.48306215
40	0x3f2c3924	0.6727469
41	0x3f183ad1	0.59464747
42	0xbe9276a0	-0.2860613
43	0x3f145b16	0.57951486
44	0xbe0a4e8b	-0.13506524
45	0x3ed922fa	0.42409497
46	0x3f32fa07	0.6991276
47	0x3e4071b6	0.18793377
48	0x3e1806dd	0.14846368
49	0x3f4ea288	0.80716753
50	0x3e666890	0.22500825
51	0x3e9be5de	0.30448812
52	0x3ef08d37	0.46982738
53	0xbc521e8f	-0.012824669
54	0x3e27ad98	0.16374815
55	0xbe5be16e	-0.21472713
56	0x3e72181b	0.23642008
57	0x3e53ca74	0.20682698
58	0x3dde1260	0.108433485
59	0x3e97574d	0.29558793
60	0xbdef9da0	-0.116999865
61	0x3f1ca22c	0.61184955
62	0x3e027d39	0.12743081
63	0x3e6f4845	0.23367412
64	0x3f3cfeb7	0.73826164
65	0xbf09e8c3	-0.5387079
66	0x3f10e92c	0.5660579
67	0xbd922456	-0.07135837
68	0x3e5ef2b5	0.21772273
69	0xbe6b197a	-0.22958937
70	0x3dba3ad8	0.09093255
71	0x3eda4dfa	0.42637616
72	0x3f00e42f	0.5034818
73	0x3efede62	0.4977904
74	0xbeca4f99	-0.39513853
75	0x3f0c09bf	0.5470237
76	0xbdaad44e	-0.08341275
77	0x3efc37ca	0.49261314
78	0x3f36e82d	0.7144802
79	0x3dcc058f	0.09961998
80	0x3ebe4163	0.3715926
81	0x3f532bdc	0.824888
82	0x3dcbab97	0.099448375
83	0x3e8302fa	0.25588208
84	0x3ef96164	0.48707116
85	0xbd848fc3	-0.06472733
86	0xba088853	-0.0005208302
87	0xbdc35c4a	-0.09539087
88	0x3e869255	0.26283517
89	0x3eb124d3	0.34598407
90	0x3e203136	0.15643772
91	0xbcc0390e	-0.023464706
92	0x3db67787	0.08909517
93	0x3f195767	0.5989899
94	0x3d97b98d	0.07408438
95	0x3e959f46	0.29223078
96	0xbe914878	-0.28375602
97	0x3e70f9df	0.23532818
98	0xbf518f4e	-0.8185929
99	0x3ee0247e	0.4377784
100	0xbf100055	-0.56250507
101	0x3eeb4d6e	0.45957512
102	0xbf9c68e8	-1.2219515
103	0x3f3dc6fe	0.74131763
104	0xbdb003ad	-0.08594451
105	0xbda12cf6	-0.07869904
106	0xbf89f59d	-1.077808
107	0x3b812656	0.0039413376
108	0x3f33c848	0.7022748
109	0x3f028c24	0.5099509
110	0x3ef82868	0.48468328
111	0xbf2c3b7c	-0.67278266
112	0xbf8e5c08	-1.1121836
113	0x3e880005	0.26562515
114	0xbeff66ff	-0.49883267
115	0x3f1d618d	0.61476976
116	0x3da3130c	0.07962617
117	0xbf6e1c92	-0.93012345
118	0xbf8a6299	-1.081134
119	0xbf86f642	-1.0543902
120	0xbf4ab0c2	-0.7917596
121	0xbf254dfa	-0.6457211
122	0xbe8ed9b6	-0.27900475
123	0xbf2ee504	-0.683182
124	0xbf436d02	-0.7633821
125	0xbf3e7907	-0.74403423
126	0xbf28e889	-0.6597982
127	0x3ebb2ff2	0.36560017
128	0xbef62cde	-0.48081106
129	0xbb10873b	-0.002205326
130	0xbf855f39	-1.0419685
131	0x3e745450	0.23860288
132	0x3e57c01f	0.21069382
133	0x3f3ddee3	0.74168223
134	0xbf060037	-0.5234408
135	0x3edb7785	0.42864624
136	0x3eefb885	0.46820465
137	0xbc8144bd	-0.015779847
138	0xbfcce322	-1.6006815
139	0x3f60de3c	0.878391
140	0x3f183acd	0.5946472
141	0x3e877702	0.26457983
142	0xbddd4358	-0.108038604
143	0xbe6538a3	-0.22384886
144	0xbefc402c	-0.4926771
145	0xbf627b1a	-0.8846909
146	0xbf5f6398	-0.87261343
147	0xbe7cee86	-0.24700364
148	0x3e4372a5	0.19086702
149	0xbed81ce4	-0.42209542
150	0x3ea44c9a	0.32089692
151	0xbe004b34	-0.12528688
152	0xbf4ad3b9	-0.79229313
153	0x3cea7c05	0.02862359
154	0xbfdd4440	-1.7286453
155	0x3d891b41	0.066946514
156	0x3eaadbf8	0.33370948
157	0xbf841cb5	-1.0321261
158	0xbf1ba35d	-0.6079615
159	0x3f065d81	0.52486426
160	0x3f2c14f7	0.6721949
161	0xbfe70417	-1.8048123
162	0xbcae8516	-0.021303695
163	0xbf193058	-0.5983939
164	0xbe8d4094	-0.27588332
165	0xbf95d82c	-1.1706595
166	0x3e7eb7e2	0.24874833
167	0x3e803e4a	0.25047523
168	0x3eada6d2	0.33916336
169	0x3e64b8ba	0.22336093
170	0x3e390bab	0.18070857
171	0x3e1465b6	0.14491925
172	0xbe1d601c	-0.15368694
173	0x3f19930c	0.5999
174	0x3e5fc97c	0.21854204
175	0xbe24d6cd	-0.16097565
176	0xbeaa5fff	-0.33276364
177	0x3ea9e9fe	0.33186334
178	0x3f4810b9	0.78150517
179	0x3e289876	0.16464409
180	0x3f098144	0.5371287
181	0x3e2624ee	0.16225025
182	0x3e7f7bbb	0.24949543
183	0x3e09451e	0.13405272
184	0x3d811a03	0.063037895
185	0x3f152d55	0.58272296
186	0x3ed586b9	0.41704348
187	0x3f23c321	0.6396962
188	0xbe5be116	-0.21472582
189	0x3e57b15f	0.21063755
190	0x3ef381c6	0.47559947
191	0x3f69bbfc	0.91302466
192	0xbdf86745	-0.12129072
193	0x3db83e08	0.089962065
194	0x3e74a63a	0.23891535
195	0x3f386871	0.72034365
196	0xbfccea49	-1.6008998
197	0x3ee3c216	0.44484013
198	0x3f618f9d	0.8810976
199	0xbecfb068	-0.40564275
200	0xbfaf967c	-1.3717799
201	0xbe3cc467	-0.18434297
202	0x3ed09905	0.40741745
203	0x3ca20a40	0.019780278
204	0x3d377c54	0.044796303
205	0x3c97ca08	0.018528953
206	0x3decd5c6	0.115642115
207	0x3f596783	0.8492357
208	0x3e7b3f56	0.2453588
209	0xbf0ee06f	-0.5581121
210	0x3ec51b9e	0.38497633
211	0xbebc3f86	-0.36767215
212	0xbee2a26a	-0.44264537
213	0x3e973f8f	0.2954068
214	0x3ebfa66d	0.3743166
215	0x3f0afc69	0.542914
216	0xbf1fb129	-0.623797
217	0xbe3e3efe	-0.18578717
218	0x3f3286c4	0.69736886
219	0xbea51b48	-0.32247376
220	0x3f0437d1	0.5164767
221	0x3eb2b794	0.34905684
222	0x3ecca466	0.39969176
223	0xbfa93149	-1.3218166
224	0x3e6ec062	0.23315576
225	0x3eccf156	0.40027875
226	0xbf0d4b87	-0.5519337
227	0x3eea0bb7	0.45712063
228	0xbf5adfac	-0.85497546
229	0x3f0d41c9	0.55178505
230	0xbf83f3dd	-1.0308796
231	0x3f1d5c84	0.6146929
232	0xbc8909c3	-0.016728288
233	0xbfaa3985	-1.3298804
234	0xbf9ebf63	-1.2402157
235	0xbe7249a4	-0.23660904
236	0x3ef5da9d	0.4801835
237	0x3f19526a	0.5989138
238	0xbef0069f	-0.46880051
239	0xc006b4fa	-2.104796
240	0x3d1baa05	0.03800394
241	0xbf1aebc6	-0.6051601
242	0xbf5d8173	-0.8652565
243	0x3ecae737	0.39629528
244	0x3ec09ff0	0.37622023
245	0xbeba75fa	-0.36418134
246	0xbe44ea37	-0.19229971
247	0xbf7053a3	-0.9387762
248	0xbed51f1d	-0.416253
249	0xbda12484	-0.07868293
250	0xbf17cf97	-0.5930113
251	0xbe3f3107	-0.18671046
252	0xbf3cc8f7	-0.7374415
253	0xbf547f1b	-0.8300645
254	0xbe84f457	-0.25967667
255	0x3f08e6b3	0.5347702

fc_layers.1.bias f4 [16]
0	0xbef8ed5c	-0.4861859
1	0xbeb52056	-0.35376233
2	0xbd629bd3	-0.055324387
3	0x3f6d2362	0.92632115
4	0x3f246c22	0.642275
5	0xbf45f7ea	-0.7733141
6	0x3ef4c0e9	0.4780343
7	0x3f0d1289	0.5510641
8	0x3e72b2cb	0.23701017
9	0x3e87e61b	0.26542744
10	0xbf174a52	-0.5909778
11	0x3e7ed622	0.24886373
12	0x3f4d337b	0.8015668
13	0x3f22cba4	0.6359198
14	0xbeb28362	-0.34865862
15	0xbedb6086	-0.4284708

affine_output.weight f4 [1, 16]
0	0xbf9228df	-1.1418723
1	0xbf47797f	-0.77919763
2	0xbf3b2b76	-0.7311319
3	0x408978d2	4.2959986
4	0x4037702e	2.866222
5	0xc01768b4	-2.3657656
6	0x40076561	2.1155627
7	0x40745275	3.8175328
8	0x402aeee7	2.6708314
9	0x4025edeb	2.5926464
10	0xbf8ee49d	-1.1163517
11	0x4084625e	4.1370077
12	0x408e93d4	4.4555454
13	0x404ac930	3.1685295
14	0xbf64ee21	-0.89425856
15	0xbf7c83f2	-0.9863883
