checkpoints/NeuMF_Epoch5_HR0.2024_NDCG0.1923.model (torch, 510215 bytes, 9 tensors)

embedding_user_MF.weight f4 [51, 32]
00000000: caa7 49bf eb83 24be d16b b23f d3c8 b8bf
00000010: 2120 18c0 a522 9ebf a432 953f 89f5 ef3e
00000020: 5d64 5ebf 376b 4d3e 5639 74bf e4ea 75bf
00000030: bc74 923f fb09 793d c36a ba3f f0d8 20bf
00000040: f51c 94bf 0aa3 79bf 285e f73e e675 593f
00000050: 19d2 6c3d fbe6 40be be3e 853f 6189 ca3d
00000060: 6b6f c4bf 0385 f43f d386 28be c597 be3f
00000070: 5f3f ca3e 5411 07bd 4d51 af3f 7eb8 903f
00000080: 798f 09c0 77c0 663f 36e4 953f 7a50 953f
00000090: 9907 02c0 140a 78bf 9b75 fbbf f27a 583f
000000a0: 8c3b 63be 2d36 9dbf f7bc a5be 423d 24bf
000000b0: 6eeb bbbf 8b7f 10bf 7c60 8b3f 717f 72c0
000000c0: eb8c 20c0 7724 ee3f 3600 1140 c4b0 22bf
000000d0: 6468 cf3e fe4a c2be d7c1 9fbe e9f7 533d
000000e0: 9706 97bf 6d35 cd3f f3c8 553d 6de9 81bf
000000f0: 4c61 55bf e6fb 0dbe 8c87 2e40 d3a7 a53e
00000100: 5ff5 da3e 9c78 843d 2669 43bf 9e1e 5e3e
00000110: 718e a03f b35a 353f 647e 0c3f ebc5 8b3f
00000120: 7b76 8cbf bb54 f23c 00db 9c3f 5902 c1bf
00000130: 3dfb fa3e 174a a43f 9922 aa3f 2fa4 2fbf
00000140: 4404 57bc 2507 abbf a64a fb3e 5ae4 2e3f
00000150: 67fc ab3e 29bb f3bf 7ba2 1dbf c57a f73e
00000160: a4e7 f7be 4b48 083f 6c5c 463f 8bfe 54bf
00000170: 8cc5 1bbf 3b42 903f 74a0 d0bd 34e6 2e3f
00000180: e27d 1dbf 38a3 cbbf af7d bb3f 3dd8 173f
00000190: db34 88be 97a1 ce3b 2963 08bd 7866 523f
000001a0: 48a6 cabe 0b83 cfbe 2eaa 79bf 45ea 9f3f
000001b0: 3b0e c2bf 3da4 573e 5952 383f aa7f 7b3d
000001c0: 4c46 06c0 ef8d 153f 5c79 95bf a250 70bf
000001d0: 1e4e e5bf 2ed0 963c f949 9a3f 2671 ccbe
000001e0: 20da 95be 129c 783f c6af e13f 5938 863f
000001f0: d161 6d3f 7933 973f 2991 e3be 8e7c 99bf
00000200: 790c 05c0 6e3a 23bf 16d1 583f ccd4 ec3d
00000210: e5e7 fdbf 015d 0ec0 1dbc 833e a08c 8fbe
00000220: 6903 0e40 0c58 5040 9a11 403f 0239 0a3e
00000230: 2649 95bd 7065 a4be cace 60be 0f61 263f
00000240: c1e2 3140 4d52 4e40 8f82 e3bf 910a 7a40
00000250: 5506 7740 ab9d 46c0 2d4a 103f 0c61 edbe
00000260: fa1a 37bf c923 56bf 24e8 a23f 6cf1 89be
00000270: 9380 bbbd d6ea a6bf f9e0 f43e 5dd3 913e
00000280: 2ef6 5bbf 67b7 8a3f c54d cdbb 50ae ad3e
00000290: b658 bcbe 256e 8d3f af54 ecbf f87f f0bf
000002a0: 4a92 4abf 982d 1740 1c62 40bf 1b50 9fbf
000002b0: 9a7e 94bc 80fb 62bf f338 023f 8317 cdbf
000002c0: 5156 cb3f b3c5 af3e 8cff 20c0 bd55 9e3f
000002d0: bcf9 8dbf 2400 3dbe 98b2 d5be 7990 3f3f
000002e0: 7dfc 56bf 431b b53f cea4 13bf 4073 dc3e
000002f0: 053f 0340 a543 8b3f 1942 e3be 72a0 cf3f
00000300: c28c b4bf 9e53 17be 3c5b 263f 206c 403f
00000310: 9224 1f3f 3bdf 853f 90b4 213e 9da2 b3be
00000320: 1e47 c2be acd5 86bf a690 17bf 0f58 173f
00000330: 0348 1e3f 16b7 b2be e3a4 08c0 a3e5 9ebf
00000340: c0ad 88bf ced8 573f 6aa9 99bf d8c4 393f
00000350: 79ae b63e 0a40 acbf bb48 06c0 bde4 863e
00000360: 19da 593f ff04 2bbe 5ebb 533d 8b7a 67be
00000370: d8ef fabd ef61 d93e c878 ab3f 3c51 bbbf
00000380: 8899 b9be 69b6 3240 63eb 90bf 6451 bbbf
00000390: 34a6 f8be 59ed 0c3e e4e2 9d3f cde5 5abf
000003a0: 13a0 3fbe 17e7 1a40 f4d7 833f ca11 4ec0
000003b0: 1220 babf e199 ff3e 3658 c8bd 64d2 583f
000003c0: 187c 29c0 8fbf 3d40 624c b4bf a7b7 ccbe
000003d0: 10b7 5bbe d086 d03f 4139 543f 11d7 9fbf
000003e0: 0faf a7bf 6a4d 843f 1164 a23f cbb6 9ebf
000003f0: 9d84 0840 8371 2abd 1c0d a9bd d831 ab3f
-0.7877165 -0.16065948 1.3939153 -1.4436287 -2.376961 -1.2354323 1.1656079 0.46867016
-0.8687189 0.2006043 -0.9539999 -0.9606154 1.1441875 0.060800534 1.4563831 -0.6283102
-1.1571337 -0.975144 0.48314023 0.84945524 0.057817552 -0.18838112 1.0409772 0.09889484
-1.5346502 1.9103092 -0.16457681 1.4890066 0.39501473 -0.03297551 1.3696686 1.1306303
-2.1493819 0.9013743 1.171027 1.1665184 -2.0317137 -0.9689038 -1.9645265 0.845626
-0.22190684 -1.2282158 -0.3237073 -0.6415597 -1.4681222 -0.56444615 1.088882 -3.7890284
-2.508601 1.8604878 2.2656379 -0.6355097 0.4050933 -0.3794784 -0.31202576 0.051750097
-1.1798886 1.6031929 0.052193593 -1.0149361 -0.8335159 -0.13865623 2.7270231 0.32354602
0.42765328 0.06468317 -0.7633232 0.21691367 1.254347 0.7084152 0.54880357 1.0919775
-1.0973657 0.029581418 1.2254333 -1.5078841 0.49019805 1.283511 1.3291808 -0.686099
-0.013123576 -1.3361555 0.4908039 0.68317187 0.33591005 -1.9041492 -0.6157605 0.48335853
-0.48418915 0.5323531 0.77484775 -0.832009 -0.6084831 1.1270212 -0.10186854 0.6832001
-0.61520207 -1.5909185 1.464773 0.5931433 -0.26602826 0.006305884 -0.03329769 0.82187605
-0.39579988 -0.40529665 -0.975253 1.2493368 -1.5160593 0.21058746 0.7200065 0.061401047
-2.0980406 0.584197 -1.1677661 -0.93873036 -1.7914464 0.018409815 1.2053825 -0.39930075
-0.2926798 0.97113144 1.7631767 1.0485946 0.9272738 1.1812583 -0.44446686 -1.1991136
-2.0788863 -0.6376103 0.8469404 0.11564025 -1.9836394 -2.2244265 0.25729457 -0.28036976
2.2189581 3.255374 0.7502686 0.13498309 -0.072893426 -0.3210864 -0.21953884 0.6499185
2.779465 3.2237732 -1.7774218 3.906895 3.8597615 -3.1033733 0.56363183 -0.46363103
-0.7152554 -0.83648354 1.2727094 -0.26942003 -0.09155383 -1.3040416 0.4782789 0.2848157
-0.85922515 1.083722 -0.0062653744 0.33922052 -0.3678643 1.1049238 -1.8463343 -1.8789053
-0.7912947 2.3621578 -0.75149703 -1.2446321 -0.018126775 -0.8866501 0.5086815 -1.60228
1.5885717 0.3433052 -2.5155973 1.2369915 -1.1091838 -0.18457085 -0.4173782 0.7482982
-0.83979017 1.4148945 -0.57673347 0.4305668 2.0507214 1.0880018 -0.44386366 1.6220839
-1.4105456 -0.14777991 0.6498296 0.75164986 0.62165177 1.045875 0.15791535 -0.35085002
-0.37944883 -1.0533957 -0.5920509 0.5911874 0.6182863 -0.34905308 -2.135064 -1.241383
-1.0678024 0.8431519 -1.2004826 0.72565985 0.35679987 -1.3457043 -2.098189 0.26346388
0.85098416 -0.16701125 0.05169236 -0.2260534 -0.12252778 0.4245753 1.3396235 -1.4634166
-0.36249948 2.7923834 -1.1321834 -1.4634213 -0.48564303 0.13762416 1.2334867 -0.855069
-0.18713407 2.4203546 1.0300279 -3.2198358 -1.4541037 0.49922088 -0.0978245 0.8469603
-2.648199 2.9648168 -1.408581 -0.39983866 -0.21456552 1.6291142 0.8289986 -1.2487508
-1.3100299 1.0336125 1.2686788 -1.2399534 2.133094 -0.04161216 -0.082544535 1.3374586

embedding_item_MF.weight f4 [1889, 32]
00000000: 1d45 b9bf f503 17bf 999f 70bf 2f7a 15bf
00000010: 3c93 76bf b4cc a1bf 0c0d b0bf 95b6 bdbf
00000020: 8c26 103e 4a16 bbbf ee42 7dbf afe1 ce3f
00000030: ce1f 1740 ab63 d73e cf3f 623f acc9 21c0
00000040: 8a62 49c0 1f2b 3e3f 23f8 003f b7c8 9abf
00000050: b705 ad3f 8530 26bd 97f4 b53f 478d f8bf
00000060: cac7 b03f 40b2 8b3f ee0f efbe 5e3e 7a3f
00000070: a09f c2be ae03 c7be 4738 403f 98fb 82bf
00000080: b698 6c3f 7c16 dfbf 870d 80bf 53ac 0a3f
00000090: 088a 663e 54e4 d43e be40 aebf aef6 97be
000000a0: 294f dd3d 31ac 413f a025 acbf f4aa 35bf
000000b0: 4b8f dd3f b86c e7bf 2c56 05c0 0032 073f
000000c0: 2ae7 e63e a15d 14bf 23ed 58bf e4d8 883c
000000d0: cd64 07c0 4d54 eb3f c9c5 69bd d83d 99bf
000000e0: fd5b df3e 996c 2b40 002f f13e 7055 043f
000000f0: d943 2fbe 5d4d 4ebd 16e8 24bf 42ba 563f
00000100: 16ca 993f 9b20 b8bf 7f19 4a3f f944 97bd
00000110: 5e35 0040 7aca f0bf c656 953f b870 74be
00000120: 075d b3be 94f3 fa3f d16d 103f 3082 513f
00000130: 9d88 af3d 49bb 923e 76da 17bf f090 3d3f
00000140: 4b1c 4c3f 6973 45c0 ffc9 6abe 54a7 75bf
00000150: a5f6 0140 12bd 0fc0 0722 a73f 71fa 14c0
00000160: b3ea 183e a2db 603f 5501 9b3f 4df0 973f
00000170: 1a59 063f b2f3 3240 02d1 743e 1e01 cf3e
00000180: 94d1 033c 1a80 313f c50f 303d 9cae 12be
00000190: 7bc4 2e3d 0eeb c3bf 3f74 5f3e 5c08 013e
000001a0: 549f fd3f a515 dd3f f385 23bf 1c78 e03f
000001b0: 2bbf 92bc 24b2 03c0 0491 0ebf 949c febe
000001c0: 3423 e43e faa6 063e 6d48 2dbd c795 57be
000001d0: 460e eb3e 3649 8ebf 3fde 28bf 1836 a83f
000001e0: 591e 4ac0 33f3 f7bd 7179 31c0 00b9 263e
000001f0: f57b 3740 0178 41c0 bfdf 6a3e 7fad a93f
00000200: 0d01 56bf fda8 0740 98f6 3b3e 6814 ba3f
00000210: 0dd4 933f db24 cebf e25d a1bf a1d7 30be
00000220: a578 bf3e bb18 a63e 8c9d da3f 8ef9 34bf
00000230: f7de ac3e 09ed 8040 0ba3 41c0 8102 3f3f
00000240: 10e3 03bf 6553 edbf 427b 0b3f acbb dd3e
00000250: 345f eabe 8106 96be e20e b6be 4f21 f8be
00000260: 57bc 103e 929b ba3e c561 4e3f 7aaa 55be
00000270: 079d 293f b361 2fc0 70b4 0fbf 59d7 ab3f
00000280: d2d9 033f 6b3b 37bf 96dd 37bf c01d 83bf
00000290: 482a dbbe 9e99 e93f 39cf 843d f115 95bf
000002a0: b6c1 ff3f 34f8 e23f 01d6 79bf b906 c13e
000002b0: 5c9a eabe 6184 1440 78df e9bf f8b1 fe3e
000002c0: 812b e9bd 34fa 8b3f fbb9 48bf f491 7abe
000002d0: b2bd cbbe 77c5 883f ac53 38bf 2a03 623f
000002e0: 8842 73bf beec 1d40 50da c6bf 4680 0cbf
000002f0: 1a11 743d f2ba 753d 658f 6e3f 6c51 14bf
00000300: 3b77 f2be ff49 13bf 54ad a1bf 5169 10c0
00000310: 9e37 633e f9e7 c73f 7bca d3be ee71 1a3f
00000320: c7a5 aa3e e292 d1bf 125b 7c3f 7ece aebe
00000330: 644e f53f 7b77 31c0 1b58 723e 2995 a43e
00000340: f962 de3e d573 0ac0 38e9 86bf 05d1 4bbf
00000350: b5ba 95bf 2282 ccbe 2a6d 933e f608 0a3f
00000360: 65c4 37bd 9847 723f 036b 8d3f 5ed9 9fbf
00000370: b3b0 893e 820d 823d 795c 9cbf 7457 1bbe
00000380: 7bc8 44c0 5146 a63f 9367 0fc0 16dd a4bf
00000390: ce2d 7a3f 4e7f fc3e a6cb 20bf d95c 543f
000003a0: 7215 0a3f eaff 0d40 efb7 16be 6476 8a3e
000003b0: 07cb dcbf 2de6 553f 7faa 2f3e 717d cbbf
000003c0: 3f91 27bf 3018 b0bf 0c32 debe 3a61 003f
000003d0: fe77 c63e a74b 7f3f 1f38 abbf 2a6f c03e
000003e0: 75ab ecbe 18b3 b63e 64f4 9b3d 5118 123f
000003f0: 7395 363f 665b bebb a867 21c0 a3b9 a6bf
-1.4474217 -0.5899041 -0.93993527 -0.5838956 -0.9631841 -1.2640595 -1.3753982 -1.4821345
0.14077204 -1.4616177 -0.9893025 1.6162623 2.3613162 0.42068228 0.88378614 -2.527934
-3.1466393 0.7428455 0.50378627 -1.2092503 1.3517369 -0.040573616 1.4215268 -1.9418114
1.3810971 1.0913773 -0.4669184 0.97751415 -0.3801241 -0.38869995 0.7508587 -1.023303
0.9242052 -1.7428737 -1.0004128 0.54169196 0.22513592 0.4158045 -1.3613508 -0.2968039
0.10806114 0.7565337 -1.3448982 -0.7096398 1.7309355 -1.8080053 -2.0833845 0.5281067
0.4509824 -0.57955366 -0.8473684 0.016704984 -2.1155274 1.8385102 -0.05707339 -1.1971998
0.4362487 2.6785033 0.4710617 0.5169287 -0.17115726 -0.050366748 -0.64416635 0.83877957
1.2014797 -1.438495 0.78945154 -0.07386202 2.0032573 -1.8811791 1.1667106 -0.23871124
-0.35031912 1.9605584 0.56417567 0.81839275 0.08570979 0.28658512 -0.5931772 0.7404928
0.7973067 -3.085169 -0.22928618 -0.9595845 2.030679 -2.245915 1.3057259 -2.3277857
0.1493328 0.87835133 1.2109782 1.1870209 0.5247971 2.796124 0.23907855 0.4043054
0.008045573 0.6933609 0.04298379 -0.1432442 0.042667847 -1.5306108 0.21821688 0.12600845
1.9814248 1.727223 -0.63876265 1.7536654 -0.017913422 -2.0577478 -0.55690026 -0.49728835
0.44558108 0.13149634 -0.0423054 -0.2105323 0.45909327 -1.1116092 -0.6596412 1.3141508
-3.1581023 -0.121069334 -2.7730372 0.1628151 2.8669407 -3.0229495 0.22936915 1.3256072
-0.83595353 2.1196892 0.18355787 1.4537477 1.1549088 -1.6104997 -1.2606776 -0.17269756
0.37396732 0.32440743 1.707933 -0.7069329 0.3376386 4.028935 -3.0255764 0.74613196
-0.51518345 -1.8541075 0.5448495 0.43307245 -0.4577576 -0.29301837 -0.3555823 -0.48462912
0.14134346 0.36446816 0.80617934 -0.20865813 0.6625523 -2.740338 -0.561347 1.3425094
0.5150424 -0.7157504 -0.7182249 -1.0243454 -0.42805696 1.8250005 0.06484837 -1.1647321
1.9980991 1.7731996 -0.9759217 0.3770044 -0.45820892 2.3205798 -1.8271322 0.49745154
-0.11385251 1.0935731 -0.78408784 -0.24469739 -0.39793164 1.0685261 -0.72002673 0.8828608
-0.95023394 2.4675746 -1.5535374 -0.5488323 0.05958662 0.059992738 0.9318755 -0.5793674
-0.4735659 -0.57534784 -1.263102 -2.256428 0.22189185 1.5617667 -0.41365418 0.6033009
0.33329603 -1.637295 0.9857646 -0.34141916 1.9164548 -2.7729175 0.23666422 0.3214505
0.43434885 -2.1633198 -1.0539923 -0.79615813 -1.1697603 -0.39943033 0.28794223 0.53919923
-0.04486503 0.94640493 1.1048282 -1.248821 0.26892623 0.06350233 -1.221572 -0.1517008
-3.0747364 1.2990209 -2.2406967 -1.287997 0.9772614 0.49315876 -0.6281074 0.82954174
0.5393897 2.2187448 -0.14718603 0.2704345 -1.7249459 0.83554345 0.17154883 -1.5897657
-0.65456 -1.3757381 -0.43397558 0.50148356 0.38763422 0.9972481 -1.3376502 0.3758481
-0.4622456 0.35683513 0.07614973 0.57068354 0.7132179 -0.0058092354 -2.5219517 -1.3025402

embedding_user_MLP.weight f4 [51, 32]
00000000: e7ee b7bf 2c0e b43f ac23 b6be f902 88bf
00000010: dfa4 b03e e4ed 2fbf e17a 16bf eda1 96bf
00000020: 2a12 c43f 6288 e6bf 04d8 6fbe 02d9 30bf
00000030: 83dd bebd 233e acbf acca ce3f d0cf 84bf
00000040: d50f 613e 9085 033e cea6 64be 97b4 ec3e
00000050: 6388 9cbe 9338 94bf 96e4 9b3f b7c1 0fc0
00000060: adc3 31bf 8f1b 3c3f d2d9 1e3e 2a65 dbbe
00000070: 0d17 35bd e2a3 33bf f8d2 463e 8665 f63d
00000080: b264 153f 5a19 d0be 30d1 61bf c0fb 553d
00000090: 0320 823e 5358 c83e 3bec 6b3f 4755 e0bf
000000a0: e4b9 fa3e 330e 36bf 7e71 86bf 6e5e da3a
000000b0: bd1e da3f de17 9fbf 31e0 79bf e8cf 5c3e
000000c0: 51eb 5bbf 08ae cfbe a6a6 43c0 ec8a 95be
000000d0: 2a74 a1bd 0f1a e1be 6942 493f bbab dcbd
000000e0: 8b34 96bf 4a91 aebe 0972 a23f 1c8b f2be
000000f0: ec7e 5d3f 4f00 cf3e 05e9 98bf 2e4d ea3f
00000100: d5b8 983f 18ac 2e3f d40c a63f e7c2 be3e
00000110: 02d7 6c3f bce4 813f 4e12 efbf d6fc 8a3f
00000120: b682 2ebe b77b 663f b5e5 eabf 2d2a 58be
00000130: c964 803e 3f27 3e3f 9369 463f 0e1b d7be
00000140: 6b6a d23e 9a5c cf3f 359b 76bf 5820 2e3f
00000150: 16fa 2f40 fec5 373f 19f2 493f 5618 86bf
00000160: 82b5 df3e e2d8 a43e d9ac 823f 9a20 4bbe
00000170: 49f0 0240 fcaf a13d 7062 613f 5968 9c3f
00000180: 9cb1 2abf 2a72 c3be e36b bebe 0236 8c3d
00000190: c016 62bf 02f3 a0be c0ef 2ebe c4f8 84bf
000001a0: cbd9 9a3d a7f0 cf3e a614 bd3e 17da f0bf
000001b0: e581 1ebf 2ed6 01bf 18e9 763f 2dfb 32bf
000001c0: 3f3d 233f c69b ee3e a2c7 8ebf 11bb 0540
000001d0: afe5 a23f 340b 93be 7769 3a3f b364 f03e
000001e0: b0fb a5be 5c21 c0be 28e1 58bf ca09 8c3d
000001f0: 6cb8 37bd a935 37be 3dfd d3bf 44f8 29bf
00000200: a503 1c3f e8cf 80be 21cd a43f 7ca9 1a40
00000210: 52c7 ef3f 2d77 35bf c91c 303e 69e8 c6bf
00000220: b802 16bf f160 9e3e dbd7 bd3f 767b f73f
00000230: 3619 d4bd 04b1 41be 7a5e af3e cb4f aa3f
00000240: bf7b 933f b1ed 9c3f ff10 a93e 1505 893f
00000250: 67b8 4bbf abc6 2a40 89e5 623d 8663 773f
00000260: 3973 0cbf b775 db3e f380 29be 7307 113f
00000270: b8f0 403f 5878 8a3f 35b1 f03e d8ba dc3e
00000280: 7864 a7be 8286 b63f ae22 d13f 0a4f 0b3f
00000290: 93a1 843f a81a 85bf 6189 573f 614f 82be
000002a0: 47eb b6be 11bb 43c0 48b7 98be bb19 873f
000002b0: dcb2 8d3e c371 a13f 6962 073f 0fda 8fbf
000002c0: b606 803f d2fc adbe 185b b8bf c4c5 813f
000002d0: 7743 edbf 210b 3ebf 6006 45c0 0bc8 91bf
000002e0: a18b c2be 307a 17c0 5048 4540 d908 c03f
000002f0: 70a7 8d3d b502 01c0 561b b33e 057e e43e
00000300: b3c8 963e f263 6cbf 3f10 653f f57c 3fbf
00000310: 6e94 1e3f d3a7 4dbf a601 9bbf 1735 983f
00000320: d4c4 72bf d488 193f f6b3 24bf 3618 70bd
00000330: 3f9e 23c0 cba5 c23e ee3f 693f dec0 0fbf
00000340: 613e 883e 6dc3 733b 7ea2 bc3f 76a2 f9bf
00000350: f55c bc3f 3fa1 d33f 4361 9f3f 5b80 7e3f
00000360: 4315 23be cffb eebf 602c f6bf 612a dfbd
00000370: 21d4 91bf c691 853f 4bf1 06bf 88d5 3a3f
00000380: a671 09c0 fa90 82bf 2403 abbe a128 c73f
00000390: 73d8 ca3f 48d7 b63f 951c c53f d657 06c0
000003a0: 95d8 c6bf 8087 303f 2443 a63e 11f9 90be
000003b0: 03ac afbf c2a7 15c0 9966 a13f 58ba 743f
000003c0: 8ffe 83bd 58f8 69bf cb8d a9bf 8f71 293f
000003d0: 34ea 18bf 074a 603f d73a 08bf ed7b ce3f
000003e0: da67 babf e025 e2be 157e 50bf 2402 63be
000003f0: 6431 46bf 53f7 5cbf dfbb d53e 247a c1bf
-1.4369782 1.4066825 -0.3557409 -1.0625907 0.34500787 -0.6872237 -0.5878125 -1.1768166
1.5318043 -1.8010371 -0.23422247 -0.6908113 -0.09319594 -1.3456463 1.61556 -1.0375919
0.21978696 0.12843919 -0.22329256 0.4623153 -0.30572805 -1.1579765 1.2179134 -2.2461984
-0.694392 0.7347955 0.1551278 -0.4285062 -0.044211436 -0.7017194 0.19416416 0.12031083
0.58356774 -0.40644342 -0.8820982 0.05224204 0.25415048 0.39129886 0.92157334 -1.7526025
0.48969948 -0.71115416 -1.0503385 0.0016660222 1.704063 -1.2429159 -0.97607714 0.21563685
-0.8590594 -0.40562463 -3.0570464 -0.2920755 -0.07883485 -0.43965194 0.7861696 -0.107749425
-1.1734785 -0.34095222 1.2691051 -0.47371757 0.8652179 0.40429923 -1.1946112 1.8304803
1.1931406 0.68231344 1.2972665 0.37258074 0.92515576 1.0147929 -1.8677461 1.085841
-0.1704205 0.90032524 -1.8351351 -0.21109839 0.25076893 0.74278635 0.77504843 -0.4201283
0.41096815 1.6200135 -0.9633058 0.680181 2.749639 0.7178649 0.78885037 -1.0476177
0.43693167 0.32196718 1.0208999 -0.19836655 2.0459158 0.078948945 0.8804083 1.2219344
-0.6667726 -0.38173038 -0.37191686 0.06846239 -0.88315964 -0.314354 -0.17083645 -1.0388417
0.07561072 0.4061329 0.36929816 -1.8816556 -0.61916953 -0.5071744 0.9644942 -0.69914514
0.6376533 0.4660322 -1.1154673 2.0895426 1.2726344 -0.28719485 0.72817177 0.46951827
-0.32418585 -0.3752545 -0.8471856 0.068378046 -0.044853613 -0.17891563 -1.6561657 -0.6639445
0.6094306 -0.2515862 1.28751 2.4165945 1.8732703 -0.7088497 0.1719848 -1.5539676
-0.585979 0.30933335 1.4831499 1.9334552 -0.10356371 -0.18915182 0.34251767 1.3305601
1.1522139 1.2260038 0.3302078 1.0704676 -0.7957825 2.6683757 0.055394683 0.96636236
-0.54863316 0.42863247 -0.16553096 0.5665199 0.7536731 1.0817976 0.47010198 0.431113
-0.3269384 1.4259799 1.6338708 0.5441748 1.0361809 -1.039876 0.84194 -0.25451186
-0.35726377 -3.0582926 -0.29827332 1.0554727 0.2767552 1.2612842 0.52884537 -1.1238421
1.0002048 -0.3398195 -1.44028 1.0138478 -1.8536214 -0.7423573 -3.078514 -1.1389173
-0.37997153 -2.3668327 3.0825386 1.50027 0.06916702 -2.0157902 0.34981793 0.44627395
0.29449996 -0.92340004 0.89477915 -0.74800044 0.61945236 -0.80334204 -1.2109878 1.1891202
-0.94831586 0.5997441 -0.643371 -0.05861684 -2.5565336 0.38017115 0.91113174 -0.56153667
0.2661009 0.003719534 1.4737089 -1.9502704 1.4715868 1.6533583 1.2451557 0.99414605
-0.1592608 -1.8670596 -1.9232292 -0.10896755 -1.1392862 1.0435112 -0.52711934 0.7298207
-2.1475616 -1.0200493 -0.33400834 1.5559274 1.5847305 1.4284449 1.5399348 -2.099111
-1.5534846 0.68956757 0.324731 -0.28315023 -1.3724369 -2.3383641 1.2609435 0.9559684
-0.064450376 -0.9139457 -1.3246397 0.661889 -0.59732366 0.87612957 -0.5321478 1.6131569
-1.4562943 -0.4416952 -0.81442386 -0.22168785 -0.77419114 -0.86314887 0.41744897 -1.5115399

embedding_item_MLP.weight f4 [1889, 32]
00000000: 252a 1f40 91c4 0b40 ab89 843e cd50 0fc0
00000010: 45fb 253f 9457 8fbe abda b43f eb76 c4bd
00000020: d290 573f 11bc 14bd dcf9 e5be 792e 32be
00000030: 6897 3ac0 f83e 603f 1de5 0ebf b6a5 cfbf
00000040: 9c21 af3f cfed ce3f 8c3c 59bf 89d9 2a3f
00000050: 6931 a13d 1faa 8abf 8e72 193f e00e 433f
00000060: f395 3fbe 6053 02c0 6806 443e a4e5 5cbf
00000070: 3efc 2c3f 05db 0140 bcca 63bf 0f22 603f
00000080: c0f9 413e bf40 093f 90b4 7f3f dbc0 01bf
00000090: f099 b8bf 115a 50be 5850 b83f 133f d73f
000000a0: fa39 33c0 0ed2 943e a84c 6cbf b3e7 633e
000000b0: a3fb b4bf cfd3 863e da79 ca3f 4483 39bf
000000c0: 6b55 89bd e421 45bf ae3f c23f 1fd8 e6be
000000d0: 95d1 3bbe 3f5e a33e d707 2cbf 6fd0 2bbf
000000e0: 9d33 5c3f b4b4 80be ea8c a83f 0232 b4be
000000f0: 1784 22bf 1d46 8e3f 1423 ed3e 6e86 43bc
00000100: 7a3e d1be 326c 283f 8740 893f a762 87bf
00000110: cb0f 943f ed93 0640 1b7a ce3f ca2f 883f
00000120: 814b a53e 4f93 8cbf c845 2440 b201 22bf
00000130: 8c4e 103f 6a0a 183f 88c5 14bf 1d8f 973f
00000140: 5553 da3c eb02 593f a88d 883f 6596 31c0
00000150: 99a6 b03d 118f bc3e e3d5 27bf c55c 3bbf
00000160: 55af 803f 51f1 04bf c227 b13f 84d1 103d
00000170: 3fa0 253f fdd4 9abe 0ea9 47bf 8823 c9be
00000180: 8e07 f03f 79a5 57be 0025 a2bf 2014 0a3f
00000190: 8cf2 4a3e 1232 bdbf 8447 523f 5d7c 5e3f
000001a0: 17d0 dcbe 9664 2d3f 72f1 d0bf 73ea 343f
000001b0: 73a8 513e 591b 0abf dbc2 33bf daaf ecbe
000001c0: 7860 b53e 4ed5 993e 1b71 acbe 1c58 d63f
000001d0: b590 debf c70f babe fa60 8dbf 3b30 153d
000001e0: 49b6 36c0 f56d d93e ae5a 5ebe 469c a63f
000001f0: a90b 9fbf c5a8 963e 6952 37bf 4d06 86bf
00000200: 1ac4 833f d47b 7bbf a4b8 c8bf b88b 98bf
00000210: bfdb aa3f b9ec bebd 9ffb 813f 523d 22bf
00000220: 2ad7 2540 1896 fcbf d4b2 13bf 8080 c6be
00000230: 281d f1be 7f44 b6bf b682 1c3e 22bc a2bf
00000240: 7a49 0ebd 124a 2abf b4a9 2ebf 6cc4 dcbf
00000250: 5dc9 02be b9ba 89bf 3b0b 28c0 32e5 9a3e
00000260: 4c15 34bf fb57 04c0 cc85 63bf 4de7 a03f
00000270: b2e4 89bf 155e 5abf 0233 353e 34e1 ae3f
00000280: 231c 4cbf a9eb 043e c949 dcbf 6523 b4bf
00000290: dfe6 953e 6a34 e63f 66ad ab3f 4b73 c7bd
000002a0: d789 a23e be84 543c 6114 45bf f234 55bf
000002b0: b689 2740 aefc bebe f1a9 87be d83e 44bf
000002c0: 7845 933f a0c4 643f cb93 0740 df74 26bf
000002d0: acf4 b13e a749 ab3f 59f0 e8be d19a f73f
000002e0: c522 733f ecac 813f cc3f 393f ff51 44bf
000002f0: 0966 03bf c8c2 e53e d0de 18bf 554f 7c3f
00000300: 92de 4fbf 1b54 223f 611c a0bf 1a42 9d3e
00000310: ac13 e53f e47d cf3f a1b5 943d 5d0b 80bf
00000320: 16bd 88be 5329 7cbf b207 1fc0 09d5 1c3f
00000330: 7545 03c0 4e8b c93e 7a65 0d40 b77d cdbd
00000340: b772 e4bf 7588 7ebf 59c4 bfbf bb85 2c3f
00000350: 1930 4c3e 70dc 8c3f ebc8 1040 85b1 cebe
00000360: 6b04 87bf e192 e4bf 8d87 033f 7299 cd3f
00000370: fe95 4f3f ae38 36bd 141c b7bf 998c c23f
00000380: efbf 8f3f 0d86 d3be 5be6 cdbe e567 22bf
00000390: 1b9a 97bd 5cf9 8a3d 3c65 23bf da79 eebe
000003a0: 8e88 9c3e c6e1 5fbf 10d4 97be 7ee9 0840
000003b0: 5185 a4be fc6e 03c0 85f5 783f 7e63 a0bf
000003c0: aaba 043f f425 acbf 432b af3f fdfe 1dc0
000003d0: 4929 b73e c804 243e 3727 02bf a0c5 a6bf
000003e0: 6777 913f 93da 0abf bb2e d63f 9c90 1ac0
000003f0: 63a0 803f 780f d3bf a92d d33f 98c6 bf3e
2.4869473 2.1838725 0.25886282 -2.2393067 0.6483653 -0.27996504 1.4129232 -0.09592994
0.84205353 -0.036312167 -0.4491719 -0.1740054 -2.915491 0.8759608 -0.5581835 -1.6222446
1.3682132 1.6166323 -0.8485801 0.6673818 0.07870752 -1.0833167 0.5994042 0.7619457
-0.18709545 -2.0363388 0.19143069 -0.86287904 0.6757239 2.028993 -0.88981223 0.8755197
0.18942928 0.5361442 0.9988489 -0.506849 -1.4421978 -0.20346858 1.4399519 1.6816124
-2.8004136 0.2906651 -0.9230447 0.22256355 -1.4139293 0.26333472 1.5818436 -0.7246592
-0.06705745 -0.7700484 1.5175683 -0.45086762 -0.18341668 0.31907842 -0.6719946 -0.6711492
0.86016256 -0.25137866 1.3168004 -0.35194403 -0.63482803 1.1115147 0.46315825 -0.011933906
-0.40867978 0.6579009 1.0722817 -1.0576981 1.156732 2.1027787 1.6131014 1.0639584
0.32284167 -1.0982455 2.566759 -0.63283837 0.56369853 0.5939089 -0.5811391 1.184055
0.026651064 0.8477008 1.066823 -2.7748044 0.08625526 0.368279 -0.6556074 -0.7318843
1.0053507 -0.5193072 1.3840258 0.03535606 0.6469764 -0.30240622 -0.7799233 -0.3928492
1.8752306 -0.21059217 -1.2667542 0.5393696 0.19819087 -1.4780905 0.82140374 0.86908513
-0.4312751 0.67731607 -1.6323683 0.7067024 0.20474415 -0.5394798 -0.702192 -0.46227914
0.35425162 0.3004555 -0.33680043 1.6745639 -1.7387911 -0.36340162 -1.104522 0.03642295
-2.8548758 0.42466703 -0.21714279 1.3016441 -1.2425433 0.29425636 -0.7161012 -1.0470673
1.029422 -0.9823582 -1.5681348 -1.1917639 1.3348311 -0.09322495 1.0154914 -0.6337482
2.5912576 -1.9733305 -0.57694745 -0.38769913 -0.47092557 -1.4239653 0.15284237 -1.2713664
-0.03473804 -0.6651927 -0.68227696 -1.7247443 -0.12772126 -1.0760108 -2.6256855 0.30252987
-0.70344996 -2.06787 -0.8887603 1.2570587 -1.0772917 -0.8529981 0.17695239 1.3662477
-0.79730433 0.12980522 -1.7210017 -1.4073302 0.29277703 1.7984746 1.3412292 -0.09738787
0.31745788 0.012971101 -0.7698422 -0.83283913 2.6177802 -0.37302154 -0.26496843 -0.7665839
1.1505575 0.89362526 2.1183956 -0.6502208 0.34756982 1.3381852 -0.4549587 1.9344121
0.9497493 1.0130897 0.7236297 -0.76687616 -0.5132757 0.4487517 -0.59714985 0.9855855
-0.8119899 0.63409585 -1.250866 0.30714494 1.7896628 1.6210294 0.072612055 -1.0003468
-0.2670676 -0.98500556 -2.4848447 0.61262566 -2.0511143 0.39364094 2.2093186 -0.10033744
-1.7847508 -0.99426967 -1.4981796 0.67391557 0.19940223 1.1004772 2.262263 -0.40369812
-1.0548223 -1.7857324 0.5137871 1.6062453 0.81088245 -0.044487648 -1.4305444 1.5199157
1.1230448 -0.4131321 -0.4021481 -0.6343978 -0.0740244 0.06785843 -0.63826346 -0.4657734
0.30572933 -0.8745388 -0.29653978 2.1392512 -0.32132962 -2.053649 0.97249633 -1.2530363
0.51847327 -1.3449082 1.3685077 -2.4686882 0.35773686 0.16017449 -0.5084109 -1.302906
1.1364564 -0.5423977 1.6733011 -2.4150763 1.0048946 -1.6489096 1.6498309 0.37456203

fc_layers.0.weight f4 [32, 64]
00000000: 2646 e33e 2090 bf3d 3e7c c1be 8126 14be
00000010: 4f6e c1bd fe72 19bf d8a4 9e3e 0c02 023f
00000020: 020e 20be 92cc c33e efc7 583e 93ae 55bc
00000030: 5583 573d 6c69 b73e d8de edbe 5447 0dbf
00000040: fb2c c23e 9ef6 5ebe cefd d43d 2ddf 04be
00000050: 8a5a 703e 821f d23e 0770 8b3e 766b 943e
00000060: dd32 4e3f 6559 a0be 1fa9 7bbe 1ac0 d6bd
00000070: 7965 703e c2f0 9f3d d8d4 533e 6b41 473e
00000080: db63 123f 8884 073f 6ea8 8dba e197 863e
00000090: 985e b0be 77fb 0bbf 267a c6bc d9de f83c
000000a0: 14d9 703f f362 a13e f83f 0f3f fa3a 7fbe
000000b0: 864b f33e b4cf 0ebf 3f83 883e 13d3 413f
000000c0: 9a4f 92bd 0327 51bd f085 ecbb e591 ef3e
000000d0: 3826 9d3c fb10 1bbd 1908 16bf f11b 72be
000000e0: 4678 94be ef88 95be ca7b a2be d01b 123f
000000f0: 2a3a a6be 3642 c93e 3c89 513e ee15 eabe
00000100: f64e 503e b1e8 5fbe 705c e3be fe6c 093e
00000110: da25 a03e 4201 613e 4562 cebe fba1 d8bd
00000120: 2493 32be 1694 233f 782d 433e 399b 3f3d
00000130: 4dfe 9abe 0491 a9be 7878 4ebe 74bc e9bd
00000140: cfc0 0d3d f265 92bc f291 12bd 611b a53d
00000150: 3941 683d c50f 92be 8eb9 9c3d 1aef cfbc
00000160: d781 66be 487c 74bd 0309 8bbe f09c 8cbe
00000170: 6f45 643e 2b33 1c3f 4cd8 b63e f76c bc3e
00000180: db80 d6bd a73c a23e 9474 74be 7bb4 ad3e
00000190: bb32 ffbe bea2 0e3e ee48 06bf 90c6 1dbf
000001a0: 7b0e f6bd b975 f73e 9ac3 cf3e 5001 aebf
000001b0: 5055 de3e 2759 2dbe 336d 2c3f 0500 be3d
000001c0: 3f4a 74be 6283 99bb 470d 2d3f bc5c 153e
000001d0: 3fcf 493f cf17 9c3e e55b d73e d001 01bf
000001e0: 289e f73d 65f0 533e 2fce 4d3d d774 d93e
000001f0: dd15 443e e221 bcbe ff24 aa3e 2cc9 dd3e
00000200: cf4b 71bd 6437 e13c 3e6e b9be b77d fd3d
00000210: 4101 be3e f78b 57be 12f0 8a3d 7e58 01bf
00000220: 39e1 4b3e 2aec 9d3e fba7 b43e a12e 6137
00000230: 454c e7bd 797f cfbe d3e7 f2be 7d37 8b3e
00000240: 59a2 fb3e c634 713e 99a3 18be 091e 123e
00000250: 001d a63d 244a 7dbd 9015 9bbe 0561 f43d
00000260: 7c84 93be fcfc a3bd 20c7 b9be 6530 64be
00000270: 9dfb af3d ee98 223f 46af 7f3e 062a 143d
00000280: 749f a73d ca3c cebe 196b 1abd fe10 19bf
00000290: 3247 1ebf 5f4e ea3e d871 9c3e cf35 bdbe
000002a0: 901a 1ebe bd42 16bf a7c9 97be 20f7 d5be
000002b0: adff c93d 10ed 4ebe 1833 413f 1893 293e
000002c0: 561a 7c3e 96ab 22bd 6fbb 2abe 044b be3d
000002d0: 213f 55bf 17d0 7c3f 5a42 64be f42a f83e
000002e0: 0b71 2f3e 867b 01be 4b6c 61be 3821 53bf
000002f0: a794 56bf ff06 7a3e 3263 0c3d cc76 abbd
00000300: e1c3 933e dbe1 233d b759 61be df0a 603e
00000310: ddcb 023e 71ed 0e3e cbc6 fdbd 8554 8f3e
00000320: b140 763e a683 19be d0b4 e43e f60a bfbd
00000330: 22dc 12bf e4ed 66bd 78a8 b7be a80f b9be
00000340: 060a 0e3e 5842 f0bd 53c4 a73e 581c 28be
00000350: 57a8 34bd d027 39bf 7bc7 c43e 759f 02be
00000360: e94c d8be e2bf d3bc e4fd 1ebc a727 4b3d
00000370: 3b03 c43e 5b2b 8f3e b6c0 e2bd 0bfa 983e
00000380: ce1a dabe bf99 18be 0526 b2be 28d1 893e
00000390: 8d50 b4bd d372 24bf 8cf7 5bbf 0d5c 8bbe
000003a0: c1bc 023f aae2 90be d18c 84bf f4e6 8b3d
000003b0: 8a7d 26be 231b ea3d e575 593e afad 15be
000003c0: f2f6 e3bd 7fd1 e0bb 7f1e e6be 03ad 4ebe
000003d0: 65ec d1be dc96 aebe 297a debe 3248 b13e
000003e0: 5790 113f 9aea 203f b3b3 d53e 70fa 9fbe
000003f0: d13a d43d 251e f6be db83 9b3e c64e 333e
0.44389457 0.093536615 -0.37790102 -0.14467813 -0.09444868 -0.5994109 0.3098514 0.50784373
-0.15630344 0.38242012 0.21170019 -0.01304211 0.052615482 0.35822618 -0.4645908 -0.55186963
0.37924942 -0.21773764 0.10399972 -0.1297576 0.23472038 0.41039664 0.27233908 0.28988236
0.8054636 -0.31318203 -0.24576233 -0.10485859 0.23476209 0.07809593 0.20686662 0.19458549
0.5718362 0.529366 -0.0010807642 0.2628775 -0.3444717 -0.5468058 -0.024228167 0.0303797
0.94081235 0.31520805 0.55956984 -0.24924842 0.47518557 -0.5578568 0.26662633 0.757127
-0.07144089 -0.051062595 -0.007218115 0.46790996 0.019183263 -0.03785799 -0.58606106 -0.23643471
-0.2899801 -0.29206035 -0.3173507 0.5707369 -0.3246625 0.39308327 0.20462507 -0.45719856
0.20342621 -0.21866108 -0.44406462 0.13420483 0.31278878 0.21973136 -0.4030935 -0.1057777
-0.17438942 0.63897836 0.19060314 0.04677889 -0.3027214 -0.3311845 -0.20163143 -0.11412898
0.034607705 -0.017870877 -0.035783716 0.08061863 0.056702826 -0.28527656 0.07652579 -0.025382567
-0.22510467 -0.059688836 -0.27155313 -0.27463484 0.22292112 0.61015576 0.35711896 0.36801884
-0.10473796 0.316869 -0.23872596 0.33926758 -0.49843392 0.13929269 -0.5245503 -0.6163111
-0.12014481 0.48332003 0.4057892 -1.359415 0.43424463 -0.1692854 0.67354125 0.092773475
-0.23856448 -0.0046848515 0.67598385 0.14586157 0.7883186 0.30486915 0.42062297 -0.5039339
0.12090713 0.20697172 0.05024546 0.42471954 0.19148965 -0.367446 0.3323135 0.43317544
-0.058910187 0.027492233 -0.3621692 0.12377494 0.37110332 -0.21049486 0.06784071 -0.50525653
0.19910134 0.3084424 0.3528441 1.3421902e-05 -0.11293844 -0.4052694 -0.47442493 0.27190772
0.491473 0.23555288 -0.14906158 0.1426927 0.08111 -0.061838284 -0.30289888 0.119325675
-0.28812015 -0.08007237 -0.36284733 -0.22284086 0.08592913 0.635146 0.24969205 0.03617289
0.0818471 -0.40280753 -0.037699793 -0.59791553 -0.61827385 0.45762917 0.30555606 -0.36955115
-0.1543982 -0.58695585 -0.29646036 -0.41790104 0.098632194 -0.2020762 0.7546859 0.16560018
0.24619421 -0.03971442 -0.16673063 0.09291652 -0.8329945 0.9875502 -0.22290936 0.4847027
0.17132966 -0.12644777 -0.22013967 -0.8247256 -0.83820575 0.24416731 0.034274288 -0.08372268
0.2886038 0.040010314 -0.2200688 0.21879147 0.1277308 0.13957764 -0.123914324 0.2799417
0.24048115 -0.14991626 0.446692 -0.093282625 -0.57367146 -0.056379214 -0.3587072 -0.36144757
0.13871011 -0.11731404 0.3276697 -0.16417062 -0.044105854 -0.72326374 0.38433442 -0.1275614
-0.42246178 -0.025848333 -0.009704087 0.049598362 0.38283715 0.27962765 -0.11071913 0.29878268
-0.42598575 -0.149024 -0.34794632 0.26917386 -0.08804426 -0.6423771 -0.859246 -0.27218667
0.51069266 -0.2829793 -1.0355474 0.0683116 -0.16258827 0.11430957 0.2123638 -0.14617036
-0.111310855 -0.0068609114 -0.44945142 -0.20183186 -0.41000667 -0.34099472 -0.43452576 0.34625393
0.5686087 0.62857974 0.41738662 -0.31245756 0.10362781 -0.48069873 0.30374035 0.17510518

fc_layers.0.bias f4 [32]
00000000: 6347 03be b02c 013e 8c96 4abe 5b4b 0d3e
00000010: ccf5 b2bd 43e2 103d c464 2cbe 3c1f 093d
00000020: eef6 91bd 3c9d 0bbe 79ba 11bd 2ee7 45be
00000030: cda9 3f3e fd51 a53d dac5 b6bd 9bdd 98bd
00000040: 0f8f 34be e39e e5bd 6b54 43be e77f 843d
00000050: ac2e 1f3c 5152 02be 41e0 cab8 9345 b9bd
00000060: 5200 6fbe b0e6 72be e3ee 8a3c 4ea7 64be
00000070: 2dc0 41bd b701 0fbd 42a0 33be 553e b7bc
-0.128202 0.12614703 -0.19783992 0.13798277 -0.08738288 0.03537203 -0.16835314 0.033477053
-0.07127176 -0.13634199 -0.035578225 -0.1932647 0.18717118 0.08072279 -0.08924456 -0.07464143
-0.17632698 -0.11211946 -0.19075172 0.06469708 0.009715717 -0.12726714 -9.673881e-05 -0.09046473
-0.23339966 -0.23720813 0.016959613 -0.22329447 -0.047302414 -0.034913745 -0.17541602 -0.02236859

fc_layers.1.weight f4 [16, 32]
00000000: 3e92 413f e3ff f6bd 59d6 cc3e 8944 82bf
00000010: cd5b c7be d7c5 4dbe c501 9dbe 23eb b73e
00000020: 1d31 103f ccd3 613f ba56 aa3d 56f3 2d3f
00000030: 169f 063d 255a 1c3f 546f 373f e8ec 8b3e
00000040: 2d08 5ebe e395 043f 7b5c fe3d ffa6 4f3e
00000050: 218c 583f 73de 3a3d e3e1 c93e efd7 9c3c
00000060: 68e2 3b3e c7f7 ed3e be23 be3e 1ba1 053e
00000070: e2ab 1abf aa97 f13e 4181 f93d 050f 273f
00000080: 1ae8 7c3f 1e1f 46bf 561c 193f 40bc 243e
00000090: 24fe c13e bedd b8be 8b50 2e3e 31fe 103f
000000a0: 3fe0 383f 58c7 363f dce8 e4be cba8 493f
000000b0: 29b2 3bbe 7949 153f 0466 513f fe50 203e
000000c0: b9da b13e 34c3 8a3f e383 9c3e 87af d33e
000000d0: bc56 e73e bda1 21bd 8350 a33e 45f1 85be
000000e0: 0f89 b63e fe6e 9b3e 3712 073e 8c94 a63e
000000f0: f35e 11bd ecf3 4f3f d02a 0a3e 2feb 8a3e
00000100: f0ed 613f c0a1 28bf 8f3b 2e3f eb92 b33d
00000110: c4aa a73e f263 a2be c52b 323e 5ba3 003f
00000120: 5faa 0e3f df7d 1c3f 1c94 02bf 092f 3e3f
00000130: 6e02 09be 197f 263f 76f5 533f 6c46 8b3d
00000140: 5435 123f 7fc0 8c3f 652c 313e 49ff c13e
00000150: ab14 073f bb13 8ebc 76fa 243e 0edb d4bd
00000160: 6457 dc3e acf9 e33e a6e7 0b3e 1471 ac3b
00000170: 7d3b 283e f37e 4d3f a547 843d 3b6f b73e
00000180: 524b 85be 3a05 673e 1211 6bbf 1ec5 1f3f
00000190: 5171 3abf a0a4 0d3f 6ab0 abbf 98d2 813f
000001a0: 0483 e4bc 5031 323d c2cf 92bf 1292 913d
000001b0: c09b 603f a9f4 443f 4e5c 313f 174a 34bf
000001c0: d543 aabf 0a23 e83e c75c ccbe b1b7 673f
000001d0: 8e33 3b3e b4d3 79bf d65b a3bf bcc4 94bf
000001e0: 5854 47bf f7dc 1fbf cbee cbbe 1833 3abf
000001f0: 7335 67bf e651 3abf fc0a 44bf aec0 0b3f
00000200: 7bda 05bf 4af1 873e 3676 9abf 6a56 c53e
00000210: 6905 bf3e df2d 6d3f 291b 2abf 8828 323f
00000220: 6770 1d3f 8a05 b0bd 911e f7bf e317 833f
00000230: 264d 503f edbe e43e 61ed 7dbd 4e8d a2be
00000240: 3e0b e5be fe48 49bf 1abe 52bf 7e8d 72be
00000250: 45e3 a03e 704b b2be 3840 393e deaf 95be
00000260: 451f 24bf 27d0 303c 1c6f e6bf 9ec1 853e
00000270: 7833 ea3e d33f 93bf d5e3 44bf 7df6 273f
00000280: 580f 1d3f 8212 0ec0 a2bc b1bc 0983 15bf
00000290: 1224 59be 50a6 a3bf e81e 883e 0d60 743e
000002a0: fe8e 553e da6d fd3d 639d 923e 4b52 703e
000002b0: 4f5a 2bbe c4ef 383f ddeb 7c3e a78d dbbd
000002c0: 5f38 d4be c77d 7e3e cb2b 7a3f e06b ff3d
000002d0: 3dd8 1f3f 9986 8f3e fa9e a33e aa34 853e
000002e0: e366 143e 0591 123f 17ef eb3e 7de3 353f
000002f0: a94f 37be b23f 963e fa97 0c3f 2b14 923f
00000300: 73bd 3cbe 1296 4a3e d29d e73e dd6d 533f
00000310: ba84 0ac0 a040 2d3f 9d74 883f 081d 0dbf
00000320: 89be bfbf 8846 0ebe 689c 1b3f a201 823d
00000330: 540a 7a3d 70ee 2bbe 818e 2abd 9b5d 9b3f
00000340: b8b9 113f 1a0e 4abf 78a6 b33e 2cb5 dfbe
00000350: ef2c 37bf 32ce 033f 149e 0b3f 59a8 583f
00000360: 6ca8 2cbf 15e2 99be 9ac1 643f 8075 0bbf
00000370: 4cd2 303f 8f12 a53e e985 053f 09b3 ebbf
00000380: 5722 b63e 5edb f93e 4b30 03bf c56b 0a3f
00000390: 4ba7 81bf 5ab7 123f 0435 8fbf 7cc8 393f
000003a0: 6f0c 5b3d 2ca9 b4bf 333d babf 7bb2 95be
000003b0: bb96 1a3f 4076 473f d91b bfbe fc14 20c0
000003c0: 6a74 c83d 6d30 14bf 4933 7abf e89a 2a3f
000003d0: 15d9 f43e d5aa 09bd c84f 3dbe b28d 84bf
000003e0: 374c dbbe 0668 e1bd 9228 17bf 16e8 15be
000003f0: 357a 57bf 24c7 57bf 896a 99be 8cc7 353f
0.7561377 -0.12060525 0.40007284 -1.0177165 -0.38937226 -0.20095001 -0.30665413 0.35921583
0.5632494 0.882138 0.08317323 0.67949426 0.03286656 0.6107505 0.7165425 0.27329183
-0.21682806 0.5179121 0.12419983 0.20278548 0.8458882 0.0456223 0.3943015 0.019145934
0.18348086 0.46478102 0.37136644 0.13049738 -0.6041852 0.47186023 0.12182856 0.65257293
0.9879166 -0.7739123 0.5980886 0.16087437 0.37889206 -0.36106676 0.17022912 0.56637865
0.7221717 0.71397924 -0.44708908 0.7877318 -0.18329681 0.58315235 0.8179629 0.15655896
0.34737185 1.0840821 0.30569372 0.41344854 0.4518336 -0.039460886 0.31897363 -0.26160637
0.35651442 0.30358118 0.13190542 0.32535207 -0.03549094 0.8123157 0.13492894 0.27132556
0.8825369 -0.6587181 0.6805963 0.08768257 0.3274747 -0.31716877 0.17399509 0.5024926
0.55728716 0.61129564 -0.51007247 0.7429052 -0.13379833 0.65037686 0.8279642 0.06800541
0.5711262 1.0996245 0.17302091 0.3789008 0.5276591 -0.017343393 0.16111168 -0.10393344
0.43035424 0.44526422 0.13662586 0.0052625034 0.16428943 0.80271834 0.064589776 0.3582705
-0.26034027 0.22560588 -0.9182292 0.6241015 -0.7282916 0.5532932 -1.3413212 1.0142393
-0.027894504 0.04350406 -1.1469653 0.07107939 0.87737656 0.7693582 0.6928147 -0.7042555
-1.3301951 0.45339233 -0.39914533 0.90514666 0.18281385 -0.9758866 -1.2762401 -1.1622539
-0.77863073 -0.6244654 -0.39830622 -0.7273421 -0.9031593 -0.7278122 -0.7657926 0.5459088
-0.522865 0.26551276 -1.2067325 0.3854249 0.37308815 0.9264812 -0.66447693 0.69593096
0.6149964 -0.085948065 -1.9306203 1.0241665 0.8136772 0.44676915 -0.06199396 -0.31748432
-0.4473514 -0.78627 -0.8232132 -0.23686787 0.31423393 -0.3482318 0.18090904 -0.2923574
-0.64110214 0.010791815 -1.8002658 0.2612428 0.45742393 -1.1503853 -0.76910144 0.65610486
0.6135154 -2.2198796 -0.021696392 -0.5840307 -0.21205166 -1.278513 0.2658608 0.23864765
0.20855328 0.12374468 0.28635702 0.23468892 -0.16733669 0.72240853 0.2469935 -0.107203774
-0.41449258 0.24852668 0.9772307 0.124717474 0.6243933 0.28032377 0.31957227 0.26016742
0.14492373 0.5725253 0.4608085 0.71050245 -0.17901482 0.2934547 0.549194 1.1412405
-0.18431644 0.1978381 0.45237595 0.82589513 -2.164351 0.67676735 1.0660588 -0.55122423
-1.4980022 -0.13894093 0.6078553 0.06347968 0.061045006 -0.16790175 -0.04163981 1.2137941
0.5692401 -0.7892777 0.35087943 -0.4369291 -0.7155294 0.51486504 0.54538083 0.8463188
-0.6744449 -0.300553 0.8935791 -0.54476166 0.6907089 0.32240722 0.52157456 -1.8414012
0.35573074 0.48800176 -0.51245564 0.54070693 -1.0129179 0.5731102 -1.1188054 0.7257154
0.053478654 -1.4114127 -1.4549927 -0.29237732 0.60386246 0.7791481 -0.37325934 -2.5012808
0.09787829 -0.5788639 -0.97734505 0.6664262 0.4782187 -0.033610184 -0.18487465 -1.0355742
-0.42831585 -0.11006169 -0.5904628 -0.14639315 -0.8417085 -0.8428824 -0.29964092 0.7100761

fc_layers.1.bias f4 [16]
00000000: c8a6 febd e654 2b3d 7e5d 283b e5a3 d73d
00000010: 7049 0e3e 0acb 61be ba49 4fbc f56f 233c
00000020: 2e6a 623d 2cad 0f3e e5d2 7c3d c41b 14bd
00000030: 5efa f9ba 415c a0bc 29dc b1bb ac02 86bd
-0.12434155 0.041829012 0.0025690491 0.10529307 0.13895202 -0.2205011 -0.012651855 0.009975423
0.055277042 0.14030904 0.061724562 -0.036159292 -0.0019071808 -0.01957524 -0.0054278565 -0.06543478

affine_output.weight f4 [1, 48]
00000000: df49 55bf 2d9e 21bf 8a8a 1ebf ce8e 2840
00000010: 547c f83f 7d49 d0bf 431f ea3f 32c7 0d40
00000020: 5593 e73f ec93 0040 a9bf 57bf b0fb 1e40
00000030: fa31 2e40 d05e 0b40 6b97 24bf 1ec1 45bf
00000040: 6899 4b3f e73c 78bf 5e06 88bf e76f 613f
00000050: dae6 5cbf 4c11 6dbf 0850 78bf 7657 523f
00000060: 51fc 74bf 7793 363f c669 5bbf 693e 82bf
00000070: 286e 973f b8db 7d3f 31d0 54bf 555b 4f3f
00000080: 3d00 733f 66dd 883f 6526 5f3f f89b 1c3f
00000090: e25c 663f a6d2 a93f 69da 853f 0a3e 56bf
000000a0: e998 843f dc16 943f 5d20 653f 88f3 913f
000000b0: 0c81 883f 0e04 74bf b252 873f cdc0 743f
-0.83315843 -0.6313198 -0.61930144 2.633716 1.9412942 -1.6272427 1.829079 2.215283
1.8091837 2.0090284 -0.84276825 2.4841118 2.7218003 2.177662 -0.64293545 -0.772478
0.79530954 -0.9696793 -1.0626943 0.88061374 -0.8628975 -0.9260452 -0.9699712 0.82164705
-0.95697504 0.71318763 -0.8570827 -1.0175296 1.1830492 0.9916339 -0.83130175 0.80998737
0.9492224 1.0692565 0.8716796 0.6117549 0.8998548 1.326741 1.0457278 -0.83688414
1.0359164 1.1569476 0.8950251 1.1402445 1.0664382 -0.95318687 1.0572112 0.9560669
