checkpoints/NeuMF_Epoch8_HR0.2011_NDCG0.1912.model (torch, 510215 bytes, 9 tensors)

embedding_user_MF.weight f4 [51, 32]
00000000: 17af 49bf 7068 24be 676b b23f 4fc8 b8bf
00000010: ce1d 18c0 d320 9ebf c532 953f 07f5 ef3e
00000020: a067 5ebf 4b5d 4d3e a232 74bf c6e9 75bf
00000030: b173 923f a1f4 783d 946c ba3f f8d9 20bf
00000040: fb1a 94bf 699e 79bf f44f f73e f37a 593f
00000050: bebe 6c3d 56ea 40be 2f3e 853f d470 ca3d
00000060: a66f c4bf b684 f43f 7b86 28be d696 be3f
00000070: 5a41 ca3e a952 07bd 2a50 af3f 29b8 903f
00000080: ab93 09c0 c8cb 663f 3ce0 953f 664d 953f
00000090: eb06 02c0 a301 78bf 3175 fbbf c782 583f
000000a0: 3f40 63be 7431 9dbf 07b8 a5be 683c 24bf
000000b0: bfdd bbbf 697f 10bf 8163 8b3f 0b79 72c0
000000c0: f68a 20c0 2e26 ee3f 17fc 1040 b6bf 22bf
000000d0: 5a8b cf3e c958 c2be 69c8 9fbe d190 543d
000000e0: 3e08 97bf 0c30 cd3f f8f7 553d 9bf6 81bf
000000f0: 1f6d 55bf 8a1a 0ebe cb82 2e40 a9b1 a53e
00000100: a5b2 da3e 2b47 843d b74a 43bf 13e3 5d3e
00000110: 4d9a a03f 4a57 353f 7764 0c3f e1e1 8b3f
00000120: e36a 8cbf 8495 f53c 03e2 9c3f c109 c1bf
00000130: 453a fb3e 644b a43f 0c23 aa3f 8c84 2fbf
00000140: e337 55bc 37fd aabf 16fd fa3e 42cd 2e3f
00000150: 47f0 ab3e db87 f3bf a766 1dbf 5b83 f73e
00000160: 46a1 f7be 367e 083f 7067 463f 55fc 54bf
00000170: 876a 1bbf e83e 903f ec76 d1bd 0cfe 2e3f
00000180: b07e 1dbf 38a3 cbbf b47d bb3f 78d8 173f
00000190: a335 88be 9cf6 ce3b c76a 08bd 0167 523f
000001a0: 92a7 cabe 9182 cfbe 45a9 79bf 78ea 9f3f
000001b0: a30e c2bf dba6 573e 9752 383f 788a 7b3d
000001c0: 1946 06c0 8e8d 153f 8f79 95bf 6451 70bf
000001d0: 2a4e e5bf 21d4 963c 364a 9a3f de71 ccbe
000001e0: 42d8 95be cb9c 783f 41b0 e13f 6638 863f
000001f0: 0061 6d3f 8f33 973f b392 e3be 5b7c 99bf
00000200: 3506 05c0 1628 23bf a98b 583f 7d6c ed3d
00000210: 5edc fdbf 5f4f 0ec0 cd97 833e d1c7 8fbe
00000220: d9f3 0d40 cf5d 5040 99d5 3f3f 75c1 093e
00000230: 215c 94bd 10be a4be e227 60be 8e3f 263f
00000240: c5de 3140 d441 4e40 e46b e3bf 9800 7a40
00000250: 2f08 7740 9a79 46c0 2642 103f ca38 edbe
00000260: b004 37bf 110a 56bf 37cf a23f ef73 8abe
00000270: c6fb babd 8bdd a6bf d30d f53e 9382 913e
00000280: 70ee 5bbf c9bf 8a3f 0bea c8bb d7d5 ad3e
00000290: 3434 bcbe a674 8d3f 0b47 ecbf 6a81 f0bf
000002a0: 93a7 4abf 7d28 1740 6c56 40bf 6850 9fbf
000002b0: 61a1 92bc 8cef 62bf 692f 023f 9e10 cdbf
000002c0: 2758 cb3f 46d6 af3e 8dff 20c0 4955 9e3f
000002d0: bff3 8dbf 5ef2 3cbe dba1 d5be c084 3f3f
000002e0: 60fc 56bf 581d b53f 31a9 13bf 3654 dc3e
000002f0: 213e 0340 e343 8b3f 1424 e3be 069c cf3f
00000300: 778b b4bf d86f 17be 6560 263f c46b 403f
00000310: c21b 1f3f 32de 853f 188c 213e 829e b3be
00000320: 4a4e c2be 33d7 86bf 6089 17bf 7757 173f
00000330: a441 1e3f 9cb9 b2be 9ba3 08c0 57e4 9ebf
00000340: 09b4 88bf b7da 573f d2aa 99bf ccbf 393f
00000350: cc9f b63e 5a3e acbf 6648 06c0 40e9 863e
00000360: 9dd3 593f 75e1 2abe 5ae6 533d 81a0 67be
00000370: b1a9 fabd ee67 d93e c57a ab3f c94e bbbf
00000380: d85c b9be 02b0 3240 9edb 90bf cf45 bbbf
00000390: 41c4 f8be 0ceb 0c3e c1df 9d3f 6d07 5bbf
000003a0: 5861 3fbe c8e3 1a40 44d7 833f a40d 4ec0
000003b0: 6811 babf e9b1 ff3e 5d6b c8bd 1fc0 583f
000003c0: ae79 29c0 22b1 3d40 7f4d b4bf d1b4 ccbe
000003d0: 20e7 5bbe 016a d03f 7514 543f 72d7 9fbf
000003e0: 37af a7bf 0c53 843f d16a a23f c3ae 9ebf
000003f0: 5b84 0840 b758 29bd 8ae2 a8bd 9321 ab3f
-0.7878279 -0.16055465 1.3939027 -1.4436129 -2.3768191 -1.2353767 1.1656119 0.4686663
-0.8687687 0.2005512 -0.9538976 -0.96059835 1.1441556 0.06078017 1.4564385 -0.62832594
-1.1570734 -0.9750734 0.48303187 0.8495323 0.057799093 -0.18839392 1.0409602 0.098848015
-1.5346572 1.9103 -0.1645755 1.4889781 0.39502984 -0.033037815 1.3696339 1.1306201
-2.149638 0.90154696 1.1709056 1.1664245 -2.0316722 -0.968775 -1.9645139 0.8457455
-0.22192477 -1.2280717 -0.32366964 -0.6415467 -1.4677047 -0.5644441 1.0889741 -3.7886379
-2.5084815 1.8605402 2.2653863 -0.6357378 0.40536004 -0.37958363 -0.31207588 0.05189592
-1.179939 1.6030288 0.052238435 -1.0153383 -0.8336963 -0.13877311 2.726733 0.32362106
0.4271442 0.06458887 -0.7628588 0.21668653 1.2547089 0.7083632 0.548408 1.0928308
-1.0970119 0.029978521 1.2256473 -1.5081102 0.49067894 1.2835507 1.3291945 -0.68561625
-0.013013813 -1.3358525 0.49021214 0.6828195 0.33581755 -1.9025835 -0.6148476 0.48342404
-0.4836523 0.5331758 0.77501583 -0.8319753 -0.6070942 1.1269197 -0.10227761 0.68356395
-0.61521435 -1.5909185 1.4647737 0.5931468 -0.26603422 0.006316019 -0.033304956 0.8218842
-0.3958097 -0.40529302 -0.9752391 1.2493429 -1.5160717 0.21059744 0.7200102 0.06141135
-2.0980284 0.5841912 -1.1677722 -0.9387419 -1.7914479 0.018411698 1.2053897 -0.39930624
-0.29266554 0.9711425 1.7631913 1.0485961 0.92726135 1.181261 -0.4444786 -1.1991075
-2.0785038 -0.6373304 0.84588104 0.11592958 -1.9832876 -2.2235944 0.25701752 -0.28082135
2.2180083 3.2557256 0.749353 0.13452704 -0.07244135 -0.32176256 -0.21890214 0.64940727
2.7792218 3.2227678 -1.7767301 3.9062862 3.8598745 -3.101172 0.56350935 -0.4633239
-0.7149153 -0.8360911 1.2719487 -0.27041575 -0.09130053 -1.303636 0.4786211 0.28419933
-0.859107 1.0839778 -0.0061314157 0.3395221 -0.36758578 1.1051223 -1.845918 -1.8789494
-0.7916195 2.3618462 -0.7513187 -1.2446413 -0.017899217 -0.8864677 0.5085359 -1.6020696
1.5886277 0.34343165 -2.5155976 1.2369777 -1.109001 -0.1845183 -0.41725048 0.74811935
-0.83978844 1.414958 -0.5768004 0.43032998 2.050667 1.0880092 -0.44363463 1.621949
-1.4105061 -0.14788759 0.64990836 0.7516444 0.6215173 1.0458434 0.15776098 -0.3508187
-0.37950355 -1.0534424 -0.5919399 0.59117836 0.6181891 -0.34907234 -2.1349857 -1.2413434
-1.0679942 0.8431811 -1.2005255 0.72558284 0.3566879 -1.3456528 -2.0981688 0.2634983
0.8508852 -0.16687568 0.051733352 -0.22619821 -0.12239397 0.42462105 1.3396841 -1.4633418
-0.36203647 2.7919927 -1.1317022 -1.4630679 -0.4858723 0.13761538 1.2333909 -0.85558206
-0.18689477 2.4201527 1.0300069 -3.2195826 -1.4536562 0.49940422 -0.09786103 0.84668154
-2.6480517 2.9639363 -1.408615 -0.39981702 -0.21474886 1.628235 0.82843715 -1.2487624
-1.3100346 1.0337844 1.2688848 -1.2397083 2.1330783 -0.04134437 -0.08246334 1.3369621

embedding_item_MF.weight f4 [1889, 32]
00000000: 1d45 b9bf f503 17bf 999f 70bf 2f7a 15bf
00000010: 3c93 76bf b4cc a1bf 0c0d b0bf 95b6 bdbf
00000020: 8c26 103e 4a16 bbbf ee42 7dbf afe1 ce3f
00000030: ce1f 1740 ab63 d73e cf3f 623f acc9 21c0
00000040: 8a62 49c0 1f2b 3e3f 23f8 003f b7c8 9abf
00000050: b705 ad3f 8530 26bd 97f4 b53f 478d f8bf
00000060: cac7 b03f 40b2 8b3f ee0f efbe 5e3e 7a3f
00000070: a09f c2be ae03 c7be 4738 403f 98fb 82bf
00000080: 6f98 6c3f 7c16 dfbf e40d 80bf b5ab 0a3f
00000090: 818e 663e 8ee5 d43e 0041 aebf 50f6 97be
000000a0: d452 dd3d 43ac 413f 7325 acbf 80aa 35bf
000000b0: a08f dd3f b86c e7bf 5256 05c0 c231 073f
000000c0: fee5 e63e 245e 14bf f6ec 58bf 18e2 883c
000000d0: cd64 07c0 3c54 eb3f 26bc 69bd d83d 99bf
000000e0: 2e5a df3e db6c 2b40 dc2e f13e 5656 043f
000000f0: f942 2fbe 204d 4ebd 60e7 24bf cbba 563f
00000100: dccb 993f 431f b8bf 7c16 4a3f e01d 97bd
00000110: 9635 0040 7aca f0bf bd58 953f c668 74be
00000120: 605c b3be a7f4 fa3f 976f 103f 7f87 513f
00000130: 6fad af3d ebc0 923e c8d9 17bf 3591 3d3f
00000140: bc1b 4c3f 1372 45c0 47d6 6abe 8ea5 75bf
00000150: c4f7 0140 a8bd 0fc0 711f a73f aff8 14c0
00000160: 60fe 183e e5d4 603f 5501 9b3f 43f3 973f
00000170: f05e 063f f6f2 3240 7ecf 743e 4703 cf3e
00000180: 4d2a 033c 2487 313f 75b2 2f3d 9aae 12be
00000190: 45d0 2e3d 21e9 c3bf 0186 5f3e eef8 003e
000001a0: 7a9d fd3f 481a dd3f 4282 23bf 1c78 e03f
000001b0: bd0d 92bc 56b1 03c0 c28d 0ebf fea3 febe
000001c0: 5e36 e43e a8b2 063e 8104 2dbd ef93 57be
000001d0: 5014 eb3e 974c 8ebf 5fdc 28bf 1836 a83f
000001e0: 591e 4ac0 3617 f8bd 4578 31c0 8bce 263e
000001f0: 147b 3740 4978 41c0 6f0d 6b3e dfb1 a93f
00000200: d3fc 55bf 50a7 0740 bae4 3b3e 191b ba3f
00000210: 2dd8 933f 6e1f cebf 7d62 a1bf b4b7 30be
00000220: 0976 bf3e 4003 a63e 379b da3f bf01 35bf
00000230: ffd4 ac3e caeb 8040 8ea0 41c0 f208 3f3f
00000240: 0be2 03bf 5155 edbf aa75 0b3f d2c1 dd3e
00000250: 1341 eabe 32fd 95be 0fea b5be 6d36 f8be
00000260: 46e8 103e 6db9 ba3e 665d 4e3f 4196 55be
00000270: 3fa2 293f 4461 2fc0 11be 0fbf 32db ab3f
00000280: 1de0 033f 133c 37bf 5cdf 37bf da1f 83bf
00000290: 8a18 dbbe 0a98 e93f fcf9 843d 9110 95bf
000002a0: c7c1 ff3f 32f8 e23f 0ad5 79bf 69ff c03e
000002b0: 4ba1 eabe 6184 1440 c5dc e9bf bd9e fe3e
000002c0: b2f2 e8bd 44f8 8b3f b3b3 48bf 2a85 7abe
000002d0: 7bca cbbe 62c5 883f 995c 38bf 2002 623f
000002e0: 1a41 73bf 8ceb 1d40 4cda c6bf 1779 0cbf
000002f0: bf91 743d 38ff 753d 6e88 6e3f 5555 14bf
00000300: 92ae f2be c525 13bf c78e a1bf 3560 10c0
00000310: a853 633e acd6 c73f 387e d3be 8c39 1a3f
00000320: c606 ab3e 3588 d1bf e26a 7c3f 72ae aebe
00000330: bb58 f53f dc81 31c0 f50e 723e f955 a43e
00000340: 40d5 dd3e 7685 0ac0 2dd6 86bf 80a0 4bbf
00000350: 789c 95bf 5d2e ccbe 45a7 933e 5df8 093f
00000360: 9333 39bd b523 723f b382 8d3f 0fb9 9fbf
00000370: f190 893e 4929 803d 6945 9cbf f19e 1bbe
00000380: 71c8 44c0 5146 a63f 9367 0fc0 16dd a4bf
00000390: 5e2e 7a3f 6c7e fc3e 5bcc 20bf d95c 543f
000003a0: 4d14 0a3f eaff 0d40 ccb9 16be 8c78 8a3e
000003b0: 07cb dcbf 2de6 553f 6ba8 2f3e 167d cbbf
000003c0: bb90 27bf ad17 b0bf f933 debe ed60 003f
000003d0: fe77 c63e 2b4c 7f3f 9937 abbf b86f c03e
000003e0: b4a9 ecbe e3b2 b63e 31f3 9b3d 5118 123f
000003f0: ef94 363f a40b bebb c267 21c0 a3b9 a6bf
-1.4474217 -0.5899041 -0.93993527 -0.5838956 -0.9631841 -1.2640595 -1.3753982 -1.4821345
0.14077204 -1.4616177 -0.9893025 1.6162623 2.3613162 0.42068228 0.88378614 -2.527934
-3.1466393 0.7428455 0.50378627 -1.2092503 1.3517369 -0.040573616 1.4215268 -1.9418114
1.3810971 1.0913773 -0.4669184 0.97751415 -0.3801241 -0.38869995 0.7508587 -1.023303
0.92420095 -1.7428737 -1.0004239 0.54168254 0.22515298 0.41581386 -1.3613586 -0.2968011
0.10806814 0.75653476 -1.3448929 -0.7096329 1.7309456 -1.8080053 -2.0833936 0.528103
0.45097345 -0.5795615 -0.84736574 0.016709372 -2.1155274 1.8385081 -0.057064198 -1.1971998
0.4362349 2.678519 0.47106063 0.5169424 -0.17115392 -0.05036652 -0.6441555 0.83878773
1.2015338 -1.438454 0.7894056 -0.07378745 2.0032706 -1.8811791 1.1667706 -0.23868093
-0.35031414 1.9605912 0.5642027 0.81847376 0.08578002 0.2866281 -0.5931668 0.74049693
0.7972982 -3.0850875 -0.22933303 -0.9595574 2.0307474 -2.2459507 1.305647 -2.3276784
0.14940786 0.8782485 1.2109782 1.1871113 0.52488613 2.7960792 0.23907277 0.40432188
0.008005691 0.69346833 0.0428948 -0.14324418 0.04267909 -1.530552 0.21828462 0.12594959
1.9813683 1.7273645 -0.6387063 1.7536654 -0.017828817 -2.0576987 -0.55685055 -0.4973449
0.4457273 0.1315409 -0.042240623 -0.21052526 0.45913935 -1.1117123 -0.6596126 1.3141508
-3.1581023 -0.12113802 -2.7729657 0.16289727 2.866887 -3.0229666 0.22954343 1.3257407
-0.83588904 2.119587 0.18348971 1.453952 1.1550347 -1.6103342 -1.2608181 -0.17257577
0.3739474 0.32424355 1.7078618 -0.7070579 0.33756253 4.028783 -3.0254245 0.74623024
-0.5151679 -1.8541662 0.54476416 0.43311936 -0.45752773 -0.29294735 -0.35530135 -0.48479024
0.14151105 0.36469594 0.80611265 -0.20858099 0.6626319 -2.7403116 -0.56149393 1.3426268
0.51513845 -0.7157604 -0.71825194 -1.0244095 -0.4279216 1.8249524 0.06492993 -1.1645681
1.9981011 1.7731993 -0.97590697 0.37694862 -0.45826182 2.3205798 -1.8270499 0.49730483
-0.113744155 1.093514 -0.783992 -0.2446486 -0.39802918 1.0685236 -0.7201629 0.8828449
-0.9502121 2.4675016 -1.5535369 -0.5487227 0.059709307 0.06005785 0.93176925 -0.57942706
-0.47398812 -0.57479507 -1.2621697 -2.255872 0.22199881 1.5612388 -0.41307235 0.6024406
0.33403605 -1.6369692 0.9860059 -0.34117466 1.9167703 -2.773551 0.23638518 0.32096842
0.4332676 -2.1643958 -1.0534111 -0.7954178 -1.1688375 -0.39879122 0.28838554 0.538946
-0.0452152 0.94585735 1.1055511 -1.247835 0.26868394 0.062578745 -1.2208682 -0.1519735
-3.074734 1.2990209 -2.2406967 -1.287997 0.97727 0.49315202 -0.6281182 0.82954174
0.53937227 2.2187448 -0.14719313 0.27045095 -1.7249459 0.83554345 0.1715409 -1.5897548
-0.65455216 -1.3757225 -0.43399027 0.50147897 0.38763422 0.997256 -1.3376342 0.37585235
-0.46223223 0.35683355 0.076147445 0.57068354 0.71321005 -0.0057997275 -2.5219579 -1.3025402

embedding_user_MLP.weight f4 [51, 32]
00000000: 29fa b7bf f213 b43f 8c05 b6be db12 88bf
00000010: d2bf b03e b3ee 2fbf 8d65 16bf 1aa4 96bf
00000020: 2d1b c43f 8c81 e6bf a7df 6fbe b3ea 30bf
00000030: 6d41 bebd 252c acbf c7cd ce3f bdd7 84bf
00000040: 8d92 613e 6bb8 033e 9427 65be c2c3 ec3e
00000050: c069 9cbe a338 94bf 38d9 9b3f 4ac3 0fc0
00000060: 9ebd 31bf 1e1b 3c3f 7817 1f3e 196f dbbe
00000070: b495 34bd 8cb4 33bf 3b7d 463e de96 f63d
00000080: 1d55 153f 6104 d0be 1ee1 61bf e844 593d
00000090: 7fed 823e b1ec c73e a1da 6b3f 3c9d e0bf
000000a0: 2660 fa3e 1513 36bf b75e 86bf 8e40 393b
000000b0: c818 da3f 1457 9fbf d6d5 79bf 7f43 5c3e
000000c0: 7cdb 5bbf cf16 d0be a3a4 43c0 8cc5 94be
000000d0: 87f3 9fbd bd22 e1be f742 493f 3404 ddbd
000000e0: 983c 96bf 93d3 aebe 225a a23f 09e8 f2be
000000f0: 12dc 5d3f 204a cf3e eeef 98bf a067 ea3f
00000100: dfb9 983f d840 2f3f 8f60 a63f 47ef be3e
00000110: 360e 6d3f 7410 823f 6c2f efbf 180f 8b3f
00000120: 3441 2ebe 8417 663f ab1d ebbf 556f 58be
00000130: a040 803e 25f4 3d3f be05 473f 3335 d7be
00000140: 482c d13e a061 cf3f 1b91 76bf 7600 2e3f
00000150: f5ef 2f40 a303 383f 2f7e 493f 9120 86bf
00000160: 8153 df3e 992b a53e ebb5 823f 0f89 4bbe
00000170: 351c 0340 38f9 993d 504a 613f ebc3 9c3f
00000180: 57b0 2abf 1078 c3be 8269 bebe 2942 8c3d
00000190: 5a17 62bf 56f0 a0be 0cfb 2ebe 2afa 84bf
000001a0: f8cb 9a3d 3af0 cf3e 9414 bd3e 8cd8 f0bf
000001b0: 4980 1ebf c4d8 01bf 51ea 763f 47fd 32bf
000001c0: f33c 233f 3c97 ee3e acc9 8ebf 5cbc 0540
000001d0: b8e5 a23f 6b0f 93be aa65 3a3f 9a5c f03e
000001e0: 72f9 a5be 1232 c0be 5ce0 58bf 5116 8c3d
000001f0: 6e4a 37bd 7b34 37be 75fd d3bf b1fc 29bf
00000200: b026 1c3f 6845 81be 9bce a43f 949e 1a40
00000210: 60a5 ef3f 9634 35bf 498a 313e 34c7 c6bf
00000220: 5626 16bf ee60 9f3e 2b03 be3f b3c0 f73f
00000230: b5ae d3bd d117 40be e036 ae3e 8059 aa3f
00000240: 488c 933f 06fc 9c3f 6810 a93e ea25 893f
00000250: 74f1 4bbf 12c0 2a40 10f3 5d3d 1360 773f
00000260: e572 0cbf 6df3 db3e fd9b 2bbe e3e3 103f
00000270: 018f 403f 6b65 8a3f a2ea f13e 49ae dc3e
00000280: 475e a7be 4497 b63f f229 d13f 593a 0b3f
00000290: f2a2 843f 4913 85bf 9771 573f 3299 82be
000002a0: 04d9 b6be a7c3 43c0 6a83 98be de23 873f
000002b0: 4f64 8d3e 1567 a13f 777e 073f 4ffb 8fbf
000002c0: 63f8 7f3f 421f aebe 265a b8bf f6c4 813f
000002d0: fa4f edbf 8304 3ebf 3802 45c0 93d5 91bf
000002e0: d3b5 c2be 1f7c 17c0 7446 4540 14fd bf3f
000002f0: cbbd 8f3d 7402 01c0 e521 b33e 87d8 e43e
00000300: 6b9a 963e 36dd 6bbf 5b0d 653f f84f 3fbf
00000310: a821 1f3f 67df 4dbf 7612 9bbf 7a12 983f
00000320: 0cd0 72bf 5479 193f 3986 24bf 8235 70bd
00000330: acaa 23c0 4bf1 c13e 8c2b 693f e108 10bf
00000340: 3600 883e 469f 2c3b 54a4 bc3f 38b6 f9bf
00000350: 885a bc3f 77e6 d33f 7260 9f3f 2895 7e3f
00000360: 8bae 23be 2ce8 eebf 3026 f6bf 6261 dfbd
00000370: 208d 91bf da88 853f 6ade 06bf f4fb 3a3f
00000380: ee77 09c0 e198 82bf e687 aabe 1612 c73f
00000390: 96da ca3f 7ade b63f bf4d c53f eb5d 06c0
000003a0: ecbe c6bf 2178 303f b22f a63e 0608 91be
000003b0: 04a4 afbf 66a1 15c0 b33d a13f 1fc3 743f
000003c0: e898 81bd feea 69bf d28e a9bf b87d 293f
000003d0: f1f0 18bf b814 603f 3766 08bf ab89 ce3f
000003e0: 576f babf a315 e2be 5180 50bf 9ea2 62be
000003f0: 2e7b 46bf b322 5dbf f4a1 d53e e497 c1bf
-1.4373218 1.4068587 -0.35551107 -1.0630754 0.34521347 -0.687236 -0.58748704 -1.176883
1.5320793 -1.8008285 -0.2342516 -0.6910812 -0.09289823 -1.3450972 1.6156548 -1.0378338
0.22028561 0.12863319 -0.22378379 0.462431 -0.3054943 -1.1579784 1.2175665 -2.2462945
-0.6942996 0.7347888 0.15536296 -0.42858198 -0.04408808 -0.7019737 0.19383709 0.120404944
0.58333 -0.4062834 -0.88234127 0.05304423 0.2557182 0.3904777 0.92130476 -1.7547984
0.4890148 -0.71122867 -1.0497655 0.0028267237 1.7038813 -1.2448449 -0.9759191 0.21510123
-0.8588178 -0.40642402 -3.0569236 -0.29056966 -0.07810121 -0.43971816 0.78617805 -0.10791817
-1.1737242 -0.34145793 1.2683756 -0.47442654 0.86663926 0.4048624 -1.1948221 1.8312874
1.1931723 0.6845832 1.2998217 0.3729193 0.9259981 1.0161271 -1.8686347 1.0863981
-0.1701706 0.8987963 -1.8368429 -0.2113622 0.25049305 0.7420066 0.77743137 -0.42032775
0.40854096 1.6201668 -0.96315163 0.67969453 2.7490208 0.7188055 0.78708166 -1.0478688
0.43618396 0.32259825 1.0211767 -0.19876502 2.0485966 0.07518238 0.88004017 1.224729
-0.66675323 -0.38177538 -0.3718987 0.068485565 -0.8831688 -0.31433362 -0.17087954 -1.0388844
0.07558435 0.40612966 0.36929762 -1.8816085 -0.619145 -0.50721383 0.9645129 -0.6991772
0.63764876 0.46599758 -1.1155295 2.0896215 1.2726355 -0.287227 0.7281138 0.4694565
-0.32416874 -0.375382 -0.84717345 0.06840194 -0.044748716 -0.17891113 -1.6561724 -0.664012
0.6099653 -0.25248265 1.2875551 2.4159288 1.8722343 -0.70783365 0.17337908 -1.5529542
-0.58652246 0.3112864 1.4844717 1.9355682 -0.10336057 -0.18759085 0.3402624 1.3308563
1.1527185 1.2264411 0.3302033 1.0714695 -0.79665303 2.667973 0.05418688 0.9663097
-0.54862815 0.42959157 -0.16758724 0.5659773 0.75218207 1.08122 0.47249323 0.4310172
-0.32689115 1.4264913 1.6340926 0.54385906 1.0362227 -1.039651 0.841577 -0.25507504
-0.35712445 -3.0588167 -0.2978776 1.0557821 0.27615592 1.2609583 0.52927345 -1.1248568
0.99988383 -0.34008223 -1.4402511 1.0138233 -1.8540032 -0.74225634 -3.0782604 -1.1393303
-0.38029346 -2.3669508 3.082425 1.4999108 0.07018622 -2.0157747 0.34986797 0.44696447
0.29414687 -0.92134416 0.89473504 -0.747314 0.6216073 -0.8041901 -1.2115009 1.1880639
-0.94848704 0.5995076 -0.6426731 -0.05864478 -2.557292 0.37879404 0.9108207 -0.5626355
0.2656266 0.0026340052 1.4737649 -1.9508734 1.4715128 1.6554707 1.2451308 0.99446344
-0.15984552 -1.8664603 -1.9230404 -0.10907246 -1.1371193 1.0432389 -0.52683127 0.730407
-2.147945 -1.0202905 -0.33306807 1.5552394 1.5847957 1.4286644 1.5414351 -2.0994823
-1.5527015 0.689333 0.32458264 -0.28326434 -1.3721929 -2.337976 1.2596954 0.9561023
-0.06327993 -0.91374195 -1.324671 0.66207457 -0.5974265 0.87531614 -0.5328097 1.6135763
-1.4565228 -0.44157133 -0.81445795 -0.22132346 -0.7753171 -0.8638107 0.41725123 -1.5124478

embedding_item_MLP.weight f4 [1889, 32]
00000000: 252a 1f40 91c4 0b40 ab89 843e cd50 0fc0
00000010: 45fb 253f 9457 8fbe abda b43f eb76 c4bd
00000020: d290 573f 1ebc 14bd dcf9 e5be 792e 32be
00000030: 6897 3ac0 f83e 603f 1de5 0ebf b6a5 cfbf
00000040: 9c21 af3f cfed ce3f 8c3c 59bf 89d9 2a3f
00000050: 6931 a13d 1faa 8abf 8e72 193f e00e 433f
00000060: f395 3fbe 6053 02c0 6806 443e a4e5 5cbf
00000070: 3efc 2c3f 05db 0140 bcca 63bf 0f22 603f
00000080: f8d5 413e 9640 093f e4b9 7f3f 04c3 01bf
00000090: b499 b8bf a159 50be 8e52 b83f b83d d73f
000000a0: fd38 33c0 6be6 943e 484d 6cbf 79da 633e
000000b0: 85f8 b4bf 69eb 863e 9b76 ca3f 6d80 39bf
000000c0: 2039 89bd e11b 45bf e43d c23f f6db e6be
000000d0: bbe6 3bbe 1153 a33e bd01 2cbf 76d5 2bbf
000000e0: 152f 5c3f 90c1 80be 6a8f a83f 542a b4be
000000f0: ce8b 22bf 7746 8e3f 5b20 ed3e e9a8 45bc
00000100: 834f d1be 5693 283f 8040 893f f85d 87bf
00000110: 6d11 943f bc95 0640 8b72 ce3f 2029 883f
00000120: 1643 a53e 9f94 8cbf ee4c 2440 c6fb 21bf
00000130: 513f 103f 0002 183f f0c4 14bf 2f95 973f
00000140: 1616 db3c 4007 593f 5c96 883f 6794 31c0
00000150: 9dbf b03d 384b bc3e 24d8 27bf f768 3bbf
00000160: a2ad 803f a6f9 04bf e42c b13f f8b2 103d
00000170: 3ab3 253f d3c3 9abe 4ab5 47bf 9f4a c9be
00000180: 0709 f03f 0ebb 57be 1e23 a2bf a40a 0a3f
00000190: 3424 4b3e 7736 bdbf 043a 523f a18e 5e3f
000001a0: 0d0d ddbe f463 2d3f 3e03 d1bf 68fb 343f
000001b0: 210f 523e 0d21 0abf aecd 33bf afa0 ecbe
000001c0: 3461 b53e 76f0 993e 36cb acbe 734c d63f
000001d0: da97 debf a442 babe 5664 8dbf a54d 153d
000001e0: 7eb3 36c0 5478 d93e 2547 5ebe 90a2 a63f
000001f0: 3dff 9ebf 00b6 963e 6a5d 37bf 150c 86bf
00000200: 0d15 843f a26b 7bbf b7ac c8bf 14a7 98bf
00000210: a8f0 aa3f 0fb0 bcbd 443a 823f 9b1e 22bf
00000220: 7ac5 2540 2fcd fcbf ea53 13bf dcce c6be
00000230: 3982 f1be 0a69 b6bf ca59 1d3e 6f9f a2bf
00000240: 4fd4 0cbd fa72 2abf 6b7a 2ebf b3bc dcbf
00000250: 5384 02be 56be 89bf 1d08 28c0 f06b 9a3e
00000260: 5d37 34bf 0f77 04c0 1bbc 63bf 69b2 a03f
00000270: 78c7 89bf f301 5abf bd37 353e bfd8 ae3f
00000280: e13b 4cbf 45a6 053e 4c48 dcbf 9c21 b4bf
00000290: 3dc0 953e 2d3b e63f 14b9 ab3f 0e98 c7bd
000002a0: b799 a23e 2858 4c3c 730f 45bf ff59 55bf
000002b0: bf88 2740 83b0 bebe 35b7 87be 7645 44bf
000002c0: 073e 933f a6e4 643f ea96 0740 e575 26bf
000002d0: 1eb2 b13e d545 ab3f d9c0 e8be 98a6 f73f
000002e0: 251a 733f fab7 813f d62c 393f 5e70 44bf
000002f0: 3377 03bf 57a7 e53e 1dbd 18bf 865c 7c3f
00000300: 94b8 4fbf 5928 223f 3820 a0bf 32d5 9c3e
00000310: b60a e53f 7da9 cf3f 2e87 983d ddfe 7fbf
00000320: 19f6 88be b859 7cbf c71b 1fc0 ccb7 1c3f
00000330: 244f 03c0 1685 c93e 265a 0d40 4ac0 ccbd
00000340: 9165 e4bf 75b3 7ebf b1e7 bfbf e9d5 2c3f
00000350: cb4c 4b3e 74be 8c3f bcbe 1040 d93a cebe
00000360: 2eee 86bf 5ac6 e4bf 9c81 033f 4b6e cd3f
00000370: 2ad1 4f3f be0e 30bd 5c28 b7bf 4498 c23f
00000380: e4c1 8f3f 798a d3be efe8 cdbe e369 22bf
00000390: 6c97 97bd 5c12 8b3d f860 23bf af78 eebe
000003a0: 8e7e 9c3e 48dc 5fbf a3cd 97be 5ce8 0840
000003b0: f885 a4be 4a70 03c0 c2f1 783f a961 a0bf
000003c0: dabd 043f c729 acbf 0e2c af3f fdfe 1dc0
000003d0: 3f28 b73e e32a 243e 4125 02bf 3dc6 a6bf
000003e0: ae78 913f 8cda 0abf 722b d63f 9c90 1ac0
000003f0: 7ba2 803f 3a0f d3bf fe2e d33f e6cc bf3e
2.4869473 2.1838725 0.25886282 -2.2393067 0.6483653 -0.27996504 1.4129232 -0.09592994
0.84205353 -0.036312215 -0.4491719 -0.1740054 -2.915491 0.8759608 -0.5581835 -1.6222446
1.3682132 1.6166323 -0.8485801 0.6673818 0.07870752 -1.0833167 0.5994042 0.7619457
-0.18709545 -2.0363388 0.19143069 -0.86287904 0.6757239 2.028993 -0.88981223 0.8755197
0.18929279 0.53614175 0.9989302 -0.50688195 -1.4421906 -0.2034669 1.4400194 1.681571
-2.8003533 0.29082045 -0.9230542 0.2225131 -1.4138342 0.2635148 1.5817446 -0.7246159
-0.06700349 -0.76995665 1.5175138 -0.45089692 -0.18349735 0.31899312 -0.6719015 -0.6712259
0.8600934 -0.25147676 1.3168766 -0.35188544 -0.63494575 1.1115254 0.46313748 -0.012064197
-0.40880975 0.65849817 1.0722809 -1.0575552 1.1567818 2.102889 1.6128706 1.063755
0.32277745 -1.0982856 2.5671954 -0.632748 0.56346613 0.5937805 -0.58113 1.1842402
0.02674393 0.8477669 1.0670886 -2.7746828 0.08630297 0.36776137 -0.6556418 -0.7320704
1.0052989 -0.51943433 1.3841825 0.035326928 0.64726603 -0.30227527 -0.78011 -0.39314744
1.8752755 -0.2106745 -1.2666967 0.53922486 0.19838029 -1.4782246 0.82119775 0.86936384
-0.4317402 0.6773064 -1.6329114 0.70696115 0.20513584 -0.5395668 -0.7023572 -0.46216342
0.35425723 0.3006627 -0.33748788 1.674208 -1.7390091 -0.36378968 -1.1046245 0.036451
-2.8547053 0.42474616 -0.21706827 1.301836 -1.2421643 0.2943573 -0.71626914 -1.0472437
1.0318924 -0.9821111 -1.5677708 -1.1925988 1.3354692 -0.09213268 1.0174031 -0.6332795
2.590178 -1.9750117 -0.5754992 -0.38829696 -0.47169665 -1.4250805 0.15366283 -1.2704905
-0.03438216 -0.6658169 -0.68155545 -1.7245086 -0.1274579 -1.0761211 -2.6254952 0.30160475
-0.7039698 -2.0697668 -0.889589 1.2554446 -1.0763998 -0.85159224 0.17697044 1.3659896
-0.7977887 0.13051708 -1.7209563 -1.4072757 0.2924823 1.7986809 1.3415856 -0.09745799
0.317579 0.01247219 -0.769767 -0.8334045 2.6177213 -0.37244043 -0.26506963 -0.7666849
1.1503304 0.8941139 2.118586 -0.6502364 0.34706205 1.3380686 -0.4545963 1.9347715
0.9496177 1.013427 0.7233404 -0.7673396 -0.5135376 0.44854233 -0.59663564 0.9857868
-0.8114102 0.63342816 -1.2509832 0.30631405 1.7893894 1.6223599 0.074476585 -0.99998266
-0.26750258 -0.985744 -2.4860704 0.6121795 -2.0517054 0.3935935 2.2086272 -0.09997614
-1.7843496 -0.9949258 -1.4992582 0.675139 0.19853513 1.0995622 2.2616415 -0.40279272
-1.0541437 -1.7873032 0.51369643 1.6049284 0.81178534 -0.04298281 -1.4309192 1.5202718
1.1231046 -0.41316584 -0.40216777 -0.6344282 -0.07401928 0.06790611 -0.6381984 -0.4657645
0.30565304 -0.874455 -0.29649076 2.139182 -0.3213346 -2.0537286 0.97243893 -1.2529804
0.5185219 -1.345025 1.368532 -2.4686882 0.35772893 0.16031985 -0.50838095 -1.3029248
1.1364954 -0.54239726 1.6732008 -2.4150763 1.0049585 -1.6489022 1.6498716 0.37461013

fc_layers.0.weight f4 [32, 64]
00000000: 1bb3 e23e 31f4 b83d d228 c0be 96cc 1bbe
00000010: f15a bfbd 7635 19bf ad7e a23e 90f6 003f
00000020: a8ee 20be eaaf c73e dff1 613e 8dd6 69bc
00000030: 20bf 663d 4a45 ba3e 9943 efbe 692c 0cbf
00000040: 99f0 c33e bb49 5cbe 8be4 c93d 38d2 01be
00000050: 5bca 6a3e c414 d33e 3271 883e 8fbb 943e
00000060: dc64 4e3f f377 9dbe 5044 79be f1e8 d2bd
00000070: c232 743e 1e41 9b3d ab29 543e 1363 4a3e
00000080: 3c7e 123f 4623 063f 9866 64bb c2e4 873e
00000090: a332 aebe a577 0cbf 515b c5bc f5ce cc3c
000000a0: e065 723f 2c35 a23e 113d 0e3f a68b 81be
000000b0: b48e f53e dfb3 0ebf b393 883e 85c2 433f
000000c0: bebd 8cbd 04c1 56bd 2285 62bc 0f82 ec3e
000000d0: 16a0 bc3c 7ae4 d3bc 5cb0 14bf 9c92 76be
000000e0: f2fd 91be fe32 91be 66ae a0be 045c 113f
000000f0: e318 a5be fe57 cb3e 9446 533e a079 e8be
00000100: e889 4f3e 96ff 60be 4f15 e2be 2b8d 083e
00000110: 0902 a53e 6637 643e 795a cdbe 9b3d d2bd
00000120: b795 32be 704a 243f 3124 413e 7ca7 563d
00000130: 845e 99be 00a9 a8be c6ce 4bbe 8cdc fdbd
00000140: 2aa1 2a3d bd60 acbc 9424 19bd 369c 973d
00000150: 4fb2 5a3d d38c 96be 37e2 953d 8ff7 dfbc
00000160: f015 70be dfd8 79bd 37ca 89be 0391 8ebe
00000170: 1160 693e 6e37 1b3f c15a b93e 5473 bc3e
00000180: 8396 c1bd e8b2 a03e 9b11 81be 27a4 ad3e
00000190: 346d fdbe 1cc4 053e bd1e 06bf 1eab 1cbf
000001a0: 7cde e7bd 6470 f83e 1e22 d23e e92f aebf
000001b0: 903b e23e 59df 2dbe a6a3 293f 0dbc cc3d
000001c0: 6023 6abe 322c 1dbb cb92 2c3f 00d3 133e
000001d0: 4dd0 483f b992 9c3e 7629 d43e 160d 01bf
000001e0: 3e76 f03d 1f91 633e e79a 503d 6a6f d83e
000001f0: ad6e 443e 311c c1be 2193 a73e 9e7a de3e
00000200: 769e 75bd de6f da3c f345 b9be de10 e93d
00000210: 5e9a be3e 12af 52be 15d3 9d3d 7102 02bf
00000220: 552d 493e eacb 9e3e eefe b33e 7605 3cbb
00000230: 7472 eebd 71ac cebe 9d07 f5be aef2 8c3e
00000240: 6d1f fb3e c1cc 733e bae5 0bbe ce89 143e
00000250: c5a1 893d fa4b 76bd f85a a0be 3234 ed3d
00000260: 9c18 96be 2609 a1bd b74e bbbe 99d5 5fbe
00000270: bacc aa3d 860a 203f bdc7 7c3e 1e0e 393d
00000280: 6eeb b33d 0dca d2be b848 2abd dc78 1abf
00000290: 10fd 1ebf 5699 ec3e e774 9d3e 48e7 bfbe
000002a0: 8837 21be b371 18bf 9ba6 99be 284b d6be
000002b0: 6555 a93d 09b5 4ebe b3b4 423f c3e4 253e
000002c0: 5317 7b3e 391c 0fbd c42e 25be 4d66 b53d
000002d0: 36b0 53bf 2498 7b3f e2f3 69be c835 f83e
000002e0: 6a37 2e3e 74b8 febd d453 67be 9b26 54bf
000002f0: 46dd 56bf b3a5 763e f612 143d b4d6 aebd
00000300: 47fa 953e 3787 123d bd45 66be 59f4 663e
00000310: 0be4 fa3d f45d 0e3e c801 06be 9e64 953e
00000320: b529 7c3e 2d5e 17be fbc1 e23e 334d c2bd
00000330: 22f0 14bf 75b7 71bd 8e6f b7be 8334 b9be
00000340: 320d 0f3e 7981 f1bd de43 a93e 25f1 28be
00000350: cb93 1bbd 3007 39bf 33ec c43e 7a38 04be
00000360: db18 d6be 1974 e8bc 0355 d7bb bcca 433d
00000370: 65d8 c23e 92e2 903e 4c43 ddbd 49cd 983e
00000380: 5880 e1be 8698 1dbe 455c abbe dde1 8a3e
00000390: a8db b6bd 3d3e 25bf fdac 5ebf 76f4 84be
000003a0: 2ed4 023f 0f94 8dbe 14f8 84bf cd73 903d
000003b0: 2343 26be a592 f13d 320d 5a3e db72 14be
000003c0: ddb0 e5bd eedd 8cbc ff1b e6be b15e 50be
000003d0: 54e2 d2be bfe4 adbe 85d4 e0be e613 b03e
000003e0: 88b1 103f 75ad 1e3f 3fcd d33e 3120 9dbe
000003f0: 56ef c93d 79e8 f8be b23a 9c3e 6c01 333e
0.44277272 0.09030951 -0.37531143 -0.15214762 -0.093435176 -0.598472 0.3173727 0.50376225
-0.1571604 0.390014 0.22064923 -0.014272344 0.056334615 0.36380988 -0.4673126 -0.54755265
0.382695 -0.21512501 0.09858044 -0.12677848 0.22928755 0.4122678 0.2664886 0.29049346
0.8062265 -0.30755576 -0.24342465 -0.10298336 0.23847488 0.075807795 0.2071902 0.19764356
0.5722387 0.52397573 -0.003485119 0.26541716 -0.34023008 -0.54870063 -0.024091395 0.025001029
0.946867 0.31681192 0.5556193 -0.25301856 0.47960436 -0.5574321 0.26675186 0.7646869
-0.06872128 -0.052430168 -0.013825687 0.46192977 0.023025554 -0.025865782 -0.58081603 -0.24079365
-0.28514057 -0.28359216 -0.31383055 0.5678103 -0.3224555 0.3971557 0.20632392 -0.45405293
0.20267451 -0.21972498 -0.44156882 0.13335101 0.32228115 0.22286758 -0.40108088 -0.102656566
-0.17439924 0.6417608 0.18861462 0.05240582 -0.29954922 -0.32941437 -0.19903097 -0.123955816
0.041657604 -0.021042222 -0.0373884 0.07402842 0.053392705 -0.29404315 0.07318538 -0.027339725
-0.23445868 -0.06099784 -0.2691209 -0.2784501 0.22790553 0.60631454 0.36202052 0.36806738
-0.09452536 0.31386495 -0.25208744 0.339143 -0.49497378 0.13063091 -0.5239065 -0.61198604
-0.113217324 0.48523247 0.41041654 -1.3608371 0.44186068 -0.16979732 0.6626533 0.09996805
-0.22865057 -0.0023982641 0.6741149 0.14435959 0.7844284 0.3058069 0.41437882 -0.5041059
0.11741303 0.22223328 0.050928976 0.42272502 0.19182844 -0.3771682 0.32729438 0.43452924
-0.059965573 0.02666467 -0.3618618 0.1138017 0.37227148 -0.20574597 0.07706276 -0.50784975
0.19646199 0.3101495 0.35155433 -0.0028689778 -0.11642924 -0.40365937 -0.4785737 0.275289
0.49047413 0.23808576 -0.13661852 0.14505693 0.06720308 -0.06013105 -0.31319404 0.11582221
-0.2931565 -0.07863073 -0.36583492 -0.21858825 0.0833983 0.6251606 0.24685569 0.04517948
0.08785139 -0.41169778 -0.041573256 -0.60340667 -0.6210489 0.46210736 0.30753252 -0.3748114
-0.1574384 -0.5954849 -0.30009922 -0.41854215 0.08268241 -0.20186247 0.76056975 0.16200547
0.24520616 -0.034939025 -0.16131121 0.08857403 -0.8269075 0.98279023 -0.2284694 0.48478532
0.17013326 -0.124375254 -0.22590572 -0.8287141 -0.83931386 0.24086647 0.036150895 -0.08537045
0.2929251 0.035773482 -0.2248754 0.22554149 0.12250527 0.13903028 -0.13086617 0.29178327
0.24625285 -0.14782019 0.4428862 -0.09487381 -0.58178914 -0.05901285 -0.35827297 -0.36172876
0.13969877 -0.11792273 0.3305959 -0.1649824 -0.037982743 -0.7227659 0.38461456 -0.12912169
-0.41815838 -0.028375672 -0.0065714135 0.047800764 0.3805572 0.2829786 -0.108038515 0.2984412
-0.4404323 -0.15390214 -0.33468834 0.27125445 -0.08928615 -0.64548093 -0.8698271 -0.2596776
0.5110501 -0.27652022 -1.0388207 0.07053337 -0.16236548 0.11795548 0.21294096 -0.14496939
-0.112153746 -0.017195668 -0.44943234 -0.20348622 -0.411883 -0.33963582 -0.4391214 0.3439018
0.5652089 0.61983424 0.41367528 -0.30688623 0.09860103 -0.48614863 0.3051353 0.17481011

fc_layers.0.bias f4 [32]
00000000: c876 0cbe a67e 0c3e 762e 53be c787 113e
00000010: 2113 bfbd e406 fd3c 6809 2fbe 9942 203d
00000020: 59f7 a4bd 144f 13be 6ade 50bd 1614 50be
00000030: 34fb 473e 577a a13d b16e c4bd 75f3 99bd
00000040: d20b 37be a352 e6bd 31e8 45be 9216 8a3d
00000050: 220c 193b 4b98 08be d7f9 79bb 7ad5 cebd
00000060: 7cbb 70be 2193 75be 6928 713c e6b5 69be
00000070: bc97 35bd 17cb 1ebd 14e1 37be 5f39 c5bc
-0.13717186 0.13720188 -0.20623192 0.14211951 -0.093298204 0.030887075 -0.17093432 0.039126012
-0.0805499 -0.14385635 -0.05099336 -0.20320162 0.1952942 0.078846626 -0.09591425 -0.07517139
-0.17875603 -0.112462305 -0.19326855 0.06742586 0.002335318 -0.13339345 -0.00381433 -0.10099311
-0.2350902 -0.23981906 0.014719107 -0.22823295 -0.04433416 -0.0387679 -0.17956954 -0.024075208

fc_layers.1.weight f4 [16, 32]
00000000: 083b 423f 7a8e f6bd 2be2 cc3e f4cb 82bf
00000010: 67ed c6be fe61 50be 7885 9dbe e4b9 b73e
00000020: bdc5 103f 6e7b 613f 7708 a43d defe 2c3f
00000030: 2c01 f83c 6800 1c3f aa1b 373f 38cb 8b3e
00000040: 6dca 5abe 1385 043f db45 fa3d e7b3 513e
00000050: 2446 593f a5e7 2e3d f3d7 ca3e 292e a13c
00000060: 2aa8 3d3e 5cc1 ee3e cbe6 bd3e 0711 043e
00000070: 4960 1cbf 7c5c f03e ea20 fa3d 6c86 263f
00000080: 23bd 7d3f 282e 46bf 6642 193f c65b 243e
00000090: 9102 c23e b371 babe 4cfd 2d3e d25e 113f
000000a0: 983f 393f 2c89 363f af02 e5be 79f1 483f
000000b0: 4a1e 3ebe fcc7 153f de26 513f ed15 203e
000000c0: c512 b33e ff05 8b3f 1fb2 9b3e 6da7 d53e
000000d0: bd80 e83e 83e2 25bd 3121 a43e f7b5 85be
000000e0: f279 b73e 2a57 9c3e c868 073e d8a4 a63e
000000f0: e6cd 18bd 7be9 4f3f 95ef 093e a6ea 893e
00000100: 8dbd 623f 31b3 28bf a360 2e3f 01b9 b23d
00000110: d2a0 a73e 46f2 a3be c9d9 313e 2902 013f
00000120: fb07 0f3f 1841 1c3f eba5 02bf b47a 3d3f
00000130: 2968 0bbe 24fc 263f 7bb7 533f d2d3 8a3d
00000140: eece 123f 1402 8d3f c691 2f3e 84ec c33e
00000150: 65a3 073f 7a53 97bc 5298 263e e10a d4bd
00000160: e945 dd3e 8cdd e43e 0440 0c3e 1d6d b03b
00000170: f867 263e 9074 4d3f 07d5 833d fb6e b63e
00000180: 3aab 8cbe abbf 643e a607 6cbf 2eb0 203f
00000190: 0781 3dbf 77b6 0d3f a02a acbf 4127 833f
000001a0: 1b13 f4bc 9f36 393d 755b 93bf 1aec 8e3d
000001b0: 988d 613f afc7 463f 5900 333f 5f2f 33bf
000001c0: 4460 acbf 29ba e73e 84be ccbe d616 693f
000001d0: e4bf 353e 8d98 79bf 46c0 a3bf 8f7e 95bf
000001e0: fe8d 47bf d59c 1fbf 5a0c cfbe 42a1 3abf
000001f0: 1165 67bf 6429 3cbf faaa 44bf 9c11 103f
00000200: 180d 08bf 4904 883e e5f5 9abf f3c3 c23e
00000210: f5cb c03e 89b1 6e3f 42ac 2abf 7ef4 343f
00000220: 7c48 1e3f eae5 a7bd f0bf f7bf ad96 843f
00000230: 6519 513f eb01 e13e 2ccc 75bd 1361 a1be
00000240: 4f17 e9be 7d2a 4bbf f9f2 52bf 888f 7abe
00000250: f238 9f3e 341b b2be 31a2 363e 3aff 97be
00000260: 9873 25bf 6f4e 2c3c c134 e7bf 2e3e 823e
00000270: 7c2a e53e fcea 94bf da16 45bf 906f 2a3f
00000280: fa89 203f a5fa 0dc0 6814 b9bc 283d 15bf
00000290: 4b44 52be 0cf4 a3bf 2f07 873e 20e4 753e
000002a0: 738c 553e 77e7 fa3d b93f 913e bb5e 6e3e
000002b0: 73f1 2bbe 1336 3a3f f67e 7a3e fd58 dabd
000002c0: 35e4 d0be aff4 7d3e 5bc3 793f b99b 0a3e
000002d0: a16a 213f 2fc7 8e3e 4722 a23e f0ec 853e
000002e0: 84b3 173e 530a 133f 964c ec3e a29c 383f
000002f0: 6477 31be ef8e 963e f7ad 0c3f 6d76 913f
00000300: deb2 37be a0a0 513e 063d e73e 52f9 533f
00000310: c8bf 0ac0 7f41 2e3f 5b60 893f d267 0ebf
00000320: 3277 bfbf 90f3 0ebe 75af 1c3f 4fad 993d
00000330: b076 893d 6085 34be c5a6 25bd 05f3 9c3f
00000340: dc53 143f 83fd 4abf d6ea b53e 3167 e2be
00000350: 3401 37bf 5273 053f eb40 0c3f 21dc 593f
00000360: 5df1 2cbf 943b 9abe 8bec 653f 3f62 0dbf
00000370: 4a12 2f3f 8e27 a83e 030a 063f 82e9 ebbf
00000380: 2f7d ae3e b6e5 f93e 034b 02bf 0db1 0b3f
00000390: 413f 82bf 0ce6 123f 4f39 8fbf 7896 383f
000003a0: 494a 623d 1187 b4bf 2b6a babf 89ad 95be
000003b0: 1935 1b3f 269e 4a3f caaf bdbe d6a9 20c0
000003c0: 12d7 b03d cee4 13bf a607 7abf 4fc0 2a3f
000003d0: 81a8 f43e 22b1 febc d199 3bbe ab5c 84bf
000003e0: fa7a dbbe bf1b dfbd b0ab 16bf b412 1abe
000003f0: aa68 57bf 19d2 58bf 684a 9abe a921 383f
0.75871325 -0.12038894 0.40016302 -1.0218492 -0.38853 -0.20349881 -0.3076589 0.3588401
0.56551725 0.88078964 0.08009427 0.67576396 0.030273996 0.6093812 0.71526587 0.2730348
-0.21366282 0.51765555 0.12220355 0.20478784 0.8487265 0.042701382 0.3961788 0.019675331
0.18521181 0.46631896 0.37090144 0.1289712 -0.6108442 0.4694556 0.12213309 0.6504886
0.99116725 -0.7741418 0.5986694 0.16050634 0.37892583 -0.3641487 0.16991156 0.5678531
0.7236266 0.7130306 -0.4472861 0.7849346 -0.18566242 0.58508277 0.8169993 0.15633364
0.34975258 1.0861205 0.30409333 0.41729298 0.4541072 -0.04049922 0.32056573 -0.2611539
0.35835224 0.3053525 0.13223565 0.3254764 -0.037305735 0.8121564 0.134703 0.26936835
0.8857048 -0.65898424 0.68116206 0.08726693 0.32739884 -0.32020777 0.17368235 0.5039392
0.5587155 0.61036825 -0.5103442 0.74015355 -0.13613953 0.65228486 0.82701844 0.06778683
0.57347 1.1016259 0.17145452 0.38266385 0.52983695 -0.018472422 0.16269043 -0.103536375
0.432174 0.44700277 0.13696295 0.005384101 0.16250598 0.80255985 0.06437116 0.35631546
-0.27474385 0.2233874 -0.9219917 0.6276883 -0.74025005 0.55356544 -1.3450508 1.0246354
-0.029794266 0.045218106 -1.1512285 0.069786265 0.8810668 0.77648443 0.69922405 -0.6999416
-1.3466878 0.45259216 -0.39989102 0.9105047 0.17748982 -0.974984 -1.2793052 -1.1679248
-0.7795104 -0.6234868 -0.4043911 -0.7290231 -0.9038859 -0.7350066 -0.7682339 0.5627687
-0.5314498 0.2656577 -1.2106291 0.38040122 0.37655607 0.9323965 -0.66669095 0.70685565
0.6182935 -0.081981495 -1.935545 1.0358483 0.81679374 0.43946776 -0.060009167 -0.31519374
-0.45525596 -0.79361707 -0.82401997 -0.24468815 0.31098133 -0.3478638 0.17835309 -0.2968691
-0.6462951 0.010516747 -1.8062974 0.25438064 0.44758976 -1.1634212 -0.76987994 0.6657648
0.62710536 -2.2184231 -0.022592738 -0.5829644 -0.20533864 -1.2808852 0.26372668 0.24012804
0.20854358 0.1225118 0.2836893 0.23278324 -0.16791324 0.7273876 0.24462494 -0.106615044
-0.40799108 0.2480037 0.97563714 0.13535966 0.6305333 0.2788634 0.31666777 0.2615733
0.14814574 0.5743763 0.4615218 0.72114 -0.173307 0.29405925 0.5495295 1.1364266
-0.17939326 0.2047143 0.45163745 0.8280231 -2.1679554 0.6806869 1.073253 -0.5562717
-1.495825 -0.13960099 0.61205226 0.07503759 0.06712091 -0.17629004 -0.040442247 1.2261664
0.5794046 -0.7929308 0.35530728 -0.44219354 -0.7148621 0.5212909 0.54786557 0.85101515
-0.6755579 -0.3012358 0.8981406 -0.55228037 0.6838728 0.32842678 0.52359027 -1.8430636
0.34079883 0.48808068 -0.5089571 0.54567033 -1.0175554 0.57382274 -1.1189364 0.721046
0.055246625 -1.4103719 -1.456365 -0.2923396 0.60627896 0.79147565 -0.3704818 -2.510366
0.086347714 -0.57771003 -0.9766792 0.6669969 0.47784808 -0.031090323 -0.18320395 -1.034078
-0.4286726 -0.10893964 -0.58855724 -0.15046197 -0.8414408 -0.84695584 -0.30134892 0.7192636

fc_layers.1.bias f4 [16]
00000000: fb77 05be be3a 193d 3e54 e9ba 53f8 ee3d
00000010: 3edd 153e 6e37 6bbe bc01 8cbb 4a38 8c3c
00000020: c1a9 713d 578d 163e ecd3 663d f1a4 e6bc
00000030: 54bf 813b 4322 0bbc 794b 24bc 7588 90bd
-0.1303405 0.037409537 -0.0017801595 0.11668458 0.14635178 -0.22970363 -0.0042726677 0.017116684
0.05899978 0.14702354 0.05635445 -0.028154822 0.0039595757 -0.008492055 -0.01002776 -0.07057277

affine_output.weight f4 [1, 48]
00000000: a08a 57bf 3ff6 25bf aded 22bf ae22 2b40
00000010: ce35 fe3f 7648 d1bf a409 ef3f 1cd1 0e40
00000020: 97a5 ea3f c01e 0240 59b3 5abf eb6f 2040
00000030: bad9 2f40 fa5a 0d40 5e19 27bf c1d5 4abf
00000040: aca2 463f 360d 75bf 2350 85bf 96c9 5a3f
00000050: 9f68 5abf fb10 65bf 310e 73bf a21b 4e3f
00000060: 6705 6fbf 285b 2e3f db31 58bf 13f2 7cbf
00000070: f2df 953f c4d8 783f 9205 50bf bf6a 4c3f
00000080: 92ca 6e3f 30de 853f 0618 5a3f 02b2 173f
00000090: ccb7 5d3f c7af a63f 2a4a 833f ce7c 4fbf
000000a0: 2d5a 823f 7b38 913f 90e5 5c3f 74b0 8f3f
000000b0: bf52 853f 9629 6ebf c0cd 843f d1a2 703f
-0.841959 -0.64828867 -0.63643914 2.6739917 1.986017 -1.6350238 1.8674817 2.231513
1.8331784 2.0331268 -0.8542991 2.506831 2.747664 2.2086778 -0.6527308 -0.7923241
0.7759197 -0.95723283 -1.0415081 0.85463846 -0.8531589 -0.89479035 -0.9494353 0.80510914
-0.9336762 0.68107843 -0.84451073 -0.98806876 1.1708968 0.9720576 -0.812585 0.7985038
0.9327785 1.0458431 0.85192907 0.59255993 0.86608577 1.3022393 1.0257008 -0.8104981
1.018377 1.1345361 0.86287785 1.1225724 1.0415877 -0.93032205 1.037529 0.9399844
