checkpoints/NeuMF_Epoch2_HR0.2107_NDCG0.1975.model (torch, 510215 bytes, 9 tensors)

embedding_user_MF.weight f4 [51, 32]
0	0xbf498bd5	-0.7872899
1	0xbe25388e	-0.16134855
2	0x3fb26543	1.3937153
3	0xbfb8c67a	-1.443557
4	0xc0182c66	-2.3777099
5	0xbf9e2253	-1.2354225
6	0x3f952cb0	1.1654263
7	0x3ef01167	0.46888277
8	0xbf5e325e	-0.86795604
9	0x3e4d5b10	0.20054269
10	0xbf746e94	-0.9548123
11	0xbf75e341	-0.96049887
12	0x3f9273be	1.1441572
13	0x3d78f086	0.060776256
14	0x3fba521c	1.4556308
15	0xbf20d9f6	-0.6283258
16	0xbf9429df	-1.1575278
17	0xbf79bb58	-0.9755149
18	0x3ef7ae30	0.48375082
19	0x3f59619c	0.84914565
20	0x3d6e60cf	0.058197793
21	0xbe419bd2	-0.18907097
22	0x3f85497b	1.041305
23	0x3dcad000	0.09902954
24	0xbfc46709	-1.5343944
25	0x3ff4641b	1.909305
26	0xbe2857d4	-0.16439754
27	0x3fbe9709	1.4889842
28	0x3eca2b3f	0.3948612
29	0xbd054916	-0.032540403
30	0x3faf5181	1.3696748
31	0x3f90b50f	1.1305255
32	0xc0097fb6	-2.1484199
33	0x3f66b2ac	0.9011638
34	0x3f95e305	1.1709906
35	0x3f955eb1	1.1669523
36	0xc00219e3	-2.03283
37	0xbf781e42	-0.9692117
38	0xbffb72dc	-1.9644427
39	0x3f589b05	0.8461154
40	0xbe62d535	-0.22151645
41	0xbf9d33d9	-1.2281448
42	0xbea5efc2	-0.32409483
43	0xbf2453c6	-0.6419033
44	0xbfbc2980	-1.4700165
45	0xbf108340	-0.5645027
46	0x3f8b582b	1.0886282
47	0xc072a5bc	-3.7913656
48	0xc02093c1	-2.5090182
49	0x3fee429d	1.8614079
50	0x401118ac	2.2671309
51	0xbf229cfe	-0.635208
52	0x3ecf3337	0.4046876
53	0xbec2a192	-0.38013893
54	0xbe9f277a	-0.31084806
55	0x3d50961e	0.050924413
56	0xbf97101d	-1.1801792
57	0x3fcd3bba	1.6033852
58	0x3d4f836f	0.050662454
59	0xbf819b02	-1.012543
60	0xbf54e040	-0.8315468
61	0xbe0da8b8	-0.13833892
62	0x402e9ce4	2.7283258
63	0x3ea560a6	0.323003
64	0x3edb5b15	0.42842928
65	0x3d8449eb	0.06459411
66	0xbf437d63	-0.763632
67	0x3e5e3dc3	0.21703248
68	0x3fa08483	1.2540439
69	0x3f3567cc	0.70861506
70	0x3f0c8497	0.54889816
71	0x3f8b9b52	1.0906775
72	0xbf8c8de1	-1.0980798
73	0x3ceb7f76	0.028747302
74	0x3f9ccdac	1.2250266
75	0xbfc0fc18	-1.5076933
76	0x3efad7b8	0.48992705
77	0x3fa448bd	1.2834698
78	0x3faa2fc6	1.3295829
79	0xbf2ff057	-0.68726104
80	0xbc581d4b	-0.013190578
81	0xbfab1d01	-1.3368226
82	0x3efbd21e	0.49183744
83	0x3f2f0a2d	0.683749
84	0x3eac2ecf	0.33629462
85	0xbff40137	-1.9062871
86	0xbf1dede8	-0.6169114
87	0x3ef7bc69	0.48385933
88	0xbef81ea6	-0.48460883
89	0x3f08045f	0.5313167
90	0x3f4669f7	0.7750544
91	0xbf54f350	-0.83183765
92	0xbf1c6d70	-0.6110449
93	0x3f9043e5	1.127072
94	0xbdcec652	-0.1009642
95	0x3f2ee48c	0.68317485
96	0xbf1d7bf6	-0.61517274
97	0xbfcba274	-1.5908952
98	0x3fbb7c2b	1.4647268
99	0x3f17d8d6	0.5931524
100	0xbe88308a	-0.26599532
101	0x3bcd62fd	0.006267904
102	0xbd080e17	-0.033216562
103	0x3f52605d	0.8217829
104	0xbecaa238	-0.39576888
105	0xbecf86c2	-0.405325
106	0xbf79ad50	-0.9753008
107	0x3f9fea78	1.2493429
108	0xbfc20c96	-1.5160091
109	0x3e579e5c	0.21056503
110	0x3f384fa0	0.719965
111	0x3d7b7efa	0.06140039
112	0xc006469e	-2.0980601
113	0x3f15908c	0.58423686
114	0xbf957876	-1.1677387
115	0xbf704d45	-0.93867904
116	0xbfe54dc3	-1.7914356
117	0x3c970241	0.018433692
118	0x3f9a487b	1.2053369
119	0xbecc668d	-0.3992199
120	0xbe95e1ad	-0.2927374
121	0x3f789893	0.9710781
122	0x3fe1ace5	1.7630888
123	0x3f8636cc	1.0485473
124	0x3f6d6613	0.9273388
125	0x3f973259	1.181224
126	0xbee39131	-0.4444671
127	0xbf997c77	-1.1991109
128	0xc0052dec	-2.0809278
129	0xbf23adb3	-0.6393692
130	0x3f59e58f	0.85115904
131	0x3debea7e	0.11519335
132	0xbffe07d2	-1.9846137
133	0xc00e941f	-2.2277906
134	0x3e838fe5	0.2569572
135	0xbe8ebca4	-0.27878296
136	0x400e3d6b	2.2224987
137	0x405056d7	3.2553003
138	0x3f40f789	0.7537771
139	0x3e0b9309	0.13630308
140	0xbd992f0b	-0.07479676
141	0xbea2ddf0	-0.3180995
142	0xbe636a0f	-0.22208427
143	0x3f26a937	0.6510195
144	0x4031f5c9	2.7806265
145	0x404e8380	3.2267761
146	0xbfe3bd9a	-1.7792237
147	0x407a30b4	3.9092226
148	0x4076fc45	3.8591473
149	0xc0473338	-3.1125011
150	0x3f102938	0.56312895
151	0xbeee590b	-0.4655231
152	0xbf3796b9	-0.7171436
153	0xbf56611f	-0.83741945
154	0x3fa34027	1.2753953
155	0xbe8811b4	-0.26576006
156	0xbdbb9ecb	-0.09161147
157	0xbfa6f834	-1.3044496
158	0x3ef461d0	0.47730875
159	0x3e931cd3	0.2873293
160	0xbf5c0d58	-0.8595786
161	0x3f8aa1b3	1.0830597
162	0xbbd9621c	-0.00663401
163	0x3ead39e1	0.3383322
164	0xbebcbce7	-0.3686287
165	0x3f8d5ad8	1.1043348
166	0xbfec7cab	-1.8475546
167	0xbff07e8d	-1.878862
168	0xbf4a56e2	-0.7903882
169	0x40173e3b	2.3631732
170	0xbf4086a8	-0.7520547
171	0xbf9f4ffc	-1.2446284
172	0xbc99bb0c	-0.018765949
173	0xbf631aa6	-0.8871254
174	0x3f02519a	0.50905764
175	0xbfcd2c59	-1.6029159
176	0x3fcb5269	1.5884525
177	0x3eaf95f9	0.34294108
178	0xc020ff37	-2.515577
179	0x3f9e5809	1.2370616
180	0xbf8e0aaa	-1.1097004
181	0xbe3d286f	-0.18472455
182	0xbed5e5c7	-0.4177687
183	0x3f3fb1e7	0.7488083
184	0xbf56f9c4	-0.8397486
185	0x3fb5159f	1.4147223
186	0xbf139f7e	-0.5766524
187	0x3edcba1e	0.43110746
188	0x40034090	2.0508156
189	0x3f8b4061	1.0879022
190	0xbee3a4da	-0.4446171
191	0x3fcfa770	1.6222973
192	0xbfb490a0	-1.4106636
193	0xbe173b7e	-0.14768788
194	0x3f2654f7	0.64973396
195	0x3f406c63	0.75165385
196	0x3f1f330b	0.6218726
197	0x3f85ddf6	1.0458362
198	0x3e21f40a	0.1581575
199	0xbeb3af62	-0.35094744
200	0xbec22ea2	-0.37926203
201	0xbf86d2da	-1.0533097
202	0xbf179b27	-0.5922112
203	0x3f175629	0.59115845
204	0x3f1e4fd1	0.6184054
205	0xbeb2b43b	-0.3490313
206	0xc008a5f0	-2.135128
207	0xbf9ee720	-1.2414284
208	0xbf88a427	-1.0675095
209	0x3f57d41a	0.84308016
210	0xbf99a810	-1.2004414
211	0x3f39cbe8	0.7257676
212	0x3eb6c795	0.35699144
213	0xbfac3eff	-1.3456725
214	0xc00649dc	-2.098258
215	0x3e86d9b9	0.26337984
216	0x3f59e353	0.85112494
217	0xbe2b3163	-0.16718058
218	0x3d535d99	0.051602934
219	0xbe6744ef	-0.2258489
220	0xbdfb7dd6	-0.12279861
221	0x3ed95ff5	0.42456022
222	0x3fab744b	1.3394865
223	0xbfbb5469	-1.4635135
224	0xbeba99e4	-0.36445534
225	0x4032c9eb	2.793574
226	0xbf911152	-1.1333411
227	0xbfbb65f4	-1.4640489
228	0xbef810d9	-0.48450354
229	0x3e0d06f9	0.13772191
230	0x3f9de781	1.2336274
231	0xbf5a783f	-0.8533973
232	0xbe41320d	-0.18866749
233	0x401af3ca	2.4211297
234	0x3f83d33c	1.0298839
235	0xc04e24a0	-3.2209854
236	0xbfba519f	-1.4556159
237	0x3eff5d88	0.49876046
238	0xbdc8357b	-0.097758256
239	0x3f58f982	0.8475572
240	0xc0298040	-2.6484528
241	0x403df9da	2.9683747
242	0xbfb44324	-1.408299
243	0xbecce258	-0.40016437
244	0xbe5acb22	-0.21366552
245	0x3fd0d6bf	1.6315535
246	0x3f54a8d5	0.8307012
247	0xbf9fe6b5	-1.2492281
248	0xbfa7aeb0	-1.3100185
249	0x3f845396	1.0338008
250	0x3fa24bab	1.2679342
251	0xbf9ec774	-1.2404618
252	0x400892e0	2.1339645
253	0xbd2f0345	-0.042727727
254	0xbda83461	-0.082131155
255	0x3fab6a09	1.3391734

embedding_item_MF.weight f4 [1889, 32]
0	0xbfb9451d	-1.4474217
1	0xbf1703f5	-0.5899041
2	0xbf709f99	-0.93993527
3	0xbf157a2f	-0.5838956
4	0xbf76933c	-0.9631841
5	0xbfa1ccb4	-1.2640595
6	0xbfb00d0c	-1.3753982
7	0xbfbdb695	-1.4821345
8	0x3e10268c	0.14077204
9	0xbfbb164a	-1.4616177
10	0xbf7d42ee	-0.9893025
11	0x3fcee1af	1.6162623
12	0x40171fce	2.3613162
13	0x3ed763ab	0.42068228
14	0x3f623fcf	0.88378614
15	0xc021c9ac	-2.527934
16	0xc049628a	-3.1466393
17	0x3f3e2b1f	0.7428455
18	0x3f00f823	0.50378627
19	0xbf9ac8b7	-1.2092503
20	0x3fad05b7	1.3517369
21	0xbd263041	-0.040573362
22	0x3fb5f497	1.4215268
23	0xbff88d47	-1.9418114
24	0x3fb0c7ca	1.3810971
25	0x3f8bb240	1.0913773
26	0xbeef0fee	-0.4669184
27	0x3f7a3e5e	0.97751415
28	0xbec29fa0	-0.3801241
29	0xbec703ae	-0.38869995
30	0x3f403847	0.7508587
31	0xbf82fb98	-1.023303
32	0x3f6c9fef	0.9243154
33	0xbfdf1769	-1.7429019
34	0xbf80050b	-1.0001539
35	0x3f0abb11	0.5419169
36	0x3e662d71	0.22478272
37	0x3ed4ca54	0.41560614
38	0xbfae3a4a	-1.3611538
39	0xbe97ff80	-0.2968712
40	0x3ddd03d0	0.10791743
41	0x3f41aa7e	0.75650775
42	0xbfac2a31	-1.3450376
43	0xbf35b617	-0.7098097
44	0x3fdd87cf	1.730707
45	0xbfe76d04	-1.8080144
46	0xc00552bc	-2.0831747
47	0x3f0737c8	0.5281949
48	0x3ee70015	0.4511725
49	0xbf1451cd	-0.5793732
50	0xbf58f1d8	-0.84744024
51	0x3c881899	0.016613292
52	0xc00764ea	-2.1155343
53	0x3feb55b6	1.8385532
54	0xbd6a8b2e	-0.05726164
55	0xbf993d6b	-1.1971868
56	0x3edf7fe8	0.43652272
57	0x402b6669	2.6781256
58	0x3ef13282	0.47108847
59	0x3f044253	0.516637
60	0xbe2f56e9	-0.17122997
61	0xbd4e530e	-0.050372176
62	0xbf24f825	-0.6444114
63	0x3f56adce	0.83858955
64	0x3f99c7fd	1.2014157
65	0xbfb82250	-1.4385471
66	0x3f4a1d60	0.7895107
67	0xbd9770c6	-0.07394557
68	0x400034cc	2.0032225
69	0xbff0cb0c	-1.8811965
70	0x3f9554c4	1.1666493
71	0xbe747d7c	-0.23875993
72	0xbeb35da9	-0.35032395
73	0x3ffaf357	1.9605511
74	0x3f106b2c	0.5641353
75	0x3f517c1b	0.81829995
76	0x3daf58f0	0.08561885
77	0x3e92b620	0.28654575
78	0xbf17dc4f	-0.5932054
79	0x3f3d8f39	0.74046665
80	0x3f4c1e75	0.79733974
81	0xc0457543	-3.085282
82	0xbe6abef2	-0.22924402
83	0xbf75aa20	-0.95962715
84	0x4001f593	2.0306137
85	0xc00fbc36	-2.2458625
86	0x3fa7252a	1.3058217
87	0xc014fc8a	-2.3279138
88	0x3e18cc13	0.14921598
89	0x3f60e4fa	0.8784939
90	0x3f9b01ca	1.2109921
91	0x3f97ecad	1.1869103
92	0x3f065100	0.52467346
93	0x4032f4ad	2.7961838
94	0x3e74d635	0.23909838
95	0x3ecefd0f	0.40427443
96	0x3c048ef0	0.00809072
97	0x3f3173fb	0.693176
98	0x3d30a8e7	0.043129828
99	0xbe12adb5	-0.14324076
100	0x3d2eccf6	0.042675935
101	0xbfc3edd2	-1.5306952
102	0x3e5f50ee	0.21808216
103	0x3e0121ff	0.12610625
104	0x3ffda132	1.9814818
105	0x3fdd0edb	1.7270159
106	0xbf238d6c	-0.6388767
107	0x3fe077dc	1.7536578
108	0xbc93f7fb	-0.018062582
109	0xc003b480	-2.0578918
110	0xbf0e96a9	-0.5569864
111	0xbefe8f72	-0.49718815
112	0x3ee4054a	0.44535285
113	0x3e06a39b	0.13148348
114	0xbd2ddff8	-0.04244992
115	0xbe578ee9	-0.2105061
116	0x3eeb0c31	0.4590774
117	0xbf8e4786	-1.1115577
118	0xbf28e253	-0.65970343
119	0x3fa835b9	1.3141395
120	0xc04a1e2b	-3.1580913
121	0xbdf7bf1c	-0.12096998
122	0xc0317d82	-2.7732854
123	0x3e269494	0.16267616
124	0x40377ed8	2.867117
125	0xc0417642	-3.022843
126	0x3e6a8f55	0.2290624
127	0x3fa9a729	1.3254138
128	0xbf5603e5	-0.8359969
129	0x4007aa3c	2.1197653
130	0x3e3c02c4	0.1836043
131	0x3fba0fce	1.4536073
132	0x3f93d148	1.1548243
133	0xbfce288d	-1.6106125
134	0xbfa15acc	-1.2605834
135	0xbe30ed4b	-0.1727802
136	0x3ebf7a54	0.37398016
137	0x3ea627e9	0.32452324
138	0x3fda9efa	1.7079766
139	0xbf34f3f4	-0.7068474
140	0x3eace594	0.33768904
141	0x4080edc1	4.0290227
142	0xc041a49b	-3.0256717
143	0x3f3efe2c	0.74606586
144	0xbf03e3c5	-0.51519424
145	0xbfed520f	-1.8540667
146	0x3f0b7f06	0.544907
147	0x3eddb76a	0.43303996
148	0xbeea73f4	-0.4579159
149	0xbe960ccc	-0.29306638
150	0xbeb627c2	-0.35577208
151	0xbef812d4	-0.48451865
152	0x3e109ed4	0.14123088
153	0x3eba876c	0.36431444
154	0x3f4e64c0	0.8062248
155	0xbe55b815	-0.20871003
156	0x3f299979	0.66249806
157	0xc02f61c9	-2.7403433
158	0xbf0fae02	-0.5612489
159	0x3fabd4b8	1.3424292
160	0x3f03e333	0.51518553
161	0xbf373646	-0.7156719
162	0xbf37d2a7	-0.71805805
163	0xbf830c8f	-1.0238208
164	0xbedb7b12	-0.42867333
165	0x3fe98b54	1.8245645
166	0x3d85bc7f	0.065300934
167	0xbf95197e	-1.1648405
168	0x3fffbdb5	1.9979769
169	0x3fe2fb6d	1.7732979
170	0xbf79e932	-0.9762145
171	0x3ec0d25f	0.376605
172	0xbeeabac3	-0.45845613
173	0x4014862c	2.3206892
174	0xbfe9d26f	-1.8267344
175	0x3efec1d8	0.49757266
176	0xbde84223	-0.113407396
177	0x3f8c0683	1.0939487
178	0xbf48c3a0	-0.784235
179	0xbe7abc40	-0.24485874
180	0xbecbc357	-0.3979747
181	0x3f88c686	1.0685585
182	0xbf386e61	-0.72043425
183	0x3f620a2b	0.88296765
184	0xbf7329e8	-0.9498582
185	0x401de5e7	2.4671571
186	0xbfc6d909	-1.5534984
187	0xbf0caa48	-0.5494733
188	0x3d73cb72	0.059520192
189	0x3d75218e	0.059846453
190	0x3f6e6fce	0.9313935
191	0xbf14594e	-0.5794877
192	0xbef1b293	-0.47206554
193	0xbf13c7a4	-0.577265
194	0xbfa219c3	-1.2664112
195	0xc0108d9c	-2.2586432
196	0x3e62be39	0.22142877
197	0x3fc8262c	1.5636649
198	0xbed4d3bc	-0.4156779
199	0x3f1b39f5	0.6063531
200	0x3ea94518	0.33060527
201	0xbfd1bb44	-1.6385274
202	0x3f7c1fa9	0.9848581
203	0xbeaf3de3	-0.34226903
204	0x3ff5283f	1.9152907
205	0xc0315023	-2.7705162
206	0x3e7376b2	0.23775747
207	0x3ea57221	0.32313636
208	0x3ee05986	0.438183
209	0xc00a36a5	-2.1595852
210	0xbf872c6f	-1.0560435
211	0xbf4c8725	-0.79893714
212	0xbf96291d	-1.1731297
213	0xbecdb3be	-0.40176195
214	0x3e92a634	0.28642428
215	0x3f0a4988	0.5401845
216	0xbd322a94	-0.043497637
217	0x3f72c594	0.9483273
218	0x3f8d0ed7	1.1020154
219	0xbfa04b26	-1.2522933
220	0x3e8a1e37	0.26976177
221	0x3d8926cc	0.06696853
222	0xbf9cb0f7	-1.2241505
223	0xbe1a7370	-0.15083098
224	0xc044c8e4	-3.0747614
225	0x3fa64694	1.2990289
226	0xc00f6793	-2.2406967
227	0xbfa4dd16	-1.287997
228	0x3f7a2e23	0.9772665
229	0x3efc8126	0.49317282
230	0xbf20ca18	-0.6280837
231	0x3f545bdd	0.8295267
232	0x3f0a17e5	0.5394271
233	0x400dffea	2.2187448
234	0xbe16b5f0	-0.14717841
235	0x3e8a71bd	0.270399
236	0xbfdccac2	-1.7249377
237	0x3f55e66d	0.83554727
238	0x3e2faf80	0.17156792
239	0xbfcb7e29	-1.5897876
240	0xbf279224	-0.6545737
241	0xbfb018e0	-1.3757591
242	0xbede2d84	-0.433941
243	0x3f0060eb	0.50147885
244	0x3ec67995	0.38764635
245	0x3f7f4aca	0.99723494
246	0xbfab3936	-1.3376834
247	0x3ec06f28	0.37584805
248	0xbeecafb9	-0.46227816
249	0x3eb6b211	0.3568273
250	0x3d9bf729	0.076155014
251	0x3f121851	0.57068354
252	0x3f369665	0.71323234
253	0xbbbf113c	-0.005830912
254	0xc0216722	-2.5219197
255	0xbfa6b985	-1.3025366

embedding_user_MLP.weight f4 [51, 32]
0	0xbfb75c82	-1.4325106
1	0x3fb3a66e	1.4035165
2	0xbeb69f1b	-0.35668263
3	0xbf87fbea	-1.0623753
4	0x3ead858e	0.33890957
5	0xbf2f5665	-0.684912
6	0xbf15d65d	-0.5853022
7	0xbf96bf88	-1.1777201
8	0x3fc40796	1.5314815
9	0xbfe6a6e3	-1.801968
10	0xbe70f9cb	-0.23532788
11	0xbf2fe7b7	-0.68712944
12	0xbdbf99bf	-0.093554966
13	0xbfac385f	-1.3454703
14	0x3fce90f0	1.6137981
15	0xbf848f26	-1.0356185
16	0x3e63aa2c	0.22232884
17	0x3e046592	0.12929371
18	0xbe60334c	-0.21894568
19	0x3eedf3a9	0.4647496
20	0xbe9e73d1	-0.30947736
21	0xbf952b3c	-1.1653819
22	0x3f9c24b3	1.21987
23	0xc00fa96f	-2.2447164
24	0xbf323402	-0.6961061
25	0x3f3b7494	0.7322476
26	0x3e1b7688	0.15181935
27	0xbedaff51	-0.42772916
28	0xbd4ad50e	-0.04951959
29	0xbf338990	-0.7013178
30	0x3e4b53e0	0.19856215
31	0x3df3e21e	0.11908363
32	0x3f162425	0.586489
33	0xbed0bb5f	-0.40767953
34	0xbf622b32	-0.8834716
35	0x3d4d2912	0.050087996
36	0x3e7fe1b4	0.24988443
37	0x3ec90011	0.39257863
38	0x3f6bd9bd	0.9212912
39	0xbfdfa4de	-1.7472188
40	0x3efb2fdf	0.4905996
41	0xbf3662be	-0.7124442
42	0xbf867f4b	-1.0507597
43	0xb9d3a1c9	-0.00040365595
44	0x3fd9fecd	1.7030884
45	0xbf9ecd63	-1.2406429
46	0xbf795dac	-0.97408557
47	0x3e5da32b	0.21644275
48	0xbf5c70fd	-0.86109906
49	0xbecec4d9	-0.40384558
50	0xc0437602	-3.0540776
51	0xbe96e2c0	-0.29469872
52	0xbda86b9d	-0.082236506
53	0xbee3aebb	-0.44469246
54	0x3f492f10	0.78587437
55	0xbddafa2a	-0.10692246
56	0xbf966978	-1.1750937
57	0xbeae430e	-0.34035534
58	0x3fa282f0	1.2696209
59	0xbef2c4cf	-0.47415778
60	0x3f5d2312	0.8638164
61	0x3ece3478	0.40274405
62	0xbf98b927	-1.1931504
63	0x3fea6d89	1.8314677
64	0x3f98a7c8	1.1926203
65	0x3f2c7d51	0.6737872
66	0x3fa5a104	1.2939763
67	0x3ebd95d9	0.37028387
68	0x3f6b3056	0.9187063
69	0x3f82077c	1.0158534
70	0xbfef3057	-1.8686627
71	0x3f8b6813	1.0891136
72	0xbe2e9dd6	-0.17052397
73	0x3f66b01f	0.9011249
74	0xbfeae2fd	-1.8350521
75	0xbe555230	-0.20832133
76	0x3e817e6c	0.25291765
77	0x3f3eabcb	0.74480885
78	0x3f45a98e	0.77211845
79	0xbed5dce7	-0.41770098
80	0x3ed36b88	0.41292977
81	0x3fcfc84d	1.6233002
82	0xbf75f722	-0.9608022
83	0x3f2f04fd	0.68366987
84	0x402feeb4	2.7489443
85	0x3f367380	0.7126999
86	0x3f4b471d	0.79405385
87	0xbf85fa13	-1.0466942
88	0x3ee064ce	0.43826908
89	0x3ea4c8d0	0.32184458
90	0x3f82f134	1.0229859
91	0xbe49fc9d	-0.1972527
92	0x400272fe	2.0382686
93	0x3db04803	0.08607485
94	0x3f623768	0.88365793
95	0x3f9bdfa5	1.2177626
96	0xbf2ab667	-0.66684574
97	0xbec38d83	-0.38193902
98	0xbebe864f	-0.37211844
99	0x3d8bef0f	0.06832706
100	0xbf6221ce	-0.8833283
101	0xbea0e769	-0.31426552
102	0xbe2e8ff7	-0.17047106
103	0xbf84f035	-1.0385805
104	0x3d9b2d0e	0.07576953
105	0x3ed01ecf	0.40648505
106	0x3ebd05e3	0.36918554
107	0xbff0de2a	-1.8817799
108	0xbf1e79d1	-0.6190463
109	0xbf01c0c0	-0.5068474
110	0x3f76ea1c	0.9645097
111	0xbf32ed0c	-0.69892955
112	0x3f234e37	0.6379122
113	0x3eeecacd	0.466391
114	0xbf8ebc5a	-1.115123
115	0x4005b8d9	2.0894072
116	0x3fa2de78	1.2724142
117	0xbe932a55	-0.28743234
118	0x3f3a73ec	0.7283313
119	0x3ef0957a	0.46989042
120	0xbea5f890	-0.324162
121	0xbebff34e	-0.37490314
122	0xbf58e5e3	-0.8472578
123	0x3d8bb282	0.06821157
124	0xbd3ad8f9	-0.045617077
125	0xbe370d93	-0.17876272
126	0xbfd3f31f	-1.655857
127	0xbf29e581	-0.6636582
128	0x3f1b2fab	0.6061961
129	0xbe7fe8f8	-0.24991214
130	0x3fa4eef9	1.2885429
131	0x401aa89e	2.4165416
132	0x3fefe0c1	1.8740464
133	0xbf35db0d	-0.7103737
134	0x3e2e9bdf	0.17051648
135	0xbfc73643	-1.5563434
136	0xbf158e0d	-0.5841988
137	0x3e9bb87d	0.3041419
138	0x3fbd7fab	1.4804586
139	0x3ff6cbd0	1.9280949
140	0xbdd0fa48	-0.10203987
141	0xbe451724	-0.19247109
142	0x3eb308a7	0.3496754
143	0x3faa7ee8	1.3319979
144	0x3f93545c	1.151012
145	0x3f9cd317	1.225192
146	0x3ea8bca7	0.3295643
147	0x3f88d138	1.0688848
148	0xbf4b1eb6	-0.79343736
149	0x402aca0c	2.668582
150	0x3d6d69b2	0.057962127
151	0x3f7702c8	0.9648862
152	0xbf0d2981	-0.55141455
153	0x3eda5dd9	0.42649725
154	0xbe25420f	-0.1613848
155	0x3f121eea	0.5707842
156	0x3f4150d4	0.7551396
157	0x3f8a7eeb	1.0819982
158	0x3eed4d7a	0.46348172
159	0x3edb9b27	0.4289181
160	0xbea79826	-0.32733268
161	0x3fb65404	1.424439
162	0x3fd0f742	1.6325457
163	0x3f0b6bc1	0.54461294
164	0x3f849b8a	1.0359967
165	0xbf853bec	-1.0408912
166	0x3f57f2b3	0.84354705
167	0xbe8171ce	-0.2528214
168	0xbeb73253	-0.35780582
169	0xc0439cf3	-3.0564544
170	0xbe98fa39	-0.29878405
171	0x3f8703bb	1.0548013
172	0x3e8ebba0	0.27877522
173	0x3fa196b7	1.262412
174	0x3f070515	0.5274213
175	0xbf8f82b5	-1.1211764
176	0x3f80395f	1.0017508
177	0xbead6155	-0.3386332
178	0xbfb85471	-1.440077
179	0x3f81c032	1.0136778
180	0xbfed2668	-1.8527346
181	0xbf3e3a8e	-0.743081
182	0xc0450f63	-3.0790641
183	0xbf917f8c	-1.1367049
184	0xbec24939	-0.3794649
185	0xc01771bc	-2.3663168
186	0x40454a46	3.0826583
187	0x3fc02d38	1.50138
188	0x3d86a496	0.06574361
189	0xc000f8b5	-2.0151799
190	0x3eb31ff8	0.34985328
191	0x3ee3630d	0.44411507
192	0x3e971b70	0.2951312
193	0xbf6d35ee	-0.92660415
194	0x3f651317	0.89482254
195	0xbf3fe5c1	-0.7495995
196	0x3f1dbdaa	0.6161753
197	0xbf4d558b	-0.80208653
198	0xbf9ae1fd	-1.2100216
199	0x3f986a65	1.1907469
200	0xbf72b358	-0.94804907
201	0x3f19a168	0.6001191
202	0xbf250695	-0.6446317
203	0xbd6f01cd	-0.058351327
204	0xc02389bf	-2.5552824
205	0x3ec3eeb9	0.38268068
206	0x3f69427f	0.9111709
207	0xbf0f55e9	-0.55990463
208	0x3e88e0fd	0.26734152
209	0x3baf9439	0.0053582457
210	0x3fbca0cc	1.4736571
211	0xbff97e89	-1.949174
212	0x3fbc6473	1.4718155
213	0x3fd32a88	1.6497355
214	0x3f9f6342	1.2452166
215	0x3f7e6b3d	0.9938238
216	0xbe2233a2	-0.15840009
217	0xbfef1c36	-1.8680484
218	0xbff63d53	-1.9237465
219	0xbddf2ee6	-0.10897617
220	0xbf9248bc	-1.1428447
221	0x3f859fb0	1.0439358
222	0xbf06f3d3	-0.52715796
223	0x3f3a9dd8	0.728971
224	0xc0094289	-2.144686
225	0xbf828400	-1.0196533
226	0xbeacc5ef	-0.3374476
227	0x3fc7abde	1.5599325
228	0x3fcaca79	1.584304
229	0x3fb6a690	1.4269581
230	0x3fc49bc9	1.5360042
231	0xc0064505	-2.0979626
232	0xbfc7038d	-1.5547959
233	0x3f300847	0.6876263
234	0x3ea6adcc	0.32554471
235	0xbe909ded	-0.28245488
236	0xbfafdbd7	-1.3738965
237	0xc015ba2b	-2.3394878
238	0x3fa1bb13	1.2635216
239	0x3f745b0d	0.9545143
240	0xbd88bd6e	-0.06676756
241	0xbf6a232c	-0.9145992
242	0xbfa940f4	-1.3222947
243	0x3f29973d	0.66246396
244	0xbf18ecfe	-0.5973662
245	0x3f60232c	0.8755367
246	0xbf07a59e	-0.52987087
247	0x3fce83ad	1.6133934
248	0xbfba4e1d	-1.4555088
249	0xbee287c9	-0.4424422
250	0xbf4fc737	-0.8116335
251	0xbe658fab	-0.22418086
252	0xbf44e47f	-0.7691116
253	0xbf5c8b56	-0.8615011
254	0x3ed5428d	0.41652337
255	0xbfc11881	-1.5085603

embedding_item_MLP.weight f4 [1889, 32]
0	0x401f2a25	2.4869473
1	0x400bc491	2.1838725
2	0x3e8489b1	0.258863
3	0xc00f50cd	-2.2393067
4	0x3f25fb3d	0.64836484
5	0xbe8f5794	-0.27996504
6	0x3fb4daab	1.4129232
7	0xbdc4777d	-0.09593103
8	0x3f5790e0	0.84205437
9	0xbd14ba4e	-0.036310486
10	0xbee5fa1e	-0.44917387
11	0xbe322ea0	-0.17400599
12	0xc03a9768	-2.915491
13	0x3f603f11	0.8759623
14	0xbf0ee509	-0.5581823
15	0xbfcfa5b6	-1.6222446
16	0x3faf219a	1.3682129
17	0x3fceedcf	1.6166323
18	0xbf593c8c	-0.8485801
19	0x3f2ad99d	0.667383
20	0x3da131d0	0.07870829
21	0xbf8aaa1f	-1.0833167
22	0x3f1972a2	0.5994054
23	0x3f430ecc	0.76194453
24	0xbe3f95a8	-0.18709433
25	0xc0025360	-2.0363388
26	0x3e4406b6	0.19143185
27	0xbf5ce5a2	-0.8628789
28	0x3f2cfc3e	0.6757239
29	0x4001db05	2.028993
30	0xbf63cabc	-0.88981223
31	0x3f602213	0.87551993
32	0x3e449faa	0.19201532
33	0x3f0948b3	0.53626555
34	0x3f7f4ee8	0.99729776
35	0xbf019429	-0.506167
36	0xbfb8a16b	-1.4424261
37	0xbe5066f2	-0.2035177
38	0x3fb82a36	1.4387882
39	0x3fd75800	1.682373
40	0xc0334dca	-2.8016229
41	0x3e934bea	0.28768855
42	0xbf6c3cf7	-0.92280525
43	0x3e64eeba	0.22356692
44	0xbfb53930	-1.4158077
45	0x3e850f30	0.2598815
46	0x3fcab837	1.5837468
47	0xbf39bc96	-0.72553384
48	0xbd8b69de	-0.06807302
49	0xbf459848	-0.7718549
50	0x3fc261cb	1.5186094
51	0xbee6837f	-0.450222
52	0xbe3a2545	-0.1817828
53	0x3ea42f03	0.32067117
54	0xbf2c771a	-0.67369235
55	0xbf2b77f5	-0.66979915
56	0x3f5c8f7a	0.8615643
57	0xbe7f95cd	-0.24959488
58	0x3fa85e00	1.3153687
59	0xbeb4cb7d	-0.353115
60	0xbf21f341	-0.632618
61	0x3f8e3ddd	1.1112629
62	0x3eed5158	0.46351123
63	0xbc1ab699	-0.009442949
64	0xbed12a6b	-0.40852675
65	0x3f283884	0.65711236
66	0x3f894130	1.0723019
67	0xbf8768f4	-1.0578904
68	0x3f940cd5	1.1566416
69	0x40069167	2.1026247
70	0x3fce83f1	1.6134015
71	0x3f8836f6	1.0641773
72	0x3ea55366	0.3229019
73	0xbf8c90fa	-1.0981743
74	0x40243dbf	2.5662687
75	0xbf2200fc	-0.6328275
76	0x3f106409	0.5640264
77	0x3f18182e	0.59411895
78	0xbf14c328	-0.58110285
79	0x3f9786e7	1.1838044
80	0x3cd97ab7	0.026547773
81	0x3f58fcfb	0.8476102
82	0x3f8883d2	1.0665228
83	0xc0319990	-2.7749977
84	0x3db0a7da	0.08625765
85	0x3ebcd5fd	0.3688201
86	0xbf27ce85	-0.655495
87	0xbf3b504f	-0.73169416
88	0x3f80afeb	1.0053686
89	0xbf04e951	-0.5191851
90	0x3fb124e4	1.3839383
91	0x3d1122e0	0.03543365
92	0x3f258328	0.64653254
93	0xbe9aef8e	-0.3026089
94	0xbf479b3c	-0.77971244
95	0xbec8fbe8	-0.3925469
96	0x3ff006e0	1.8752098
97	0xbe578451	-0.21046568
98	0xbfa22825	-1.2668501
99	0x3f0a25a1	0.5396367
100	0x3e4acb07	0.19804011
101	0xbfbd2c0a	-1.4779065
102	0x3f5258fa	0.8216702
103	0x3f5e5a91	0.86856943
104	0xbedc6dea	-0.43052608
105	0x3f2d6f86	0.67748296
106	0xbfd0d30c	-1.6314406
107	0x3f34d2b3	0.70634
108	0x3e510835	0.20413287
109	0xbf0a0d0b	-0.5392615
110	0xbf33aa8d	-0.70182115
111	0xbeecd46b	-0.46255812
112	0x3eb565e8	0.3542931
113	0x3e999db5	0.30003133
114	0xbeabe6a1	-0.33574393
115	0x3fd6688e	1.6750658
116	0xbfde7eb4	-1.7382417
117	0xbeb9c5b4	-0.36283648
118	0xbf8d61a5	-1.1045424
119	0x3d143e51	0.036192242
120	0xc036baa8	-2.8551426
121	0x3ed954df	0.42447564
122	0xbe5e8a34	-0.21732408
123	0x3fa69807	1.3015145
124	0xbf9f1967	-1.2429627
125	0x3e968363	0.29397115
126	0xbf374951	-0.71596247
127	0xbf85fa54	-1.0467019
128	0x3f839012	1.0278342
129	0xbf7b84fd	-0.982498
130	0xbfc8bf9f	-1.5683478
131	0xbf9878f0	-1.1911907
132	0x3faace09	1.3344127
133	0xbdc06648	-0.093945086
134	0x3f81d35c	1.0142627
135	0xbf225234	-0.6340668
136	0x4025e320	2.5919876
137	0xbffc71bc	-1.9722209
138	0xbf13ef5e	-0.5778712
139	0xbec6518e	-0.38734096
140	0xbef0d77f	-0.4703941
141	0xbfb62ced	-1.423246
142	0x3e1bfaed	0.1523244
143	0xbfa2ce19	-1.2719146
144	0xbd0f30a6	-0.034958504
145	0xbf2a2f1e	-0.66478145
146	0xbf2ec8ac	-0.6827495
147	0xbfdcc94a	-1.7248929
148	0xbe02f617	-0.12789188
149	0xbf89b89a	-1.0759461
150	0xc0280d53	-2.6258132
151	0x3e9b331a	0.30312425
152	0xbf33ff13	-0.7031109
153	0xc0044384	-2.0666208
154	0xbf6362de	-0.88822734
155	0x3fa10a15	1.2581202
156	0xbf89f7a6	-1.0778701
157	0xbf5a998c	-0.85390544
158	0x3e35333e	0.17695329
159	0x3faee5cb	1.3663877
160	0xbf4c0d93	-0.7970821
161	0x3e019829	0.126557
162	0xbfdc5393	-1.7213005
163	0xbfb43c6d	-1.408094
164	0x3e93d554	0.28873694
165	0x3fe6a7e7	1.801999
166	0x3fabf95c	1.3435473
167	0xbdc677a0	-0.096907854
168	0x3ea00c33	0.31259307
169	0x3c5cd3bc	0.013478216
170	0xbf44b92e	-0.7684506
171	0xbf5418da	-0.8285042
172	0x4027d5fa	2.622435
173	0xbebf3923	-0.3734828
174	0xbe899aa3	-0.2687579
175	0xbf443372	-0.76641
176	0x3f934801	1.1506349
177	0x3f63f6b5	0.8904832
178	0x4007a754	2.119588
179	0xbf274098	-0.6533294
180	0x3eb1b065	0.3470489
181	0x3fab2bda	1.3372757
182	0xbee70300	-0.45119476
183	0x3ff7e9ad	1.9368187
184	0x3f72e0d7	0.9487433
185	0x3f815fa5	1.0107313
186	0x3f38b0bf	0.72144693
187	0xbf44a11c	-0.76808333
188	0xbf03f668	-0.5154786
189	0x3ee58dcd	0.44834748
190	0xbf18098e	-0.5938958
191	0x3f7b4e3a	0.9816624
192	0xbf50756c	-0.8142917
193	0x3f22de4a	0.63620436
194	0xbfa01126	-1.2505233
195	0x3e9f0117	0.3105552
196	0x3fe53548	1.7906885
197	0x3fcee8e5	1.6164824
198	0x3d879080	0.06619358
199	0xbf80344d	-1.0015961
200	0xbe87c9a8	-0.2652104
201	0xbf7b6108	-0.9819493
202	0xc01ec95d	-2.4810402
203	0x3f1d383a	0.6141392
204	0xc0032176	-2.0489173
205	0x3ec9d553	0.39420566
206	0x400d924c	2.2120543
207	0xbdd0e5e8	-0.10200101
208	0xbfe4a99a	-1.7864258
209	0xbf7e095d	-0.9923304
210	0xbfbf512e	-1.4946649
211	0x3f2b52ec	0.66923404
212	0x3e4ff645	0.20308788
213	0x3f8d2767	1.102765
214	0x4010ff47	2.265581
215	0xbed036c3	-0.4066678
216	0xbf874810	-1.0568867
217	0xbfe3fd5d	-1.7811695
218	0x3f039414	0.51397824
219	0x3fce2cf7	1.6107472
220	0x3f4ebbbd	0.80755216
221	0xbd4bbae5	-0.049738783
222	0xbfb6eb5f	-1.429058
223	0x3fc26869	1.5188113
224	0x3f8fbbce	1.1229188
225	0xbed37cba	-0.41306096
226	0xbecde291	-0.4021192
227	0xbf2263e3	-0.63433665
228	0xbd979923	-0.074022554
229	0x3d8ac733	0.067762755
230	0xbf236d5c	-0.63838744
231	0xbeee7d87	-0.46580145
232	0x3e9c9efe	0.3059005
233	0xbf5febbc	-0.8746908
234	0xbe97e29b	-0.29665074
235	0x4008ec51	2.1394236
236	0xbea4833f	-0.32131383
237	0xc0036abd	-2.0533898
238	0x3f78fb8f	0.9725885
239	0xbfa065f5	-1.2531115
240	0x3f04b428	0.51837397
241	0xbfac1e36	-1.344672
242	0x3faf29c7	1.3684624
243	0xc01dfee2	-2.4686818
244	0x3eb72848	0.3577292
245	0x3e23b3a8	0.15986502
246	0xbf022adc	-0.5084665
247	0xbfa6c4b2	-1.3028777
248	0x3f917441	1.1363603
249	0xbf0adca2	-0.5424291
250	0x3fd63603	1.6735233
251	0xc01a909c	-2.4150763
252	0x3f809c56	1.004771
253	0xbfd310a1	-1.648945
254	0x3fd32cc2	1.6498034
255	0x3ebfbac9	0.37447193

fc_layers.0.weight f4 [32, 64]
0	0x3ee312fd	0.44350424
1	0x3db3ef15	0.08785836
2	0xbec0995e	-0.3761701
3	0xbe15cf4f	-0.14629863
4	0xbdb8356d	-0.08994565
5	0xbf15fb59	-0.5858665
6	0x3e99a308	0.30007195
7	0x3f04f52d	0.5193661
8	0xbe16eb15	-0.14738114
9	0x3ec5a4c4	0.3860227
10	0x3e4d7ed1	0.20067908
11	0xbcf7b955	-0.03023974
12	0x3d21255e	0.039342277
13	0x3eb81924	0.3595668
14	0xbeee2abc	-0.4651698
15	0xbf0d66a0	-0.5523472
16	0x3ebe6280	0.37184525
17	0xbe6318e2	-0.22177461
18	0x3dd06565	0.101755895
19	0xbe07c661	-0.1325927
20	0x3e790a02	0.24320224
21	0x3ecb30ee	0.39685768
22	0x3e87acbf	0.26498982
23	0x3e8998fe	0.26874536
24	0x3f4d4def	0.8019704
25	0xbea683d5	-0.32522455
26	0xbe811cdd	-0.25217333
27	0xbddc6106	-0.10760693
28	0x3e674a23	0.22586875
29	0x3dbc1ec6	0.09185557
30	0x3e4ea494	0.20179969
31	0x3e39685c	0.18106216
32	0x3f10fab5	0.5663255
33	0x3f068dd7	0.5256018
34	0x3b87412e	0.004127643
35	0x3e8941ec	0.26808107
36	0xbeb06a88	-0.34456277
37	0xbf0b4c69	-0.5441347
38	0xbceabdbe	-0.02865493
39	0x3d1cd5c2	0.038289793
40	0x3f6dff8c	0.9296806
41	0x3ea44437	0.32083294
42	0x3f0fb135	0.5612977
43	0xbe79d88a	-0.2439901
44	0x3ef9ecec	0.4881357
45	0xbf0f9de8	-0.5610032
46	0x3e7ae649	0.2450191
47	0x3f3e08a4	0.74231935
48	0xbd94ea64	-0.07271269
49	0xbd463a75	-0.048395593
50	0xbc1ca36d	-0.009560448
51	0x3efa3b71	0.48873475
52	0x3c5ee9dd	0.013605562
53	0xbd30304d	-0.043014813
54	0xbf153af4	-0.5829308
55	0xbe74452d	-0.23854513
56	0xbe945e42	-0.28978163
57	0xbe9645cb	-0.29350123
58	0xbea58a4d	-0.32332078
59	0x3f1064ac	0.56403613
60	0xbea4bb0d	-0.32173958
61	0x3ec74cca	0.38925773
62	0x3e4e0031	0.2011726
63	0xbee75be6	-0.451873
64	0x3e4d3b77	0.20042215
65	0xbe538be2	-0.2065883
66	0xbee26192	-0.44215065
67	0x3e04152c	0.12898701
68	0x3e965355	0.29360452
69	0x3e571c25	0.2100683
70	0xbec46870	-0.3836093
71	0xbdc5b235	-0.09653131
72	0xbe398d72	-0.18120363
73	0x3f23dbd8	0.6400733
74	0x3e42cb22	0.19022802
75	0x3c9571eb	0.018242797
76	0xbe9e7cb4	-0.30954516
77	0xbeabb68c	-0.3353771
78	0xbe5bd4ae	-0.2146785
79	0xbdd866c7	-0.10566478
80	0x3d05b4fb	0.0326433
81	0xbccf8817	-0.025333447
82	0xbced891e	-0.028996047
83	0x3d8d0e23	0.06887462
84	0x3d776002	0.060394295
85	0xbe8b9dde	-0.2726888
86	0x3d924e79	0.07143874
87	0xbc1e0003	-0.0096435575
88	0xbe642a4f	-0.22281764
89	0xbd6f30d3	-0.05839617
90	0xbe8b557f	-0.27213666
91	0xbe88c624	-0.2671367
92	0x3e6215a3	0.22078566
93	0x3f183fbe	0.5947226
94	0x3eb1cc25	0.34726062
95	0x3ebe44ab	0.37161765
96	0xbdcc00f0	-0.09961116
97	0x3ea6f067	0.32605287
98	0xbe6f1e76	-0.23351464
99	0x3eb3326c	0.34999406
100	0xbefc4137	-0.49268505
101	0x3e1ca6a5	0.15297945
102	0xbf054096	-0.52051675
103	0xbf1a2796	-0.60216653
104	0xbde37168	-0.11105615
105	0x3ef6a36d	0.4817156
106	0x3ed0f0d9	0.40808752
107	0xbfac106e	-1.3442514
108	0x3ed966f3	0.42461357
109	0xbe39392d	-0.18088217
110	0x3f2e904f	0.6818895
111	0x3da2a1f6	0.07941048
112	0xbe774872	-0.2414873
113	0x3c05441c	0.008133914
114	0x3f2755bf	0.65365213
115	0x3e150d9b	0.14555971
116	0x3f454db5	0.77071697
117	0x3e9d3330	0.30703115
118	0x3ede1c90	0.43381166
119	0xbf0285c7	-0.5098538
120	0x3df6d0a9	0.120515175
121	0x3e52033f	0.20509051
122	0x3d8cc380	0.06873226
123	0x3eea1615	0.45719972
124	0x3e3c5cfa	0.18394843
125	0xbebcb4fe	-0.36856836
126	0x3eb67b9b	0.35641178
127	0x3edcdf1c	0.4313897
128	0xbd8d15a3	-0.068888925
129	0x3d05cefd	0.032668103
130	0xbeb92795	-0.3616301
131	0x3e0c3796	0.1369308
132	0x3ebdddb7	0.37083218
133	0xbe63943e	-0.22224519
134	0x3d902af6	0.07039444
135	0xbeffdd0a	-0.49973327
136	0x3e46a19f	0.19397591
137	0x3ea01929	0.31269196
138	0x3ebcfb33	0.369104
139	0x3c8cd7b6	0.017192703
140	0xbdd750cd	-0.105134584
141	0xbed31965	-0.41230312
142	0xbef18c2f	-0.47177264
143	0x3e85dc10	0.26144457
144	0x3efeb1aa	0.49744922
145	0x3e65e02b	0.22448795
146	0xbe2659f8	-0.16245258
147	0x3e1662a4	0.14686066
148	0x3dd694c7	0.10477596
149	0xbd9f7f9d	-0.07788012
150	0xbe8e32a0	-0.27773
151	0x3df97c2c	0.12181887
152	0xbe92dff9	-0.28686503
153	0xbdac4a80	-0.08412647
154	0xbeb9f1f4	-0.36317408
155	0xbe6818cf	-0.22665714
156	0x3dc2fe38	0.09521145
157	0x3f23f57d	0.6404646
158	0x3e8379d6	0.2567889
159	0x3d024cb6	0.03181144
160	0x3d9161ba	0.07098718
161	0xbec36d1a	-0.38169175
162	0xbd1e6afe	-0.038676254
163	0xbf1745a1	-0.5909062
164	0xbf1beab2	-0.6090499
165	0x3ee7fec1	0.4531155
166	0x3e9a6577	0.30155537
167	0xbebd8aad	-0.37019864
168	0xbe15e2a3	-0.14637236
169	0xbf15b030	-0.58471966
170	0xbe9c4f75	-0.3052937
171	0xbed31289	-0.4122508
172	0x3dda3348	0.10654312
173	0xbe4dc743	-0.20095544
174	0x3f3d3e6d	0.7392338
175	0x3e1b6010	0.15173364
176	0x3e7f6bab	0.24943416
177	0xbd570d4e	-0.052502923
178	0xbe292d0f	-0.16521095
179	0x3dc5ced4	0.0965859
180	0xbf55de07	-0.8354191
181	0x3f7d9fdf	0.9907207
182	0xbe5e5cff	-0.21715163
183	0x3ef60bce	0.4805588
184	0x3e2e932e	0.17048332
185	0xbe09fa9e	-0.13474509
186	0xbe52c386	-0.20582399
187	0xbf5162ae	-0.817912
188	0xbf5626de	-0.83653057
189	0x3e74c7ec	0.23904389
190	0x3b567f19	0.0032729565
191	0xbd6db998	-0.058038324
192	0x3e8ec218	0.27882457
193	0x3d3e6279	0.04648063
194	0xbe631f67	-0.22179948
195	0x3e5f5f0e	0.21813604
196	0x3e0e38f7	0.13888918
197	0x3e07a5d4	0.13246852
198	0xbe079488	-0.13240254
199	0x3e855cfa	0.26047498
200	0x3e765b3a	0.24058238
201	0xbe1372a6	-0.14399204
202	0x3ee4a9e9	0.4466088
203	0xbded247d	-0.11579225
204	0xbf0c860b	-0.54892033
205	0xbd7e90de	-0.062149875
206	0xbeb7129c	-0.35756385
207	0xbeb14bab	-0.34628043
208	0x3df9a4de	0.12189649
209	0xbde258c0	-0.11052084
210	0x3ea3a06a	0.31958324
211	0xbe2584fd	-0.16164012
212	0xbd4549dc	-0.04816614
213	0xbf34f70f	-0.7068948
214	0x3ece6fe8	0.40319753
215	0xbde54dcf	-0.111964814
216	0xbece5899	-0.4030197
217	0xbce37435	-0.027765373
218	0x3b00d637	0.0019658932
219	0x3d534daf	0.051587757
220	0x3ebf53e1	0.37368682
221	0x3e955086	0.29162997
222	0xbe04155a	-0.1289877
223	0x3e99413b	0.2993258
224	0xbed7be93	-0.42137584
225	0xbe1dc48d	-0.1540701
226	0xbebf3ab3	-0.3734947
227	0x3e905ab0	0.2819419
228	0xbdd9d658	-0.10636586
229	0xbf282562	-0.6568204
230	0xbf592296	-0.848184
231	0xbe9ebf71	-0.31005433
232	0x3f0488b4	0.5177109
233	0xbe909c2a	-0.28244144
234	0xbf8392ea	-1.027921
235	0x3d69eec9	0.05711249
236	0xbe0e9d6a	-0.13927236
237	0x3df218b3	0.11821117
238	0x3e6c31f7	0.23065935
239	0xbe0db6c3	-0.1383925
240	0xbdede221	-0.11615396
241	0x3c0363a4	0.008019362
242	0xbee448af	-0.44586703
243	0xbe2c475d	-0.16824098
244	0xbecefcda	-0.40427285
245	0xbead5b09	-0.33858517
246	0xbed49529	-0.4152005
247	0x3eaad1f0	0.33363295
248	0x3f17e3fd	0.5933226
249	0x3f223a93	0.6337063
250	0x3ed18b9e	0.40926832
251	0xbe9f8d7b	-0.3116263
252	0x3df2abda	0.11849184
253	0xbeefbd75	-0.46824232
254	0x3e9b0d5e	0.30283636
255	0x3e2e8236	0.17041859

fc_layers.0.bias f4 [32]
0	0xbdf19a9e	-0.11797069
1	0x3dd4b3ba	0.103858426
2	0xbe37f357	-0.1796392
3	0x3e063a69	0.13108219
4	0xbda19de8	-0.07891446
5	0x3ccdfc7d	0.02514481
6	0xbe2153e0	-0.15754652
7	0x3c0b0648	0.008485384
8	0xbd5140a7	-0.051087048
9	0xbdfaedef	-0.122524135
10	0xbc16938e	-0.009190453
11	0xbe34b79d	-0.17648168
12	0x3e2f5c50	0.17125058
13	0x3d9fd9c4	0.07805207
14	0xbd90844b	-0.07056483
15	0xbd89aae8	-0.06722051
16	0xbe2b6746	-0.16738614
17	0xbde47167	-0.11154442
18	0xbe3d8110	-0.18506265
19	0x3d7cacaa	0.061688103
20	0x3d037b8d	0.03210025
21	0xbdec519d	-0.11539004
22	0x3c489458	0.012242399
23	0xbd9531b4	-0.07284871
24	0xbe67ae0d	-0.22624989
25	0xbe6bc238	-0.23023307
26	0x3cc32047	0.023819102
27	0xbe5da79d	-0.2164597
28	0xbd47d9f1	-0.04879183
29	0xbc27facc	-0.010252666
30	0xbe2ca816	-0.16860995
31	0xbc834f2d	-0.016028965

fc_layers.1.weight f4 [16, 32]
0	0x3f405683	0.75132006
1	0xbdf5050c	-0.11963853
2	0x3ecd3e22	0.40086466
3	0xbf823cb5	-1.0174776
4	0xbec3cf72	-0.38244206
5	0xbe4862cf	-0.19568942
6	0xbe9ad86d	-0.30243245
7	0x3eb5ae8a	0.35484725
8	0x3f0ea809	0.5572515
9	0x3f62b3ca	0.88555586
10	0x3db5ab78	0.08870596
11	0x3f2f165e	0.68393505
12	0x3d2b4d3e	0.04182171
13	0x3f1b94d8	0.6077399
14	0x3f36352e	0.71174896
15	0x3e8ba712	0.27275902
16	0xbe680fd7	-0.22662292
17	0x3f04bdf8	0.5185237
18	0x3e0b5d23	0.13609748
19	0x3e3af98a	0.18259254
20	0x3f572fd3	0.8405735
21	0x3d413114	0.047165945
22	0x3ec612aa	0.38686115
23	0x3c89ade2	0.016806547
24	0x3e3309bf	0.17484187
25	0x3ee933b4	0.4554726
26	0x3eb993d8	0.36245608
27	0x3dfe4d6f	0.12417113
28	0xbf190957	-0.59779876
29	0x3ef47d79	0.47751978
30	0x3df5470f	0.11976444
31	0x3f28f3c8	0.6599698
32	0x3f7b810e	0.98243797
33	0xbf45ccad	-0.77265435
34	0x3f18fb66	0.59758604
35	0x3e23e83d	0.1600656
36	0x3ec32e0f	0.38121077
37	0xbeb679e1	-0.3563986
38	0x3e30acca	0.17253414
39	0x3f0fcc35	0.5617097
40	0x3f37d808	0.7181401
41	0x3f376e83	0.71653
42	0xbee561b7	-0.44801113
43	0x3f4a51a0	0.790308
44	0xbe345b9a	-0.17613068
45	0x3f14f800	0.5819092
46	0x3f507c74	0.814399
47	0x3e1f608b	0.15564172
48	0x3ead64b4	0.33865893
49	0x3f8a4261	1.0801507
50	0x3ea13b9b	0.31490788
51	0x3ecb45e0	0.39701748
52	0x3ee5374c	0.4476875
53	0xbd266cbe	-0.04063105
54	0x3ea05d6a	0.3132127
55	0xbe86dd62	-0.26340777
56	0x3eb3a2bc	0.35085094
57	0x3e9807e6	0.29693526
58	0x3e01b148	0.12665284
59	0x3ea5df60	0.32396984
60	0xbce58447	-0.028017176
61	0x3f507923	0.8143484
62	0x3e0983ed	0.13429232
63	0x3e8d5e69	0.27611092
64	0x3f608dee	0.8771657
65	0xbf2858e0	-0.6576061
66	0x3f2e1b20	0.6801014
67	0x3db20589	0.08692462
68	0x3ea8d9fe	0.32978815
69	0xbea0265a	-0.3127926
70	0x3e347b2a	0.17625108
71	0x3efeef9f	0.4979219
72	0x3f0da4e7	0.55329746
73	0x3f1d222c	0.6138027
74	0xbf02d640	-0.5110817
75	0x3f3ed5ee	0.7454518
76	0xbe01ce91	-0.12676455
77	0x3f262d1c	0.6491258
78	0x3f5310c3	0.8244745
79	0x3d896e82	0.06710531
80	0x3f1002d0	0.5625429
81	0x3f8c4272	1.0957778
82	0x3e3a69de	0.18204448
83	0x3eb9c284	0.36281216
84	0x3f06009f	0.523447
85	0xbc973a7c	-0.018460505
86	0x3e1f2519	0.15541495
87	0xbdd889dd	-0.1057317
88	0x3ed975b9	0.42472628
89	0x3ee0a03d	0.43872252
90	0x3e069164	0.131414
91	0x3b7fb37b	0.003901689
92	0x3e2fbb48	0.17161286
93	0x3f4e0138	0.8047061
94	0x3d830099	0.06396598
95	0x3eb9c698	0.36284328
96	0xbe807e08	-0.25096154
97	0x3e57451c	0.21022457
98	0xbf6a8048	-0.9160199
99	0x3f1b960a	0.60775816
100	0xbf347ee2	-0.7050611
101	0x3f0bf926	0.54677045
102	0xbfaa8953	-1.3323158
103	0x3f7b684f	0.9820604
104	0xbd17d86a	-0.037071623
105	0x3d00a3cb	0.031406205
106	0xbf916c2c	-1.1361136
107	0x3d8c4f88	0.06851107
108	0x3f5c5f0f	0.8608255
109	0x3f3dc70a	0.74131835
110	0x3f301be1	0.6879254
111	0xbf36effc	-0.7145994
112	0xbfa7ed5d	-1.3119313
113	0x3ee95119	0.45569685
114	0xbed0cc0f	-0.40780684
115	0x3f6724c3	0.9029047
116	0x3e3df20c	0.18549365
117	0xbf789d8f	-0.97115415
118	0xbfa2ab35	-1.2708498
119	0xbf935837	-1.1511296
120	0xbf466f7b	-0.77513856
121	0xbf217bbe	-0.6307944
122	0xbeca13b5	-0.3946816
123	0xbf388c25	-0.72088844
124	0xbf6668ca	-0.90003645
125	0xbf373a9d	-0.7157381
126	0xbf4261aa	-0.75930274
127	0x3f09e659	0.5386711
128	0xbf0250b4	-0.50904393
129	0x3e822dfc	0.25425708
130	0xbf9a0abc	-1.2034526
131	0x3ec1696b	0.3777574
132	0x3eaecdeb	0.34141478
133	0x3f69e330	0.91362286
134	0xbf2bd4b3	-0.6712143
135	0x3f2c7cfd	0.67378217
136	0x3f1779e1	0.5917035
137	0xbdce1b87	-0.10063844
138	0xbff5d828	-1.9206591
139	0x3f7f29c4	0.99673104
140	0x3f4a7b15	0.7909406
141	0x3ee32314	0.443627
142	0xbd7380b2	-0.059448905
143	0xbe9e9284	-0.30971158
144	0xbedbb0d1	-0.42908338
145	0xbf47ecac	-0.7809551
146	0xbf523e67	-0.8212647
147	0xbe67caac	-0.22635907
148	0x3ea0bf35	0.3139588
149	0xbeadb81e	-0.33929533
150	0x3e3a65dd	0.1820292
151	0xbe944157	-0.289561
152	0xbf23caa2	-0.6398107
153	0x3ba65b63	0.005076812
154	0xbfe6932a	-1.8013661
155	0x3e87edcb	0.2654861
156	0x3ee05601	0.43815616
157	0xbf916694	-1.1359429
158	0xbf447625	-0.76742774
159	0x3f1e69fc	0.6188047
160	0x3f182201	0.59426886
161	0xc00d6431	-2.2092402
162	0xbc751c61	-0.014960379
163	0xbf1129de	-0.5670451
164	0xbe4db2f5	-0.20087798
165	0xbfa34a7e	-1.2757108
166	0x3e90316e	0.28162712
167	0x3e7835bf	0.24239253
168	0x3e5ab6db	0.21358816
169	0x3e03ca29	0.12870087
170	0x3e953158	0.2913921
171	0x3e6fd521	0.23421146
172	0xbe1d3ca2	-0.15355161
173	0x3f366024	0.7124045
174	0x3e70d570	0.2351892
175	0xbde2d1e0	-0.11075187
176	0xbed70a02	-0.41999823
177	0x3e82ac49	0.25522068
178	0x3f7d6f1c	0.98997664
179	0x3df0ca64	0.11757353
180	0x3f1c76e4	0.6111891
181	0x3e8d7567	0.27628633
182	0x3ea78b01	0.3272324
183	0x3e7c4aae	0.24637863
184	0x3e12ebb0	0.1434772
185	0x3f12844c	0.5723312
186	0x3ee7a926	0.45246238
187	0x3f32b1cd	0.6980255
188	0xbe2d4ebe	-0.16924569
189	0x3e96e88a	0.29474288
190	0x3f0bacee	0.54560745
191	0x3f958fb2	1.1684477
192	0xbe39dfa8	-0.18151724
193	0x3e2f2fef	0.17108129
194	0x3ee6541f	0.44986054
195	0x3f4e949f	0.8069553
196	0xc0096824	-2.1469812
197	0x3f2a9f49	0.666493
198	0x3f865d29	1.049718
199	0xbf05e6ab	-0.52305096
200	0xbfc0ca5e	-1.5061758
201	0xbe07b4a9	-0.1325251
202	0x3f1a8454	0.60358167
203	0x3d49a616	0.049230658
204	0x3d56a172	0.05240006
205	0xbe2c8331	-0.1684692
206	0xbd10511f	-0.035233613
207	0x3f982e4c	1.1889129
208	0x3f0ecbd8	0.5577979
209	0xbf499da2	-0.78756154
210	0x3ea3d6bf	0.31999776
211	0xbedcc8ac	-0.4312185
212	0xbf3659ee	-0.7123097
213	0x3f01d06a	0.5070864
214	0x3f09e668	0.538672
215	0x3f55e4c4	0.83552194
216	0xbf2cff5d	-0.67577153
217	0xbe985f01	-0.29759982
218	0x3f62c3dc	0.8858011
219	0xbf0af053	-0.54272956
220	0x3f2f01f5	0.6836236
221	0x3e9ae028	0.30249143
222	0x3f041841	0.5159951
223	0xbfe9d051	-1.8266698
224	0x3eb97519	0.3622215
225	0x3ef83b81	0.48482898
226	0xbf04ad09	-0.5182653
227	0x3f0b470d	0.5440529
228	0xbf802463	-1.0011104
229	0x3f125661	0.57163054
230	0xbf8f474f	-1.1193637
231	0x3f389c74	0.7211373
232	0x3d26dff5	0.040740926
233	0xbfb46768	-1.4094057
234	0xbfb95941	-1.4480363
235	0xbe95b4ac	-0.29239404
236	0x3f178f6a	0.5920321
237	0x3f44d43a	0.7688633
238	0xbec1beff	-0.3784103
239	0xc0204e8b	-2.504794
240	0x3ddfabc9	0.10921437
241	0xbf14e016	-0.5815443
242	0xbf7a0b12	-0.9767314
243	0x3f217039	0.63061863
244	0x3ef24b59	0.4732311
245	0xbd026f41	-0.03184438
246	0xbe4542bf	-0.19263743
247	0xbf83b4ec	-1.0289588
248	0xbed82ba8	-0.42220807
249	0xbde47b4d	-0.1115633
250	0xbf180903	-0.5938875
251	0xbe14d2dd	-0.14533563
252	0xbf55eb94	-0.8356259
253	0xbf5575f3	-0.833831
254	0xbe967b08	-0.2939074
255	0x3f32ad16	0.6979536

fc_layers.1.bias f4 [16]
0	0xbde7e264	-0.113224775
1	0x3d4d1143	0.05006529
2	0x3c2e0dac	0.010623377
3	0x3dacb325	0.084326066
4	0x3df51564	0.119669706
5	0xbe4ada74	-0.19809896
6	0xbd00b0c8	-0.03141859
7	0xba90db3b	-0.0011051664
8	0x3d204c85	0.039135475
9	0x3df6c51a	0.12049313
10	0x3d938c17	0.072044544
11	0xbd562505	-0.0522814
12	0xbc829083	-0.01593805
13	0xbd38c313	-0.045107912
14	0x3b24f9b9	0.002517326
15	0xbd662e81	-0.056196693

affine_output.weight f4 [1, 48]
0	0xbf4cc789	-0.79991966
1	0xbf14f6e8	-0.5818925
2	0xbf11e920	-0.56996346
3	0x4023a22e	2.5567737
4	0x3feab55e	1.8336599
5	0xbfcd3c77	-1.6034077
6	0x3fdaf9e9	1.7107517
7	0x400b7086	2.178743
8	0x3fdc6c00	1.7220459
9	0x3ff4cb2b	1.9124502
10	0xbf4e6ec4	-0.80637765
11	0x401b019c	2.4219732
12	0x402a02d0	2.6564217
13	0x4005c9f9	2.0904524
14	0xbf1c09bd	-0.6095236
15	0xbf369bb4	-0.71331334
16	0x3f5def82	0.86693585
17	0xbf8177ff	-1.0114745
18	0xbf933bb2	-1.1502593
19	0x3f760581	0.9610215
20	0xbf68639e	-0.90777004
21	0xbf7c1c3b	-0.98480576
22	0xbf8464c5	-1.0343252
23	0x3f625014	0.8840344
24	0xbf81b001	-1.0131837
25	0x3f5513b9	0.8323322
26	0xbf636516	-0.8882612
27	0xbf8b2bfc	-1.0872798
28	0x3f9a2e77	1.204543
29	0x3f83b02a	1.0288136
30	0xbf62c4be	-0.88581455
31	0x3f5fc9b0	0.87417126
32	0x3f805fdd	1.0029255
33	0x3f919838	1.1374578
34	0x3f67b791	0.90514475
35	0x3f2b0282	0.668007
36	0x3f761f12	0.9614116
37	0x3fb25da6	1.3934829
38	0x3f8da5e3	1.106625
39	0xbf6b282d	-0.9185818
40	0x3f8bc84a	1.0920498
41	0x3f99df1e	1.2021215
42	0x3f84f8b8	1.0388403
43	0x3f985322	1.190037
44	0x3f8e7c46	1.1131675
45	0xbf82a7ec	-1.0207496
46	0x3f897c15	1.0740992
47	0x3f859959	1.0437423
