checkpoints/NeuMF_Epoch6_HR0.2012_NDCG0.1912.model (torch, 510215 bytes, 9 tensors)

embedding_user_MF.weight f4 [51, 32]
00000000: 6dab 49bf 0472 24be a26b b23f 9fc8 b8bf
00000010: e11e 18c0 ea21 9ebf c932 953f 38f5 ef3e
00000020: 0066 5ebf 5e64 4d3e b335 74bf a5ea 75bf
00000030: 5274 923f b7f6 783d d16b ba3f 43d9 20bf
00000040: d11b 94bf afa0 79bf d456 f73e 3878 593f
00000050: bec8 6c3d 59e5 40be 8c3e 853f 0781 ca3d
00000060: 556f c4bf 7785 f43f 8887 28be 6597 be3f
00000070: 2a3f ca3e 6738 07bd 8150 af3f 69b8 903f
00000080: 0c91 09c0 f7c4 663f cee2 953f 2f4f 953f
00000090: 1107 02c0 6d07 78bf b175 fbbf 547d 583f
000000a0: bf3f 63be ff34 9dbf 0bbb a5be 4b3c 24bf
000000b0: 8ae5 bbbf 3780 10bf a061 8b3f 757c 72c0
000000c0: 028c 20c0 3a25 ee3f 81fe 1040 22b6 22bf
000000d0: f775 cf3e 5450 c2be 6dc8 9fbe db44 543d
000000e0: d506 97bf 0d33 cd3f 10ec 553d aaee 81bf
000000f0: 2967 55bf 090a 0ebe 8f85 2e40 50ad a53e
00000100: 5cda da3e a86a 843d 005e 43bf 2209 5e3e
00000110: 4b92 a03f 0b59 353f 1675 0c3f 9ad0 8b3f
00000120: de71 8cbf a3a4 f33c a0dd 9c3f 5705 c1bf
00000130: 7b13 fb3e 734a a43f d122 aa3f 4197 2fbf
00000140: 797a 56bc 2f03 abbf 5b2b fb3e 1bdb 2e3f
00000150: eef6 ab3e 70a7 f3bf 268c 1dbf 917b f73e
00000160: 98cf f7be 315c 083f f95f 463f 9dfe 54bf
00000170: c2a0 1bbf aa41 903f 16f7 d0bd d4ee 2e3f
00000180: 327e 1dbf 38a3 cbbf b47d bb3f 55d8 173f
00000190: 4835 88be 7ac1 ce3b 4366 08bd bb66 523f
000001a0: bca6 cabe d982 cfbe e4a9 79bf 56ea 9f3f
000001b0: 5f0e c2bf 48a5 573e 7552 383f 4c83 7b3d
000001c0: 3b46 06c0 d18d 153f 6d79 95bf dc50 70bf
000001d0: 2a4e e5bf 9bd1 963c 144a 9a3f 8b71 ccbe
000001e0: 7fd9 95be 599c 783f fcaf e13f 6538 863f
000001f0: 8461 6d3f 8e33 973f 9f91 e3be 7d7c 99bf
00000200: 8d09 05c0 b42e 23bf 93ad 583f 4719 ed3d
00000210: d8e2 fdbf c656 0ec0 9eb0 833e 3cac 8fbe
00000220: 7cfb 0d40 7d5a 5040 47f5 3f3f f4f5 093e
00000230: e8c7 94bd 4393 a4be 027a 60be 9d51 263f
00000240: b9e0 3140 9d4a 4e40 bb78 e3bf b505 7a40
00000250: bd07 7740 748b 46c0 fb47 103f e24a edbe
00000260: 780f 37bf 3019 56bf ccdc a23f b633 8abe
00000270: ef4c bbbd 7be5 a6bf b7f3 f43e a1ab 913e
00000280: 21f3 5bbf c7ba 8a3f 4d9c cbbb b3bd ad3e
00000290: 6749 bcbe ef70 8d3f b94e ecbf 4080 f0bf
000002a0: 0b9b 4abf 6f2b 1740 245e 40bf 0c50 9fbf
000002b0: 88c1 93bc 7ff6 62bf f834 023f c814 cdbf
000002c0: e556 cb3f 4dcb af3e 8cff 20c0 b755 9e3f
000002d0: 67f7 8dbf 96fb 3cbe 4cab d5be 748b 3f3f
000002e0: 04fc 56bf fa1b b53f 1aa7 13bf 7865 dc3e
000002f0: b73e 0340 7c43 8b3f b136 e3be fc9d cf3f
00000300: 0a8c b4bf a65b 17be fd5c 263f 016c 403f
00000310: c420 1f3f 6bdf 853f dca3 213e 05a0 b3be
00000320: f14c c2be 50d6 86bf e08d 17bf 4d58 173f
00000330: c845 1e3f b3b7 b2be 85a4 08c0 40e5 9ebf
00000340: 1eb0 88bf 4eda 573f e7a9 99bf 0fc3 393f
00000350: 45a8 b63e 1240 acbf 7a48 06c0 08e7 863e
00000360: 64d7 593f 4cf8 2abe 5ad0 533d 7388 67be
00000370: 7ecf fabd ff62 d93e de79 ab3f 7950 bbbf
00000380: cf7b b9be 53b4 3240 94e4 90bf f54c bbbf
00000390: 2eb3 f8be 7bf0 0c3e f7e1 9d3f 95f4 5abf
000003a0: 2e7e 3fbe 1ce6 1a40 0fd8 833f b50f 4ec0
000003b0: 481b babf 42a6 ff3e 656c c8bd 5bcc 583f
000003c0: 077b 29c0 ddb8 3d40 684d b4bf 6db4 ccbe
000003d0: 69ce 5bbe 5979 d03f 3d2a 543f 25d6 9fbf
000003e0: 9aaf a7bf 0a50 843f 5b67 a23f f3b2 9ebf
000003f0: d483 0840 c30b 2abd 4d04 a9bd 9c2a ab3f
-0.787772 -0.16059119 1.3939097 -1.4436225 -2.3768847 -1.23541 1.1656123 0.46866775
-0.8687439 0.20057818 -0.9539444 -0.96061164 1.1441748 0.06078216 1.4564153 -0.62831515
-1.1570989 -0.9751081 0.48308432 0.84949064 0.05780863 -0.18837489 1.0409713 0.09887891
-1.5346476 1.910323 -0.16457951 1.4889952 0.39501315 -0.033012774 1.3696443 1.1306278
-2.149478 0.90144295 1.170984 1.166479 -2.0316813 -0.9688633 -1.9645292 0.84566236
-0.22192286 -1.2281798 -0.32369265 -0.641545 -1.4679425 -0.5644564 1.0889168 -3.7888463
-2.5085454 1.8605111 2.2655337 -0.6355916 0.40519688 -0.3795191 -0.312076 0.05182348
-1.179896 1.6031204 0.05222708 -1.015096 -0.83360535 -0.13871016 2.7269018 0.3235879
0.4274472 0.064656556 -0.7631531 0.21683171 1.2544645 0.70838994 0.5486616 1.0923035
-1.097225 0.02974159 1.2255135 -1.5079755 0.490383 1.283522 1.3291875 -0.6859017
-0.013090723 -1.3360347 0.49056515 0.6830308 0.3358683 -1.9035473 -0.61541975 0.4833646
-0.4840057 0.5326567 0.7749019 -0.8320101 -0.6079217 1.1270039 -0.10203378 0.6833317
-0.61520684 -1.5909185 1.4647737 0.5931447 -0.2660315 0.0063096853 -0.03330065 0.82188004
-0.39580333 -0.40529516 -0.9752486 1.2493389 -1.5160636 0.21059144 0.7200082 0.06140451
-2.0980365 0.5841952 -1.1677681 -0.9387338 -1.7914479 0.018410495 1.2053857 -0.39930376
-0.292675 0.9711357 1.7631831 1.048596 0.9272692 1.1812608 -0.44447038 -1.1991116
-2.078708 -0.6374314 0.84639853 0.11577087 -1.9834852 -2.2240462 0.25720686 -0.28061092
2.2184744 3.255523 0.7498364 0.1347273 -0.072646916 -0.32143602 -0.21921542 0.6496828
2.779341 3.223304 -1.7771219 3.9065983 3.8598473 -3.1022615 0.56359833 -0.46346194
-0.7150798 -0.83632183 1.2723632 -0.26992577 -0.09145533 -1.3038782 0.4784219 0.28451255
-0.8591786 1.083825 -0.006213701 0.33933792 -0.36774752 1.105009 -1.8461524 -1.8789139
-0.79142827 2.362026 -0.7514365 -1.2446303 -0.018036619 -0.88657373 0.50862074 -1.6021967
1.5885893 0.34334794 -2.5155973 1.2369908 -1.1091126 -0.18455347 -0.41732252 0.74822164
-0.83978295 1.4149163 -0.5767685 0.43046165 2.0507028 1.087997 -0.44377664 1.6220088
-1.4105237 -0.14781055 0.6498564 0.751648 0.6215937 1.0458807 0.15785164 -0.35083023
-0.37949327 -1.0534153 -0.5920086 0.5911911 0.6182523 -0.34905776 -2.1350415 -1.2413712
-1.0678747 0.8431748 -1.2004975 0.7256326 0.35675254 -1.3457053 -2.0981736 0.26348138
0.85094285 -0.1669628 0.05171237 -0.22610645 -0.12246607 0.4245834 1.3396566 -1.4633933
-0.3622727 2.792256 -1.1319757 -1.463286 -0.48574203 0.13763611 1.2334584 -0.8552945
-0.18700477 2.4202948 1.0300311 -3.2197087 -1.4539576 0.49931532 -0.097862996 0.8468682
-2.648134 2.9644082 -1.4086123 -0.39981404 -0.21465458 1.6287032 0.8287695 -1.2487227
-1.3100464 1.0336926 1.2687792 -1.2398361 2.1330462 -0.041515123 -0.082527734 1.3372378

embedding_item_MF.weight f4 [1889, 32]
00000000: 1d45 b9bf f503 17bf 999f 70bf 2f7a 15bf
00000010: 3c93 76bf b4cc a1bf 0c0d b0bf 95b6 bdbf
00000020: 8c26 103e 4a16 bbbf ee42 7dbf afe1 ce3f
00000030: ce1f 1740 ab63 d73e cf3f 623f acc9 21c0
00000040: 8a62 49c0 1f2b 3e3f 23f8 003f b7c8 9abf
00000050: b705 ad3f 8530 26bd 97f4 b53f 478d f8bf
00000060: cac7 b03f 40b2 8b3f ee0f efbe 5e3e 7a3f
00000070: a09f c2be ae03 c7be 4738 403f 98fb 82bf
00000080: 6f98 6c3f 7c16 dfbf e40d 80bf b5ab 0a3f
00000090: ff8d 663e 70e5 d43e 0041 aebf 50f6 97be
000000a0: 6352 dd3d 43ac 413f 7325 acbf 80aa 35bf
000000b0: a08f dd3f b86c e7bf 5256 05c0 c231 073f
000000c0: 1be6 e63e 245e 14bf f6ec 58bf e9e0 883c
000000d0: cd64 07c0 3c54 eb3f 60bd 69bd d83d 99bf
000000e0: 755a df3e db6c 2b40 dc2e f13e 4356 043f
000000f0: 0843 2fbe 204d 4ebd 60e7 24bf cbba 563f
00000100: f0ca 993f fa1f b8bf 1118 4a3f 5332 97bd
00000110: 9635 0040 7aca f0bf bb57 953f 2a6d 74be
00000120: d25c b3be 07f4 fa3f ab6e 103f b484 513f
00000130: 109a af3d 05be 923e 23da 17bf 3391 3d3f
00000140: ef1b 4c3f c872 45c0 22d0 6abe 7aa6 75bf
00000150: 1ef7 0140 65bd 0fc0 d820 a73f 97f9 14c0
00000160: fbf3 183e 59d8 603f 5501 9b3f b1f1 973f
00000170: 0b5c 063f 5ff3 3240 44d0 743e 5902 cf3e
00000180: 659b 033c 9583 313f 03e2 2f3d 9cae 12be
00000190: 6cc1 2e3d 5dea c3bf 6a7e 5f3e 6d00 013e
000001a0: b69e fd3f ab17 dd3f 7b83 23bf 1c78 e03f
000001b0: fd5d 92bc 57b1 03c0 518f 0ebf fba0 febe
000001c0: d22b e43e 94a8 063e c61a 2dbd e497 57be
000001d0: 740f eb3e 204a 8ebf 3add 28bf 1836 a83f
000001e0: 591e 4ac0 0b04 f8bd 4e78 31c0 04c5 263e
000001f0: 187b 3740 4a78 41c0 aff7 6a3e 90af a93f
00000200: cfff 55bf 88a8 0740 6af1 3b3e 5716 ba3f
00000210: 41d5 933f 4a23 cebf 395f a1bf 5dce 30be
00000220: e977 bf3e 7112 a63e da9c da3f eefb 34bf
00000230: 15dc ac3e aaec 8040 53a2 41c0 6004 3f3f
00000240: bce2 03bf f353 edbf a879 0b3f 79bd dd3e
00000250: 6956 eabe cf03 96be 3604 b6be 7527 f8be
00000260: 15c9 103e 3ba4 ba3e 7c60 4e3f 9fa4 55be
00000270: 8c9e 293f 9c61 2fc0 3eb7 0fbf 6dd8 ab3f
00000280: cfd9 033f 503b 37bf 90de 37bf 311e 83bf
00000290: e826 dbbe fd99 e93f 78cd 843d a515 95bf
000002a0: f9c1 ff3f 34f8 e23f 77d5 79bf 5f07 c13e
000002b0: 3799 eabe 6184 1440 dddf e9bf 19b0 fe3e
000002c0: e52b e9bd e0f9 8b3f 73b9 48bf f08f 7abe
000002d0: 55be cbbe 5fc5 883f 9953 38bf 2a03 623f
000002e0: 8f43 73bf 1aed 1d40 50da c6bf 037f 0cbf
000002f0: 0f1f 743d aec0 753d d98f 6e3f df50 14bf
00000300: 6595 f2be 3436 13bf db9c a1bf 7c63 10c0
00000310: c44d 633e 65de c73f 6ca2 d3be 3c53 1a3f
00000320: c4dd aa3e be8c d1bf 2a65 7c3f 34bd aebe
00000330: 8f54 f53f c17d 31c0 1b28 723e 1673 a43e
00000340: dc13 de3e 8a7d 0ac0 5ede 86bf 71b4 4bbf
00000350: d8a9 95bf af51 ccbe 0b8c 933e 82fe 093f
00000360: 4fb3 38bd c333 723f 7179 8d3f 3dc7 9fbf
00000370: f39f 893e 70ea 803d 054f 9cbf 0179 1bbe
00000380: 71c8 44c0 5146 a63f 9367 0fc0 16dd a4bf
00000390: 062e 7a3f ef7e fc3e eacb 20bf d95c 543f
000003a0: 0a15 0a3f eaff 0d40 a2b8 16be 3d77 8a3e
000003b0: 07cb dcbf 2de6 553f 88a9 2f3e 457d cbbf
000003c0: 1391 27bf 0418 b0bf fe32 debe 1161 003f
000003d0: fe77 c63e d34b 7f3f f137 abbf 606f c03e
000003e0: a1aa ecbe 0cb3 b63e caf3 9b3d 5118 123f
000003f0: 4795 363f 4b3c bebb b667 21c0 a3b9 a6bf
-1.4474217 -0.5899041 -0.93993527 -0.5838956 -0.9631841 -1.2640595 -1.3753982 -1.4821345
0.14077204 -1.4616177 -0.9893025 1.6162623 2.3613162 0.42068228 0.88378614 -2.527934
-3.1466393 0.7428455 0.50378627 -1.2092503 1.3517369 -0.040573616 1.4215268 -1.9418114
1.3810971 1.0913773 -0.4669184 0.97751415 -0.3801241 -0.38869995 0.7508587 -1.023303
0.92420095 -1.7428737 -1.0004239 0.54168254 0.22515105 0.41581297 -1.3613586 -0.2968011
0.1080673 0.75653476 -1.3448929 -0.7096329 1.7309456 -1.8080053 -2.0833936 0.528103
0.45097432 -0.5795615 -0.84736574 0.016708808 -2.1155274 1.8385081 -0.057065368 -1.1971998
0.436237 2.678519 0.47106063 0.51694125 -0.17115414 -0.05036652 -0.6441555 0.83878773
1.2015057 -1.4384758 0.7894297 -0.073826455 2.0032706 -1.8811791 1.1667398 -0.23869768
-0.35031754 1.9605721 0.56418866 0.81843114 0.08574307 0.28660598 -0.59317225 0.7404968
0.79730123 -3.0851307 -0.22930959 -0.9595715 2.0307078 -2.2459347 1.3056898 -2.3277338
0.14936821 0.8783012 1.2109782 1.1870633 0.52484196 2.7961042 0.23907572 0.4043148
0.008032654 0.69341403 0.04294015 -0.1432442 0.04266493 -1.5305897 0.21825567 0.12597819
1.981406 1.7272848 -0.638725 1.7536654 -0.017867083 -2.057699 -0.55687433 -0.49732193
0.44564682 0.13150245 -0.04226186 -0.21054035 0.45910227 -1.1116371 -0.65962565 1.3141508
-3.1581023 -0.12110146 -2.7729678 0.16286093 2.866888 -3.0229669 0.22946046 1.3256702
-0.8359346 2.1196613 0.18353811 1.4538068 1.1549455 -1.6104519 -1.2607185 -0.17266221
0.37396172 0.32435945 1.7079117 -0.70696914 0.3376166 4.0288897 -3.0255325 0.7461605
-0.51517844 -1.8541244 0.5448251 0.4330862 -0.4576905 -0.2929978 -0.35550088 -0.48467603
0.14139207 0.36453423 0.80615973 -0.20863579 0.6625755 -2.7403326 -0.5613898 1.3425423
0.51504225 -0.7157488 -0.7182398 -1.0243589 -0.4280312 1.8250118 0.064845026 -1.164723
1.9981071 1.7731996 -0.97591347 0.37700936 -0.4582002 2.3205798 -1.8271443 0.49743727
-0.11385325 1.0935631 -0.78407973 -0.2446897 -0.3979365 1.0685233 -0.7200256 0.8828608
-0.9502496 2.4675965 -1.5535374 -0.54881305 0.059599932 0.059998207 0.93188244 -0.579359
-0.47379604 -0.5750458 -1.2625993 -2.256072 0.22197634 1.5614744 -0.41334856 0.60283256
0.3337232 -1.6371076 0.98591864 -0.34128726 1.916643 -2.7733004 0.23648112 0.32119054
0.43374527 -2.1639123 -1.0536611 -0.79572207 -1.1692457 -0.3990607 0.28817782 0.53903973
-0.045092877 0.9461023 1.1052686 -1.2482678 0.26879844 0.062947154 -1.2211615 -0.15182878
-3.074734 1.2990209 -2.2406967 -1.287997 0.97726476 0.49315593 -0.6281115 0.82954174
0.53938353 2.2187448 -0.1471887 0.27044097 -1.7249459 0.83554345 0.17154515 -1.5897604
-0.6545574 -1.3757329 -0.4339828 0.5014811 0.38763422 0.99725074 -1.3376447 0.37584972
-0.4622393 0.35683477 0.076148584 0.57068354 0.7132153 -0.0058055273 -2.521955 -1.3025402

embedding_user_MLP.weight f4 [51, 32]
00000000: cdf5 b7bf a710 b43f 6d14 b6be a90a 88bf
00000010: 3eb2 b03e c9ec 2fbf d170 16bf f0a2 96bf
00000020: 0b16 c43f 5982 e6bf 9ed5 6fbe 04e1 30bf
00000030: d57a bebd bd35 acbf 3cce ce3f 60d5 84bf
00000040: bb55 613e 46ad 033e 27f7 64be 41ba ec3e
00000050: 157b 9cbe 2036 94bf 08dd 9b3f 1dc2 0fc0
00000060: bec0 31bf c718 3c3f 63f9 1e3e 3b6f dbbe
00000070: aea5 34bd b8a9 33bf b0b0 463e 4c7e f63d
00000080: 6260 153f 2b11 d0be 99d2 61bf 6c5c 573d
00000090: 1f70 823e 3a2e c83e a2ea 6b3f b072 e0bf
000000a0: d396 fa3e eb0f 36bf 3169 86bf d9b5 083b
000000b0: 171c da3f 8e2e 9fbf afdc 79bf 8ca2 5c3e
000000c0: 1be5 5bbf a9d2 cfbe e5a6 43c0 3145 95be
000000d0: d2e5 a0bd 810f e1be d543 493f b5bc dcbd
000000e0: a236 96bf 9ba1 aebe 166a a23f a8aa f2be
000000f0: 439f 5d3f 2c1a cf3e a3eb 98bf a655 ea3f
00000100: 8fb9 983f 4bef 2e3f 8f2b a63f 4dcf be3e
00000110: 1eef 6c3f 53f3 813f 981e efbf f600 8b3f
00000120: dc5d 2ebe ba4c 663f 74ff eabf b464 58be
00000130: 814a 803e f80d 3e3f 24a0 463f 0a2d d7be
00000140: 79eb d13e d757 cf3f 5697 76bf 250e 2e3f
00000150: 79f7 2f40 06e2 373f 77c2 493f de1f 86bf
00000160: 958f df3e ffe7 a43e c6aa 823f 4b49 4bbe
00000170: 2103 0340 2887 9e3d 0953 613f b48b 9c3f
00000180: 6db1 2abf 1c73 c3be 0a6b bebe ef39 8c3d
00000190: 7a16 62bf 55f2 a0be f1f3 2ebe 61f9 84bf
000001a0: 6ed4 9a3d 42f0 cf3e 4215 bd3e 99d9 f0bf
000001b0: 6981 1ebf 58d7 01bf 72e9 763f 3dfc 32bf
000001c0: b23c 233f a299 ee3e 68c8 8ebf 78bb 0540
000001d0: b7e5 a23f ae0b 93be df67 3a3f 6861 f03e
000001e0: 4dfb a5be e526 c0be f4e0 58bf eb0e 8c3d
000001f0: 9188 37bd 5c36 37be 9cfd d3bf e5f9 29bf
00000200: df1a 1c3f 690d 81be 34cc a43f 2fa6 1a40
00000210: acb7 ef3f 5957 35bf c89f 303e c2da c6bf
00000220: 850e 16bf 3ad5 9e3e bbeb bd3f 2f9b f73f
00000230: dc11 d4bd 44dd 40be f5d0 ae3e c24e aa3f
00000240: af82 933f b4f6 9c3f 6f0b a93e a513 893f
00000250: a1da 4bbf 2bc2 2a40 0e77 603d f666 773f
00000260: cc6f 0cbf b4b8 db3e ab57 2abe a5ef 103f
00000270: 3fc7 403f 3471 8a3f 643d f13e a4bd dc3e
00000280: 726a a7be b38f b63f 9723 d13f 0743 0b3f
00000290: 9fa3 843f 3b18 85bf e182 573f da6e 82be
000002a0: 50e1 b6be 98bd 43c0 7fa0 98be 4d1c 873f
000002b0: 6a96 8d3e 826e a13f 4e6b 073f 73e7 8fbf
000002c0: d502 803f 9f0b aebe 635a b8bf 21c5 813f
000002d0: e048 edbf 9306 3ebf 3f05 45c0 03cc 91bf
000002e0: 9f9a c2be ea79 17c0 ed47 4540 e703 c03f
000002f0: 4577 8e3d f902 01c0 7715 b33e aca5 e43e
00000300: 97af 963e c92a 6cbf 0710 653f 6563 3fbf
00000310: cdce 1e3f b1be 4dbf d508 9bbf 5b26 983f
00000320: c5c9 72bf fb82 193f 499e 24bf cc4b 70bd
00000330: dea2 23c0 d94d c23e f03f 693f eadd 0fbf
00000340: 421a 883e a955 583b 37a2 bc3f 7dac f9bf
00000350: 945b bc3f 80c1 d33f dd5f 9f3f 7487 7e3f
00000360: 9e55 23be f6f3 eebf be28 f6bf a526 dfbd
00000370: 69b4 91bf 0c8e 853f b1ed 06bf f0e3 3a3f
00000380: a775 09c0 b993 82bf 37d3 aabe 6c1b c73f
00000390: c1d8 ca3f 59d9 b63f ef34 c53f 025a 06c0
000003a0: ccce c6bf 0c8a 303f dd38 a63e 0008 91be
000003b0: f8a5 afbf 73a2 15c0 1055 a13f 86c0 743f
000003c0: d102 83bd 31f9 69bf c791 a9bf 0874 293f
000003d0: 2ceb 18bf 3038 603f 6f50 08bf a081 ce3f
000003e0: f06a babf 800e e2be 3783 50bf 65c7 62be
000003f0: 1f57 46bf d110 5dbf 81b7 d53e 1587 c1bf
-1.4371887 1.4067582 -0.3556246 -1.0628253 0.34510988 -0.6872068 -0.58765894 -1.1768475
1.5319227 -1.8008529 -0.23421332 -0.69093347 -0.09300772 -1.34539 1.6156688 -1.0377617
0.2200536 0.12859067 -0.22359906 0.4623585 -0.30562654 -1.1579018 1.2176828 -2.2462227
-0.69434726 0.7347531 0.15524821 -0.428583 -0.044103317 -0.70180845 0.19403338 0.12035808
0.58350194 -0.40638098 -0.8821197 0.052578375 0.25476167 0.39097768 0.92154896 -1.7535
0.48943195 -0.7111804 -1.0500852 0.0020860343 1.7039822 -1.2436082 -0.9760236 0.21546382
-0.8589646 -0.40590408 -3.0570614 -0.2915435 -0.07856335 -0.4395714 0.7861913 -0.107781805
-1.1735423 -0.3410767 1.2688625 -0.47395825 0.8657114 0.40449655 -1.1946911 1.8307388
1.1931628 0.6833388 1.2982043 0.37267533 0.92552364 1.0152382 -1.8681211 1.0859668
-0.17027992 0.89960825 -1.8359208 -0.21132165 0.25056842 0.74240065 0.77588105 -0.4202655
0.40999964 1.6198682 -0.9632467 0.6799033 2.7494795 0.7182926 0.78812355 -1.0478475
0.43664232 0.3220825 1.0208366 -0.19852178 2.047066 0.07740623 0.88017327 1.2230134
-0.6667698 -0.3817376 -0.3719104 0.068469875 -0.88315547 -0.31434885 -0.17085244 -1.0388604
0.07560049 0.4061299 0.3693028 -1.8816406 -0.61916214 -0.50719213 0.9644996 -0.69916135
0.6376449 0.46601588 -1.1154909 2.0895672 1.2726353 -0.28719848 0.72814745 0.46949315
-0.3241829 -0.37529674 -0.8471825 0.06838783 -0.044807974 -0.1789183 -1.656177 -0.66396934
0.609785 -0.25205544 1.2874818 2.416393 1.8727927 -0.70836407 0.17248452 -1.553551
-0.58615905 0.31022054 1.4837564 1.9344233 -0.10354969 -0.18834406 0.34143797 1.3305285
1.1524256 1.2262788 0.33016536 1.070912 -0.79630476 2.668101 0.05480104 0.9664148
-0.5485809 0.42914355 -0.16635005 0.5661567 0.75304025 1.0815797 0.4711715 0.43113434
-0.326984 1.4262604 1.6338986 0.5439915 1.0362433 -1.039802 0.8418408 -0.25475198
-0.35718775 -3.058447 -0.2980995 1.0555512 0.2765382 1.2611849 0.5289811 -1.1242508
1.0000864 -0.3399324 -1.4402584 1.0138284 -1.8537865 -0.7422878 -3.0784452 -1.1390384
-0.38008592 -2.366816 3.082515 1.5001191 0.069563426 -2.0158064 0.34977314 0.44657648
0.2943084 -0.92252785 0.8947758 -0.7476104 0.620343 -0.80369097 -1.211207 1.1886705
-0.94839126 0.59965485 -0.64304024 -0.058666036 -2.5568156 0.37950018 0.91113186 -0.5619799
0.26582533 0.0033010042 1.4737004 -1.9505764 1.4715447 1.6543427 1.245113 0.99425435
-0.15950629 -1.8668201 -1.9231184 -0.10896043 -1.1383182 1.0433974 -0.5270644 0.73004055
-2.147806 -1.0201331 -0.3336427 1.5555243 1.5847398 1.4285079 1.5406779 -2.0992436
-1.5531859 0.6896064 0.32465258 -0.28326416 -1.3722525 -2.33804 1.2604084 0.9560627
-0.063970216 -0.9139586 -1.3247613 0.66192675 -0.59733844 0.87585735 -0.5324773 1.6133308
-1.4563885 -0.44151688 -0.8145022 -0.22146375 -0.77476686 -0.86353785 0.41741565 -1.5119349

embedding_item_MLP.weight f4 [1889, 32]
00000000: 252a 1f40 91c4 0b40 ab89 843e cd50 0fc0
00000010: 45fb 253f 9457 8fbe abda b43f eb76 c4bd
00000020: d290 573f 11bc 14bd dcf9 e5be 792e 32be
00000030: 6897 3ac0 f83e 603f 1de5 0ebf b6a5 cfbf
00000040: 9c21 af3f cfed ce3f 8c3c 59bf 89d9 2a3f
00000050: 6931 a13d 1faa 8abf 8e72 193f e00e 433f
00000060: f395 3fbe 6053 02c0 6806 443e a4e5 5cbf
00000070: 3efc 2c3f 05db 0140 bcca 63bf 0f22 603f
00000080: 89da 413e 9640 093f 34b9 7f3f b0c2 01bf
00000090: b499 b8bf a159 50be 3a52 b83f d93d d73f
000000a0: 1439 33c0 d8e3 943e 484d 6cbf 1edc 633e
000000b0: f0f8 b4bf 62e8 863e 0a77 ca3f c580 39bf
000000c0: c53c 89bd a81c 45bf 2e3e c23f 82db e6be
000000d0: 17e4 3bbe 7454 a33e 8902 2cbf c6d4 2bbf
000000e0: a02f 5c3f eabf 80be 158f a83f 482b b4be
000000f0: de8a 22bf 7746 8e3f c220 ed3e b163 45bc
00000100: fc45 d1be b37e 283f b040 893f 8360 87bf
00000110: bb10 943f cb94 0640 7e76 ce3f 7b2c 883f
00000120: 5e47 a53e bf93 8cbf 2349 2440 e2fe 21bf
00000130: 6247 103f b606 183f 36c5 14bf 1892 973f
00000140: 81b2 da3c cc04 593f b691 883f 6f95 31c0
00000150: 4db3 b03d fa6e bc3e c3d6 27bf b062 3bbf
00000160: 57ae 803f d6f5 04bf 322a b13f 52c3 103d
00000170: 74a9 253f 3fcd 9abe 9fae 47bf d535 c9be
00000180: ed08 f03f 07ad 57be 5824 a2bf 0b0f 0a3f
00000190: abfb 4a3e ff33 bdbf ed41 523f dc86 5e3f
000001a0: e3f0 dcbe f05f 2d3f 54fa d0bf 05f2 343f
000001b0: e9da 513e f320 0abf 50c8 33bf 75a2 ecbe
000001c0: ea5e b53e 45e6 993e 1d99 acbe b952 d63f
000001d0: 7695 debf c724 babe df61 8dbf 9c79 153d
000001e0: e1b4 36c0 0e72 d93e 464e 5ebe 739d a63f
000001f0: 7b06 9fbf 67b2 963e 6155 37bf c109 86bf
00000200: 39db 833f 6f77 7bbf 54b5 c8bf b793 98bf
00000210: c7e1 aa3f 1248 bebd 8a0d 823f 5234 22bf
00000220: 05d2 2540 00a6 fcbf dd97 13bf 8896 c6be
00000230: e43a f1be f34e b6bf bdbf 1c3e 06b4 a2bf
00000240: ffe2 0dbd de55 2abf 149c 2ebf 3dc2 dcbf
00000250: 82b5 02be b8bb 89bf 430a 28c0 9ec2 9a3e
00000260: 101f 34bf f460 04c0 6195 63bf 0fd8 a03f
00000270: 51dc 89bf a943 5abf bf33 353e ffde ae3f
00000280: cb1e 4cbf 7a12 053e fc48 dcbf 5422 b4bf
00000290: 54fe 953e 3430 e63f 64aa ab3f f778 c7bd
000002a0: bea7 a23e 236c 543c 5215 45bf 5e3f 55bf
000002b0: 7886 2740 10f6 bebe c49a 87be bf40 44bf
000002c0: ae46 933f 59cf 643f a592 0740 ab6e 26bf
000002d0: 38f6 b13e 5d49 ab3f a2fe e8be 0c97 f73f
000002e0: cc23 733f 95af 813f e044 393f 4d4f 44bf
000002f0: 5d61 03bf 54c6 e53e 3ee5 18bf 6d56 7c3f
00000300: b2d0 4fbf f336 223f cf21 a0bf 38fe 9c3e
00000310: 210c e53f 1798 cf3f a4de 963d db05 80bf
00000320: 3ad5 88be 113d 7cbf 9710 1fc0 afba 1c3f
00000330: a348 03c0 4195 c93e 6d5f 0d40 3541 cdbd
00000340: f76a e4bf 559e 7ebf 92d4 bfbf 9eaf 2c3f
00000350: eece 4b3e 72cd 8c3f eac4 1040 ff6a cebe
00000360: cdfa 86bf 8fb1 e4bf d37d 033f e883 cd3f
00000370: 9ab2 4f3f 2d85 32bd 6021 b7bf 4494 c23f
00000380: acc0 8f3f bc87 d3be 87e7 cdbe cb68 22bf
00000390: a399 97bd 6203 8b3d a063 23bf 5379 eebe
000003a0: c384 9c3e b0df 5fbf a5d1 97be 18e9 0840
000003b0: 8885 a4be 7b6f 03c0 00f4 783f d062 a0bf
000003c0: 16bc 043f 9c27 acbf 932b af3f fdfe 1dc0
000003d0: bb28 b73e 9d13 243e 7b26 02bf e0c5 a6bf
000003e0: e077 913f 8eda 0abf 712d d63f 9c90 1ac0
000003f0: 30a1 803f 590f d3bf 2e2e d33f 17c9 bf3e
2.4869473 2.1838725 0.25886282 -2.2393067 0.6483653 -0.27996504 1.4129232 -0.09592994
0.84205353 -0.036312167 -0.4491719 -0.1740054 -2.915491 0.8759608 -0.5581835 -1.6222446
1.3682132 1.6166323 -0.8485801 0.6673818 0.07870752 -1.0833167 0.5994042 0.7619457
-0.18709545 -2.0363388 0.19143069 -0.86287904 0.6757239 2.028993 -0.88981223 0.8755197
0.18931021 0.53614175 0.9989197 -0.50687695 -1.4421906 -0.2034669 1.4400094 1.681575
-2.8003588 0.2908008 -0.9230542 0.22251937 -1.413847 0.2634917 1.5817578 -0.7246211
-0.06701044 -0.7699685 1.5175226 -0.45089346 -0.18348728 0.3190037 -0.6719137 -0.6712154
0.8601017 -0.2514642 1.3168665 -0.3518927 -0.63493145 1.1115254 0.46314055 -0.012047694
-0.40873706 0.6581833 1.0722866 -1.0576328 1.1567606 2.1028316 1.6129911 1.0638574
0.3228101 -1.0982589 2.566964 -0.63279545 0.5635892 0.5938524 -0.5811342 1.1841459
0.026696445 0.84772944 1.0669467 -2.7747457 0.08627949 0.36803418 -0.65562075 -0.7319746
1.0053204 -0.51937616 1.3841002 0.035342522 0.6471169 -0.30234715 -0.78000826 -0.39298883
1.8752724 -0.21062098 -1.2667341 0.53929204 0.19822566 -1.4781493 0.82131845 0.8692453
-0.43152532 0.67724514 -1.6326394 0.7068179 0.20493664 -0.53956527 -0.7022753 -0.46217695
0.35423976 0.30058494 -0.33710566 1.6743995 -1.7389362 -0.36356184 -1.1045493 0.03649293
-2.85479 0.4246983 -0.21709546 1.30168 -1.2423853 0.29432985 -0.7161465 -1.0471727
1.0301276 -0.98229116 -1.5680337 -1.1920079 1.3350152 -0.0929109 1.0160382 -0.63361084
2.5909436 -1.9738159 -0.576536 -0.3878672 -0.47115242 -1.4242843 0.15307517 -1.2711189
-0.03464031 -0.6653727 -0.68206906 -1.7246777 -0.12764552 -1.0760412 -2.6256263 0.30226606
-0.703599 -2.0684175 -0.8889981 1.2565936 -1.077036 -0.8525949 0.17695521 1.3661803
-0.79734486 0.1299533 -1.7209773 -1.4072976 0.292956 1.798346 1.3411374 -0.09739869
0.31768602 0.012965235 -0.7698566 -0.83299816 2.6175823 -0.37297106 -0.26485264 -0.76661295
1.1505945 0.8937889 2.1183255 -0.65012616 0.34758162 1.3381764 -0.4550677 1.9342971
0.94976497 1.0131708 0.7237072 -0.76683503 -0.5132044 0.44877875 -0.59724796 0.98569375
-0.8117782 0.63365096 -1.2510318 0.30662704 1.7894326 1.6218289 0.07366684 -1.0001787
-0.2672518 -0.9853068 -2.4853876 0.61222357 -2.0513084 0.39371684 2.2089493 -0.10022203
-1.7845143 -0.99460346 -1.4986746 0.6745547 0.19903156 1.1000197 2.2620187 -0.40316007
-1.0545288 -1.7866687 0.5136387 1.605588 0.811319 -0.043584038 -1.430706 1.5201497
1.1230674 -0.41314495 -0.40215704 -0.6344115 -0.07402351 0.067877546 -0.6382389 -0.46576938
0.3057004 -0.87450695 -0.29652134 2.139227 -0.32133126 -2.0536792 0.97247314 -1.2530155
0.51849496 -1.3449588 1.3685173 -2.4686882 0.35773262 0.16023107 -0.50839967 -1.3029137
1.1364708 -0.5423974 1.6732618 -2.4150763 1.004919 -1.6489059 1.6498468 0.37458107

fc_layers.0.weight f4 [32, 64]
00000000: e131 e33e 9557 bb3d 2628 c1be 2a8c 17be
00000010: cec9 c0bd b628 19bf 3737 a03e ee7e 013f
00000020: eda8 20be f65e c53e bd67 5c3e e999 55bc
00000030: 78ef 5d3d f8e8 b83e f950 eebe 6de5 0cbf
00000040: 36f5 c23e 1357 5dbe decd d03d fda6 03be
00000050: be79 6d3e 8d3e d23e b280 8a3e 01a4 943e
00000060: 6a30 4e3f 0658 9fbe 30c0 7abe 4349 d5bd
00000070: d3a5 713e 76f3 9e3d a24c 543e 4798 483e
00000080: 945a 123f 024e 073f 3363 46ba cf78 873e
00000090: d4fc aebe 2efa 0bbf 066a cbbc c8c9 dd3c
000000a0: fc8e 713f ebe8 a13e 1205 0f3f ef21 81be
000000b0: b525 f53e 06d5 0ebf d37e 893e fbe9 423f
000000c0: 7e14 92bd bef0 52bd a441 17bc 2371 ee3e
000000d0: 709b a53c 5a46 07bd 712e 15bf 5d53 73be
000000e0: 770b 93be b669 94be 5f1a a2be db6c 113f
000000f0: c9e3 a5be fff3 ca3e 47ac 523e 5779 e9be
00000100: 4746 503e a097 60be f08a e2be 82b2 073e
00000110: b065 a23e dc13 643e 3033 cdbe 2ae9 d8bd
00000120: b1e9 32be 1c80 243f d902 443e d988 4b3d
00000130: 477b 9abe 8d13 a9be 0898 4cbe 903a f1bd
00000140: 0880 1d3d f73c 8bbc 1204 17bd 2190 9f3d
00000150: 8a30 5d3d b20b 95be dcfd 973d 2f54 dcbc
00000160: 6cf3 6cbe a07c 76bd 9c61 8bbe 0f37 8dbe
00000170: 8425 653e 5c03 1c3f d942 b83e f76a bc3e
00000180: 0d0a cebd 6fa1 a13e e8b2 7cbe d68b ad3e
00000190: 674f ffbe 41ed 083e e030 05bf 1ce9 1cbf
000001a0: 6bef f2bd 31c4 f63e 0c1f d13e 3ae7 adbf
000001b0: 7815 de3e acf8 2bbe 6f31 2a3f 2846 c03d
000001c0: d898 6dbe 1d4c 3cbb 50c0 2c3f e19c 133e
000001d0: 7712 493f 7e64 9c3e 08a9 d43e c917 01bf
000001e0: 157a f03d 7315 5d3e 499e 543d b4b9 d83e
000001f0: d046 443e 4631 bfbe a7ad a73e fb6b dd3e
00000200: d31b 70bd b9d4 de3c 75c6 b9be fcc7 f23d
00000210: abe3 bd3e b150 54be 8a48 913d 618d 01bf
00000220: b953 4a3e c325 9f3e 6df3 b33e e612 a2ba
00000230: 9651 ebbd 933e cebe b2f3 f3be 54e5 8b3e
00000240: 43cd fb3e d2f0 723e 2c21 12be 655a 133e
00000250: 39d4 983d f642 7bbd f7bc 9dbe 89b0 ef3d
00000260: 71f0 94be 3eee a2bd 601a babe 61ea 62be
00000270: 3512 ad3d 4e7e 213f 1bcf 7e3e e734 273d
00000280: a1e3 af3d 8373 cfbe 56fc 1ebd 81c2 19bf
00000290: c288 1ebf d9e6 ea3e 160b 9c3e 1cbd bebe
000002a0: f5e5 1fbe c271 17bf eea4 98be 504a d6be
000002b0: 75d2 ba3d a409 4ebe 95f8 413f 53e0 283e
000002c0: 0642 7b3e 4c55 17bd 63c3 27be 46e8 b93d
000002d0: 26c7 54bf 81e4 7b3f 1981 66be 5e5c f83e
000002e0: 5525 2e3e 9327 00be e347 64be 9999 53bf
000002f0: 4573 56bf d83a 773e 2df2 133d 4d2d aebd
00000300: a243 953e 49b1 163d 18d6 63be 1ac2 633e
00000310: 9886 013e 99d6 0d3e c8a9 02be 0da9 923e
00000320: 9e26 7a3e eba0 19be b866 e33e d604 c4bd
00000330: 06fc 13bf f007 70bd aa91 b7be 6162 b9be
00000340: 5fd0 0e3e 8843 f2bd c932 a93e cf75 29be
00000350: bc2b 26bd 851a 39bf 79cb c43e 8e63 03be
00000360: 2f2b d7be 85d1 d3bc 0dec 0abc b17a 4d3d
00000370: 6b33 c43e 07d9 8f3e 82d3 e1bd 9f59 993e
00000380: 72ce ddbe f055 1dbe 5543 afbe cf30 893e
00000390: f150 b9bd 0cb2 24bf 3704 5dbf 5239 88be
000003a0: 0232 023f 4b08 8fbe e1ab 84bf 0080 8e3d
000003b0: 67a0 29be da17 ea3d 67ef 583e 66b4 17be
000003c0: bc04 e6bd 9c2c 2fbc 6e9b e6be 62f3 50be
000003d0: 63b0 d1be 2ccc adbe ea3d e0be da53 b03e
000003e0: f2ef 103f 5638 203f a8d4 d43e 6539 9dbe
000003f0: cf41 d03d 5b5f f7be 3ac4 9b3e 9178 343e
0.44373992 0.09147564 -0.37725943 -0.14799562 -0.09413491 -0.59827745 0.31292126 0.50584304
-0.1568944 0.38549012 0.21523948 -0.013037183 0.054183453 0.3611524 -0.46546152 -0.55037576
0.38077706 -0.21615247 0.10195516 -0.1285667 0.23190972 0.41063347 0.27051312 0.29031375
0.80542624 -0.31121844 -0.24487376 -0.10414364 0.23598413 0.0776128 0.20732358 0.19589339
0.5716946 0.52853405 -0.00075678824 0.26459357 -0.34177268 -0.5467862 -0.02483083 0.027073756
0.943588 0.31623015 0.5586711 -0.25221202 0.4788033 -0.557938 0.26854572 0.76138276
-0.07132815 -0.05149912 -0.009231959 0.4657069 0.02021572 -0.033026077 -0.5827399 -0.2376227
-0.28719684 -0.289869 -0.31660745 0.56806725 -0.3240035 0.3963928 0.20573531 -0.45600387
0.20339309 -0.2193284 -0.44246626 0.13251689 0.31718206 0.22273201 -0.40078115 -0.105913475
-0.17471959 0.6425798 0.19141711 0.049691055 -0.30172178 -0.3302273 -0.1997987 -0.11778748
0.03845218 -0.016996844 -0.036869116 0.07791162 0.05400137 -0.29110485 0.07421467 -0.02689561
-0.23139733 -0.060177445 -0.27222908 -0.2758107 0.22377592 0.60942626 0.359885 0.36800358
-0.10060511 0.31568477 -0.24677622 0.3389575 -0.49865267 0.13371755 -0.520277 -0.61293197
-0.118620716 0.48196557 0.40844 -1.358619 0.43375754 -0.1679408 0.6648168 0.09388381
-0.23202837 -0.002873189 0.67480946 0.14415313 0.785438 0.3054542 0.4153521 -0.5042692
0.11742035 0.21590213 0.051908765 0.4232918 0.19167638 -0.3734228 0.32749674 0.43246445
-0.058620285 0.027201043 -0.36284223 0.1185455 0.3708776 -0.20733906 0.07093914 -0.5060635
0.197585 0.31083497 0.35146657 -0.0012365251 -0.11490171 -0.40282115 -0.47646862 0.273234
0.4918004 0.23724678 -0.14270467 0.14389952 0.07462353 -0.061343156 -0.3080823 0.11703593
-0.29089692 -0.07955597 -0.36348248 -0.22159721 0.08450738 0.6308335 0.24883692 0.040821936
0.08588339 -0.40517816 -0.038814865 -0.60062414 -0.61927426 0.45879248 0.30477208 -0.37253654
-0.15615065 -0.59157956 -0.2981333 -0.4185357 0.09122173 -0.20120865 0.7576993 0.16491823
0.24536905 -0.03694658 -0.16383128 0.09077506 -0.83116376 0.98395544 -0.22510184 0.4850797
0.17006429 -0.12515096 -0.22293048 -0.82656246 -0.8376964 0.24143541 0.03611963 -0.08504734
0.29153162 0.036790166 -0.22249639 0.22242013 0.12649 0.13851394 -0.12760079 0.286446
0.24428794 -0.15002792 0.44414306 -0.09571235 -0.5780643 -0.05860132 -0.3585332 -0.3620787
0.13946675 -0.11829287 0.33046558 -0.16548847 -0.040569052 -0.7230609 0.38436487 -0.12830946
-0.42025134 -0.025856743 -0.00847913 0.050165836 0.3832048 0.28095266 -0.1102667 0.29951188
-0.43321568 -0.15364814 -0.34231058 0.2679505 -0.090486415 -0.6433418 -0.86334556 -0.26606232
0.50857556 -0.27936015 -1.0364953 0.06958008 -0.16565095 0.114303306 0.21185075 -0.1481491
-0.11231372 -0.010691788 -0.45040458 -0.20405343 -0.40954885 -0.33944833 -0.43797237 0.34438974
0.5661613 0.6258596 0.41568494 -0.3070785 0.10168802 -0.48314938 0.30423146 0.17624117

fc_layers.0.bias f4 [32]
00000000: 1a89 07be 88c6 043e 1166 4fbe bfc9 0f3e
00000010: c6d3 b5bd cf84 053d a341 2dbe 55e9 123d
00000020: 46e0 98bd b538 0fbe 19cd 30bd 4f63 4abe
00000030: b609 423e a853 a43d 67a6 bdbd dac2 93bd
00000040: 23bb 35be 6485 e6bd abc7 45be 1686 853d
00000050: a809 b53b 2a66 06be a7dc a4ba b4ba c2bd
00000060: 7095 70be cf6e 73be 29c8 833c 11a3 66be
00000070: 3ce1 3cbd c07e 14bd b978 36be 58e4 c1bc
-0.13235894 0.12966359 -0.20253779 0.14041804 -0.08878283 0.03259736 -0.1691957 0.035867054
-0.07464652 -0.13986476 -0.043164346 -0.19764446 0.18949017 0.08023769 -0.09260254 -0.07214899
-0.17747168 -0.11255911 -0.19314449 0.065197155 0.0055248328 -0.1312491 -0.0012577967 -0.09508267
-0.23494506 -0.23772739 0.016086655 -0.22523142 -0.046113238 -0.03625369 -0.1781949 -0.023668453

fc_layers.1.weight f4 [16, 32]
00000000: d962 423f dc72 f4bd 00ae cc3e fc75 82bf
00000010: e2dd c6be 440a 4fbe c432 9dbe 2efd b73e
00000020: 3e8b 103f 0a9c 613f d618 a73d e26d 2d3f
00000030: 7111 013d 382b 1c3f 3048 373f 0b26 8c3e
00000040: a523 5bbe f991 043f 0b5d fc3d d5e8 513e
00000050: 7eaa 583f 1a85 343d 7b5c ca3e 7a71 9e3c
00000060: 6208 3d3e 7570 ee3e fef3 bd3e 62d5 053e
00000070: 1056 1bbf b80a f13e 0ead f93d bc83 263f
00000080: f7a6 7d3f 46ea 45bf 7419 193f 406d 243e
00000090: fc43 c23e 479b b9be 5c36 2e3e 2c30 113f
000000a0: 6b1e 393f ce9e 363f 2f18 e5be 6543 493f
000000b0: 2ceb 3cbe 9b61 153f 7648 513f fda6 203e
000000c0: 67f6 b23e 0edb 8a3f 2c1f 9c3e 1ce6 d43e
000000d0: 048d e73e 8d82 24bd 47b5 a33e 0bdb 85be
000000e0: 9503 b73e 35e2 9b3e 38e6 063e e0c4 a63e
000000f0: 071f 16bd 3ce4 4f3f 6312 0a3e 9ffb 893e
00000100: 8ca8 623f be6e 28bf d238 2e3f 9dee b23d
00000110: 8dea a73e 8b1e a3be fe11 323e 3fd4 003f
00000120: 4ee7 0e3f 1556 1c3f f3ac 02bf 3dcb 3d3f
00000130: 2537 0abe f696 263f 81d8 533f f2ef 8b3d
00000140: dfc0 123f f1d7 8c3f ff66 303e 842f c33e
00000150: 3b2e 073f 740a 94bc 7ec2 253e 5c8c d4bd
00000160: 53d0 dc3e d96a e43e b2bd 0b3e 1e42 b83b
00000170: 1c11 273e 566f 4d3f ea17 843d 9882 b63e
00000180: e49e 8abe 629f 633e 6840 6bbf fe40 203f
00000190: 78fb 3bbf 5fbe 0d3f 0ad9 abbf 4778 823f
000001a0: 2348 e7bc c4f8 363d d8de 92bf 3248 913d
000001b0: 5c3b 613f 3c07 463f 7b43 323f 7aac 33bf
000001c0: 7b71 abbf 76f3 e73e fb57 ccbe 4b42 683f
000001d0: 885e 3b3e 2285 79bf 9c85 a3bf a3f8 94bf
000001e0: b456 47bf acb3 1fbf 0898 ccbe e2da 3abf
000001f0: c948 67bf f006 3bbf b448 44bf d8ab 0e3f
00000200: ca5b 07bf 6f14 873e d8a2 9abf a1df c43e
00000210: ec40 bf3e c9e0 6d3f e247 2abf 9a85 333f
00000220: 46dd 1d3f 6b4a abbd f056 f7bf 31d9 833f
00000230: 05ad 503f a99b e33e c482 78bd be94 a1be
00000240: 3360 e7be bfee 49bf 8dcd 52bf f60c 76be
00000250: 10eb a03e 55f6 b1be d150 383e 029b 96be
00000260: 4b8e 24bf fd46 353c caa0 e6bf 3ae6 833e
00000270: b452 e93e 34ee 93bf 54ff 44bf 1077 293f
00000280: de85 1f3f baef 0dc0 e1d1 babc 9697 15bf
00000290: b362 55be d6cc a3bf a56b 873e 1629 753e
000002a0: 7e8d 553e 077b fb3d 94e5 913e 491c 6f3e
000002b0: 297a 2cbe 3b34 393f c0e3 7b3e 9568 d9bd
000002c0: f591 d1be a704 7e3e 2bfe 793f 1355 043e
000002d0: 1322 203f f2fe 8e3e 27d1 a23e aa7b 853e
000002e0: c261 153e b4ac 123f 8e4f eb3e e51f 373f
000002f0: 460d 36be b93e 963e 02a5 0c3f fa75 913f
00000300: 64e4 39be 6874 4e3e efc4 e73e f3d7 533f
00000310: eda4 0ac0 d0ba 2d3f 4ce0 883f 0984 0dbf
00000320: 4ba3 bfbf 991a 0ebe d403 1c3f 24be 8c3d
00000330: a345 833d 754a 2ebe 9070 2abd 32ff 9b3f
00000340: 32e5 123f a344 4abf 7ec4 b43e 4dd9 dfbe
00000350: 4427 37bf 9782 043f bb19 0c3f 9644 593f
00000360: ffbe 2cbf 3ac6 99be 3f87 653f d009 0cbf
00000370: e065 303f b997 a63e 17c0 053f 79ca ebbf
00000380: 40b7 af3e 1dd0 f83e 99b6 02bf 74f7 0a3f
00000390: 980a 82bf 34b7 123f e733 8fbf efb1 373f
000003a0: a1b1 5d3d 5ca5 b4bf 1438 babf dce1 95be
000003b0: 02cb 1a3f 07ca 483f b385 bebe 54a2 20c0
000003c0: 502d b73d 4f0f 14bf ac19 7abf 6f78 293f
000003d0: bf68 f53e e402 03bd d581 3cbe d273 84bf
000003e0: fd44 dbbe bda8 e0bd abb8 16bf 8a38 1abe
000003f0: 5088 57bf 4046 58bf d4bc 99be b606 363f
0.7593208 -0.1193597 0.399765 -1.0192256 -0.38841158 -0.2021876 -0.30702794 0.35935348
0.56462467 0.8812872 0.08159034 0.6774579 0.031510774 0.61003447 0.71594524 0.27372774
-0.21400316 0.51785237 0.12322434 0.20498975 0.8463515 0.044072248 0.39523682 0.01934122
0.18460229 0.46570173 0.37100214 0.1306968 -0.60678196 0.4707849 0.12191211 0.6504476
0.99082893 -0.773106 0.59804463 0.160573 0.37942493 -0.3625128 0.17012924 0.5671413
0.7231204 0.71336067 -0.44745013 0.7861846 -0.18449086 0.5835206 0.8175119 0.15688701
0.34953615 1.08481 0.30492532 0.4158181 0.45224774 -0.040163565 0.3197424 -0.2614368
0.3574492 0.3044602 0.13173759 0.3257208 -0.036650684 0.81207633 0.13483576 0.26949784
0.8853843 -0.6579398 0.6805545 0.08736918 0.32796136 -0.3185924 0.17389676 0.5032386
0.5582169 0.6106885 -0.5104515 0.7413824 -0.13497598 0.650741 0.82752234 0.06832875
0.5732555 1.10034 0.1722679 0.3812219 0.5280492 -0.01807139 0.16187474 -0.10378334
0.4312769 0.44612768 0.13646582 0.005623116 0.1631512 0.8024801 0.06449874 0.3564651
-0.2707435 0.22228768 -0.9189515 0.6259917 -0.73430586 0.5536861 -1.342561 1.0192956
-0.02823264 0.044670835 -1.1474257 0.07093848 0.879812 0.7735479 0.6963422 -0.70185053
-1.3394006 0.45302933 -0.39910874 0.90726155 0.1829778 -0.9746877 -1.2775149 -1.1638378
-0.77866673 -0.6238353 -0.3995974 -0.7299024 -0.90345436 -0.7305746 -0.76673436 0.5573096
-0.52874434 0.26382777 -1.2080946 0.38451865 0.3735422 0.9292112 -0.66515934 0.70125735
0.6166576 -0.083638035 -1.9323406 1.0300657 0.81514007 0.44454697 -0.060671583 -0.31558794
-0.45190582 -0.7887992 -0.82344896 -0.24028382 0.31429338 -0.3475825 0.17999579 -0.29415137
-0.6427962 0.011064288 -1.8017819 0.25761586 0.4557091 -1.1557069 -0.769521 0.661973
0.6231364 -2.2177567 -0.022805156 -0.58434427 -0.20838432 -1.2796886 0.26449314 0.23941454
0.20854756 0.12279325 0.28495467 0.23350634 -0.16843475 0.7234532 0.24598598 -0.106156506
-0.4093167 0.24806462 0.97653455 0.12923078 0.62551993 0.27928883 0.31800196 0.2607091
0.14588073 0.57294774 0.45959133 0.7153304 -0.17778501 0.2934473 0.5493928 1.1364129
-0.1815353 0.20161593 0.45267436 0.8275139 -2.1663163 0.6786318 1.069345 -0.55279595
-1.4971708 -0.13877334 0.6094334 0.06872204 0.064097665 -0.1702059 -0.041611254 1.2187254
0.57380974 -0.7901098 0.35306162 -0.43720475 -0.7154429 0.51761764 0.5472676 0.8487028
-0.67478937 -0.30034047 0.89659494 -0.5470247 0.6890545 0.3253763 0.5224623 -1.8421165
0.34319496 0.48596278 -0.5105987 0.54283834 -1.0159483 0.57310796 -1.1187714 0.7175588
0.05412448 -1.4112964 -1.4548364 -0.2927388 0.60466015 0.7843327 -0.3721138 -2.5099077
0.089441895 -0.5783586 -0.9769542 0.6619939 0.47931477 -0.03198518 -0.18408902 -1.0347846
-0.4282607 -0.10969684 -0.5887553 -0.1506063 -0.8419237 -0.84482193 -0.30026877 0.7110399

fc_layers.1.bias f4 [16]
00000000: 20e8 01be e78a 233d 4440 373a dfe8 e23d
00000010: 96ea 113e fb1e 66be c680 12bc 7c45 433c
00000020: 936f 683d 4957 123e 0466 733d e219 05bd
00000030: 409c 9339 dc6f 6fbc f75c f1bb b73c 8abd
-0.12686205 0.03992739 0.00069904723 0.11079573 0.14249644 -0.22472756 -0.008941835 0.011918422
0.05674703 0.14291109 0.05942346 -0.032495387 0.0002815444 -0.014614072 -0.0073658186 -0.06749862

affine_output.weight f4 [1, 48]
00000000: 1104 56bf 7ac7 23bf 5b9f 20bf 9bc7 2940
00000010: 5d06 fb3f 7921 d0bf fd61 ec3f 1934 0e40
00000020: cfe2 e83f 8927 0140 2dfc 58bf a38d 1f40
00000030: fafb 2e40 a33d 0c40 acb7 25bf 661e 48bf
00000040: d478 493f e9d6 76bf f19f 86bf af5d 5e3f
00000050: 5a18 5cbf 5050 69bf d90c 76bf 289b 503f
00000060: 0f56 72bf c17b 323f fbe5 59bf 3187 80bf
00000070: c2a8 963f 5bcd 7b3f c3bc 52bf 6115 4e3f
00000080: 2246 713f 9685 873f d94f 5d3f f68c 1a3f
00000090: 4d46 623f e465 a83f 07c7 843f 7171 53bf
000000a0: 30bf 833f dbc2 923f ca2c 613f f5e8 903f
000000b0: 2ee5 863f 7177 71bf da36 863f c10e 733f
-0.83599955 -0.6397625 -0.6274316 2.652808 1.9611317 -1.6260215 1.8467404 2.2219298
1.8194216 2.018038 -0.8475979 2.4930198 2.7341294 2.191262 -0.64733386 -0.78171384
0.78699994 -0.96421677 -1.051756 0.868617 -0.8597466 -0.9113817 -0.96113354 0.8148675
-0.94662565 0.69720083 -0.8511655 -1.0041257 1.1770251 0.9836022 -0.8231928 0.8050137
0.9424764 1.0587642 0.8644996 0.6037134 0.8838852 1.3156095 1.0373238 -0.8259497
1.0292721 1.1465715 0.8795897 1.1321093 1.053869 -0.9432288 1.0485489 0.9494439
