checkpoints/NeuMF_Epoch1_HR0.2203_NDCG0.2036.model (torch, 510215 bytes, 9 tensors)

embedding_user_MF.weight f4 [51, 32]
0	0xbf497172	-0.7868873
1	0xbe255399	-0.16145171
2	0x3fb25fc1	1.3935472
3	0xbfb8c786	-1.443589
4	0xc01833f2	-2.3781705
5	0xbf9e265d	-1.2355458
6	0x3f9528d9	1.1653091
7	0x3ef023ae	0.4690222
8	0xbf5e0966	-0.8673309
9	0x3e4d2092	0.20031956
10	0xbf74910c	-0.95533824
11	0xbf75d36b	-0.96025723
12	0x3f927490	1.1441822
13	0x3d7897c1	0.0606916
14	0x3fba4440	1.4552078
15	0xbf20d96c	-0.6283176
16	0xbf9431dc	-1.1577716
17	0xbf79c41d	-0.9756487
18	0x3ef7da72	0.48408848
19	0x3f595611	0.8489695
20	0x3d6fa9f0	0.058511674
21	0xbe423c4a	-0.18968311
22	0x3f8553b6	1.0416172
23	0x3dcafa11	0.09910978
24	0xbfc45a71	-1.53401
25	0x3ff4501a	1.9086945
26	0xbe28455b	-0.16432707
27	0x3fbe8dd1	1.4887029
28	0x3ec9f9ec	0.39448488
29	0xbd046b9a	-0.03232918
30	0x3faf5047	1.3696374
31	0x3f90addb	1.1303056
32	0xc0097632	-2.147839
33	0x3f66a04c	0.90088344
34	0x3f95cd5e	1.1703298
35	0x3f955d68	1.166913
36	0xc00235db	-2.034537
37	0xbf7832a9	-0.969523
38	0xbffb7232	-1.9644225
39	0x3f58c745	0.8467906
40	0xbe620314	-0.22071487
41	0xbf9d28d8	-1.227809
42	0xbea63b36	-0.3246705
43	0xbf24759f	-0.64241976
44	0xbfbc7851	-1.4724218
45	0xbf10939a	-0.5647522
46	0x3f8b4c80	1.0882721
47	0xc072c7a6	-3.7934356
48	0xc02095c5	-2.5091412
49	0x3fee55a9	1.8619891
50	0x40112f4a	2.2685113
51	0xbf227e68	-0.6347413
52	0x3eced744	0.4039861
53	0xbec31a63	-0.3810607
54	0xbe9ea8db	-0.30988201
55	0x3d4ddb37	0.050257888
56	0xbf971953	-1.1804603
57	0x3fcd48c7	1.6037835
58	0x3d47dfe6	0.04879751
59	0xbf814f59	-1.010234
60	0xbf546d9c	-0.8297975
61	0xbe0d6948	-0.13809693
62	0x402eace7	2.7293031
63	0x3ea50d03	0.3223649
64	0x3edb7f44	0.42870533
65	0x3d847a52	0.06468643
66	0xbf438a84	-0.76383233
67	0x3e5db90e	0.21652624
68	0x3fa0784f	1.2536715
69	0x3f355ce8	0.7084489
70	0x3f0c868f	0.5489282
71	0x3f8b96ae	1.0905359
72	0xbf8c7bae	-1.0975244
73	0x3ce78d32	0.02826557
74	0x3f9cc5f5	1.2247912
75	0xbfc105ad	-1.5079857
76	0x3efaa6df	0.48955438
77	0x3fa44ddc	1.2836261
78	0x3faa325e	1.3296621
79	0xbf300e86	-0.6877216
80	0xbc5b9cfa	-0.013404125
81	0xbfab1910	-1.3367023
82	0x3efc472a	0.49273044
83	0x3f2f091f	0.6837329
84	0x3eac82ae	0.3369345
85	0xbff41ab7	-1.9070653
86	0xbf1de377	-0.6167521
87	0x3ef7f706	0.4843065
88	0xbef7e3a5	-0.48415866
89	0x3f07e931	0.53090197
90	0x3f465b56	0.7748312
91	0xbf54d8fa	-0.8314358
92	0xbf1cddeb	-0.6127612
93	0x3f903ba5	1.1268202
94	0xbdce2a52	-0.10066666
95	0x3f2eceb6	0.68284166
96	0xbf1d784e	-0.61511695
97	0xbfcba288	-1.5908976
98	0x3fbb7ad9	1.4646865
99	0x3f17d728	0.5931268
100	0xbe882d09	-0.2659686
101	0x3bcbf328	0.006224055
102	0xbd07b532	-0.033131786
103	0x3f525762	0.82164586
104	0xbeca9de7	-0.39573595
105	0xbecf9477	-0.40542957
106	0xbf79b1db	-0.9753701
107	0x3f9fea94	1.2493463
108	0xbfc20a46	-1.5159385
109	0x3e5796d7	0.21053635
110	0x3f384dcf	0.71993726
111	0x3d7b7173	0.06138749
112	0xc00646c9	-2.0980704
113	0x3f159265	0.58426505
114	0xbf9577e5	-1.1677214
115	0xbf70481e	-0.9386004
116	0xbfe54dde	-1.7914388
117	0x3c974cc7	0.018469227
118	0x3f9a470a	1.2052929
119	0xbecc5d51	-0.39914945
120	0xbe95e829	-0.29278687
121	0x3f78944e	0.97101295
122	0x3fe1a7d7	1.7629346
123	0x3f86344c	1.048471
124	0x3f6d680b	0.9273688
125	0x3f972fb4	1.1811433
126	0xbee38ff5	-0.44445768
127	0xbf997da0	-1.1991463
128	0xc0055221	-2.0831378
129	0xbf23e7b1	-0.6402541
130	0x3f5a893b	0.8536565
131	0x3deae086	0.11468606
132	0xbffe2b41	-1.985695
133	0xc00ec670	-2.2308617
134	0x3e844435	0.25833288
135	0xbe8ecd2c	-0.2789091
136	0x400e5e6a	2.2245126
137	0x40507552	3.2571607
138	0x3f41ab43	0.7565195
139	0x3e0a65a3	0.13515334
140	0xbd999525	-0.0749915
141	0xbea22d88	-0.31675363
142	0xbe64919f	-0.22321175
143	0x3f26d23d	0.6516455
144	0x4031fa99	2.7809203
145	0x404ea983	3.2290962
146	0xbfe400f2	-1.7812788
147	0x407a6a2d	3.9127305
148	0x40771d8f	3.861179
149	0xc047a5fd	-3.1195061
150	0x3f100a55	0.56265765
151	0xbeef200f	-0.46704146
152	0xbf37c949	-0.7179151
153	0xbf5681aa	-0.837916
154	0x3fa36642	1.2765582
155	0xbe87d1aa	-0.26527148
156	0xbdbe92be	-0.093053326
157	0xbfa7437d	-1.3067471
158	0x3ef3c036	0.47607583
159	0x3e93fdd7	0.28904602
160	0xbf5c2273	-0.85990065
161	0x3f8a8f4a	1.0824978
162	0xbbe2c2dd	-0.006920202
163	0x3ead12ae	0.33803314
164	0xbebd1c6e	-0.36935753
165	0x3f8d4435	1.103644
166	0xbfeca3cd	-1.8487488
167	0xbff0979e	-1.879627
168	0xbf4a4a82	-0.7901994
169	0x401751e1	2.3643725
170	0xbf4084fa	-0.75202906
171	0xbf9f5af3	-1.244963
172	0xbc9c9be2	-0.0191173
173	0xbf6343d4	-0.8877537
174	0x3f026a55	0.509435
175	0xbfcd4468	-1.6036501
176	0x3fcb57ba	1.5886147
177	0x3eafcae9	0.34334496
178	0xc021035f	-2.5158308
179	0x3f9e6380	1.2374115
180	0xbf8e1594	-1.1100335
181	0xbe3d4252	-0.1848233
182	0xbed60ac2	-0.41805083
183	0x3f3fcebe	0.7492484
184	0xbf57249d	-0.8404024
185	0x3fb505f7	1.4142445
186	0xbf139e79	-0.57663685
187	0x3edcdb23	0.43135938
188	0x40034327	2.0509737
189	0x3f8b4cbf	1.0882796
190	0xbee3f485	-0.4452249
191	0x3fcfa66b	1.6222662
192	0xbfb49708	-1.4108591
193	0xbe174792	-0.14773396
194	0x3f26465a	0.649511
195	0x3f406a8c	0.7516258
196	0x3f1f3b23	0.6219961
197	0x3f85d418	1.0455351
198	0x3e2228dc	0.15835899
199	0xbeb3b1ad	-0.35096493
200	0xbec213f9	-0.37905863
201	0xbf86d15d	-1.0532643
202	0xbf17a908	-0.59242296
203	0x3f175885	0.59119445
204	0x3f1e4fb9	0.618404
205	0xbeb2c7dc	-0.34918106
206	0xc008a824	-2.1352625
207	0xbf9ee688	-1.2414103
208	0xbf88a0a2	-1.0674021
209	0x3f57c792	0.84288895
210	0xbf99a64c	-1.2003875
211	0x3f39cd64	0.72579026
212	0x3eb6ce17	0.3570411
213	0xbfac3ba6	-1.3455703
214	0xc0064b3c	-2.098342
215	0x3e86d151	0.2633157
216	0x3f59e9a1	0.85122114
217	0xbe2b681f	-0.16738938
218	0x3d5287e6	0.051399134
219	0xbe66f0d7	-0.2255281
220	0xbdfc432f	-0.12317502
221	0x3ed96fd1	0.42468122
222	0x3fab690f	1.3391436
223	0xbfbb5080	-1.4633942
224	0xbebb5ca4	-0.36594117
225	0x4032eb20	2.795601
226	0xbf91303d	-1.1342846
227	0xbfbb75ca	-1.4645321
228	0xbef7be02	-0.48387152
229	0x3e0df3e5	0.1386257
230	0x3f9e0571	1.234541
231	0xbf5a35b4	-0.85238194
232	0xbe42fce9	-0.1904179
233	0x401b0550	2.4221992
234	0x3f83c4ab	1.0294393
235	0xc04e3a4c	-3.2223082
236	0xbfba91f9	-1.4575797
237	0x3eff934d	0.4991707
238	0xbdc883a3	-0.09790733
239	0x3f5939e6	0.8485397
240	0xc0299f9c	-2.6503668
241	0x403e2e8d	2.9715912
242	0xbfb44936	-1.4084842
243	0xbeccfc59	-0.40036276
244	0xbe5a10b1	-0.2129543
245	0x3fd0f020	1.632328
246	0x3f551a5c	0.83243346
247	0xbf9fea83	-1.2493442
248	0xbfa7bf1b	-1.3105196
249	0x3f8477c7	1.0349053
250	0x3fa2297b	1.2668909
251	0xbf9ed761	-1.2409478
252	0x4008a173	2.134854
253	0xbd353add	-0.04424559
254	0xbda7f5e6	-0.08201198
255	0x3faba2e1	1.3409082

embedding_item_MF.weight f4 [1889, 32]
0	0xbfb9443a	-1.4473946
1	0xbf1705d8	-0.5899329
2	0xbf709e85	-0.9399188
3	0xbf15793c	-0.58388114
4	0xbf76930b	-0.9631812
5	0xbfa1ccb4	-1.2640595
6	0xbfb00ca7	-1.3753861
7	0xbfbdb704	-1.4821477
8	0x3e1025e2	0.14076951
9	0xbfbb170f	-1.4616412
10	0xbf7d432b	-0.98930615
11	0x3fcee066	1.6162231
12	0x40172012	2.3613324
13	0x3ed7669d	0.42070475
14	0x3f623e37	0.8837618
15	0xc021c972	-2.5279202
16	0xc04961ef	-3.1466024
17	0x3f3e2a54	0.7428334
18	0x3f00f94c	0.50380397
19	0xbf9ac844	-1.2092366
20	0x3fad064e	1.3517549
21	0xbd2619a8	-0.04055181
22	0x3fb5f55b	1.4215502
23	0xbff88d47	-1.9418114
24	0x3fb0c808	1.3811045
25	0x3f8bb2ea	1.0913975
26	0xbeef1153	-0.46692905
27	0x3f7a3d09	0.9774938
28	0xbec29e8d	-0.3801159
29	0xbec701ec	-0.38868654
30	0x3f403829	0.75085694
31	0xbf82fb98	-1.023303
32	0x3f6ca36f	0.9243688
33	0xbfdf17d3	-1.7429146
34	0xbf8000f4	-1.0000291
35	0x3f0ac226	0.54202497
36	0x3e6601c5	0.22461613
37	0x3ed4bde7	0.41551134
38	0xbfae3739	-1.3610603
39	0xbe9803bc	-0.2969035
40	0x3ddcdf99	0.10784835
41	0x3f41a99e	0.7564944
42	0xbfac2c57	-1.3451031
43	0xbf35bb6e	-0.7098912
44	0x3fdd845c	1.7306018
45	0xbfe76d31	-1.8080198
46	0xc0055114	-2.0830736
47	0x3f073a9f	0.52823824
48	0x3ee70bcc	0.45126188
49	0xbf144c1c	-0.57928634
50	0xbf58f416	-0.84747446
51	0x3c87b9e4	0.016568132
52	0xc00764ef	-2.1155355
53	0x3feb5661	1.8385736
54	0xbd6ae8ec	-0.057351038
55	0xbf993d31	-1.1971799
56	0x3edf9109	0.4366534
57	0x402b6386	2.6779494
58	0x3ef13454	0.47110236
59	0x3f04395e	0.51650035
60	0xbe2f5fb2	-0.17126349
61	0xbd4e55c7	-0.050374772
62	0xbf24ff7f	-0.64452356
63	0x3f56a7b8	0.8384967
64	0x3f99c634	1.2013612
65	0xbfb8202d	-1.4384819
66	0x3f4a1ecd	0.7895325
67	0xbd9754a6	-0.07389192
68	0x400033d5	2.0031636
69	0xbff0d276	-1.8814228
70	0x3f9551fc	1.1665645
71	0xbe748d59	-0.23882045
72	0xbeb3623f	-0.35035893
73	0x3ffaf6ed	1.9606606
74	0x3f10626a	0.5640017
75	0x3f516fb4	0.8181107
76	0x3daf258d	0.08552084
77	0x3e92c829	0.28668335
78	0xbf17e728	-0.5933709
79	0x3f3d8a64	0.7403929
80	0x3f4c2865	0.7974914
81	0xc045756c	-3.0852919
82	0xbe6ac696	-0.22927317
83	0xbf75b807	-0.9598393
84	0x4001f3e1	2.0305102
85	0xc00fbe67	-2.2459962
86	0x3fa72805	1.3059088
87	0xc014fcc6	-2.327928
88	0x3e188ca5	0.14897402
89	0x3f60f176	0.8786844
90	0x3f9b095e	1.2112234
91	0x3f97e9b7	1.1868199
92	0x3f0642af	0.524455
93	0x4032f713	2.7963302
94	0x3e74f80b	0.23922746
95	0x3ecee368	0.40407872
96	0x3c0b3d86	0.008498555
97	0x3f3134f8	0.6922145
98	0x3d33dbbe	0.043910734
99	0xbe129bfe	-0.14317319
100	0x3d2e315e	0.04252755
101	0xbfc40253	-1.5313209
102	0x3e5ea013	0.21740751
103	0x3e0199a2	0.12656263
104	0x3ffdaf17	1.9819058
105	0x3fdcddc7	1.7255181
106	0xbf23a721	-0.63926893
107	0x3fe07480	1.7535553
108	0xbc98ef2d	-0.018668735
109	0xc003bb78	-2.0583172
110	0xbf0eb8b7	-0.557506
111	0xbefe748d	-0.49698296
112	0x3ee34985	0.44392028
113	0x3e065450	0.131181
114	0xbd301312	-0.042986937
115	0xbe57a861	-0.21060325
116	0x3eeae956	0.45881146
117	0xbf8e35f8	-1.111022
118	0xbf28f73b	-0.66002244
119	0x3fa8277a	1.3137047
120	0xc04a188e	-3.1577487
121	0xbdf6e082	-0.1205454
122	0xc0319a2f	-2.7750356
123	0x3e2628a8	0.16226447
124	0x40378c00	2.86792
125	0xc0417389	-3.0226767
126	0x3e6905bd	0.22756095
127	0x3fa986fa	1.3244317
128	0xbf5603cc	-0.83599544
129	0x4007aa3c	2.1197653
130	0x3e3c0291	0.18360354
131	0x3fba0fcc	1.4536071
132	0x3f93d13f	1.1548232
133	0xbfce2884	-1.6106114
134	0xbfa15ac7	-1.2605828
135	0xbe30ed83	-0.17278104
136	0x3ebf7a1c	0.3739785
137	0x3ea6280a	0.32452422
138	0x3fda9efc	1.7079768
139	0xbf34f3f2	-0.7068473
140	0x3eace55b	0.33768734
141	0x4080edc1	4.0290227
142	0xc041a499	-3.0256712
143	0x3f3efe11	0.74606425
144	0xbf03e3bc	-0.5151937
145	0xbfed5220	-1.8540688
146	0x3f0b7f17	0.544908
147	0x3eddb746	0.4330389
148	0xbeea744a	-0.45791847
149	0xbe960ce5	-0.29306713
150	0xbeb62859	-0.35577658
151	0xbef8127f	-0.4845161
152	0x3e109e70	0.14122939
153	0x3eba8718	0.36431193
154	0x3f4e649c	0.8062227
155	0xbe55b81e	-0.20871016
156	0x3f299969	0.6624971
157	0xc02f61c3	-2.740342
158	0xbf0fadef	-0.56124777
159	0x3fabd4bc	1.3424296
160	0x3f03e915	0.5152753
161	0xbf3733b7	-0.71563286
162	0xbf37c977	-0.71791786
163	0xbf8301c6	-1.0234916
164	0xbedbaf8f	-0.42907378
165	0x3fe9827f	1.8242949
166	0x3d864ac4	0.06557229
167	0xbf951c43	-1.164925
168	0x3fffbac8	1.9978876
169	0x3fe2fd03	1.7733463
170	0xbf79f532	-0.97639763
171	0x3ec0b2e4	0.37636483
172	0xbeeacfe0	-0.4586172
173	0x40148722	2.3207479
174	0xbfe9ca44	-1.8264852
175	0x3efece50	0.4976678
176	0xbde7b8e9	-0.11314566
177	0x3f8c0e62	1.0941889
178	0xbf48ca0b	-0.78433293
179	0xbe7ad916	-0.24496874
180	0xbecbc594	-0.39799178
181	0x3f88c756	1.0685833
182	0xbf387e42	-0.72067654
183	0x3f620e38	0.88302946
184	0xbf73199f	-0.9496097
185	0x401de165	2.466882
186	0xbfc6d821	-1.5534707
187	0xbf0cc456	-0.54987085
188	0x3d73916b	0.059464853
189	0x3d74c88a	0.05976156
190	0x3f6e5d17	0.93110794
191	0xbf145fbb	-0.57958573
192	0xbef15e2b	-0.47142157
193	0xbf14006e	-0.57813156
194	0xbfa23eb3	-1.2675384
195	0xc0109dc0	-2.2596283
196	0x3e62b04f	0.22137569
197	0x3fc84159	1.5644943
198	0xbed55401	-0.41665652
199	0x3f1b8c9e	0.6076144
200	0x3ea8b0bf	0.32947347
201	0xbfd1d0ba	-1.6391823
202	0x3f7c1077	0.98462623
203	0xbeaf5c5d	-0.34250155
204	0x3ff5188b	1.9148115
205	0xc0314450	-2.7697945
206	0x3e73c440	0.23805332
207	0x3ea5d09b	0.32385716
208	0x3ee10c7a	0.4395483
209	0xc00a1fe5	-2.1581967
210	0xbf8744b5	-1.0567843
211	0xbf4ccce8	-0.8000016
212	0xbf96543e	-1.1744459
213	0xbece21cc	-0.4026016
214	0x3e926229	0.28590515
215	0x3f0a5b48	0.54045534
216	0xbd30053c	-0.042973742
217	0x3f72ea89	0.9488912
218	0x3f8cea1c	1.1008945
219	0xbfa071ab	-1.2534689
220	0x3e8a4536	0.2700593
221	0x3d8c07d7	0.06837433
222	0xbf9ccba9	-1.2249652
223	0xbe1a307a	-0.15057555
224	0xc044c927	-3.0747774
225	0x3fa64755	1.2990519
226	0xc00f6793	-2.2406967
227	0xbfa4dcd5	-1.2879893
228	0x3f7a300b	0.9772956
229	0x3efc8254	0.49318182
230	0xbf20c7b3	-0.62804717
231	0x3f545a22	0.8295003
232	0x3f0a1aea	0.5394732
233	0x400dffea	2.2187448
234	0xbe16b3ba	-0.14716998
235	0x3e8a6f23	0.27037916
236	0xbfdccb6f	-1.7249583
237	0x3f55e529	0.83552796
238	0x3e2fb0dc	0.1715731
239	0xbfcb7e1c	-1.589786
240	0xbf279397	-0.6545958
241	0xbfb018a8	-1.3757524
242	0xbede27e0	-0.43389797
243	0x3f005fb8	0.50146055
244	0x3ec67d7f	0.3876762
245	0x3f7f49da	0.99722064
246	0xbfab3ae0	-1.3377342
247	0x3ec06f8c	0.37585104
248	0xbeecb67d	-0.46232978
249	0x3eb6b111	0.35681966
250	0x3d9c01b9	0.07617516
251	0x3f121887	0.57068676
252	0x3f3698a4	0.7132666
253	0xbbbfef2b	-0.0058573685
254	0xc0216687	-2.5218828
255	0xbfa6ba76	-1.3025653

embedding_user_MLP.weight f4 [51, 32]
0	0xbfb717d5	-1.4304148
1	0x3fb35a3f	1.4011916
2	0xbeb6ee06	-0.35728472
3	0xbf881dbf	-1.0634078
4	0x3eab2f4b	0.3343452
5	0xbf2eccc8	-0.6828122
6	0xbf154771	-0.58312136
7	0xbf96cfb4	-1.1782136
8	0x3fc40975	1.5315386
9	0xbfe69d85	-1.8016821
10	0xbe719fe4	-0.2359615
11	0xbf2f5b7d	-0.68498975
12	0xbdbe2b30	-0.09285581
13	0xbfac1313	-1.3443321
14	0x3fce7bd7	1.6131543
15	0xbf848142	-1.0351946
16	0x3e662e8d	0.22478695
17	0x3e06086d	0.13089152
18	0xbe5e4004	-0.21704108
19	0x3eeeb1a6	0.4661991
20	0xbe9fe6bf	-0.31230733
21	0xbf95cd33	-1.1703247
22	0x3f9c3c32	1.220587
23	0xc00f9263	-2.2433097
24	0xbf328f71	-0.69750124
25	0x3f3af335	0.73027354
26	0x3e19d59b	0.1502289
27	0xbedb1439	-0.42788866
28	0xbd57bc33	-0.052669715
29	0xbf336592	-0.7007686
30	0x3e4eb0e6	0.20184669
31	0x3df2aa1e	0.118488535
32	0x3f16d96e	0.5892552
33	0xbed1f4b6	-0.41007012
34	0xbf6294d5	-0.8850835
35	0x3d3f2df9	0.046674702
36	0x3e7a334a	0.24433628
37	0x3ec9e18c	0.3942989
38	0x3f6bc3ba	0.9209553
39	0xbfdf4ea3	-1.7445873
40	0x3efb1d87	0.49045965
41	0xbf36a4b3	-0.7134506
42	0xbf86bbd5	-1.0526072
43	0xb8f25326	-0.00011554947
44	0x3fd9ffbd	1.703117
45	0xbf9eaa7b	-1.2395777
46	0xbf78f58e	-0.97249687
47	0x3e5eb67d	0.21749301
48	0xbf5cd6f7	-0.8626551
49	0xbecd79da	-0.40132028
50	0xc0433f93	-3.0507553
51	0xbe966e0e	-0.2938084
52	0xbdb0f6f0	-0.086408496
53	0xbee66eda	-0.45006448
54	0x3f489a8a	0.7836081
55	0xbdd7958d	-0.105265714
56	0xbf9662e1	-1.1748925
57	0xbeaeb2d2	-0.34120804
58	0x3fa28a54	1.2698464
59	0xbef3a124	-0.47583878
60	0x3f5cb2a4	0.86210084
61	0x3ecd489d	0.40094462
62	0xbf987dda	-1.1913407
63	0x3fea7abe	1.8318708
64	0x3f98edef	1.1947612
65	0x3f29da9e	0.6634921
66	0x3fa54e54	1.2914529
67	0x3eba9dc8	0.36448503
68	0x3f68ba9b	0.9090974
69	0x3f82acdd	1.0209004
70	0xbfef3dca	-1.8690732
71	0x3f8c4926	1.0959823
72	0xbe2de728	-0.1698271
73	0x3f675e2f	0.9037809
74	0xbfeb432f	-1.8379878
75	0xbe54f923	-0.20798163
76	0x3e82f839	0.25580004
77	0x3f4080d7	0.75196594
78	0x3f4518a3	0.7699072
79	0xbed3dade	-0.4137792
80	0x3ed41499	0.41421965
81	0x3fd03d28	1.6268663
82	0xbf75cf79	-0.96019703
83	0x3f2f8591	0.6856318
84	0x402fc679	2.7464888
85	0x3f33e7fc	0.70275855
86	0x3f4c7589	0.79866844
87	0xbf85f203	-1.0464481
88	0x3ee14b03	0.44002542
89	0x3ea3e8ca	0.3201354
90	0x3f8343de	1.0255086
91	0xbe493657	-0.19649635
92	0x4001e166	2.0293822
93	0x3dbb59a7	0.09147959
94	0x3f637f2e	0.88865936
95	0x3f9b6feb	1.214353
96	0xbf2ab894	-0.66687894
97	0xbec3a3b4	-0.38210833
98	0xbebea770	-0.3723712
99	0x3d8bb109	0.06820876
100	0xbf62303c	-0.8835485
101	0xbea0da8a	-0.31416732
102	0xbe2e47e4	-0.17019612
103	0xbf84e87f	-1.0383452
104	0x3d9b89be	0.075946316
105	0x3ed04392	0.40676552
106	0x3ebcfa10	0.36909533
107	0xbff0e0b6	-1.8818576
108	0xbf1e78e1	-0.61903197
109	0xbf01aa14	-0.50650144
110	0x3f76e84e	0.9644822
111	0xbf32e804	-0.6988528
112	0x3f235405	0.6380008
113	0x3eeef807	0.46673605
114	0xbf8eaf5d	-1.1147267
115	0x4005b65d	2.0892556
116	0x3fa2d549	1.272134
117	0xbe934bf9	-0.287689
118	0x3f3a7fb6	0.7285112
119	0x3ef0c323	0.47023878
120	0xbea5f942	-0.3241673
121	0xbebfb65a	-0.3744381
122	0xbf58eac2	-0.8473321
123	0x3d8b27a6	0.06794672
124	0xbd3dfa90	-0.046381533
125	0xbe36e59d	-0.17861028
126	0xbfd3ec83	-1.6556553
127	0xbf29d2f1	-0.66337496
128	0x3f1aa258	0.60403967
129	0xbe7f8cc1	-0.24956037
130	0x3fa53094	1.290545
131	0x401aa61a	2.416388
132	0x3fefe3e0	1.8741417
133	0xbf3555b0	-0.70833874
134	0x3e27a106	0.1637002
135	0xbfc74a75	-1.5569597
136	0xbf15754f	-0.58382124
137	0x3e99a76b	0.30010542
138	0x3fbcef29	1.4760486
139	0x3ff677dd	1.9255329
140	0xbdd13997	-0.102160625
141	0xbe4a480a	-0.19754043
142	0x3eb54c04	0.35409558
143	0x3faa7d15	1.3319422
144	0x3f92ac58	1.1458845
145	0x3f9d1139	1.2270881
146	0x3ea973cf	0.33096167
147	0x3f88c8d6	1.068629
148	0xbf4b7d2a	-0.7948786
149	0x402ad3b2	2.6691709
150	0x3d6a3dee	0.057187967
151	0x3f773930	0.96571636
152	0xbf0d888c	-0.5528648
153	0x3ed9fbba	0.42574865
154	0xbe202a09	-0.15641035
155	0x3f126dd5	0.5719884
156	0x3f4245e5	0.758879
157	0x3f8a99d7	1.0828198
158	0x3eeb5c86	0.45969027
159	0x3edc1039	0.42981127
160	0xbea75f69	-0.3268998
161	0x3fb64b1a	1.4241669
162	0x3fd084e2	1.6290553
163	0x3f0aec00	0.5426636
164	0x3f84885f	1.0354117
165	0xbf855833	-1.0417541
166	0x3f5871a0	0.8454838
167	0xbe806ef0	-0.2508464
168	0xbeb762e8	-0.35817647
169	0xc043705a	-3.0537324
170	0xbe98a8c4	-0.29816258
171	0x3f86ea54	1.0540261
172	0x3e8fb9bd	0.28071395
173	0x3fa1e7ad	1.2648827
174	0x3f062786	0.5240406
175	0xbf8f31b6	-1.1187046
176	0x3f809673	1.0045913
177	0xbeacd634	-0.33757174
178	0xbfb83b5c	-1.4393115
179	0x3f81b66d	1.0133797
180	0xbfed2bf1	-1.8529035
181	0xbf3f514a	-0.7473341
182	0xc0451175	-3.0791905
183	0xbf910066	-1.1328247
184	0xbec2abc5	-0.38021675
185	0xc017771b	-2.3666446
186	0x40454808	3.0825214
187	0x3fc04393	1.5020622
188	0x3d7f90e9	0.062394056
189	0xc000cef3	-2.0126312
190	0x3eb3984a	0.35077125
191	0x3ee28ad0	0.4424653
192	0x3e977951	0.29584745
193	0xbf6e3fd3	-0.9306614
194	0x3f650a71	0.8946906
195	0xbf40715d	-0.7517298
196	0x3f1c8a0a	0.6114813
197	0xbf4cdf1b	-0.8002793
198	0xbf9ab34a	-1.2085965
199	0x3f98ae84	1.1928258
200	0xbf72a2bb	-0.94779557
201	0x3f19caad	0.60074884
202	0xbf258827	-0.64660877
203	0xbd6b8912	-0.057503767
204	0xc0236ec4	-2.5536356
205	0x3ec584fd	0.38578025
206	0x3f6949d9	0.9112831
207	0xbf0ed880	-0.557991
208	0x3e89b9aa	0.26899463
209	0x3bf5a969	0.007497002
210	0x3fbcb22f	1.4741877
211	0xbff94a1c	-1.9475741
212	0x3fbc5e2c	1.4716239
213	0x3fd29a84	1.6453404
214	0x3f9f8565	1.2462584
215	0x3f7e7fff	0.99414057
216	0xbe2124dd	-0.15736718
217	0xbfef3925	-1.8689314
218	0xbff65cae	-1.9247034
219	0xbdde8a1a	-0.108661845
220	0xbf92eeec	-1.1479163
221	0x3f85a519	1.0441009
222	0xbf06c64b	-0.5264632
223	0x3f3a69f5	0.7281793
224	0xc008f474	-2.1399202
225	0xbf830ff5	-1.0239245
226	0xbeae67f3	-0.34063682
227	0x3fc7ef8a	1.5619977
228	0x3fc9f459	1.5777694
229	0x3fb6b70c	1.4274611
230	0x3fc4781e	1.5349157
231	0xc0061777	-2.0951822
232	0xbfc75ffb	-1.5576166
233	0x3f2f70f8	0.6853175
234	0x3ea64739	0.32476214
235	0xbe8e1d37	-0.27756664
236	0xbfaf9981	-1.3718721
237	0xc015a06d	-2.3379166
238	0x3fa1c2c4	1.2637563
239	0x3f742ef4	0.95384145
240	0xbd856e0a	-0.06515129
241	0xbf6a3231	-0.91482836
242	0xbfa8f986	-1.3201149
243	0x3f2a78fc	0.6659086
244	0xbf18fddb	-0.5976235
245	0x3f5e7ea9	0.8691202
246	0xbf06d7a4	-0.5267279
247	0x3fcec551	1.6153966
248	0xbfba572c	-1.4557853
249	0xbee38411	-0.44436696
250	0xbf4fa453	-0.81110114
251	0xbe65e640	-0.22451115
252	0xbf43ffc5	-0.7656215
253	0xbf5cb3ad	-0.86211663
254	0x3ed77eee	0.42089027
255	0xbfc0d0d0	-1.5063725

embedding_item_MLP.weight f4 [1889, 32]
0	0x401f2964	2.4869013
1	0x400bc49b	2.1838748
2	0x3e848e61	0.25889876
3	0xc00f50e2	-2.2393117
4	0x3f25f602	0.64828503
5	0xbe8f571a	-0.2799614
6	0x3fb4dbc4	1.4129567
7	0xbdc49cc4	-0.09600213
8	0x3f579682	0.8421403
9	0xbd14662c	-0.03623025
10	0xbee60dda	-0.44932443
11	0xbe323c66	-0.17405853
12	0xc03a97ca	-2.9155145
13	0x3f6048fe	0.8761138
14	0xbf0edee9	-0.55808884
15	0xbfcfa611	-1.6222554
16	0x3faf1dda	1.3680985
17	0x3fceeda0	1.6166267
18	0xbf593f12	-0.8486186
19	0x3f2adfb4	0.66747594
20	0x3da14e91	0.078763135
21	0xbf8aa863	-1.0832638
22	0x3f197869	0.59949356
23	0x3f4308ce	0.7618531
24	0xbe3f7f39	-0.18700875
25	0xc00254cb	-2.0364254
26	0x3e441f51	0.19152571
27	0xbf5ce179	-0.86281544
28	0x3f2cfebe	0.67576206
29	0x4001db65	2.0290158
30	0xbf63c88e	-0.889779
31	0x3f602663	0.87558573
32	0x3e45ca0e	0.19315359
33	0x3f094da2	0.53634083
34	0x3f7f22ab	0.99662274
35	0xbf017d22	-0.5058156
36	0xbfb8a655	-1.442576
37	0xbe506b36	-0.20353398
38	0x3fb81b56	1.4383342
39	0x3fd762cf	1.6827029
40	0xc0335616	-2.8021293
41	0x3e92a7d9	0.28643683
42	0xbf6c32f7	-0.92265266
43	0x3e6561a0	0.22400522
44	0xbfb5537e	-1.4166105
45	0x3e844758	0.2583568
46	0x3fcad33c	1.5845714
47	0xbf39d409	-0.72589165
48	0xbd8c4c74	-0.0685052
49	0xbf45cd85	-0.7726672
50	0x3fc27170	1.5190868
51	0xbee65532	-0.44986874
52	0xbe39799a	-0.18112794
53	0x3ea480f2	0.32129627
54	0xbf2ca6b7	-0.67441887
55	0xbf2b52e1	-0.6692334
56	0x3f5cb65a	0.86215746
57	0xbe7ed83a	-0.24887171
58	0x3fa84768	1.3146791
59	0xbeb50d07	-0.35361502
60	0xbf21b82f	-0.63171667
61	0x3f8e3905	1.1111151
62	0x3eed6575	0.46366468
63	0xbc091835	-0.008367588
64	0xbed13b9c	-0.4086579
65	0x3f27f6ef	0.65611166
66	0x3f893ea1	1.0722238
67	0xbf876f05	-1.0580755
68	0x3f940119	1.1562835
69	0x4006962b	2.1029155
70	0x3fce864a	1.6134732
71	0x3f883683	1.0641636
72	0x3ea55739	0.32293108
73	0xbf8c8aee	-1.0979898
74	0x40243c7c	2.5661917
75	0xbf21ce4c	-0.6320541
76	0x3f108fa9	0.5646921
77	0x3f182f99	0.5944763
78	0xbf14abd1	-0.5807467
79	0x3f976fc3	1.1830982
80	0x3cd75ebd	0.026290292
81	0x3f58fb42	0.8475839
82	0x3f88844f	1.0665377
83	0xc031a2e2	-2.7755666
84	0x3db1b796	0.08677594
85	0x3ebccf91	0.3687711
86	0xbf27b495	-0.6550992
87	0xbf3b5772	-0.73180306
88	0x3f80a8b4	1.0051484
89	0xbf04c91e	-0.5186938
90	0x3fb13d0e	1.3846757
91	0x3d131157	0.03590521
92	0x3f2549b8	0.6456561
93	0xbe9b1953	-0.30292758
94	0xbf47960d	-0.77963334
95	0xbec912a2	-0.39272028
96	0x3ff05185	1.8774878
97	0xbe55b0c8	-0.20868218
98	0xbfa23373	-1.2671951
99	0x3f0a6386	0.5405811
100	0x3e48e4f6	0.19618592
101	0xbfbd14d4	-1.4771981
102	0x3f52cff7	0.8234858
103	0x3f5de51e	0.8667773
104	0xbedb5b1c	-0.42842948
105	0x3f2d01ee	0.6758107
106	0xbfd03ff5	-1.6269518
107	0x3f34954b	0.70540303
108	0x3e4d122f	0.20026468
109	0xbf0a426a	-0.5400759
110	0xbf32f571	-0.69905764
111	0xbeec351e	-0.46134275
112	0x3eb519cf	0.35371253
113	0x3e98d166	0.29847258
114	0xbea87bb8	-0.3290689
115	0x3fd6d71a	1.6784394
116	0xbfde50c0	-1.7368393
117	0xbeb7996a	-0.35859233
118	0xbf8da1b3	-1.1064972
119	0x3d11f473	0.035633516
120	0xc036c6f8	-2.855894
121	0x3ed8b6c9	0.42326954
122	0xbe5f00a3	-0.21777587
123	0x3fa645b2	1.2990019
124	0xbf9f200c	-1.2431655
125	0x3e958ffb	0.2921141
126	0xbf370ebc	-0.7150686
127	0xbf85c789	-1.0451518
128	0x3f838fbc	1.0278239
129	0xbf7b846b	-0.9824893
130	0xbfc8bfa2	-1.5683482
131	0xbf9878b5	-1.1911837
132	0x3faacde4	1.3344083
133	0xbdc069ec	-0.09395203
134	0x3f81d337	1.0142583
135	0xbf22520c	-0.63406444
136	0x4025e33c	2.5919943
137	0xbffc7175	-1.9722124
138	0xbf13ef56	-0.5778707
139	0xbec652ca	-0.38735038
140	0xbef0d6ad	-0.47038785
141	0xbfb62cc0	-1.4232407
142	0x3e1bfb37	0.1523255
143	0xbfa2ce2d	-1.271917
144	0xbd0f37cd	-0.034965325
145	0xbf2a2f43	-0.66478366
146	0xbf2ec90f	-0.6827554
147	0xbfdcc934	-1.7248902
148	0xbe02f40f	-0.12788413
149	0xbf89b86b	-1.0759405
150	0xc0280d4e	-2.625812
151	0x3e9b335f	0.3031263
152	0xbf33ff32	-0.7031127
153	0xc0044365	-2.0666134
154	0xbf636310	-0.8882303
155	0x3fa10a91	1.258135
156	0xbf89f7b4	-1.0778718
157	0xbf5a99ac	-0.85390735
158	0x3e3532be	0.17695138
159	0x3faee605	1.3663946
160	0xbf4bfd7a	-0.7968365
161	0x3dff2bff	0.124595635
162	0xbfdc5ac5	-1.7215201
163	0xbfb4499a	-1.4084961
164	0x3e92b439	0.28653124
165	0x3fe6eb90	1.8040638
166	0x3fac2664	1.3449216
167	0xbdc58003	-0.09643557
168	0x3e9eae7a	0.3099249
169	0x3c6376d6	0.013883313
170	0xbf448215	-0.7676099
171	0xbf537282	-0.825966
172	0x402801aa	2.6251016
173	0xbebf6392	-0.37380654
174	0xbe8ac0b4	-0.27100146
175	0xbf4429d4	-0.76626325
176	0x3f934931	1.1506711
177	0x3f63840e	0.88873374
178	0x4007b3c9	2.1203482
179	0xbf27bb14	-0.65519834
180	0x3eb18ebb	0.34679207
181	0x3fab179d	1.3366581
182	0xbee5dfd7	-0.4489734
183	0x3ff819ae	1.9382837
184	0x3f72b8a5	0.94812995
185	0x3f81302b	1.0092825
186	0x3f38609f	0.7202243
187	0xbf44cefe	-0.76878345
188	0xbf0444ce	-0.5166749
189	0x3ee577ab	0.44817862
190	0xbf178f7b	-0.5920331
191	0x3f7ab914	0.97938657
192	0xbf5181d4	-0.81838727
193	0x3f23a765	0.639273
194	0xbfa059ce	-1.2527406
195	0x3ea040ef	0.3129954
196	0x3fe5304f	1.7905368
197	0x3fcea2b9	1.6143409
198	0x3d89a700	0.06721306
199	0xbf8082cc	-1.0039916
200	0xbe862b63	-0.26204976
201	0xbf7aa580	-0.9790878
202	0xc01e8b71	-2.4772608
203	0x3f1d20f1	0.6137839
204	0xc00336df	-2.050224
205	0x3eccdbb7	0.4001138
206	0x400d8c23	2.2116783
207	0xbdd1a7ff	-0.10237121
208	0xbfe50ec2	-1.7895129
209	0xbf7ea355	-0.99467975
210	0xbfbec887	-1.4904946
211	0x3f2a94c6	0.6663326
212	0x3e543de7	0.20726739
213	0x3f8d4008	1.1035166
214	0x40113479	2.2688277
215	0xbed16095	-0.40894
216	0xbf87aade	-1.059902
217	0xbfe3b876	-1.7790668
218	0x3f0344b7	0.51276726
219	0x3fce92f2	1.6138594
220	0x3f4e23c5	0.8052333
221	0xbd53915d	-0.0516523
222	0xbfb6989f	-1.4265326
223	0x3fc261a2	1.5186045
224	0x3f8fb615	1.1227442
225	0xbed370bb	-0.41296944
226	0xbecde327	-0.40212366
227	0xbf225dd2	-0.6342441
228	0xbd977c20	-0.07396722
229	0x3d8a9381	0.067664154
230	0xbf237356	-0.63847864
231	0xbeee8a86	-0.4659006
232	0x3e9cbc51	0.30612424
233	0xbf5febc6	-0.87469137
234	0xbe97f535	-0.29679266
235	0x4008eedb	2.1395786
236	0xbea48225	-0.32130542
237	0xc003660e	-2.053104
238	0x3f78f7a2	0.9725286
239	0xbfa0677f	-1.2531585
240	0x3f04ae07	0.51828045
241	0xbfac15ec	-1.344419
242	0x3faf27b4	1.3683991
243	0xc01dff1a	-2.4686952
244	0x3eb72300	0.3576889
245	0x3e235eca	0.15954128
246	0xbf02291c	-0.5084398
247	0xbfa6c65b	-1.3029283
248	0x3f9171c6	1.1362846
249	0xbf0ae099	-0.5424896
250	0x3fd63b56	1.6736858
251	0xc01a8fd8	-2.4150295
252	0x3f8098b6	1.0046604
253	0xbfd31101	-1.6489564
254	0x3fd32d4d	1.64982
255	0x3ebfaa45	0.37434593

fc_layers.0.weight f4 [32, 64]
0	0x3edc184e	0.42987293
1	0x3da925b8	0.082591474
2	0xbebc017c	-0.36719882
3	0xbe24f2ea	-0.1610829
4	0xbdaee9a0	-0.08540654
5	0xbf120726	-0.5704216
6	0x3e934a10	0.28767443
7	0x3f07d659	0.53061444
8	0xbe1abeb3	-0.15111808
9	0x3ed028fe	0.40656275
10	0x3e4d1718	0.20028341
11	0xbd452c75	-0.0481381
12	0x3cbbb62a	0.022914011
13	0x3eb70751	0.3574777
14	0xbeeb4514	-0.4595114
15	0xbf0e472b	-0.55577344
16	0x3eb9b686	0.36272067
17	0xbe6777e8	-0.22604334
18	0x3dac5aae	0.08415733
19	0xbe0a1766	-0.13485488
20	0x3e840693	0.25786266
21	0x3ecb066f	0.39653346
22	0x3e84ffb3	0.25976333
23	0x3e7fcb5e	0.24979922
24	0x3f4e6791	0.8062678
25	0xbea9480f	-0.3306279
26	0xbe8247b8	-0.25445342
27	0xbde1ad64	-0.110194
28	0x3e6681c8	0.22510445
29	0x3db7031b	0.08936139
30	0x3e4481a4	0.19190079
31	0x3e38e0a8	0.1805445
32	0x3f1101e1	0.5664349
33	0x3f056fd2	0.5212375
34	0x3c8180fb	0.015808573
35	0x3e8589b1	0.26081613
36	0xbeab39aa	-0.33442432
37	0xbf0a4f10	-0.5402689
38	0xbcd5acf4	-0.026083447
39	0x3d30d2cb	0.043169778
40	0x3f6a9c9c	0.91645217
41	0x3eaa08af	0.3320975
42	0x3f0e9f89	0.5571218
43	0xbe7f4ac6	-0.24930868
44	0x3f00b116	0.5027021
45	0xbf1125b9	-0.56698185
46	0x3e6e7c22	0.2328954
47	0x3f3a6b1e	0.728197
48	0xbdaa7b1f	-0.08324265
49	0xbd11d56a	-0.035603918
50	0xbccc0e6e	-0.024909224
51	0x3f012ea7	0.5046181
52	0x3c38298f	0.011240377
53	0xbd53b504	-0.0516863
54	0xbf126608	-0.5718694
55	0xbe77e29c	-0.24207538
56	0xbe95904b	-0.2921165
57	0xbe98ff88	-0.29882455
58	0xbea5f9e2	-0.32417208
59	0x3f147d4b	0.5800368
60	0xbea333b4	-0.31875384
61	0x3ec6e30b	0.38845095
62	0x3e5e003f	0.21679781
63	0xbee4dcc9	-0.44699696
64	0x3e55ffb2	0.20898321
65	0xbe4923fe	-0.19642636
66	0xbee47c36	-0.44626015
67	0x3e0a3934	0.13498384
68	0x3e8b2cdc	0.27182662
69	0x3e4de70a	0.20107666
70	0xbeb85478	-0.36001945
71	0xbdb5b959	-0.08873243
72	0xbe34275f	-0.17593144
73	0x3f21450c	0.6299598
74	0x3e395479	0.1809863
75	0x3aa3b2bf	0.0012489184
76	0xbe9e41ca	-0.30909568
77	0xbead25de	-0.33817953
78	0xbe75b945	-0.23996456
79	0xbdaf6d26	-0.0856574
80	0x3d345bb9	0.044032786
81	0xbd1385a3	-0.036016118
82	0xbc3bdf69	-0.011466839
83	0x3d83db0e	0.06438266
84	0x3d71ed26	0.059064053
85	0xbe894c7d	-0.26816168
86	0x3d8cddd9	0.068782516
87	0x3c92c95f	0.017918287
88	0xbe64c45b	-0.22340529
89	0xbd2d6c7d	-0.04233979
90	0xbe884d25	-0.26621357
91	0xbe86e593	-0.26347026
92	0x3e587b86	0.2114087
93	0x3f128a5e	0.5724238
94	0x3eb121aa	0.34595996
95	0x3ec0ff7e	0.37694925
96	0xbdba0547	-0.09083038
97	0x3eacb615	0.33732668
98	0xbe771e6d	-0.241327
99	0x3eba2ac6	0.3636076
100	0xbf040897	-0.5157561
101	0x3e17abeb	0.14811675
102	0xbf0618c5	-0.52381545
103	0xbf1932ce	-0.59843147
104	0xbdf26637	-0.11835902
105	0x3eeb0804	0.45904553
106	0x3edac0d8	0.42725253
107	0xbfa808cb	-1.3127683
108	0x3ecdf749	0.40227726
109	0xbe356fc9	-0.17718424
110	0x3f2c7f79	0.6738201
111	0x3d8a7593	0.06760707
112	0xbe57fd9a	-0.21092835
113	0xbbd42177	-0.006473716
114	0x3f22c9b7	0.6358904
115	0x3e0e0587	0.13869296
116	0x3f41f7e8	0.757689
117	0x3ea55585	0.3229181
118	0x3edfc869	0.43707588
119	0xbf009e24	-0.50241303
120	0x3e0a81f9	0.13526143
121	0x3e5585c7	0.20851813
122	0x3d913013	0.070892476
123	0x3ee2d7ff	0.44305417
124	0x3e37f35d	0.1796393
125	0xbec38650	-0.3818841
126	0x3ebfabdc	0.37435806
127	0x3ed3ae87	0.4134409
128	0xbdb0b307	-0.08627897
129	0x3d3821ac	0.044953987
130	0xbeb11cd6	-0.34592313
131	0x3e0bbce4	0.13646275
132	0x3eb65cb1	0.35617593
133	0xbe668e4c	-0.2251522
134	0x3db3967e	0.087689385
135	0xbefc554f	-0.49283835
136	0x3e3e0445	0.18556316
137	0x3e9a1262	0.3009215
138	0x3ebc2036	0.36743325
139	0x3d27dafb	0.04098032
140	0xbdb7b0b5	-0.08969251
141	0xbed58cb1	-0.41708902
142	0xbeef524e	-0.4674248
143	0x3e806353	0.25075778
144	0x3f015576	0.5052103
145	0x3e71e4ee	0.23622486
146	0xbe208f02	-0.15679553
147	0x3e132f78	0.14373577
148	0x3deaa445	0.11457113
149	0xbda0975b	-0.07841369
150	0xbe882608	-0.26591516
151	0x3e07f2f9	0.1327628
152	0xbe911199	-0.28333738
153	0xbdae684e	-0.08515988
154	0xbeb80b58	-0.35946155
155	0xbe68891e	-0.22708556
156	0x3dccf7df	0.10008215
157	0x3f20b291	0.6277247
158	0x3e8336c2	0.25627714
159	0x3d1f28f6	0.038857423
160	0x3da484ae	0.08033119
161	0xbebc0d4a	-0.3672889
162	0xbd347749	-0.04405907
163	0xbf193e07	-0.5986027
164	0xbf1b9df7	-0.6078791
165	0x3ee73f0f	0.45165297
166	0x3e98953d	0.2980136
167	0xbebdc274	-0.37062418
168	0xbe10a1b3	-0.14124183
169	0xbf143177	-0.5788798
170	0xbea11843	-0.31463823
171	0xbed2303e	-0.4105243
172	0x3dc770d7	0.09738319
173	0xbe414ff2	-0.18878153
174	0x3f3d22ea	0.738814
175	0x3e1d832d	0.15382071
176	0x3e782a73	0.24234943
177	0xbd2a38db	-0.041558128
178	0xbe2aed81	-0.16692163
179	0x3df50ca0	0.11965299
180	0xbf5a1b5d	-0.85198003
181	0x3f7aefc8	0.9802213
182	0xbe5ba2b5	-0.21448787
183	0x3ef6d8ca	0.48212272
184	0x3e1979b2	0.1498783
185	0xbe1fac87	-0.15593158
186	0xbe45455e	-0.19264743
187	0xbf4dd51c	-0.80403304
188	0xbf5563ed	-0.833556
189	0x3e67a11d	0.22620054
190	0xbd0312f1	-0.032000486
191	0xbd4eb333	-0.050463866
192	0x3e83d170	0.25745726
193	0x3cbff3c5	0.023431668
194	0xbe63abf9	-0.22233571
195	0x3e46ad6e	0.19402096
196	0x3e1baf1e	0.1520352
197	0x3e049228	0.12946379
198	0xbe044e89	-0.12920584
199	0x3e81fc58	0.25387836
200	0x3e7a50ec	0.24444932
201	0xbe05ba55	-0.13059361
202	0x3ee9a9bf	0.45637318
203	0xbe0bb1f4	-0.13642102
204	0xbf06747b	-0.52521485
205	0xbd8ef60c	-0.069805235
206	0xbeb9ba66	-0.36275023
207	0xbeada241	-0.33912852
208	0x3df37481	0.11887456
209	0xbdb08957	-0.086199455
210	0x3e9f1d14	0.31076872
211	0xbe1a3140	-0.1505785
212	0xbd8cf1d8	-0.068820655
213	0xbf326c4b	-0.6969649
214	0x3ec6c123	0.38819227
215	0xbdd3a3ab	-0.103339516
216	0xbecbce9d	-0.3980607
217	0xbcf5301e	-0.02993017
218	0x3bbb90ea	0.005724062
219	0x3d5d3227	0.054002907
220	0x3eb9e671	0.36308625
221	0x3ea2fed6	0.3183505
222	0xbe09aef3	-0.13445644
223	0x3e9538b7	0.29144832
224	0xbeddab3b	-0.432947
225	0xbe2c5063	-0.1682754
226	0xbec2207d	-0.37915412
227	0x3e98b801	0.29827884
228	0xbe09a8f2	-0.13443354
229	0xbf2cd849	-0.67517525
230	0xbf5b2c8b	-0.8561484
231	0xbea3b546	-0.31974238
232	0x3efeed55	0.49790445
233	0xbe86e46d	-0.2634615
234	0xbf7edb7f	-0.99553674
235	0x3d221a30	0.039575756
236	0xbe02ed77	-0.12785898
237	0x3e1f6cce	0.1556885
238	0x3e6a9a8f	0.22910522
239	0xbe1cbcd4	-0.15306407
240	0xbdcfe2af	-0.10150658
241	0x3c1d1ba9	0.009589114
242	0xbee0be2d	-0.43895093
243	0xbe14ef83	-0.14544491
244	0xbec7fd28	-0.3906033
245	0xbeada98a	-0.3391841
246	0xbecc3c90	-0.39889956
247	0x3eaf468a	0.34233505
248	0x3f1a8e9d	0.6037386
249	0x3f245f70	0.64208126
250	0x3ece568e	0.4030041
251	0xbe96c03a	-0.29443532
252	0x3de426c6	0.11140208
253	0xbee2ddf9	-0.44309977
254	0x3e9625bc	0.29325664
255	0x3e105757	0.14095818

fc_layers.0.bias f4 [32]
0	0xbdc8abfa	-0.09798427
1	0x3d80d324	0.06290272
2	0xbe288894	-0.1645835
3	0x3dd9f44a	0.106422976
4	0xbd635efb	-0.055510502
5	0x3c231d50	0.009955719
6	0xbe0ea7b4	-0.13931161
7	0xbbaa1872	-0.0051909024
8	0xbca7156b	-0.020395955
9	0xbdd64803	-0.10462954
10	0x3b9d2623	0.004795806
11	0xbe222957	-0.15836082
12	0x3e20ab09	0.15690245
13	0x3d9eb4f5	0.077493586
14	0xbd472673	-0.048620652
15	0xbd810b22	-0.063009515
16	0xbe21aaf7	-0.15787874
17	0xbdb8ee1b	-0.0902979
18	0xbe24baad	-0.16086836
19	0x3d6cb8eb	0.05779354
20	0x3d47c255	0.048769314
21	0xbdbc2dcf	-0.09188425
22	0x3d01b5ed	0.03166764
23	0xbd3a2bf4	-0.045452073
24	0xbe5bb4ee	-0.21455738
25	0xbe5c3458	-0.21504343
26	0x3d157142	0.036484964
27	0xbe5330e5	-0.2062412
28	0xbd47bcd2	-0.048764057
29	0x3c9823ac	0.018571697
30	0xbe1c3139	-0.15253152
31	0xbc06d4d8	-0.008229457

fc_layers.1.weight f4 [16, 32]
0	0x3f40a10d	0.75245744
1	0xbdd79b31	-0.10527647
2	0x3ecd66f6	0.40117615
3	0xbf80ddfd	-1.0067745
4	0xbec28d87	-0.37998602
5	0xbe3e2465	-0.18568571
6	0xbe972d38	-0.29526687
7	0x3eb31fde	0.3498525
8	0x3f0ee698	0.5582061
9	0x3f635931	0.8880797
10	0x3dc0b50a	0.094095305
11	0x3f2e0f0f	0.6799173
12	0x3d4e6684	0.050390735
13	0x3f18d395	0.5969785
14	0x3f35e481	0.71051794
15	0x3e8fd9fb	0.28095993
16	0xbe68c9d4	-0.22733241
17	0x3f051fe6	0.520018
18	0x3e1217cf	0.14266895
19	0x3e347a0f	0.17624687
20	0x3f558efa	0.8342129
21	0x3d5d40e0	0.054016948
22	0x3ec733db	0.3890675
23	0x3c96ad12	0.018393073
24	0x3e330d1e	0.17485473
25	0x3ee903cf	0.45510718
26	0x3eb8d0c5	0.3609678
27	0x3df5dece	0.12005387
28	0xbf17b3a0	-0.5925846
29	0x3ef4a911	0.47785237
30	0x3df6336b	0.12021526
31	0x3f2736d4	0.65318036
32	0x3f7b6a09	0.9820867
33	0xbf42a7b3	-0.7603714
34	0x3f1933cc	0.5984466
35	0x3e2c21c0	0.1680975
36	0x3ec2bb2e	0.38033432
37	0xbeb2e368	-0.34939122
38	0x3e35913f	0.17731188
39	0x3f0ef5cb	0.558438
40	0x3f3826b7	0.71934074
41	0x3f380693	0.7188503
42	0xbee52673	-0.44755897
43	0x3f4975e6	0.78695524
44	0xbe2d3a4b	-0.16916768
45	0x3f1345fd	0.5752867
46	0x3f503d95	0.81343967
47	0x3e242113	0.16028242
48	0x3eac52ab	0.3365682
49	0x3f89fdea	1.0780613
50	0x3ea4795b	0.32123837
51	0x3ec73fe0	0.3891592
52	0x3ee2e817	0.44317695
53	0xbd16940b	-0.03676228
54	0x3ea120fe	0.31470484
55	0xbe861cdd	-0.26193896
56	0x3eb3b058	0.35095477
57	0x3e98344a	0.29727393
58	0x3e0280fd	0.12744518
59	0x3ea568a7	0.32306406
60	0xbcb7a09b	-0.02241545
61	0x3f501fa1	0.8129826
62	0x3e0aec0a	0.13566604
63	0x3e8a0f3f	0.26964757
64	0x3f607f59	0.8769432
65	0xbf2547c5	-0.64562637
66	0x3f2e5842	0.6810342
67	0x3dc21441	0.094765194
68	0x3ea8818b	0.32911333
69	0xbe9cc545	-0.30619255
70	0x3e394460	0.18092489
71	0x3efd4c46	0.49472255
72	0x3f0defd7	0.5544409
73	0x3f1db70b	0.61607426
74	0xbf0292ee	-0.51005447
75	0x3f3dfed7	0.7421698
76	0xbdf5a8e5	-0.11995105
77	0x3f247f38	0.6425662
78	0x3f52d2f3	0.8235313
79	0x3d92ba34	0.07164422
80	0x3f0f748f	0.5603723
81	0x3f8bff52	1.0937293
82	0x3e40c1aa	0.18823877
83	0x3eb60863	0.35553274
84	0x3f04bf4c	0.51854396
85	0xbc6b669e	-0.014367728
86	0x3e2085b1	0.15675999
87	0xbdd5cca5	-0.104394235
88	0x3ed990fe	0.42493433
89	0x3ee0c4bd	0.439001
90	0x3e073748	0.13204682
91	0x3b45892e	0.003014158
92	0x3e3557f5	0.17709334
93	0x3f4da9fc	0.803375
94	0x3d85c0d9	0.065309234
95	0x3eb6b214	0.35682738
96	0xbe803d93	-0.25046977
97	0x3e5056b9	0.20345582
98	0xbf6b5ac7	-0.9193539
99	0x3f146c6c	0.5797794
100	0xbf2ec828	-0.68274164
101	0x3f05e2b3	0.5229904
102	0xbfa94f48	-1.322732
103	0x3f75fc01	0.9608765
104	0xbd291bfd	-0.041286457
105	0x3c99b3a2	0.018762413
106	0xbf90da69	-1.1316653
107	0x3daa5673	0.0831727
108	0x3f54e20e	0.8315743
109	0x3f378d63	0.71700114
110	0x3f2df6c7	0.6795468
111	0xbf371a15	-0.71524173
112	0xbfa60e44	-1.2973104
113	0x3ee8e1be	0.45484728
114	0xbed67ff2	-0.4189449
115	0x3f66e44e	0.90192115
116	0x3e2bc611	0.16774775
117	0xbf77502b	-0.966067
118	0xbfa22cf0	-1.2669964
119	0xbf919ac0	-1.1375351
120	0xbf45f6f1	-0.7732993
121	0xbf2233c8	-0.6336026
122	0xbecd28fe	-0.40070337
123	0xbf35e8c9	-0.71058327
124	0xbf6620c1	-0.8989373
125	0xbf35bd6c	-0.7099216
126	0xbf402843	-0.75061435
127	0x3f0a8dd2	0.5412265
128	0xbf01ea0c	-0.5074775
129	0x3e705ce7	0.2347294
130	0xbf99e5fc	-1.2023311
131	0x3eb48e34	0.35264742
132	0x3eaa7a53	0.3329645
133	0x3f65038b	0.8945853
134	0xbf2da1b6	-0.67824876
135	0x3f270319	0.652391
136	0x3f12e6f2	0.57383645
137	0xbdf52a03	-0.11970904
138	0xbff45236	-1.9087589
139	0x3f7b6d2e	0.9821347
140	0x3f42a79a	0.7603699
141	0x3edf485d	0.43609896
142	0xbd72ba4f	-0.05925971
143	0xbe9ff01f	-0.31237885
144	0xbed79b98	-0.42110896
145	0xbf47bfd9	-0.7802711
146	0xbf536d2b	-0.8258845
147	0xbe682042	-0.22668555
148	0x3e97ce47	0.29649565
149	0xbead428b	-0.3383983
150	0x3e39e777	0.18154703
151	0xbe961189	-0.29310253
152	0xbf24f4b9	-0.6443592
153	0xbb0c544e	-0.0021412554
154	0xbfe73542	-1.8063128
155	0x3e8ab94c	0.27094495
156	0x3ed76fd2	0.420775
157	0xbf917202	-1.1362917
158	0xbf45b9aa	-0.77236426
159	0x3f1ca0c1	0.6118279
160	0x3f15804b	0.58398885
161	0xc00ca32b	-2.197459
162	0xbc976042	-0.018478516
163	0xbf0b742b	-0.54474133
164	0xbe4c9e28	-0.19982207
165	0xbfa26716	-1.2687709
166	0x3e941fd4	0.28930533
167	0x3e725cdb	0.23668234
168	0x3e5b976f	0.21444486
169	0x3e01b99d	0.12668462
170	0x3e9671eb	0.29383788
171	0x3e672475	0.22572501
172	0xbe173920	-0.14767885
173	0x3f314701	0.6924897
174	0x3e6c1ff0	0.23059058
175	0xbdd206bb	-0.1025519
176	0xbed8a807	-0.42315695
177	0x3e83e874	0.25763285
178	0x3f7eba10	0.9950266
179	0x3de75562	0.11295582
180	0x3f1958ef	0.59901327
181	0x3e8eb697	0.2787368
182	0x3eaa7f78	0.33300376
183	0x3e6ecba7	0.23319875
184	0x3e100a2d	0.14066382
185	0x3f120d21	0.57051283
186	0x3ee406a8	0.44536328
187	0x3f2eef2c	0.683337
188	0xbe2424d9	-0.16029681
189	0x3e916ee1	0.28404906
190	0x3f094f66	0.5363678
191	0x3f93b8ac	1.1540732
192	0xbe3e4e8f	-0.18584655
193	0x3e110812	0.14163235
194	0x3ee239a9	0.44184616
195	0x3f4738b5	0.77820903
196	0xc00910f3	-2.1416595
197	0x3f257374	0.6462929
198	0x3f845da1	1.0341073
199	0xbf004c51	-0.5011645
200	0xbfc177d9	-1.51147
201	0xbdec94f8	-0.11551851
202	0x3f17039b	0.58989877
203	0x3d583a68	0.052790076
204	0x3d5a42be	0.053286307
205	0xbe1989dc	-0.14993995
206	0xbcfe8437	-0.031068904
207	0x3f9323ea	1.1495335
208	0x3f0ac7a7	0.54210895
209	0xbf49d640	-0.78842545
210	0x3e999f21	0.30004218
211	0xbedcf8d4	-0.4315859
212	0xbf3604b7	-0.71100944
213	0x3efbc1de	0.49171346
214	0x3f06cb4e	0.5265397
215	0x3f528402	0.8223268
216	0xbf2dce5f	-0.6789302
217	0xbe98e480	-0.29861832
218	0x3f613183	0.87966174
219	0xbf0c9e4a	-0.5492903
220	0x3f2cc951	0.67494684
221	0x3e98688c	0.29767263
222	0x3f02ad0e	0.5104531
223	0xbfe95753	-1.8229774
224	0x3eb765c3	0.35819826
225	0x3ef55a4d	0.47920457
226	0xbf066765	-0.5250152
227	0x3f0af60d	0.54281694
228	0xbf7e6093	-0.9936611
229	0x3f10ca81	0.56558996
230	0xbf8f7f0e	-1.1210649
231	0x3f34b052	0.70581543
232	0x3d10c3c7	0.035342958
233	0xbfb413d3	-1.406855
234	0xbfb8e17d	-1.4443814
235	0xbe9b26c1	-0.30303004
236	0x3f116177	0.56789345
237	0x3f42e24b	0.76126546
238	0xbec47cfc	-0.38376606
239	0xc0200936	-2.5005622
240	0x3de4ece3	0.11177995
241	0xbf15e59a	-0.5855347
242	0xbf7aef0d	-0.9802101
243	0x3f1bc720	0.60850716
244	0x3ef28341	0.47365764
245	0xbd168ac4	-0.03675343
246	0xbe43691c	-0.19083065
247	0xbf830e83	-1.0238804
248	0xbed53d26	-0.41648215
249	0xbde6494a	-0.112444475
250	0xbf1a1c84	-0.6019976
251	0xbe0c970a	-0.13729492
252	0xbf55528e	-0.83329093
253	0xbf5602ef	-0.83598226
254	0xbe9419ba	-0.28925878
255	0x3f3047f9	0.6885982

fc_layers.1.bias f4 [16]
0	0xbdd4f197	-0.10397642
1	0x3d683bde	0.05669772
2	0x3c8cbadb	0.017178943
3	0x3d8c8eef	0.068632
4	0x3dd6896f	0.10475432
5	0xbe3edb42	-0.18638328
6	0xbd44ea32	-0.04807491
7	0xbc2990a4	-0.010349426
8	0x3ce96df7	0.028494818
9	0x3dce0a6a	0.1006058
10	0x3da0d5b9	0.07853264
11	0xbd839bcb	-0.064261995
12	0xbcc52c89	-0.024069088
13	0xbd78e13e	-0.060761683
14	0x3c012287	0.007881767
15	0xbd465611	-0.048421923

affine_output.weight f4 [1, 48]
0	0xbf4124e4	-0.75446916
1	0xbf0924a2	-0.5357152
2	0xbf05fbf9	-0.52337605
3	0x401ed661	2.4818347
4	0x3fe252b9	1.7681495
5	0xbfc3cddf	-1.5297202
6	0x3fcc554f	1.5963534
7	0x40093a14	2.1441698
8	0x3fd2d217	1.6470364
9	0x3fe7f352	1.812113
10	0xbf433883	-0.76258105
11	0x4016bb2c	2.355174
12	0x40248e0c	2.5711699
13	0x40006f7d	2.0068047
14	0xbf13589c	-0.5755708
15	0xbf2951e1	-0.6614056
16	0x3f6e14ee	0.93000686
17	0xbf87953c	-1.0592418
18	0xbf99bc26	-1.2010543
19	0x3f8244e4	1.0177274
20	0xbf73659e	-0.9507693
21	0xbf86045d	-1.0470082
22	0xbf8bb27b	-1.0913843
23	0x3f7289b1	0.9474135
24	0xbf8c46a8	-1.0959063
25	0x3f6d2fae	0.9265088
26	0xbf704097	-0.93848556
27	0xbf938aae	-1.1526697
28	0x3f9c3abc	1.2205424
29	0x3f8c31c1	1.0952684
30	0xbf75219d	-0.95754415
31	0x3f74d99b	0.9564454
32	0x3f860250	1.0469456
33	0x3f9b8723	1.2150615
34	0x3f76d987	0.9642567
35	0x3f3ef284	0.745888
36	0x3f804ee0	1.0024071
37	0x3fb9150d	1.4459549
38	0x3f95b156	1.1694744
39	0xbf81aef7	-1.013152
40	0x3f95eda3	1.1713146
41	0x3f9e4d26	1.2367294
42	0x3f9ac9cc	1.2092834
43	0x3f9f13ee	1.2427957
44	0x3f92900f	1.1450213
45	0xbf8c556f	-1.0963572
46	0x3f8d48e1	1.1037866
47	0x3f8fca23	1.1233562
