checkpoints/NeuMF_Epoch3_HR0.2041_NDCG0.1924.model (torch, 510215 bytes, 9 tensors)

embedding_user_MF.weight f4 [51, 32]
00000000: 6c98 49bf 93e3 24be e86a b23f 2cc7 b8bf
00000010: 6126 18c0 4523 9ebf 9431 953f 7ffe ef3e
00000020: 1853 5ebf 8677 4d3e ad4e 74bf e2e7 75bf
00000030: 2977 923f 4507 793d 0062 ba3f 0bd9 20bf
00000040: 9322 94bf f9b0 79bf d482 f73e fa6b 593f
00000050: a421 6d3d 3618 41be d341 853f 8eb2 ca3d
00000060: 8d6d c4bf cc7a f43f 356f 28be 6a99 be3f
00000070: 883f ca3e 0331 06bd b152 af3f c7b8 903f
00000080: fb89 09c0 01b6 663f 8ae7 953f b657 953f
00000090: cd0c 02c0 9d12 78bf bb74 fbbf 3e80 583f
000000a0: 5415 63be 2b37 9dbf 60cf a5be 7f46 24bf
000000b0: 5804 bcbf 127e 10bf 1f5c 8b3f 788e 72c0
000000c0: 0390 20c0 592d ee3f d809 1140 2ca5 22bf
000000d0: 7149 cf3e 725b c2be a78f 9fbe ce7e 523d
000000e0: 7109 97bf ba3a cd3f c8cd 533d 3fce 81bf
000000f0: c833 55bf 11d7 0dbe a290 2e40 0f8d a53e
00000100: b62f db3e 3c70 843d 8b79 43bf 0450 5e3e
00000110: 4587 a03f df60 353f 8c8c 0c3f d7ac 8b3f
00000120: 2784 8cbf 29aa ee3c 90d4 9c3f 8dfd c0bf
00000130: 47d3 fa3e 304a a43f db25 aa3f 36cd 2fbf
00000140: c8fc 57bc 7b13 abbf 7194 fb3e 5cfb 2e3f
00000150: b90f ac3e 49e7 f3bf 7fd2 1dbf 298d f73e
00000160: 911a f8be 1d1e 083f 2e5e 463f c7fb 54bf
00000170: 3f28 1cbf b943 903f 1096 cfbd 91dc 2e3f
00000180: da7c 1dbf fca2 cbbf 4e7d bb3f 23d8 173f
00000190: 2233 88be ad22 ce3b 6d4e 08bd df64 523f
000001a0: a6a4 cabe f483 cfbe 48ab 79bf 3dea 9f3f
000001b0: a30d c2bf bca0 573e a251 383f c377 7b3d
000001c0: 8e46 06c0 988e 153f 1479 95bf 8d4f 70bf
000001d0: ed4d e5bf 31d3 963c 7449 9a3f 576e ccbe
000001e0: bcdc 95be f09a 783f d5ae e13f d037 863f
000001f0: 6463 6d3f 1533 973f 6590 e3be 8a7c 99bf
00000200: 7f1d 05c0 477b 23bf c473 593f ee46 ec3d
00000210: bbf6 fdbf ef7b 0ec0 27a4 833e e4f4 8ebe
00000220: 8829 0e40 0d50 5040 6788 403f c897 0b3e
00000230: afba 97bd 706e a3be 3f6d 62be 5f99 263f
00000240: 9dee 3140 0871 4e40 629f e3bf db1d 7a40
00000250: d7fd 7640 72f2 46c0 0f3a 103f bbd9 edbe
00000260: 875c 37bf bc50 56bf 8f1d a33f 39aa 88be
00000270: 8f55 bbbd 87f1 a6bf 5e9f f43e b482 923e
00000280: fb00 5cbf abac 8a3f 2230 d3bb 8475 ad3e
00000290: cc8a bcbe eb64 8d3f b968 ecbf 7a7e f0bf
000002a0: 0574 4abf 2035 1740 6b73 40bf 1050 9fbf
000002b0: ed14 97bc d60a 63bf dd45 023f 6521 cdbf
000002c0: 7354 cb3f 7bac af3e 42ff 20c0 f555 9e3f
000002d0: 4e02 8ebf 1a15 3dbe 88cb d5be e0a0 3f3f
000002e0: 4efa 56bf 7419 b53f e59f 13bf 459a dc3e
000002f0: b83f 0340 3f42 8b3f 3c6f e3be 1fa6 cf3f
00000300: 1e8e b4bf aa46 17be 5358 263f 2a6c 403f
00000310: cc2a 1f3f e9de 853f b0d0 213e a8a7 b3be
00000320: 923d c2be 75d4 86bf 5495 17bf ab57 173f
00000330: 9b4b 1e3f 04b6 b2be 6fa5 08c0 36e6 9ebf
00000340: b3a9 88bf 50d6 573f a2a8 99bf 0ac8 393f
00000350: 4fb9 b63e cb3f acbf 1b49 06c0 57e0 863e
00000360: 70de 593f d91a 2bbe 4493 533d b762 67be
00000370: 0d29 fbbd 2f60 d93e e376 ab3f a752 bbbf
00000380: 4710 babe bfbc 3240 9d00 91bf 645e bbbf
00000390: f166 f8be f0e7 0c3e 12e5 9d3f 67aa 5abf
000003a0: 353c 40be 4cec 1a40 49d5 833f 3e1a 4ec0
000003b0: 3f32 babf b172 ff3e 2712 c8bd 57e3 583f
000003c0: 667d 29c0 c7d9 3d40 6546 b4bf 27c6 ccbe
000003d0: 0e50 5bbe e2b2 d03f 0571 543f 17de 9fbf
000003e0: abac a7bf 7a48 843f 205a a23f cec2 9ebf
000003f0: 6689 0840 bc21 2cbd 61d9 a8bd 994a ab3f
-0.787482 -0.16102438 1.3938875 -1.4435782 -2.3773425 -1.2354513 1.1655755 0.46873853
-0.8684554 0.20065126 -0.9543255 -0.9605695 1.1442615 0.06079795 1.4561157 -0.6283118
-1.1573051 -0.97535664 0.48342 0.84930384 0.05789341 -0.18856892 1.0410713 0.09897338
-1.5345932 1.9099975 -0.16448672 1.4890568 0.39501595 -0.032761585 1.369711 1.130639
-2.1490467 0.90121466 1.1711285 1.1667392 -2.0320313 -0.969034 -1.9644998 0.8457068
-0.22176105 -1.2282461 -0.32384777 -0.6417007 -1.4688826 -0.5644237 1.0887488 -3.7899456
-2.5087898 1.8607589 2.2662258 -0.6353328 0.4048572 -0.37960392 -0.31164286 0.05139046
-1.1799756 1.6033547 0.05170992 -1.0141066 -0.83282137 -0.13851573 2.7275777 0.32334182
0.42809838 0.064667195 -0.76357335 0.21710211 1.2541281 0.7085094 0.5490196 1.0912122
-1.097783 0.029133873 1.2252369 -1.5077378 0.48989317 1.283514 1.3292803 -0.686725
-0.013182826 -1.336532 0.4913669 0.68352294 0.33605745 -1.9054958 -0.61649317 0.48349884
-0.4845777 0.5317095 0.77487457 -0.8319668 -0.6099891 1.1270667 -0.10136044 0.6830531
-0.61518633 -1.5909114 1.4647615 0.59314173 -0.2660151 0.006290755 -0.033277918 0.8218517
-0.39578742 -0.4053036 -0.9752698 1.2493359 -1.5160412 0.21057409 0.7199956 0.06139351
-2.0980563 0.58420706 -1.1677575 -0.93871385 -1.7914406 0.01841125 1.2053666 -0.39927933
-0.2926997 0.97111416 1.763148 1.0485783 0.92729783 1.1812464 -0.44446102 -1.1991131
-2.0799253 -0.6385998 0.8494227 0.11536966 -1.9840921 -2.2263143 0.25711176 -0.27921212
2.2212849 3.254886 0.75208133 0.13632119 -0.07408654 -0.31920195 -0.22111987 0.65077776
2.7801888 3.2256489 -1.7783015 3.9080722 3.8592432 -3.1085477 0.5633859 -0.46455178
-0.7162556 -0.8371694 1.2743396 -0.2669237 -0.091471784 -1.3042458 0.47777838 0.28615344
-0.85938996 1.0833944 -0.006444947 0.3387872 -0.36824644 1.1046423 -1.8469459 -1.8788598
-0.7908328 2.3626175 -0.75176114 -1.2446308 -0.018442595 -0.8868841 0.5088785 -1.6025816
1.5885147 0.3431128 -2.5155797 1.2369982 -1.1094453 -0.18465081 -0.41756845 0.7485485
-0.83975685 1.4148393 -0.57665855 0.43086448 2.050764 1.0879592 -0.44420803 1.6222571
-1.4105871 -0.1477305 0.6497852 0.75165045 0.6217468 1.0458652 0.15802264 -0.3508885
-0.379376 -1.0533587 -0.5921223 0.59118146 0.61834115 -0.34904492 -2.1350973 -1.2414005
-1.0676788 0.8431139 -1.2004588 0.7257086 0.35688254 -1.3456968 -2.098212 0.26343033
0.8510504 -0.1670946 0.051654115 -0.2259625 -0.12263689 0.42456195 1.3395656 -1.4634598
-0.36340544 2.7927701 -1.1328312 -1.4638181 -0.48516038 0.13760352 1.2335532 -0.85416263
-0.18772967 2.4206724 1.0299464 -3.2203517 -1.4546584 0.4989219 -0.09769087 0.84721893
-2.6482787 2.966417 -1.4083983 -0.39994928 -0.21417257 1.6304591 0.82984954 -1.2489651
-1.3099569 1.0334618 1.2683754 -1.24032 2.1333861 -0.04202436 -0.08244587 1.338214

embedding_item_MF.weight f4 [1889, 32]
00000000: 1d45 b9bf f503 17bf 999f 70bf 2f7a 15bf
00000010: 3c93 76bf b4cc a1bf 0c0d b0bf 95b6 bdbf
00000020: 8c26 103e 4a16 bbbf ee42 7dbf afe1 ce3f
00000030: ce1f 1740 ab63 d73e cf3f 623f acc9 21c0
00000040: 8a62 49c0 1f2b 3e3f 23f8 003f b7c8 9abf
00000050: b705 ad3f 8530 26bd 97f4 b53f 478d f8bf
00000060: cac7 b03f 40b2 8b3f ee0f efbe 5e3e 7a3f
00000070: a09f c2be ae03 c7be 4738 403f 98fb 82bf
00000080: c39a 6c3f c516 dfbf 1b0b 80bf 85b0 0a3f
00000090: 626f 663e dcdc d43e e13e aebf 31f9 97be
000000a0: 8339 dd3d baab 413f f226 acbf 29ae 35bf
000000b0: 1c8d dd3f c46c e7bf 2f55 05c0 a633 073f
000000c0: 58ee e63e 415a 14bf 7fee 58bf 1ea2 883c
000000d0: cd64 07c0 b454 eb3f 88fe 69bd c53d 99bf
000000e0: 5266 df3e cf6a 2b40 fb2f f13e e84f 043f
000000f0: 5a49 2fbe 004f 4ebd c5ec 24bf b5b6 563f
00000100: a4c8 993f df21 b8bf 321c 4a3f 4f66 97bd
00000110: e134 0040 7bca f0bf 1955 953f aa78 74be
00000120: 6a5d b3be 12f3 fa3f 606c 103f 537e 513f
00000130: 1968 af3d aeb6 923e 1ddb 17bf d58f 3d3f
00000140: 2c1d 4c3f ac74 45c0 d4c0 6abe d6a8 75bf
00000150: e6f5 0140 6cbc 0fc0 3124 a73f e3fb 14c0
00000160: 67d7 183e b4e1 603f 5601 9b3f bbed 973f
00000170: d853 063f 58f4 3240 44d3 743e 32ff ce3e
00000180: 4245 043c 6676 313f e98d 303d 97ae 12be
00000190: 7dd7 2e3d 30ed c3bf 5656 5f3e 771e 013e
000001a0: 90a0 fd3f 6c10 dd3f 318d 23bf 1c78 e03f
000001b0: 0cd3 93bc 90b4 03c0 b095 0ebf 788f febe
000001c0: 6d0c e43e faa7 063e 9dd3 2dbd 408c 57be
000001d0: 420e eb3e a148 8ebf 92e1 28bf 1736 a83f
000001e0: 591e 4ac0 f7c5 f7bd f47c 31c0 6496 263e
000001f0: 8e7e 3740 4276 41c0 af9c 6a3e daa7 a93f
00000200: 9803 56bf 1daa 0740 5601 3c3e 5b10 ba3f
00000210: 8ed1 933f 1c28 cebf 2d5b a1bf c5ea 30be
00000220: 2e7a bf3e 1126 a63e d99e da3f a1f4 34bf
00000230: d0e4 ac3e b1ed 8040 75a4 41c0 b4fe 3e3f
00000240: b8e3 03bf 3052 edbf 957e 0b3f f1b7 dd3e
00000250: 8071 eabe 140c 96be dc24 b6be 8814 f8be
00000260: 3da2 103e c189 ba3e 5e64 4e3f 82b6 55be
00000270: e199 293f c961 2fc0 bbae 0fbf fad4 ab3f
00000280: 3ede 033f 803c 37bf 25d3 37bf 3e19 83bf
00000290: f146 dbbe 9f95 e93f fc0e 853d 4717 95bf
000002a0: c7be ff3f b2f7 e23f b0db 79bf f7f8 c03e
000002b0: 1ead eabe 5084 1440 37db e9bf 1cb9 fe3e
000002c0: 35ee e8bd e3fd 8b3f f1bc 48bf b0a0 7abe
000002d0: 70be cbbe 55c6 883f 495b 38bf c503 623f
000002e0: 6c37 73bf dfe8 1d40 c7d9 c6bf 2b8c 0cbf
000002f0: e5de 733d 56b2 753d 4f85 6e3f 0259 14bf
00000300: 5a02 f2be 3d96 13bf cced a1bf af81 10c0
00000310: ebcc 623e 2d10 c83f 5761 d4be b3e8 1a3f
00000320: 64c4 a93e 5fac d1bf 1f30 7c3f 7110 afbe
00000330: b733 f53f 815c 31c0 402c 733e e717 a53e
00000340: 239a df3e 314e 0ac0 8a14 87bf 8647 4cbf
00000350: b3fd 95bf 0347 cdbe 21f9 923e 9935 0a3f
00000360: 19ad 33bd c096 723f f52c 8d3f 761f a0bf
00000370: 00f0 893e 10ce 863d 6194 9cbf a6e8 1abe
00000380: b8c8 44c0 6546 a63f 9367 0fc0 16dd a4bf
00000390: 052e 7a3f 4f80 fc3e cdca 20bf 6c5c 543f
000003a0: cb16 0a3f eaff 0d40 e9b6 16be d873 8a3e
000003b0: eaca dcbf 4ee6 553f 4fad 2f3e d47d cbbf
000003c0: b591 27bf 9318 b0bf 6c2f debe 2761 003f
000003d0: f678 c63e 304b 7f3f b538 abbf 0d6f c03e
000003e0: e0ad ecbe 5cb2 b63e e2f5 9b3d 5118 123f
000003f0: eb95 363f 9fc1 bebb 5067 21c0 99b9 a6bf
-1.4474217 -0.5899041 -0.93993527 -0.5838956 -0.9631841 -1.2640595 -1.3753982 -1.4821345
0.14077204 -1.4616177 -0.9893025 1.6162623 2.3613162 0.42068228 0.88378614 -2.527934
-3.1466393 0.7428455 0.50378627 -1.2092503 1.3517369 -0.040573616 1.4215268 -1.9418114
1.3810971 1.0913773 -0.4669184 0.97751415 -0.3801241 -0.38869995 0.7508587 -1.023303
0.9242365 -1.7428824 -1.0003389 0.541756 0.22503427 0.41574752 -1.3612939 -0.29682305
0.10801985 0.7565266 -1.3449385 -0.7096887 1.7308688 -1.8080068 -2.0833242 0.52813184
0.45103717 -0.57950217 -0.84738916 0.016678866 -2.1155274 1.8385224 -0.057127506 -1.1971976
0.43632752 2.678394 0.4710692 0.5168443 -0.17117825 -0.05036831 -0.6442378 0.8387254
1.2014356 -1.4385337 0.7894927 -0.07392561 2.0032275 -1.8811792 1.1666595 -0.23874155
-0.35032207 1.9605429 0.5641537 0.8183338 0.08564777 0.28655 -0.59318715 0.74047595
0.7973201 -3.085246 -0.2292512 -0.9596075 2.0306334 -2.2458754 1.305792 -2.327874
0.1492592 0.87844396 1.2109783 1.1869425 0.52471685 2.7961636 0.23908716 0.40429074
0.008073153 0.69321287 0.043104086 -0.14324413 0.042685974 -1.5306759 0.21810278 0.12609278
1.9814625 1.7270637 -0.63887316 1.7536654 -0.01804497 -2.0578957 -0.55697155 -0.49718833
0.4454073 0.13150015 -0.04243814 -0.21049595 0.45909315 -1.1115915 -0.65969193 1.3141507
-3.1581023 -0.12098306 -2.7732515 0.16268307 2.8670993 -3.022843 0.22911333 1.3254349
-0.83599234 2.119758 0.18359885 1.4536241 1.1548326 -1.610599 -1.260595 -0.17277057
0.37397903 0.32450917 1.7079726 -0.70685774 0.3376832 4.029015 -3.0256627 0.74607396
-0.51519346 -1.8540707 0.54490024 0.433044 -0.4578972 -0.2930609 -0.35574996 -0.48453164
0.14124389 0.36433223 0.806219 -0.20870402 0.66250426 -2.7403433 -0.5612599 1.342437
0.5151099 -0.7157669 -0.71806556 -1.0242078 -0.42827561 1.8248786 0.06496999 -1.1647729
1.9980096 1.7731841 -0.9760084 0.37689945 -0.45835203 2.3205757 -1.8270024 0.49750602
-0.113735594 1.0936855 -0.784133 -0.2447536 -0.3979373 1.0685526 -0.7201429 0.88287
-0.9500644 2.4673383 -1.553521 -0.5490138 0.05953874 0.059984528 0.9317216 -0.57948315
-0.4726742 -0.5765112 -1.2650695 -2.2579153 0.22148483 1.5629936 -0.41480514 0.6051132
0.33157647 -1.6380728 0.98510927 -0.3419223 1.9156407 -2.771271 0.23747349 0.322448
0.43672284 -2.1610224 -1.0553143 -0.79796636 -1.1718048 -0.4009324 0.28705695 0.53988034
-0.04386625 0.94761276 1.1029345 -1.2509601 0.26940918 0.06582272 -1.2232782 -0.15127811
-3.074751 1.2990233 -2.2406967 -1.287997 0.9772647 0.49316642 -0.6280945 0.82953525
0.5394103 2.2187448 -0.14718212 0.27041507 -1.7249424 0.8355454 0.17155956 -1.5897775
-0.65456706 -1.37575 -0.43395555 0.5014824 0.3876416 0.997241 -1.3376681 0.37584725
-0.46226406 0.35682952 0.07615258 0.57068354 0.71322507 -0.0058214213 -2.5219307 -1.302539

embedding_user_MLP.weight f4 [51, 32]
00000000: d3b5 b7bf 2af5 b33f 2153 b6be 6aec 87bf
00000010: 4dc0 af3e e8d0 2fbf 425f 16bf 84a8 96bf
00000020: 7206 c43f 56a0 e6bf 652a 70be a385 30bf
00000030: 59d9 bfbd 0a4b acbf 6fb8 ce3f e1b1 84bf
00000040: df01 613e 3351 033e bbb2 62be e6f1 ec3e
00000050: 4a45 9dbe b973 94bf 3e02 9c3f a3b9 0fc0
00000060: a3db 31bf f2f8 3b3f f4a2 1d3e 153e dbbe
00000070: fc8a 3cbd b79e 33bf 4155 483e 6551 f53d
00000080: 07a4 153f bb30 d0be 80e2 61bf 47fa 513d
00000090: 033f 813e 91ba c83e 91e8 6b3f 6300 e0bf
000000a0: b304 fb3e 4b20 36bf 047a 86bf 4dbe 003a
000000b0: d713 da3f d3e6 9ebf e1c2 79bf f251 5d3e
000000c0: 3b20 5cbf c143 cfbe b598 43c0 c44f 96be
000000d0: 393b a4bd 19c7 e1be 7435 493f 2793 dcbd
000000e0: f341 96bf a659 aebe 4f7e a23f e471 f2be
000000f0: 373f 5d3f 539e ce3e 2cda 98bf 254b ea3f
00000100: 87ad 983f 5ca0 2d3f fbca a53f 504f be3e
00000110: e628 6c3f 48e4 813f f81a efbf 7c1c 8b3f
00000120: e9b0 2ebe 26ad 663f 6fd0 eabf 74f4 56be
00000130: 6fe0 803e fd57 3e3f 4909 463f 0e98 d6be
00000140: f6fb d23e 6085 cf3f e460 76bf cb7f 2e3f
00000150: 4ff5 2f40 6e40 373f ce8d 4a3f a00d 86bf
00000160: ec00 e03e 28cc a43e ccc4 823f f16a 4abe
00000170: 31b5 0240 0afc a93d fcca 613f fb18 9c3f
00000180: 68b2 2abf 6675 c3be 9072 bebe bb21 8c3d
00000190: 6c19 62bf c8f2 a0be e1d5 2ebe e0f5 84bf
000001a0: 00f3 9a3d 7efa cf3e ef10 bd3e efdb f0bf
000001b0: 2781 1ebf 1ed0 01bf 0fe9 763f 19f6 32bf
000001c0: 1242 233f 2ca9 ee3e 1ac4 8ebf e1b9 0540
000001d0: 75e4 a23f 460f 93be 8f6e 3a3f bd74 f03e
000001e0: 9ffa a5be 4d0e c0be 22e2 58bf 18f2 8b3d
000001f0: fea8 38bd c32c 37be 5bfa d3bf 60f1 29bf
00000200: 4386 1b3f d20a 80be 3fe2 a43f 85ad 1a40
00000210: 8fe4 ef3f 7101 36bf 8147 303e cd25 c7bf
00000220: 07b2 15bf 1683 9c3e ebaf bd3f ff1b f73f
00000230: f5a0 d1bd de62 43be 234d b13e 346f aa3f
00000240: 8076 933f c9cf 9c3f deee a83e 46ea 883f
00000250: 4844 4bbf eac9 2a40 3022 6b3d 0a44 773f
00000260: b0c8 0cbf 19d2 da3e c4d9 26be d6a4 113f
00000270: 1431 413f 1d7d 8a3f 8eaf ee3e a303 dc3e
00000280: 8670 a7be 3869 b63f 8415 d13f af6b 0b3f
00000290: 689c 843f 5227 85bf 4fb2 573f d7e0 81be
000002a0: b70c b7be 3faf 43c0 98eb 98be 2f10 873f
000002b0: 6a26 8e3e 267f a13f b03d 073f e9af 8fbf
000002c0: 711a 803f f8b7 adbe 6859 b8bf 22c4 813f
000002d0: 7633 edbf 901a 3ebf 0a0a 45c0 f5ac 91bf
000002e0: a363 c2be d177 17c0 0d49 4540 fe1a c03f
000002f0: d77a 8a3d 0100 01c0 dd1f b33e 6df3 e33e
00000300: 9df0 963e c0bc 6cbf fa11 653f daa7 3fbf
00000310: 2538 1e3f a284 4dbf 60f3 9abf cd4b 983f
00000320: 71be 72bf 2d94 193f 02d4 24bf d8d4 6fbd
00000330: e795 23c0 ae30 c33e ce41 693f 7a90 0fbf
00000340: e97b 883e 2e03 903b 8fa2 bc3f 4d93 f9bf
00000350: 565f bc3f d26e d33f 1562 9f3f f173 7e3f
00000360: 4dae 22be 0d09 efbf 4433 f6bf cd21 dfbd
00000370: 6f06 92bf 8396 853f 92f6 06bf 2cbd 3a3f
00000380: 5761 09c0 f985 82bf 18da abbe a15c c73f
00000390: 44d8 ca3f e7c5 b63f 26d5 c43f 1f53 06c0
000003a0: 3cf1 c6bf 3967 303f c278 a63e 9bda 90be
000003b0: b7c0 afbf 8db5 15c0 c998 a13f ca9c 743f
000003c0: 6eaa 86bd 21fc 69bf 1a72 a9bf f679 293f
000003d0: 39ed 18bf 875b 603f 70eb 07bf d974 ce3f
000003e0: 9a5b babf 857a e2be a930 50bf 072b 64be
000003f0: 6198 45bf 1995 5cbf e0a0 d53e 7d48 c1bf
-1.4352363 1.4059193 -0.35610297 -1.0619023 0.343264 -0.6867814 -0.587391 -1.1770177
1.5314467 -1.8017681 -0.23453672 -0.68953913 -0.09367628 -1.34604 1.6150035 -1.0366784
0.2197337 0.12823944 -0.22138493 0.46278304 -0.30716926 -1.1597816 1.2188184 -2.2457054
-0.69475764 0.73426735 0.15394193 -0.42820802 -0.046030983 -0.70164055 0.19563772 0.119784154
0.5845341 -0.40662178 -0.88236237 0.051264074 0.25243387 0.3920484 0.92151743 -1.7500118
0.49027023 -0.71143025 -1.0505986 0.00049111695 1.7037305 -1.2414192 -0.97562987 0.21613291
-0.8598668 -0.4048138 -3.0561955 -0.2935773 -0.08019108 -0.44097212 0.7859719 -0.107702546
-1.1738876 -0.3405277 1.2694796 -0.47352517 0.86424583 0.40355167 -1.1941581 1.8304182
1.1927956 0.67822814 1.295257 0.37169886 0.92249906 1.0147791 -1.8680105 1.0868068
-0.17059673 0.90107954 -1.8344859 -0.20991689 0.2517123 0.7435301 0.7735792 -0.41912884
0.41207856 1.6212578 -0.96241593 0.68163747 2.7493474 0.71582687 0.79122627 -1.0472908
0.43750703 0.3218701 1.0216308 -0.19767357 2.042309 0.08300026 0.88200355 1.2195123
-0.66678476 -0.38175505 -0.3719678 0.06842371 -0.8832004 -0.31435227 -0.17073776 -1.0387535
0.0756588 0.40620798 0.36926982 -1.8817118 -0.6191582 -0.50708187 0.9644937 -0.69906765
0.6377269 0.46613443 -1.1153595 2.0894701 1.272597 -0.2872259 0.7282495 0.46964064
-0.3241777 -0.3751091 -0.8472005 0.06833285 -0.04508304 -0.17888169 -1.6560777 -0.66383934
0.6075174 -0.25008255 1.2881545 2.4168408 1.8741626 -0.7109595 0.17214777 -1.5558411
-0.58474773 0.3056876 1.4819311 1.9305419 -0.10235778 -0.19080684 0.34629163 1.3315187
1.1520538 1.2250911 0.3299474 1.0696495 -0.79401064 2.6685739 0.05740565 0.96588194
-0.54993725 0.42738417 -0.16294008 0.56892145 0.7546551 1.0819432 0.46618313 0.42971525
-0.32703036 1.425086 1.6334691 0.5446119 1.0360231 -1.0402625 0.8425645 -0.25366852
-0.35751888 -3.0575712 -0.29867244 1.0551814 0.27763683 1.2616928 0.528285 -1.1225559
1.0008069 -0.3392942 -1.4402285 1.013798 -1.853133 -0.7425928 -3.0787377 -1.1380907
-0.37966642 -2.366688 3.0825837 1.5008237 0.06761711 -2.0156252 0.34985247 0.44521657
0.29480448 -0.9247551 0.89480555 -0.74865496 0.6180442 -0.80280507 -1.2105522 1.1898133
-0.9482184 0.59991723 -0.64386 -0.058552593 -2.5560243 0.38123077 0.91116035 -0.5607983
0.26657036 0.0043949103 1.4737109 -1.9498078 1.4716594 1.6518195 1.2451807 0.9939566
-0.15886803 -1.8674637 -1.9234395 -0.10895119 -1.1408213 1.0436558 -0.52719986 0.72944903
-2.1465662 -1.0197135 -0.3356483 1.5575143 1.5847249 1.4279145 1.5377548 -2.0988233
-1.5542369 0.68907505 0.32514006 -0.28291783 -1.3730687 -2.339206 1.2624751 0.9555174
-0.06575476 -0.91400343 -1.3237946 0.6620172 -0.59736973 0.8763966 -0.53093624 1.6129409
-1.4559205 -0.442341 -0.8132425 -0.22282039 -0.77185637 -0.86165005 0.417243 -1.5100247

embedding_item_MLP.weight f4 [1889, 32]
00000000: 252a 1f40 91c4 0b40 ab89 843e cd50 0fc0
00000010: 45fb 253f 9457 8fbe abda b43f eb76 c4bd
00000020: d290 573f a9bb 14bd dcf9 e5be 792e 32be
00000030: 6897 3ac0 f83e 603f 1de5 0ebf b6a5 cfbf
00000040: 9c21 af3f cfed ce3f 8c3c 59bf 89d9 2a3f
00000050: 6931 a13d 1faa 8abf 8e72 193f e00e 433f
00000060: f395 3fbe 6053 02c0 6806 443e a4e5 5cbf
00000070: 3efc 2c3f 05db 0140 bcca 63bf 0f22 603f
00000080: 2fc4 423e a942 093f e095 7f3f 37b4 01bf
00000090: cf9b b8bf be5d 50be 7344 b83f b746 d73f
000000a0: df3f 33c0 665d 943e 7f48 6cbf 7734 643e
000000b0: 8f0d b5bf de4d 863e 4d8c ca3f ef93 39bf
000000c0: 0ef4 89bd 9944 45bf b149 c23f e9c0 e6be
000000d0: be54 3bbe 839d a33e 8a29 2cbf 1cb5 2bbf
000000e0: 2f4e 5c3f 9c6d 80be f57e a83f 1e5f b4be
000000f0: 3b58 22bf a243 8e3f b931 ed3e 3d5a 37bc
00000100: b22f d1be 3849 283f cb40 893f d866 87bf
00000110: 1c0e 943f f491 0640 2481 ce3f 7235 883f
00000120: 8151 a53e 2992 8cbf e83f 2440 2504 22bf
00000130: 795c 103f e612 183f 30c5 14bf e689 973f
00000140: c9c2 d93c 07ff 583f 4d86 883f 3c98 31c0
00000150: 6499 b03d fac4 bc3e 39d2 27bf d952 3bbf
00000160: 9eb0 803f a1eb 04bf 6424 b13f e2f5 103d
00000170: d18d 253f eae5 9abe 3f9f 47bf c904 c9be
00000180: 3d03 f03f 8c93 57be a426 a2bf 8822 0a3f
00000190: 14ec 4a3e 8c2d bdbf a155 523f 705d 5e3f
000001a0: 9a75 dcbe 4875 2d3f a9d9 d0bf 89d6 343f
000001b0: 1321 513e a408 0abf dcb3 33bf 2bdb ecbe
000001c0: 8767 b53e d5a3 993e 450a acbe a665 d63f
000001d0: b381 debf 84db b9be 7f60 8dbf a820 143d
000001e0: 07ba 36c0 1b64 d93e 2d7f 5ebe 809c a63f
000001f0: 7b18 9fbf 968a 963e 3a4d 37bf 70fc 85bf
00000200: f095 833f 0a84 7bbf e1be c8bf 1f7b 98bf
00000210: a2cf aa3f 423b c0bd dad7 813f c24f 22bf
00000220: b8e1 2540 d175 fcbf 94e8 13bf 8456 c6be
00000230: 8ddf f0be 962f b6bf 100a 1c3e 17cc a2bf
00000240: f815 0fbd 3432 2abf 27c5 2ebf c1c8 dcbf
00000250: 21f1 02be d3b8 89bf 230d 28c0 802a 9b3e
00000260: 9d01 34bf d945 04c0 bc66 63bf 2606 a13f
00000270: 82f5 89bf d992 5abf 0e33 353e 47e5 ae3f
00000280: c919 4cbf 6fb0 033e 8c52 dcbf 272d b4bf
00000290: 92ce 943e a165 e63f 12d4 ab3f 3c03 c7bd
000002a0: c451 a13e 3ac1 503c d9fc 44bf c6d6 54bf
000002b0: d5ab 2740 400f bfbe 5f6a 88be 942e 44bf
000002c0: d237 933f 7064 643f bca1 0740 b2be 26bf
000002d0: 5ebd b13e 324a ab3f 7121 e8be 53cd f73f
000002e0: 6710 733f 1b95 813f c2fa 383f 768a 44bf
000002f0: 7ca3 03bf b388 e53e ff79 18bf 5202 7c3f
00000300: 50fa 4fbf d0d5 223f 8efa 9fbf c75e 9e3e
00000310: 4838 e53f 951a cf3f 97f5 8c3d f11a 80bf
00000320: 6082 88be 2ee7 7bbf 3ee8 1ec0 f153 1d3f
00000330: 333f 03c0 8946 c93e 977c 0d40 aff1 cdbd
00000340: 7192 e4bf af3d 7ebf 7d89 bfbf 2fee 2b3f
00000350: fda6 4d3e f810 8d3f 9cd8 1040 d7e2 cfbe
00000360: 8e26 87bf 9922 e4bf eaba 033f f9e9 cd3f
00000370: 2534 4f3f 88b7 44bd 370d b7bf 726a c23f
00000380: 9ebd 8f3f a280 d3be c9e3 cdbe 7e65 22bf
00000390: a698 97bd 62dc 8a3d cd69 23bf 2b7c eebe
000003a0: 5995 9c3e 51e7 5fbf 3edc 97be 15eb 0840
000003b0: b884 a4be 866c 03c0 cef8 783f fe64 a0bf
000003c0: d9b6 043f 6e21 acbf 682a af3f fcfe 1dc0
000003d0: 8428 b73e e4d5 233e 4729 02bf 27c5 a6bf
000003e0: b075 913f d1db 0abf bf32 d63f 9c90 1ac0
000003f0: 149e 803f 4f10 d3bf 2c2d d33f c4bf bf3e
2.4869473 2.1838725 0.25886282 -2.2393067 0.6483653 -0.27996504 1.4129232 -0.09592994
0.84205353 -0.03631178 -0.4491719 -0.1740054 -2.915491 0.8759608 -0.5581835 -1.6222446
1.3682132 1.6166323 -0.8485801 0.6673818 0.07870752 -1.0833167 0.5994042 0.7619457
-0.18709545 -2.0363388 0.19143069 -0.86287904 0.6757239 2.028993 -0.88981223 0.8755197
0.1902015 0.5361734 0.99838066 -0.5066561 -1.4422549 -0.2034826 1.4395889 1.6818455
-2.8007734 0.28977507 -0.9229812 0.22285639 -1.4144763 0.26231283 1.5824066 -0.72491354
-0.06736003 -0.77057797 1.5178739 -0.45069054 -0.18294045 0.3195611 -0.67250884 -0.67073226
0.860568 -0.25083625 1.3163744 -0.3522882 -0.6341588 1.111439 0.46326998 -0.011190948
-0.408567 0.6573672 1.0722898 -1.057826 1.1566806 2.1026583 1.613316 1.064131
0.32288745 -1.0982105 2.5664005 -0.63287574 0.563911 0.59403837 -0.58113384 1.1838958
0.026582139 0.8476414 1.0665985 -2.7749166 0.08623007 0.3686903 -0.6555515 -0.7317329
1.0053899 -0.5192204 1.383923 0.035390742 0.6466952 -0.30253536 -0.77977365 -0.39261463
1.8750988 -0.21052378 -1.2668042 0.5395894 0.19816619 -1.4779525 0.8216191 0.86861324
-0.43058473 0.6775708 -1.6316425 0.70639855 0.20422773 -0.53919435 -0.7019632 -0.46260962
0.35430548 0.30007806 -0.33601585 1.6749771 -1.7383331 -0.3630029 -1.1045073 0.036163956
-2.8551042 0.42459187 -0.21728201 1.301651 -1.2429346 0.29402608 -0.71602213 -1.0467663
1.0280132 -0.9824835 -1.5683252 -1.1912574 1.3344615 -0.093863025 1.0143998 -0.6340295
2.5919018 -1.9723455 -0.5777676 -0.3873788 -0.47045556 -1.4233272 0.15238214 -1.2718533
-0.03493306 -0.66482854 -0.6826958 -1.7248765 -0.12787296 -1.0759529 -2.6258018 0.30305862
-0.7031496 -2.0667632 -0.88828635 1.2580001 -1.0778048 -0.8538032 0.17695257 1.366372
-0.79726845 0.12860273 -1.7212691 -1.4076279 0.2906385 1.7999765 1.3424094 -0.09717414
0.31507695 0.012741381 -0.76948315 -0.8314022 2.6198628 -0.37316322 -0.26643655 -0.7663357
1.150141 0.89215755 2.1192465 -0.6513473 0.34714788 1.3382018 -0.45338014 1.9359535
0.94946903 1.0123628 0.72257626 -0.76773775 -0.5142133 0.44830856 -0.5956115 0.9844104
-0.8124132 0.636075 -1.2498338 0.30931684 1.7907801 1.6179987 0.0688278 -1.0008222
-0.26661968 -0.9839963 -2.482925 0.6145621 -2.0507324 0.39311627 2.2107294 -0.10055863
-1.785719 -0.9931287 -1.4963833 0.67160314 0.20083232 1.1020803 2.2632208 -0.40602753
-1.0558641 -1.7823058 0.51457083 1.6087028 0.8093894 -0.04802659 -1.4300908 1.5188735
1.1229742 -0.41309077 -0.4021285 -0.63436115 -0.07402162 0.06780316 -0.63833314 -0.46579108
0.30582693 -0.87462336 -0.2966022 2.1393483 -0.32132506 -2.0534987 0.97254646 -1.253082
0.51841503 -1.3447702 1.3684816 -2.468688 0.35773098 0.15999562 -0.50844234 -1.3028916
1.136404 -0.54241663 1.6734236 -2.4150763 1.0048242 -1.6489352 1.649816 0.37450993

fc_layers.0.weight f4 [32, 64]
00000000: 1857 e33e fde1 c03d 8140 c2be 610c 14be
00000010: 12d7 bebd bde1 18bf 488e 9d3e 501a 033f
00000020: e0f6 1bbe d610 c23e 9381 523e 0407 97bc
00000030: 653f 4a3d 8180 b63e 52bd eebe 48c8 0dbf
00000040: 65bc c03e 1a32 61be 63ce d93d 5a9e 06be
00000050: eb84 733e af2a cc3e eda9 893e 8dc3 903e
00000060: f9b4 4c3f 1a1f a5be 1b86 7fbe 1cfe dbbd
00000070: e287 6d3e a4d8 b03d 6c4c 543e 0956 3f3e
00000080: 721f 123f 6a96 073f a8ce 2fbb d5a1 883e
00000090: 4138 b2be 220c 0cbf 770b c6bc 90eb 123d
000000a0: a495 6f3f 460e a03e 6d59 0f3f d05f 7abe
000000b0: 7ec2 f53e 3518 0fbf 2fda 843e 5ffc 3f3f
000000c0: fbc8 95bd 38a7 5fbd d31e c7bb f086 f43e
000000d0: dbf9 923c 7e80 2bbd c64c 16bf 56e7 6ebe
000000e0: c320 95be 5e6f 97be 8cc4 a4be 9a14 113f
000000f0: befb a4be 0751 c73e d5ac 4e3e 8a01 e9be
00000100: 1aac 4a3e 094c 5bbe 147a e2be 92cd 043e
00000110: dfb4 9b3e 8a8f 5b3e e895 cabe a32c d1bd
00000120: 91e3 36be 2d92 233f d7ae 453e e2b7 073d
00000130: e4fa 9cbe d94d aabe 8f87 53be 38de e3bd
00000140: 20b1 e63c 098d b2bc be68 1dbd 67df a23d
00000150: ea4b 763d 69b2 8fbe 9015 933d e031 c5bc
00000160: 617e 63be b03c 73bd d016 8bbe 63fa 8bbe
00000170: bd2f 633e 8eb0 1a3f 57a6 b33e 6503 bc3e
00000180: b3cb d5bd 7248 a43e 06b8 71be b4c8 b03e
00000190: 5e72 fbbe 9959 183e 6d01 06bf d603 1cbf
000001a0: 3980 e9bd 3107 f63e 80d0 ce3e 407e adbf
000001b0: c431 dc3e f131 35be 618b 2d3f 1c03 af3d
000001c0: e38f 7bbe 060b ec3a c037 2b3f 8280 143e
000001d0: a6b5 473f d89d 9c3e 236f dc3e 129b 02bf
000001e0: 903d fa3d 1736 523e b07f 803d 4cc7 e53e
000001f0: 3cc7 443e dc96 b9be 242f af3e f793 de3e
00000200: 8e85 7dbd 396b e33c 41b6 b9be 1b5d 0a3e
00000210: 37ec be3e aac2 5abe 783c 863d 6601 00bf
00000220: 1700 4e3e 8753 a03e 9c6f b73e df0d 953b
00000230: d82c debd 4b4b d1be 417b f2be ee6e 8a3e
00000240: 9efc fc3e bc31 6b3e 0b3a 25be 3ccc 133e
00000250: 9e44 c23d ba87 8dbd 5001 95be 18f1 f73d
00000260: cc64 92be 2255 abbd a960 babe 0191 66be
00000270: b9f4 b43d 19bf 243f 9b5e 823e 51e2 e63c
00000280: 8989 943d 33b5 c8be c94f 13bd 4dea 17bf
00000290: a6eb 1dbf 5fa3 e83e 014e 9c3e b6ae bcbe
000002a0: eece 19be cdb5 14bf 198f 98be ca1a d4be
000002b0: 4e4a de3d 6ed6 4dbe 068a 3e3f b763 213e
000002c0: 9a5e 7f3e 4647 4cbd c150 2dbe b56b c73d
000002d0: 586a 55bf 5c29 7e3f 0e25 5ebe 6b1a f53e
000002e0: 8973 323e c82c 04be dc12 5bbe 0e36 52bf
000002f0: 0e6d 56bf 979f 7a3e aa4e c13c 6714 95bd
00000300: e851 903e 9e50 443d 47de 5fbe 8311 613e
00000310: 76ae 0a3e 78d0 0c3e c718 03be 392e 883e
00000320: 4cb1 723e 035a 1abe 2edb e53e d5ad c5bd
00000330: 5162 10bf 2e41 6fbd aa27 b7be ea38 b6be
00000340: 77f7 053e 597f f5bd 4fa9 a63e fa9d 26be
00000350: 3bea 41bd ed05 38bf 331a cb3e edcd f6bd
00000360: 0330 d6be 2546 d0bc 86bc f4bb 6e19 503d
00000370: d6b6 c13e c274 903e 601c f3bd fd76 993e
00000380: 7862 d8be 0ee8 13be 26e5 b8be 0912 893e
00000390: 9f45 b6bd 8306 25bf 55a5 59bf e794 95be
000003a0: c6a3 043f 3421 94be 8100 85bf a0a9 7b3d
000003b0: e498 1fbe 55a3 e63d 7be0 623e f9d9 10be
000003c0: 3914 eabd 5254 dcba e5d1 e4be bd9c 45be
000003d0: dc98 cfbe ca2b b0be 824c dabe 8475 af3e
000003e0: f7f6 133f b06d 203f 0abe d43e 23b1 a2be
000003f0: 5bc2 e73d 1605 f5be 1a15 9e3e 939f 343e
0.44402385 0.09418104 -0.37939838 -0.14457847 -0.09318365 -0.5971945 0.30772614 0.51212025
-0.15230894 0.3790347 0.20557241 -0.018435962 0.049376864 0.35644916 -0.46628815 -0.5538373
0.37643734 -0.21991768 0.10635068 -0.13146344 0.23781173 0.39876315 0.26887456 0.28274193
0.7996364 -0.3225029 -0.24953501 -0.10741827 0.23196366 0.08635071 0.20732278 0.18685164
0.5707923 0.5296389 -0.0026826058 0.26685968 -0.34808543 -0.54706013 -0.024175389 0.03586918
0.9358771 0.3126089 0.5599583 -0.24450612 0.47999948 -0.5589631 0.2594771 0.7499446
-0.073137246 -0.05460283 -0.0060766726 0.477592 0.017941406 -0.041870587 -0.58710897 -0.23330435
-0.29126558 -0.29577154 -0.32181203 0.5667206 -0.32223314 0.38929006 0.20183118 -0.45508987
0.19792214 -0.21415724 -0.44233763 0.12969044 0.3041143 0.21441475 -0.39567494 -0.10213592
-0.17860247 0.6389492 0.19304977 0.03313435 -0.30660164 -0.33262518 -0.2065718 -0.11126369
0.028160632 -0.021795766 -0.038429968 0.07952767 0.06013099 -0.28065804 0.07181847 -0.024071634
-0.22216178 -0.059384048 -0.27165842 -0.27339467 0.2218618 0.6042565 0.35087845 0.3672134
-0.10439243 0.3208652 -0.23605356 0.34528124 -0.49110693 0.14877929 -0.52345926 -0.60943353
-0.1140141 0.48052362 0.40393448 -1.3554153 0.43006718 -0.17694832 0.677908 0.08545515
-0.24566607 0.0018008656 0.6688194 0.14502147 0.7801155 0.30589175 0.4305354 -0.5101787
0.12218773 0.20528446 0.062743545 0.44878614 0.19216627 -0.3624791 0.34215653 0.43472263
-0.061894946 0.027761089 -0.3627186 0.1351208 0.37289593 -0.21363321 0.06554502 -0.50002134
0.20117222 0.31313726 0.3582734 0.0045487727 -0.10848397 -0.40877756 -0.4735966 0.27037758
0.49411482 0.22968191 -0.16135423 0.14433378 0.09485744 -0.069106534 -0.29102564 0.12106532
-0.28592527 -0.08365847 -0.3640187 -0.22516252 0.0883574 0.6435409 0.25462803 0.028184088
0.07252795 -0.39200744 -0.03596476 -0.5934189 -0.61687696 0.45437142 0.30528262 -0.36852044
-0.15020344 -0.58089906 -0.29796675 -0.41426688 0.10854016 -0.2010133 0.7442936 0.15760694
0.24938431 -0.04987266 -0.16925336 0.0973734 -0.8336539 0.9928186 -0.21693823 0.47871718
0.17426886 -0.12907708 -0.21393913 -0.8211373 -0.83760154 0.24474941 0.02359708 -0.07279282
0.2818749 0.047928445 -0.21862136 0.21979336 0.13543114 0.137514 -0.1280242 0.26597765
0.23700446 -0.15073399 0.44893783 -0.096522965 -0.5640002 -0.05841177 -0.3577245 -0.35590297
0.13082682 -0.1198718 0.32551047 -0.16271201 -0.04734252 -0.7188404 0.39668426 -0.12050996
-0.41833505 -0.025424073 -0.007468763 0.0508055 0.37834805 0.2821408 -0.118706465 0.29973593
-0.42262626 -0.1444399 -0.36112326 0.26771572 -0.08899998 -0.6446306 -0.850179 -0.29215166
0.518124 -0.28931582 -1.0390779 0.061441064 -0.15585667 0.11261622 0.22155945 -0.1414565
-0.114296384 -0.0016809797 -0.44691387 -0.19298072 -0.4054631 -0.34408408 -0.42636496 0.34269345
0.57798713 0.6266737 0.41551238 -0.3177577 0.11316367 -0.47855443 0.30875474 0.17638998

fc_layers.0.bias f4 [32]
00000000: 6c41 febd a95c ee3d 0942 41be 5802 0c3e
00000010: 7de0 a8bd 63b5 153d 9e52 2abe 633b ae3c
00000020: 77eb 80bd 9483 02be 7e75 bebc 1124 3dbe
00000030: 6313 363e d64c a23d 5946 a7bd 2b99 96bd
00000040: cc24 2fbe 34a5 e8bd 157b 41be 6b1a 7d3d
00000050: c309 a03c 34b4 f8bd 2158 d73b 81df acbd
00000060: 6a1c 6dbe eda7 6dbe 05c2 b33c 19ae 62be
00000070: e035 4abd 3361 cbbc 1219 30be 1e3b acbc
-0.12414822 0.11638767 -0.18872847 0.13672769 -0.08245943 0.036549937 -0.16633078 0.021268552
-0.06294911 -0.12745506 -0.023249384 -0.1847079 0.17780833 0.079248115 -0.081677146 -0.07353433
-0.1710388 -0.11359635 -0.18894608 0.061792772 0.019535905 -0.12143746 0.006571785 -0.084410675
-0.2315537 -0.2320859 0.021943102 -0.22136725 -0.049367785 -0.024826622 -0.17197064 -0.021024283

fc_layers.1.weight f4 [16, 32]
00000000: f805 413f 36bd fdbd a540 cd3e 9291 82bf
00000010: 213d c7be 3934 4bbe 8274 9cbe 727c b73e
00000020: 43ff 0e3f af8e 623f 7edf ae3d 91d5 2e3f
00000030: 45c0 143d 50c7 1b3f c3e3 363f 617e 8b3e
00000040: f132 64be 3173 043f 7120 043e 9cc4 433e
00000050: ddd0 573f 7a01 3e3d 6a9c c73e 75c0 833c
00000060: f173 353e 1e80 ea3e 31e2 ba3e 007c 023e
00000070: 9feb 19bf 8b58 f33e 16b6 f63d e72f 283f
00000080: fe39 7c3f edb2 46bf 8522 193f b3a1 223e
00000090: 8280 c13e 9878 b7be 2f93 2e3e 7793 103f
000000a0: 9804 383f 6c4f 373f f748 e5be 9034 4a3f
000000b0: 55cd 38be f402 153f 4bfc 503f 2a8e 1f3e
000000c0: 1e26 af3e 5f74 8a3f da6f 9e3e 6203 cf3e
000000d0: ed1d e63e 1987 24bd 0c8a a13e f52a 87be
000000e0: 7e8c b43e 3ddc 983e de22 033e b667 a63e
000000f0: 27c7 ffbc 2362 503f 8564 093e b2a8 8c3e
00000100: 2a44 613f 1332 29bf 4941 2e3f b286 af3d
00000110: 0739 a73e 8e08 a1be bb6c 323e ff3a 003f
00000120: c3d2 0d3f 9103 1d3f 98c1 02bf 44b9 3e3f
00000130: 5229 06be 6039 263f 048e 533f f3c7 893d
00000140: 6ee1 103f 3373 8c3f 55f0 343e 716c bd3e
00000150: ec7b 063f 7d2f 93bc 537c 213e 999c d9bd
00000160: 7b62 da3e 3973 e13e d007 083e ce55 a13b
00000170: fd83 2c3e bbea 4d3f f6c2 823d 1824 b93e
00000180: ad94 83be b567 5f3e 966c 6abf c83f 1f3f
00000190: d04f 37bf 592f 0d3f 4918 abbf 3a98 7e3f
000001a0: 3f49 05bd c562 153d 9120 92bf a11a 8d3d
000001b0: de4e 5f3f 2282 423f 3c41 303f 69a7 36bf
000001c0: 5664 a9bf 2a37 e93e 659a cdbe 3bb5 653f
000001d0: 52e5 3b3e 2b8a 79bf ad22 a3bf a0e0 93bf
000001e0: 862c 47bf c348 20bf c780 c9be 0f89 39bf
000001f0: 90a0 66bf c0a5 38bf 3248 43bf b6c4 083f
00000200: c238 04bf f53e 853e 1b23 9abf bcfc c53e
00000210: f47f b93e 963a 6b3f 219f 2abf 8ffa 2e3f
00000220: 40f8 1a3f d0d5 c1bd 2d79 f6bf a339 813f
00000230: 433a 4e3f a584 e53e fee3 7dbd c0a6 a1be
00000240: 2027 e0be aa46 48bf 5a6f 52bf b9ad 6ebe
00000250: 3f23 a13e 551e b0be ec72 393e 9b91 93be
00000260: 86c3 23bf 4db3 1c3c 8b8a e6bf 3121 863e
00000270: b1dc e53e 0107 92bf e05d 44bf 7523 223f
00000280: 3fe8 1a3f 29cc 0dc0 d880 88bc b26e 14bf
00000290: 6815 5bbe 867e a3bf 48d6 8b3e 719e 783e
000002a0: 322a 583e 9f47 033e d3ee 923e b4b0 6f3e
000002b0: 90e2 25be 20b8 373f b4bf 773e a9ff dcbd
000002c0: b74b d6be ebae 803e 9ab4 7b3f 87ae f93d
000002d0: 5945 1e3f b80f 8e3e 59a3 a63e 139f 813e
000002e0: 31a5 123e 3a52 123f 5ec5 ea3e c753 343f
000002f0: 4b63 33be 8028 983e 204f 0c3f ee09 943f
00000300: 8e34 3cbe 278e 403e 376e e63e 1854 513f
00000310: b5e1 09c0 3422 2c3f ac50 873f c501 0abf
00000320: 7409 c0bf c53f 0ebe 6b23 1b3f d008 553d
00000330: 8b98 5a3d b7fd 2dbe bd1f 20bd b3b1 993f
00000340: eb2c 103f 31c9 49bf e842 ad3e 4ca4 debe
00000350: da11 37bf 4293 023f b353 0a3f 7baa 573f
00000360: fb94 2cbf 4f23 99be 7f06 643f 94f4 0abf
00000370: f0bc 2f3f 5105 9f3e 2116 053f ddda eabf
00000380: be27 b83e 0e2d f83e 1d28 04bf 2c68 0b3f
00000390: 34c8 80bf 5560 123f db35 8fbf 04b1 393f
000003a0: 1b08 3e3d e6bf b4bf aeb8 b9bf d901 95be
000003b0: d363 193f af73 463f 78e2 c0be cb26 20c0
000003c0: 99a0 d33d 258a 14bf 0639 7abf e8f3 263f
000003d0: b2c3 f33e 6ea0 0bbd 0b91 42be 7142 84bf
000003e0: 28fb d9be ad64 debd b8cc 17bf b339 14be
000003f0: 75eb 55bf 7e13 56bf f7d5 97be 2f99 333f
0.7539973 -0.12389605 0.40088382 -1.0200675 -0.38913825 -0.1984414 -0.30557638 0.35837132
0.5585825 0.8849897 0.085387215 0.68294626 0.036316175 0.60851 0.71441287 0.27244857
-0.22285058 0.5173827 0.12903 0.1911797 0.84303075 0.046388127 0.38986522 0.016082982
0.1772001 0.4580087 0.36500695 0.12742615 -0.60125154 0.4752849 0.12046449 0.65698093
0.9852599 -0.7761677 0.598183 0.15881996 0.37793356 -0.35834193 0.17048334 0.56475013
0.7188201 0.71605563 -0.4478223 0.78986454 -0.18047078 0.5820763 0.8163497 0.15581575
0.3420877 1.0816764 0.3094471 0.40432268 0.44944707 -0.0401679 0.31550634 -0.2639996
0.35263437 0.29855528 0.1280627 0.32501 -0.031222893 0.81399745 0.13417251 0.27472454
0.87994635 -0.6609203 0.6806837 0.08570613 0.32660696 -0.3145184 0.1742429 0.5009002
0.5539972 0.61333567 -0.5107665 0.7450144 -0.131017 0.649313 0.82638574 0.067275904
0.5659398 1.0972656 0.17669804 0.36996797 0.5253284 -0.01796698 0.15770082 -0.10625572
0.4265326 0.4403322 0.1328423 0.004923559 0.16847225 0.80436295 0.06384842 0.3616035
-0.25699368 0.21816905 -0.9157194 0.622067 -0.7160616 0.5515037 -1.3366786 0.9945103
-0.032540556 0.036471147 -1.1416188 0.06889845 0.87229717 0.75979817 0.6884954 -0.713492
-1.3233745 0.455499 -0.40156856 0.8972966 0.18349198 -0.9747645 -1.2744957 -1.1552925
-0.7780231 -0.62611026 -0.39356062 -0.7247476 -0.9008875 -0.72127914 -0.76282036 0.5342516
-0.51649106 0.26024595 -1.2041963 0.38669384 0.36230433 0.9188627 -0.6664906 0.6835107
0.6053505 -0.094646096 -1.925573 1.0095714 0.8055765 0.44827762 -0.06198501 -0.31572533
-0.4377985 -0.78232825 -0.8220116 -0.23308457 0.31472203 -0.34398142 0.18110245 -0.28822026
-0.6397022 0.009564233 -1.801103 0.26197198 0.44894937 -1.1408387 -0.7670574 0.63335353
0.6051063 -2.215586 -0.016663 -0.5798141 -0.21394885 -1.2772987 0.2731192 0.2427919
0.21109846 0.1282029 0.28697833 0.2340725 -0.16199708 0.7176533 0.24194223 -0.10790951
-0.4185464 0.25133452 0.9832245 0.121914916 0.61824566 0.27746367 0.325465 0.25316676
0.14320828 0.5715672 0.45853704 0.70440334 -0.17518346 0.297184 0.54808235 1.156553
-0.18379423 0.18804227 0.45005962 0.8176894 -2.154401 0.6723969 1.0571494 -0.5390895
-1.5002885 -0.13891514 0.6060092 0.052010357 0.053368133 -0.16991316 -0.039092768 1.2007354
0.5631854 -0.7882262 0.33840108 -0.43484724 -0.71511614 0.5100595 0.54033965 0.8424451
-0.67414826 -0.2990975 0.8907241 -0.54279447 0.6864767 0.31058744 0.5198689 -1.8348042
0.3596782 0.48471874 -0.5162371 0.5445583 -1.0061097 0.5717824 -1.118831 0.7253573
0.04639445 -1.4121063 -1.4509485 -0.29102972 0.59917945 0.7752027 -0.37672782 -2.5023677
0.10333366 -0.5802329 -0.9774326 0.6521592 0.4761024 -0.034088545 -0.19000642 -1.0332776
-0.4257443 -0.10859046 -0.5929675 -0.14475136 -0.83562404 -0.8362349 -0.2965543 0.70155615

fc_layers.1.bias f4 [16]
00000000: e43b f3bd 8ff6 3c3d c293 de3b 4a1f bf3d
00000010: baf8 033e b305 55be 4a62 bbbc feac 913b
00000020: 93fd 3f3d 5dee 053e e7d4 893d 7b60 38bd
00000030: 2cdd 2abc 8811 05bd bc62 9cba 1eb7 78bd
-0.118766576 0.046133574 0.0067925164 0.0933214 0.1288785 -0.20802955 -0.022874016 0.004445671
0.046872687 0.1307921 0.06730061 -0.045013886 -0.010428708 -0.032487422 -0.0011931281 -0.06072151

affine_output.weight f4 [1, 48]
00000000: a923 52bf 2987 1bbf af42 18bf 090f 2640
00000010: a977 f13f 23af cfbf 568c e23f 2da0 0c40
00000020: 9158 e23f 6340 fb3f fa18 54bf 9416 1d40
00000030: 312c 2c40 6edb 0840 a025 21bf 5101 3ebf
00000040: 2169 543f 7dd3 7dbf 9f05 8dbf 916d 6c3f
00000050: c3cd 61bf 7a0a 74bf b63e 80bf 6d2f 5a3f
00000060: f77b 7bbf 2d52 453f 0326 5ebf 7be7 85bf
00000070: 07b0 983f ad02 813f 9e96 5bbf 5168 553f
00000080: ee11 7a3f 5cd5 8c3f 43e1 623f ccd2 233f
00000090: 31fa 6e3f e287 ae3f b25b 893f a124 5fbf
000000a0: 2ba6 873f 3ee6 963f 5a37 743f c238 953f
000000b0: de6f 8c3f 3e88 7bbf ab01 893f fc80 7d3f
-0.82085663 -0.60753113 -0.5947675 2.5946677 1.8864642 -1.6225322 1.7699077 2.1972764
1.7683278 1.9629024 -0.8285061 2.454503 2.6901972 2.138393 -0.62948036 -0.7422076
0.82972914 -0.9915083 -1.101734 0.92354685 -0.8820459 -0.95328486 -1.0019138 0.85228616
-0.9823603 0.77078515 -0.8677675 -1.0461267 1.1928719 1.0078942 -0.857767 0.833623
0.9768361 1.1002612 0.8862497 0.63993526 0.9335051 1.3635218 1.0731108 -0.87165266
1.0597585 1.1789014 0.9539696 1.1657946 1.0971639 -0.98254764 1.0703634 0.9902494
