checkpoints/NeuMF_Epoch9_HR0.2011_NDCG0.1914.model (torch, 510215 bytes, 9 tensors)

embedding_user_MF.weight f4 [51, 32]
000000 88 b0 49 bf ae 67 24 be 3d 6b b2 3f d6 c7 b8 bf
       -0.7878499 -0.16055176 1.3938977 -1.4435985
000010 7a 1d 18 c0 55 20 9e bf c5 32 95 3f 00 f5 ef 3e
       -2.376799 -1.2353617 1.1656119 0.46866608
000020 6f 68 5e bf b7 5a 4d 3e 76 31 74 bf fe e8 75 bf
       -0.86878103 0.20054136 -0.9538797 -0.9605864
000030 c8 73 92 3f 27 f4 78 3d e8 6c ba 3f 85 da 20 bf
       1.1441584 0.060779717 1.4564486 -0.62833434
000040 a7 1a 94 bf f5 9d 79 bf 98 4d f7 3e 17 7c 59 3f
       -1.1570634 -0.9750665 0.48301387 0.8495497
000050 de b6 6c 3d f3 ec 40 be ea 3d 85 3f 39 6a ca 3d
       0.057791583 -0.18840389 1.040952 0.098835416
000060 dc 6f c4 bf 41 84 f4 3f f6 84 28 be d4 96 be 3f
       -1.5346637 1.9102861 -0.1645697 1.4889779
000070 14 43 ca 3e 8d 59 07 bd 13 50 af 3f 29 b8 90 3f
       0.39504302 -0.033044387 1.3696312 1.1306201
000080 cb 94 09 c0 a7 ce 66 3f 8e df 95 3f 87 4c 95 3f
       -2.1497066 0.90159076 1.1708848 1.1663979
000090 c4 06 02 c0 b0 ff 77 bf d2 74 fb bf bb 84 58 3f
       -2.031663 -0.96874523 -1.9645026 0.8457753
0000a0 d6 42 63 be 3b 30 9d bf 19 b6 a5 be b7 3c 24 bf
       -0.22193465 -1.2280344 -0.32365492 -0.64155143
0000b0 48 da bb bf 4a 7f 10 bf 9e 64 8b 3f 12 78 72 c0
       -1.4675989 -0.5644423 1.0890081 -3.7885785
0000c0 84 8a 20 c0 d8 26 ee 3f 43 fb 10 40 17 c4 22 bf
       -2.5084543 1.8605604 2.2653358 -0.6358046
0000d0 20 94 cf 3e c4 59 c2 be 2e c5 9f be ac a5 54 3d
       0.40542698 -0.3795911 -0.31205124 0.05191581
0000e0 c9 08 97 bf 99 2e cd 3f e7 fc 55 3d 3e fa 81 bf
       -1.1799556 1.6029845 0.05224314 -1.0154493
0000f0 aa 6f 55 bf 4c 23 0e be 0f 82 2e 40 ba b2 a5 3e
       -0.8337351 -0.13880652 2.7266881 0.3236292
000100 b7 a6 da 3e e9 38 84 3d 5a 44 43 bf 5e d4 5d 3e
       0.42705318 0.06456167 -0.7627617 0.21663043
000110 4c 9d a0 3f dc 56 35 3f 69 5e 0c 3f 7f e7 8b 3f
       1.2548003 0.7083566 0.5483156 1.0930022
000120 a6 68 8c bf 6f 31 f6 3c 8c e3 9c 3f 11 0b c1 bf
       -1.0969436 0.030052869 1.2256942 -1.5081502
000130 88 47 fb 3e aa 4b a4 3f 45 23 aa 3f 93 7e 2f bf
       0.49078012 1.2835591 1.3292013 -0.6855251
000140 08 b7 54 bc 2f fb aa bf 58 ef fa 3e d9 c8 2e 3f
       -0.012983091 -1.3357905 0.4901073 0.6827522
000150 6e ee ab 3e 4f 7d f3 bf 1f 5a 1d bf 79 87 f7 3e
       0.33580345 -1.9022616 -0.6146564 0.48345545
000160 9e 8f f7 be b6 89 08 3f 49 6a 46 3f c9 fa 54 bf
       -0.4835176 0.5333513 0.7750593 -0.8319517
000170 f1 58 1b bf 67 3d 90 3f 74 a1 d1 bd 96 03 2f 3f
       -0.6068259 1.1268739 -0.10235873 0.68364847
000180 f6 7e 1d bf 38 a3 cb bf b4 7d bb 3f 8a d8 17 3f
       -0.6152185 -1.5909185 1.4647737 0.5931479
000190 c6 35 88 be c6 14 cf 3b 3f 6d 08 bd 23 67 52 3f
       -0.26603526 0.006319615 -0.03330731 0.82188624
0001a0 14 a8 ca be 7b 82 cf be ed a8 79 bf 89 ea 9f 3f
       -0.39581358 -0.40529236 -0.97523385 1.249345
0001b0 c7 0e c2 bf ae a7 57 3e a8 52 38 3f bc 8e 7b 3d
       -1.516076 0.21060058 0.72001123 0.06141542
0001c0 08 46 06 c0 6c 8d 15 3f a0 79 95 bf ad 51 70 bf
       -2.0980244 0.5841892 -1.1677742 -0.9387463
0001d0 2a 4e e5 bf e6 d5 96 3c 47 4a 9a 3f 00 72 cc be
       -1.7914479 0.018412542 1.2053918 -0.39930725
0001e0 97 d7 95 be 0f 9d 78 3f 67 b0 e1 3f 66 38 86 3f
       -0.29266044 0.9711465 1.7631959 1.0485961
0001f0 a9 60 6d 3f 8f 33 97 3f 5f 93 e3 be 4a 7c 99 bf
       0.92725617 1.181261 -0.44448373 -1.1991055
000200 fa 04 05 c0 3e 26 23 bf c6 81 58 3f 9f 8d ed 3d
       -2.0784287 -0.6373023 0.8457302 0.11599278
000210 ff d9 fd bf f4 4c 0e c0 7a 8c 83 3e 24 d0 8f be
       -1.9832152 -2.2234468 0.25693113 -0.28088486
000220 4f f1 0d 40 f4 5e 50 40 b4 ca 3f 3f f4 ad 09 3e
       2.2178533 3.2557955 0.74918675 0.13445264
000230 da 3b 94 bd 79 ca a4 be c3 0f 60 be 00 3a 26 3f
       -0.07237978 -0.32185724 -0.21881013 0.6493225
000240 12 de 31 40 ef 3e 4e 40 fc 67 e3 bf 5d fe 79 40
       2.779179 3.2225912 -1.7766109 3.90615
000250 98 07 77 40 64 73 46 c0 ad 40 10 3f 50 35 ed be
       3.8598385 -3.100793 0.5634869 -0.46329737
000260 bd 02 37 bf 56 03 56 bf ae ca a2 3f c0 88 8a be
       -0.71488553 -0.8359884 1.2718103 -0.27057457
000270 c8 d5 ba bd 7b da a6 bf d2 18 f5 3e 42 74 91 3e
       -0.09122807 -1.3035425 0.478705 0.2840901
000280 11 ec 5b bf f9 c1 8a 3f a3 ae c7 bb 89 e0 ad 3e
       -0.85907084 1.0840446 -0.0060938164 0.3396037
000290 54 2b bc be 57 76 8d 3f ab 43 ec bf 10 82 f0 bf
       -0.36751807 1.105174 -1.8458151 -1.8789692
0002a0 fb ac 4a bf 2d 27 17 40 b2 52 40 bf a0 50 9f bf
       -0.791702 2.361766 -0.75126183 -1.244648
0002b0 7f 21 92 bc 89 ec 62 bf ee 2c 02 3f b2 0e cd bf
       -0.017838238 -0.88642174 0.5084981 -1.602011
0002c0 cf 58 cb 3f 4b db af 3e 8d ff 20 c0 12 55 9e 3f
       1.5886477 0.34346995 -2.5155976 1.2369711
0002d0 20 f2 8d bf f1 ed 3c be ab 9d d5 be ec 81 3f 3f
       -1.1089516 -0.18450142 -0.41721854 0.7480762
0002e0 f6 fc 56 bf fe 1d b5 3f d9 a9 13 bf 53 4d dc 3e
       -0.8397974 1.4149778 -0.5768104 0.43027744
0002f0 ea 3d 03 40 4f 44 8b 3f 8c 1b e3 be 60 9b cf 3f
       2.050654 1.0880221 -0.44356954 1.6219292
000300 7f 8b b4 bf d3 7a 17 be 8e 62 26 3f 75 6c 40 3f
       -1.4105071 -0.14792947 0.6499413 0.7516549
000310 c0 1a 1f 3f 97 dd 85 3f 4b 82 21 3e 9f 9f b3 be
       0.6215019 1.0458249 0.15772359 -0.3508272
000320 58 4a c2 be 57 d7 86 bf 25 87 17 bf 18 56 17 3f
       -0.37947345 -1.0534467 -0.5919059 0.59115744
000330 22 41 1e 3f fd ba b2 be 3b a3 08 c0 01 e4 9e bf
       0.61818135 -0.34908286 -2.1349628 -1.2413331
000340 e4 b4 88 bf d0 da 57 3f 2a ab 99 bf 96 be 39 3f
       -1.0680203 0.84318256 -1.200536 0.72556436
000350 34 9d b6 3e e9 3c ac bf 9f 48 06 c0 80 e9 86 3e
       0.3566681 -1.3456088 -2.0981824 0.2635002
000360 b0 d1 59 3f fd d1 2a be 5b f5 53 3d 59 aa 67 be
       0.8508558 -0.16681667 0.05174766 -0.22623576
000370 47 a5 fa bd 62 6a d9 3e 20 7b ab 3f e6 4d bb bf
       -0.122385554 0.42463976 1.339695 -1.4633148
000380 36 51 b9 be f2 ae 32 40 2e d8 90 bf 2e 43 bb bf
       -0.36194772 2.7919278 -1.1315973 -1.4629877
000390 f3 cf f8 be 8d e9 0c 3e 6e de 9d 3f 1a 0f 5b bf
       -0.48596153 0.13760968 1.2333505 -0.8556992
0003a0 95 57 3f be bb e2 1a 40 c9 d7 83 3f 05 0d 4e c0
       -0.18685754 2.4200885 1.0300227 -3.2195446
0003b0 f8 0c ba bf e2 b4 ff 3e 24 5e c8 bd 18 bb 58 3f
       -1.4535208 0.4994269 -0.09783581 0.8466048
0003c0 78 79 29 c0 02 af 3d 40 d9 4d b4 bf ec b4 cc be
       -2.6480389 2.9638066 -1.4086257 -0.39981782
0003d0 ec f1 5b be 2a 64 d0 3f 7a 0c 54 3f d1 d7 9f bf
       -0.21479005 1.6280568 0.8283154 -1.2487737
0003e0 7d af a7 bf 84 52 84 3f 72 6c a2 3f a6 ad 9e bf
       -1.310043 1.0337682 1.2689345 -1.2396743
0003f0 dc 84 08 40 b7 fc 28 bd a6 db a8 bd cc 1d ab 3f
       2.133109 -0.041256633 -0.082450196 1.3368468

embedding_item_MF.weight f4 [1889, 32]
000000 1d 45 b9 bf f5 03 17 bf 99 9f 70 bf 2f 7a 15 bf
       -1.4474217 -0.5899041 -0.93993527 -0.5838956
000010 3c 93 76 bf b4 cc a1 bf 0c 0d b0 bf 95 b6 bd bf
       -0.9631841 -1.2640595 -1.3753982 -1.4821345
000020 8c 26 10 3e 4a 16 bb bf ee 42 7d bf af e1 ce 3f
       0.14077204 -1.4616177 -0.9893025 1.6162623
000030 ce 1f 17 40 ab 63 d7 3e cf 3f 62 3f ac c9 21 c0
       2.3613162 0.42068228 0.88378614 -2.527934
000040 8a 62 49 c0 1f 2b 3e 3f 23 f8 00 3f b7 c8 9a bf
       -3.1466393 0.7428455 0.50378627 -1.2092503
000050 b7 05 ad 3f 85 30 26 bd 97 f4 b5 3f 47 8d f8 bf
       1.3517369 -0.040573616 1.4215268 -1.9418114
000060 ca c7 b0 3f 40 b2 8b 3f ee 0f ef be 5e 3e 7a 3f
       1.3810971 1.0913773 -0.4669184 0.97751415
000070 a0 9f c2 be ae 03 c7 be 47 38 40 3f 98 fb 82 bf
       -0.3801241 -0.38869995 0.7508587 -1.023303
000080 6f 98 6c 3f 7c 16 df bf e4 0d 80 bf b5 ab 0a 3f
       0.92420095 -1.7428737 -1.0004239 0.54168254
000090 ab 8e 66 3e 8e e5 d4 3e 00 41 ae bf 50 f6 97 be
       0.22515361 0.41581386 -1.3613586 -0.2968011
0000a0 fe 52 dd 3d 43 ac 41 3f 73 25 ac bf 80 aa 35 bf
       0.10806845 0.75653476 -1.3448929 -0.7096329
0000b0 a0 8f dd 3f b8 6c e7 bf 52 56 05 c0 c2 31 07 3f
       1.7309456 -1.8080053 -2.0833936 0.528103
0000c0 fe e5 e6 3e 24 5e 14 bf f6 ec 58 bf 6d e2 88 3c
       0.45097345 -0.5795615 -0.84736574 0.01670953
0000d0 cd 64 07 c0 3c 54 eb 3f b9 bb 69 bd d8 3d 99 bf
       -2.1155274 1.8385081 -0.057063792 -1.1971998
0000e0 2e 5a df 3e db 6c 2b 40 dc 2e f1 3e 56 56 04 3f
       0.4362349 2.678519 0.47106063 0.5169424
0000f0 f9 42 2f be 20 4d 4e bd 60 e7 24 bf cb ba 56 3f
       -0.17115392 -0.05036652 -0.6441555 0.83878773
000100 2f cc 99 3f f0 1e b8 bf da 15 4a 3f 52 17 97 bd
       1.2015437 -1.4384441 0.7893959 -0.07377495
000110 96 35 00 40 7a ca f0 bf 10 59 95 3f 5d 67 74 be
       2.0032706 -1.8811791 1.1667805 -0.23867555
000120 0d 5c b3 be a8 f4 fa 3f ea 6f 10 3f 78 88 51 3f
       -0.35031167 1.9605913 0.5642077 0.8184886
000130 a1 b3 af 3d b5 c1 92 3e c8 d9 17 bf 35 91 3d 3f
       0.08579183 0.28663412 -0.5931668 0.74049693
000140 bc 1b 4c 3f c0 71 45 c0 12 d8 6a be 3b a5 75 bf
       0.7972982 -3.0850677 -0.22933987 -0.95955247
000150 d5 f7 01 40 a8 bd 0f c0 1e 1f a7 3f 5c f8 14 c0
       2.0307515 -2.2459507 1.3056371 -2.3276587
000160 d8 01 19 3e ec d3 60 3f 55 01 9b 3f bd f3 97 3f
       0.1494211 0.8782337 1.2109782 1.1871258
000170 27 60 06 3f f6 f2 32 40 2b cf 74 3e 7d 03 cf 3e
       0.52490467 2.7960792 0.23907153 0.4043235
000180 9a fa 02 3c 5e 88 31 3f 6d a2 2f 3d 9a ae 12 be
       0.007994318 0.69348705 0.04287951 -0.14324418
000190 95 d8 2e 3d 83 e8 c3 bf 01 88 5f 3e 92 f6 00 3e
       0.042687017 -1.5305332 0.21829225 0.12594059
0001a0 dc 9c fd 3f e7 1a dd 3f 36 81 23 bf 1c 78 e0 3f
       1.9813495 1.7273835 -0.63869035 1.7536654
0001b0 01 f6 91 bc 56 b1 03 c0 c0 8d 0e bf 98 a4 fe be
       -0.0178175 -2.0576987 -0.55685043 -0.4973495
0001c0 0f 3a e4 3e b3 b7 06 3e 2e 01 2d bd 36 91 57 be
       0.44575545 0.13156013 -0.042237453 -0.21051487
0001d0 ca 16 eb 3e 82 4d 8e bf 5a dc 28 bf 18 36 a8 3f
       0.45915824 -1.1117404 -0.6596123 1.3141508
0001e0 59 1e 4a c0 0c 1e f8 bd 44 78 31 c0 fa d0 26 3e
       -3.1581023 -0.12115106 -2.7729654 0.16290656
0001f0 14 7b 37 40 49 78 41 c0 d4 13 6b 3e e2 b1 a9 3f
       2.866887 -3.0229666 0.22956783 1.325741
000200 1d fc 55 bf fc a6 07 40 a6 e1 3b 3e 42 1c ba 3f
       -0.8358782 2.119567 0.18347797 1.4539874
000210 e2 d8 93 3f 7c 1e ce bf 41 63 a1 bf 36 b2 30 be
       1.1550562 -1.6103053 -1.2608415 -0.17255482
000220 a7 75 bf 3e 97 ff a5 3e db 9a da 3f 2b 03 35 bf
       0.3739445 0.32421562 1.7078508 -0.7070796
000230 43 d3 ac 3e 76 eb 80 40 2d a0 41 c0 0a 0a 3f 3f
       0.3375493 4.028743 -3.0254014 0.74624693
000240 dc e1 03 bf a5 55 ed bf ad 74 0b 3f dd c2 dd 3e
       -0.5151651 -1.8541762 0.5447491 0.4331273
000250 e8 3b ea be 99 fb 95 be ad e3 b5 be 0b 3a f8 be
       -0.4574883 -0.29293516 -0.35525265 -0.48481783
000260 dd ef 10 3e 98 be ba 3e af 5c 4e 3f c2 92 55 be
       0.14154 0.36473536 0.80610174 -0.20856765
000270 27 a3 29 3f 44 61 2f c0 b4 bf 0f bf e2 db ab 3f
       0.66264576 -2.7403116 -0.5615189 1.3426478
000280 16 e2 03 3f 17 3c 37 bf 92 df 37 bf f8 1f 83 bf
       0.51516855 -0.71576065 -0.71825516 -1.0244131
000290 9a 13 db be ed 97 e9 3f 6d 0b 85 3d a5 0e 95 bf
       -0.42788392 1.8249489 0.0649632 -1.1645094
0002a0 c3 c1 ff 3f 32 f8 e2 3f e0 d4 79 bf d7 fb c0 3e
       1.9981006 1.7731993 -0.97590446 0.3769214
0002b0 bc a4 ea be 61 84 14 40 f6 da e9 bf 5d 98 fe 3e
       -0.45828807 2.3205798 -1.8269947 0.4972562
0002c0 44 dc e8 bd 31 f8 8b 3f c6 b1 48 bf 04 81 7a be
       -0.11370137 1.0935117 -0.7839626 -0.24463278
0002d0 c6 ce cb be 62 c5 88 3f 47 60 38 bf 1c 02 62 3f
       -0.39806193 1.0685236 -0.7202191 0.8828447
0002e0 6c 3f 73 bf 9b eb 1d 40 4c da c6 bf ed 76 0c bf
       -0.9501865 2.4675052 -1.5535369 -0.54868966
0002f0 18 bd 74 3d fc 16 76 3d 13 85 6e 3f 17 57 14 bf
       0.059750646 0.060080513 0.93171805 -0.5794539
000300 b4 b6 f2 be ee 20 13 bf 4c 8a a1 bf 8a 5f 10 c0
       -0.47405016 -0.5747212 -1.262033 -2.2558312
000310 78 53 63 3e 62 d4 c7 3f 30 72 d3 be ef 30 1a 3f
       0.2219981 1.5611689 -0.41298056 0.60230917
000320 ee 12 ab 3e bd 86 d1 bf 31 6c 7c 3f 6a a9 ae be
       0.3341288 -1.6369244 0.98602587 -0.34113628
000330 97 59 f5 3f b3 82 31 c0 7b 09 72 3e c9 4c a4 3e
       1.9167966 -2.7736022 0.23636429 0.32089832
000340 b5 c1 dd 3e 70 87 0a c0 ad d3 86 bf 62 9a 4b bf
       0.4331185 -2.1645164 -1.0533348 -0.79532444
000350 3a 98 95 bf b7 23 cc be 49 b0 93 3e 47 f6 09 3f
       -1.1687081 -0.39870998 0.28845432 0.53891414
000360 b5 50 39 bd 7f 1e 72 3f d5 84 8d 3f 69 b4 9f bf
       -0.045242984 0.94577783 1.1056162 -1.2476932
000370 54 8c 89 3e 7f e7 7f 3d eb 42 9c bf a8 ac 1b be
       0.26864874 0.06247663 -1.2207922 -0.15202582
000380 6e c8 44 c0 51 46 a6 3f 93 67 0f c0 16 dd a4 bf
       -3.0747333 1.2990209 -2.2406967 -1.287997
000390 90 2e 7a 3f 28 7e fc 3e 97 cc 20 bf d9 5c 54 3f
       0.977273 0.49315 -0.6281218 0.82954174
0003a0 e7 13 0a 3f ea ff 0d 40 73 ba 16 be 48 79 8a 3e
       0.5393662 2.2187448 -0.14719562 0.27045655
0003b0 07 cb dc bf 2d e6 55 3f 2e a8 2f 3e f2 7c cb bf
       -1.7249459 0.83554345 0.17153999 -1.5897505
0003c0 8f 90 27 bf 82 17 b0 bf 3c 34 de be d8 60 00 3f
       -0.65454954 -1.3757174 -0.43399227 0.5014777
0003d0 fe 77 c6 3e 57 4c 7f 3f 6b 37 ab bf e7 6f c0 3e
       0.38763422 0.9972586 -1.3376287 0.37585375
0003e0 8c a9 ec be b5 b2 b6 3e 38 f3 9b 3d 51 18 12 3f
       -0.46223104 0.35683218 0.0761475 0.57068354
0003f0 c3 94 36 3f b7 f3 bd bb d0 67 21 c0 a3 b9 a6 bf
       0.7132074 -0.0057968753 -2.5219612 -1.3025402

embedding_user_MLP.weight f4 [51, 32]
000000 72 fb b7 bf 12 16 b4 3f 24 ff b5 be 65 15 88 bf
       -1.437361 1.4069235 -0.3554622 -1.0631529
000010 7b c7 b0 3e 74 f0 2f bf 58 61 16 bf 30 a4 96 bf
       0.34527192 -0.6872628 -0.58742285 -1.1768856
000020 5e 1d c4 3f 30 82 e6 bf ba e3 6f be c2 ee 30 bf
       1.5321462 -1.800848 -0.23426715 -0.69114316
000030 72 35 be bd 53 28 ac bf 0d cd ce 3f 72 d8 84 bf
       -0.09287538 -1.3449806 1.6156327 -1.0378554
000040 82 a2 61 3e 0b b5 03 3e 53 31 65 be e5 c6 ec 3e
       0.22034648 0.12862031 -0.22382097 0.46245494
000050 19 64 9c be 48 39 94 bf 3d d8 9b 3f f1 c3 0f c0
       -0.30545118 -1.1579981 1.2175366 -2.2463343
000060 70 bb 31 bf a0 1d 3c 3f da 22 1f 3e 0b 6e db be
       -0.6942663 0.73482704 0.15540639 -0.42857394
000070 1d 9f 34 bd 93 ba 33 bf a3 63 46 3e 33 a0 f6 3d
       -0.044097055 -0.70206565 0.19373946 0.12042274
000080 fa 4b 15 3f 24 f7 cf be e7 e4 61 bf b6 f3 59 3d
       0.58319056 -0.4061824 -0.882399 0.053210936
000090 13 31 83 3e ad d1 c7 3e 72 d1 6b 3f db ad e0 bf
       0.25623378 0.39027157 0.92116463 -1.7553056
0000a0 d9 4f fa 3e 30 15 36 bf 0d 5a 86 bf 0b 0f 4a 3b
       0.48889044 -0.7112608 -1.0496231 0.003083172
0000b0 c3 16 da 3f 01 68 9f bf 46 d6 79 bf fa 18 5c 3e
       1.7038196 -1.2453614 -0.9759258 0.21493903
0000c0 21 db 5b bf 7d 37 d0 be 4a a3 43 c0 b5 92 94 be
       -0.8588124 -0.40667334 -3.0568414 -0.2901818
0000d0 e0 7b 9f bd 9a 29 e1 be 5b 40 49 3f 15 56 dd bd
       -0.07787299 -0.43977052 0.78613824 -0.108074345
0000e0 fa 3f 96 bf 1d e6 ae be 1a 53 a2 3f b2 03 f3 be
       -1.1738274 -0.34159938 1.268161 -0.47463757
0000f0 05 f8 5d 3f d7 5d cf 3e 1c f3 98 bf 73 6f ea 3f
       0.8670657 0.40501282 -1.1949191 1.8315262
000100 c5 b9 98 3f d6 55 2f 3f 4c 72 a6 3f b4 f1 be 3e
       1.1931692 0.6849035 1.3003631 0.3729378
000110 2d 12 6d 3f 4b 1c 82 3f 57 36 ef bf e7 16 8b 3f
       0.9260586 1.0164884 -1.8688458 1.0866364
000120 da 32 2e be 57 07 66 3f 97 28 eb bf 9e 6e 58 be
       -0.17011586 0.8985495 -1.8371762 -0.21135947
000130 a3 43 80 3e db f0 3d 3f 46 26 47 3f 6a 36 d7 be
       0.25051603 0.7419564 0.77792776 -0.42033702
000140 0b ee d0 3e 0b 68 cf 3f fa 8f 76 bf 2b fe 2d 3f
       0.40806612 1.6203626 -0.9631344 0.67965955
000150 15 ed 2f 40 43 0d 38 3f e3 6a 49 3f e8 1e 86 bf
       2.7488453 0.71895236 0.7867872 -1.0478182
000160 2c 47 df 3e 7f 4a a5 3e 53 bc 82 3f f6 9d 4b be
       0.43608987 0.32283399 1.0213722 -0.19884476
000170 b3 22 03 40 98 80 98 3d 2d 48 61 3f 51 d6 9c 3f
       2.0489929 0.07446402 0.88000757 1.2252904
000180 9e af 2a bf 5b 7b c3 be aa 68 be be e5 46 8c 3d
       -0.6667422 -0.3818005 -0.37189227 0.068494596
000190 1e 18 62 bf 12 ef a0 be 00 ff 2e be 94 fa 84 bf
       -0.8831805 -0.31432396 -0.17089462 -1.038897
0001a0 92 c7 9a 3d 48 f0 cf 3e 17 14 bd 3e ec d7 f0 bf
       0.07557596 0.40613008 0.3692939 -1.8815894
0001b0 98 7f 1e bf 67 d9 01 bf c0 ea 76 3f d2 fd 32 bf
       -0.6191344 -0.50722355 0.9645195 -0.6991855
0001c0 59 3d 23 3f 30 96 ee 3e 6f ca 8e bf e9 bc 05 40
       0.63765484 0.4659896 -1.1155528 2.0896552
0001d0 b8 e5 a2 3f 17 12 93 be 87 64 3a 3f 16 5a f0 3e
       1.2726355 -0.2872474 0.7280964 0.4694373
0001e0 60 f8 a5 be 83 38 c0 be 05 e0 58 bf 3a 1a 8c 3d
       -0.32416058 -0.37543115 -0.84716827 0.0684094
0001f0 d9 2a 37 bd d3 32 37 be 40 fd d3 bf 57 fe 29 bf
       -0.044718597 -0.17890482 -1.6561661 -0.66403717
000200 9b 2a 1c 3f bc 5a 81 be 81 d0 a4 3f ef 9a 1a 40
       0.6100251 -0.25264537 1.287613 2.4157064
000210 43 9e ef 3f 8f 29 35 bf 0f eb 31 3e bb be c6 bf
       1.8720173 -0.7076654 0.17374824 -1.5526956
000220 b5 2f 16 bf ba 99 9f 3e 76 0b be 3f 83 cc f7 3f
       -0.58666545 0.31171972 1.4847248 1.9359287
000230 b7 7f d3 bd 57 bb 3f be 5c 02 ae 3e dd 5d aa 3f
       -0.10327094 -0.18723808 0.33986175 1.3309895
000240 69 90 93 3f fa fd 9c 3f 4d 12 a9 3e 84 2b 89 3f
       1.1528445 1.2265007 0.33021775 1.0716405
000250 52 f9 4b bf 99 bf 2a 40 ef 1c 5d 3d f0 5a 77 3f
       -0.7967731 2.6679442 0.05398267 0.96623135
000260 1b 74 0c bf 70 0b dc 3e 6f 11 2c be 12 e3 10 3f
       -0.5486466 0.42977476 -0.16803525 0.5659648
000270 b8 75 40 3f 74 61 8a 3f 06 29 f2 3e 5b a4 dc 3e
       0.75179625 1.081099 0.47296923 0.43094143
000280 07 57 a7 be 7d 9a b6 3f b3 2d d1 3f a7 37 0b 3f
       -0.32683584 1.4265896 1.6342071 0.54381794
000290 5a a2 84 3f b0 10 85 bf 4f 68 57 3f 62 ac 82 be
       1.0362046 -1.0395718 0.8414354 -0.25522143
0002a0 2d d5 b6 be 8b c6 43 c0 86 77 98 be ab 27 87 3f
       -0.35709515 -3.058993 -0.2977869 1.0558981
0002b0 cd 4c 8d 3e 93 63 a1 3f e7 87 07 3f 30 04 90 bf
       0.27597657 1.2608513 0.52941746 -1.1251278
0002c0 91 f1 7f 3f 86 28 ae be 31 5a b8 bf 34 c5 81 3f
       0.99977976 -0.34015292 -1.4402524 1.0138307
0002d0 eb 52 ed bf 11 03 3e bf b3 00 45 c0 ae da 91 bf
       -1.854093 -0.7422343 -3.0781677 -1.1394861
0002e0 e6 c0 c2 be 8a 7d 17 c0 c2 45 45 40 dc f9 bf 3f
       -0.38037795 -2.3670373 3.0823827 1.4998126
0002f0 db 56 90 3d 60 02 01 c0 0c 29 b3 3e 72 ef e4 3e
       0.07047816 -2.01577 0.34992254 0.44713932
000300 b2 88 96 3e ca c4 6b bf e6 0b 65 3f dd 58 3f bf
       0.29401165 -0.9209715 0.8947128 -0.7474497
000310 f5 3d 1f 3f aa eb 4d bf f6 11 9b bf fc 0b 98 3f
       0.62203914 -0.8043772 -1.2114856 1.1878657
000320 8d d0 72 bf 68 78 19 3f 1e 7c 24 bf b6 50 70 bd
       -0.94849473 0.5994935 -0.6425189 -0.058670722
000330 49 ac 23 c0 0e ea c1 3e 92 20 69 3f 8d 19 10 bf
       -2.5573905 0.37873882 0.91065323 -0.5628899
000340 c0 07 88 3e 37 72 1f 3b fd a1 bc 3f 7a b9 f9 bf
       0.26568413 0.0024329552 1.4736935 -1.9509728
000350 f6 59 bc 3f bb f0 d3 3f a1 5e 9f 3f 28 9b 7e 3f
       1.4714954 1.655784 1.2450753 0.994555
000360 61 dd 23 be f8 e3 ee bf 88 25 f6 bf 0d 65 df bd
       -0.16002418 -1.866332 -1.9230204 -0.10907946
000370 5d 81 91 bf c1 87 85 3f 41 d4 06 bf 10 02 3b 3f
       -1.1367604 1.0432054 -0.52667624 0.7305002
000380 8e 78 09 c0 ff 9a 82 bf a0 69 aa be 2e 10 c7 3f
       -2.147983 -1.0203551 -0.3328371 1.5551813
000390 5f db ca 3f 32 e0 b6 3f f5 56 c5 3f ff 5f 06 c0
       1.5848197 1.4287169 1.5417162 -2.0996091
0003a0 79 b9 c6 bf 22 6f 30 3f 62 2d a6 3e bd 04 91 be
       -1.5525352 0.68919575 0.324565 -0.28323928
0003b0 a9 a4 af bf 73 a2 15 c0 67 35 a1 3f c6 c2 74 3f
       -1.3722125 -2.33804 1.2594422 0.956097
0003c0 e0 f7 80 bd 56 e5 69 bf 22 8d a9 bf dc 81 29 3f
       -0.062972784 -0.91365564 -1.3246195 0.66213775
0003d0 9e f1 18 bf d2 08 60 3f 24 6c 08 bf ed 8c ce 3f
       -0.5974368 0.8751346 -0.5329001 1.6136757
0003e0 4a 70 ba bf 18 1e e2 be fc 7e 50 bf b9 92 62 be
       -1.4565518 -0.44163585 -0.8144376 -0.22126283
0003f0 b4 86 46 bf f7 27 5d bf 57 97 d5 3e 8b 9d c1 bf
       -0.7754929 -0.86389107 0.41717026 -1.5126203

embedding_item_MLP.weight f4 [1889, 32]
000000 25 2a 1f 40 91 c4 0b 40 ab 89 84 3e cd 50 0f c0
       2.4869473 2.1838725 0.25886282 -2.2393067
000010 45 fb 25 3f 94 57 8f be ab da b4 3f eb 76 c4 bd
       0.6483653 -0.27996504 1.4129232 -0.09592994
000020 d2 90 57 3f 6e bc 14 bd dc f9 e5 be 79 2e 32 be
       0.84205353 -0.036312513 -0.4491719 -0.1740054
000030 68 97 3a c0 f8 3e 60 3f 1d e5 0e bf b6 a5 cf bf
       -2.915491 0.8759608 -0.5581835 -1.6222446
000040 9c 21 af 3f cf ed ce 3f 8c 3c 59 bf 89 d9 2a 3f
       1.3682132 1.6166323 -0.8485801 0.6673818
000050 69 31 a1 3d 1f aa 8a bf 8e 72 19 3f e0 0e 43 3f
       0.07870752 -1.0833167 0.5994042 0.7619457
000060 f3 95 3f be 60 53 02 c0 68 06 44 3e a4 e5 5c bf
       -0.18709545 -2.0363388 0.19143069 -0.86287904
000070 3e fc 2c 3f 05 db 01 40 bc ca 63 bf 0f 22 60 3f
       0.6757239 2.028993 -0.88981223 0.8755197
000080 63 d4 41 3e 96 40 09 3f 0e ba 7f 3f 2e c3 01 bf
       0.18928675 0.53614175 0.9989327 -0.50688446
000090 b4 99 b8 bf a1 59 50 be b8 52 b8 3f b8 3d d7 3f
       -1.4421906 -0.2034669 1.4400244 1.681571
0000a0 fd 38 33 c0 4d e7 94 3e 48 4d 6c bf ee d9 63 3e
       -2.8003533 0.29082718 -0.9230542 0.22251102
0000b0 5b f8 b4 bf 7b ec 86 3e 71 76 ca 3f 43 80 39 bf
       -1.4138292 0.26352295 1.5817395 -0.72461337
0000c0 da 37 89 bd 8d 1b 45 bf e4 3d c2 3f 20 dc e6 be
       -0.06700106 -0.76995164 1.5175138 -0.45089817
0000d0 a8 e7 3b be 93 52 a3 3e 69 01 2c bf a0 d5 2b bf
       -0.18350089 0.31898937 -0.6718965 -0.6712284
0000e0 eb 2e 5c 3f 29 c2 80 be 94 8f a8 3f 00 2a b4 be
       0.8600909 -0.25148132 1.3168817 -0.35188293
0000f0 22 8c 22 bf 77 46 8e 3f 31 20 ed 3e ba c0 45 bc
       -0.63495076 1.1115254 0.46313623 -0.012069875
000100 d6 52 d1 be 03 9a 28 3f 63 40 89 3f 20 5d 87 bf
       -0.4088351 0.65860003 1.0722774 -1.0575294
000110 6b 11 94 3f 0f 96 06 40 3f 71 ce 3f 3d 28 88 3f
       1.1567816 2.1029088 1.612831 1.063728
000120 a4 41 a5 3e 0f 95 8c bf 3a 4e 24 40 cf fa 21 bf
       0.32276642 -1.0982989 2.5672746 -0.6327333
000130 a9 3c 10 3f 50 00 18 3f f0 c4 14 bf 0b 96 97 3f
       0.5634256 0.59375477 -0.58113 1.1842664
000140 07 34 db 3c 2a 08 59 3f e9 97 88 3f 14 94 31 c0
       0.026758207 0.8477808 1.0671359 -2.774663
000150 68 c3 b0 3d da 3f bc 3e 94 d8 27 bf e0 6a 3b bf
       0.08631021 0.36767465 -0.65564847 -0.73209953
000160 6c ad 80 3f 95 fa 04 bf dd 2d b1 3f c9 ad 10 3d
       1.0052924 -0.5194486 1.3842121 0.035321984
000170 4b b6 25 3f cc c0 9a be ac b7 47 bf 42 51 c9 be
       0.6473128 -0.30225217 -0.78014636 -0.39319807
000180 a7 08 f0 3f 52 c0 57 be 82 22 a2 bf 6c 09 0a 3f
       1.875264 -0.21069458 -1.2666781 0.53920627
000190 68 37 4b 3e b3 37 bd bf ba 36 52 3f aa 90 5e 3f
       0.19845355 -1.4782623 0.82114756 0.8693949
0001a0 e3 15 dd be cd 66 2d 3f e6 06 d1 bf 7d fe 34 3f
       -0.4318076 0.67734987 -1.633023 0.7070082
0001b0 27 21 52 3e 0e 20 0a bf 84 cf 33 bf 22 a2 ec be
       0.20520459 -0.5395516 -0.7023852 -0.46217448
0001c0 b6 62 b5 3e a3 f2 99 3e b4 dd ac be 02 4a d6 3f
       0.35426873 0.3006793 -0.33762896 1.6741335
0001d0 96 97 de bf df 4d ba be 6f 65 8d bf ac 2a 15 3d
       -1.739001 -0.36387536 -1.104658 0.03641765
0001e0 7d b3 36 c0 12 7b d9 3e b2 45 5e be aa a4 a6 3f
       -2.854705 0.42476708 -0.21706274 1.3019001
0001f0 2c fc 9e bf 6c b6 96 3e d0 60 37 bf af 0c 86 bf
       -1.2420707 0.29436052 -0.716321 -1.0472621
000200 54 23 84 3f a8 68 7b bf 8f aa c8 bf c8 ab 98 bf
       1.0323281 -0.9820657 -1.567705 -1.1927423
000210 44 f4 aa 3f a9 4b bc bd 59 45 82 3f 58 19 22 bf
       1.3355794 -0.091941185 1.0177413 -0.6331992
000220 67 c2 25 40 c9 d6 fc bf 1d 43 13 bf e3 dc c6 be
       2.5899904 -1.9753047 -0.5752428 -0.38840398
000230 a6 93 f1 be 7b 6f b6 bf 90 7f 1d 3e 5c 9a a2 bf
       -0.4718296 -1.4252771 0.15380692 -1.2703357
000240 98 8f 0c bd 27 7a 2a bf 23 72 2e bf 56 bb dc bf
       -0.03431663 -0.6659264 -0.6814291 -1.724467
000250 ee 77 02 be 02 bf 89 bf 9c 07 28 c0 47 56 9a 3e
       -0.12741062 -1.0761416 -2.6254644 0.3014395
000260 5a 3d 34 bf 76 7c 04 c0 a9 c5 63 bf 35 a9 a0 3f
       -0.70406115 -2.0700965 -0.8897348 1.2551638
000270 54 c2 89 bf d3 f1 59 bf 04 39 35 3e 29 d7 ae 3f
       -1.0762429 -0.8513462 0.17697531 1.3659412
000280 79 47 4c bf 33 dc 05 3e 22 48 dc bf 5d 21 b4 bf
       -0.7979656 0.1307228 -1.7209513 -1.4072682
000290 2b a5 95 3e de 3f e6 3f 03 bf ab 3f 5a a3 c7 bd
       0.29227576 1.7988241 1.3417667 -0.09747954
0002a0 fe 90 a2 3e 36 30 49 3c 49 0d 45 bf 9e 63 55 bf
       0.31751245 0.012279561 -0.76973397 -0.8335513
0002b0 df 89 27 40 d5 95 be be e1 c3 87 be c5 47 44 bf
       2.61779 -0.37223688 -0.2651663 -0.7667201
0002c0 96 3a 93 3f 86 eb 64 3f 7b 98 07 40 ba 79 26 bf
       1.1502254 0.8942188 2.1186817 -0.6502949
0002d0 47 97 b1 3e ed 43 ab 3f 3e a7 e8 be 32 ad f7 3f
       0.34685728 1.3380104 -0.45440096 1.934973
0002e0 88 16 73 3f 90 ba 81 3f 95 22 39 3f 95 7d 44 bf
       0.94956255 1.0135059 0.72318393 -0.7675412
0002f0 33 80 03 bf 8d 9a e5 3e b5 ac 18 bf 33 5e 7c 3f
       -0.5136749 0.44844475 -0.5963853 0.98581237
000300 16 b1 4f bf 33 21 22 3f bf 1e a0 bf f0 c8 9c 3e
       -0.81129587 0.6333191 -1.2509383 0.30622053
000310 2f 0b e5 3f 83 ae cf 3f 96 03 99 3d 32 fa 7f bf
       1.7894038 1.6225132 0.07471387 -0.9999114
000320 17 ff 88 be 43 5f 7c bf 0c 1f 1f c0 b6 b7 1c 3f
       -0.26757118 -0.9858286 -2.48627 0.6121782
000330 ed 50 03 c0 b3 80 c9 3e 41 58 0d 40 4b 9d cc bd
       -2.0518143 0.39356002 2.2085116 -0.09990939
000340 5c 63 e4 bf a9 ba 7e bf 19 ed bf bf f9 df 2c 3f
       -1.7842822 -0.9950357 -1.4994231 0.67529255
000350 8d 24 4b 3e d0 b9 8c 3f 1f bd 10 40 bf 2b ce be
       0.19838162 1.0994205 2.261543 -0.4026775
000360 a7 e9 86 bf 32 ce e4 bf eb 7f 03 3f 24 67 cd 3f
       -1.0540055 -1.7875426 0.5136706 1.6047101
000370 d1 d9 4f 3f b6 51 2f bd 3e 2a b7 bf 49 99 c2 3f
       0.81191736 -0.042802535 -1.4309766 1.5203029
000380 8c c2 8f 3f a7 8b d3 be 3a e9 cd be 33 6a 22 bf
       1.1231246 -0.41317484 -0.40217 -0.634433
000390 87 94 97 bd 33 19 8b 3d 6a 5f 23 bf b3 78 ee be
       -0.07401376 0.06791916 -0.63817465 -0.4657646
0003a0 4d 7b 9c 3e 46 da 5f bf c8 cb 97 be f3 e7 08 40
       0.3056282 -0.87442434 -0.2964766 2.139157
0003b0 9c 86 a4 be b8 70 03 c0 58 f0 78 3f 09 61 a0 bf
       -0.3213395 -2.0537548 0.97241735 -1.2529613
0003c0 95 be 04 3f b5 2a ac bf 4c 2c af 3f fd fe 1d c0
       0.51853305 -1.3450533 1.3685393 -2.4686882
0003d0 d1 27 b7 3e 34 36 24 3e 96 24 02 bf 86 c6 a6 bf
       0.35772565 0.16036302 -0.50837076 -1.3029335
0003e0 1b 79 91 3f 77 da 0a bf 65 2a d6 3f 9c 90 1a c0
       1.1365083 -0.542396 1.6731688 -2.4150763
0003f0 39 a3 80 3f 63 0f d3 bf 6c 2f d3 3f aa ce bf 3e
       1.0049812 -1.6489071 1.6498847 0.3746236

fc_layers.0.weight f4 [32, 64]
000000 57 81 e2 3e 86 22 b9 3d 4d a3 bf be 46 03 1d be
       0.44239303 0.09039788 -0.37429276 -0.1533328
000010 6c a7 bd bd b4 5f 19 bf ab 5b a3 3e 55 d0 00 3f
       -0.09260449 -0.59911656 0.31905875 0.5031789
000020 68 38 21 be 2a 68 c8 3e ce 10 64 3e 89 e9 75 bc
       -0.15744174 0.3914197 0.22272035 -0.015009292
000030 88 db 67 3d 42 8d ba 3e 32 90 ef be c9 e5 0b bf
       0.056605846 0.36435896 -0.467897 -0.546475
000040 98 68 c4 3e 40 44 5c be 8f 8b c7 3d e7 7a 01 be
       0.3836105 -0.2151041 0.097434156 -0.1264454
000050 6e 5a 6a 3e 09 6f d3 3e 2c a6 87 3e bf b8 94 3e
       0.22886059 0.4129565 0.26493967 0.290472
000060 4d 6b 4e 3f 75 bc 9c be ad b9 78 be 66 66 d2 bd
       0.8063248 -0.3061253 -0.2428958 -0.10273437
000070 e7 3e 75 3e 20 4d 99 3d 45 bb 53 3e 42 20 4b 3e
       0.23949777 0.074854136 0.20676906 0.19836524
000080 e7 93 12 3f 00 a3 05 3f a9 5a 94 bb fa 2e 88 3e
       0.5725693 0.52201843 -0.004527409 0.2659834
000090 88 b8 ad be 78 cc 0c bf be 27 c6 bc ec c3 ca 3c
       -0.3392985 -0.54999495 -0.024188872 0.024751626
0000a0 a8 aa 72 3f 0c 47 a2 3e 71 f1 0d 3f 55 8a 81 be
       0.9479165 0.3169483 0.55446535 -0.2530085
0000b0 a8 ee f5 3e 5b b7 0e bf 04 38 88 3e ac 33 44 3f
       0.48033643 -0.5574853 0.26605237 0.76641345
0000c0 c1 d9 8a bd 4d 9f 58 bd 66 6a 81 bc a2 c4 eb 3e
       -0.067798145 -0.052886296 -0.015797805 0.46048456
0000d0 50 76 cb 3c 77 18 bf bc 16 90 14 bf d5 1c 78 be
       0.02483669 -0.023327095 -0.5803236 -0.24229749
0000e0 bf 9d 91 be e5 a2 8f be 01 37 a0 be 39 61 11 3f
       -0.28440663 -0.28053966 -0.31291965 0.56788975
0000f0 db c7 a4 be fe 6d cb 3e e9 b0 53 3e 9e fb e7 be
       -0.32183728 0.39732355 0.20672955 -0.45309156
000100 f2 a3 4f 3e 7d 25 62 be dd e5 e1 be ba b9 08 3e
       0.20277384 -0.22084613 -0.44120684 0.13352099
000110 93 fb a5 3e 7d 40 64 3e 80 98 cd be 0b 39 cf bd
       0.32418498 0.22290225 -0.4015541 -0.10118302
000120 97 e6 31 be 5f 23 24 3f b9 f1 3f 3e e9 ca 58 3d
       -0.1737312 0.6411647 0.18744554 0.052927885
000130 28 fd 98 be d5 3a a8 be a8 e9 4b be ad f2 00 be
       -0.29880643 -0.32857385 -0.19913352 -0.12592573
000140 1e 6a 2e 3d 23 5e bb bc a0 ea 19 bd 40 86 95 3d
       0.04258167 -0.022872036 -0.03757727 0.07300997
000150 04 cb 59 3d a4 21 97 be 89 78 94 3d 3b b9 de bc
       0.053172126 -0.29517853 0.07249553 -0.027187934
000160 79 87 71 be b5 0e 7a bd 08 ef 88 be 18 de 8e be
       -0.23586835 -0.061049182 -0.26744866 -0.2790382
000170 13 7c 6b 3e 2d 01 1b 3f e5 df b9 3e 9c 80 bc 3e
       0.2299655 0.6054867 0.3630363 0.3681687
000180 97 45 bd bd dc e6 9f 3e e0 2c 82 be c6 7c ad 3e
       -0.09241789 0.3123082 -0.25424862 0.33884257
000190 8f e0 fc be 2f 12 05 3e 12 89 06 bf a9 76 1c bf
       -0.49390075 0.12995218 -0.525529 -0.6111856
0001a0 32 5d e5 bd ee e7 f8 3e 22 34 d2 3e f1 45 ae bf
       -0.11199416 0.48614448 0.410554 -1.3615094
0001b0 04 a3 e3 3e 2c d3 2e be 93 58 29 3f e5 d6 d0 3d
       0.4446031 -0.17072743 0.6615078 0.10197238
0001c0 bc de 68 be c7 bd 37 bb 29 82 2c 3f ee 59 13 3e
       -0.22741216 -0.00280367 0.6738611 0.14389774
0001d0 07 9b 48 3f 01 e5 9c 3e 81 7d d4 3e c9 22 01 bf
       0.7836155 0.30643466 0.41502002 -0.504437
0001e0 1d ad f1 3d 5d ed 65 3e ff 34 50 3d d5 fd d8 3e
       0.11800597 0.22453828 0.05083179 0.42381158
0001f0 4c ae 44 3e e7 ba c1 be 43 c2 a7 3e 6b e7 de 3e
       0.19207114 -0.37837908 0.32765397 0.43535933
000200 0e 63 78 bd a6 8b dc 3c aa fc b8 be 85 92 e6 3d
       -0.06064134 0.026922058 -0.36130267 0.11258415
000210 cd e7 be 3e ba 32 52 be 19 b6 a2 3d 56 3f 02 bf
       0.37286225 -0.20527163 0.079448886 -0.5087789
000220 e2 95 48 3e 4d 94 9e 3e d1 ec b3 3e 12 39 70 bb
       0.19588426 0.3097252 0.35141614 -0.003665511
000230 92 75 ef bd d6 31 cf be da 63 f5 be 91 34 8d 3e
       -0.11692347 -0.4046771 -0.47927743 0.27579167
000240 25 e2 fa 3e b4 af 73 3e 52 35 0a be 96 bc 14 3e
       0.4900066 0.23797494 -0.13496903 0.14525065
000250 e0 29 85 3d 42 1d 74 bd 77 2c a1 be 8c 5d ed 3d
       0.06502128 -0.059598215 -0.31479236 0.11590108
000260 15 54 96 be 72 1d a1 bd d2 c9 bb be 02 67 5f be
       -0.29361024 -0.078669444 -0.36677414 -0.21816638
000270 85 fb a9 3d bc 87 1f 3f d8 a3 7b 3e e2 ab 3c 3d
       0.08299927 0.6231649 0.2457422 0.046062358
000280 ec 57 b3 3d 0f cc d3 be 99 16 2c bd a1 8c 1a bf
       0.08757004 -0.41366622 -0.04201374 -0.6037083
000290 9a 20 1f bf 57 fa ec 3e 66 f4 9d 3e 67 21 c0 be
       -0.6215912 0.46284744 0.30850524 -0.37525484
0002a0 5b 97 21 be 63 b9 18 bf f0 f0 99 be 83 52 d6 be
       -0.15780394 -0.5965788 -0.30066633 -0.41859826
0002b0 85 36 a5 3d 32 de 4e be 02 10 43 3f ee fc 24 3e
       0.080670394 -0.20201948 0.761963 0.1611211
0002c0 1f 43 7b 3e 47 09 0c bd bc 82 24 be a8 83 b4 3d
       0.24537323 -0.034188535 -0.16065496 0.08814174
0002d0 0a 25 53 bf 1b a4 7b 3f 56 9f 6b be 86 16 f8 3e
       -0.8247839 0.9829728 -0.2301 0.48454684
0002e0 bf 83 2e 3e 6d 1a ff bd 4d ca 68 be 2f 88 54 bf
       0.17042445 -0.12456212 -0.22733422 -0.830203
0002f0 67 1f 57 bf 72 08 76 3e a7 cf 13 3d 3f 6d af bd
       -0.8403229 0.24026659 0.036086705 -0.08565759
000300 c3 22 96 3e 1a eb 0e 3d 72 54 67 be 07 5a 67 3e
       0.29323396 0.03489218 -0.22590807 0.22592936
000310 d0 25 f7 3d e7 bb 0e 3e 17 df 06 be fc 17 96 3e
       0.12067759 0.13938867 -0.1317104 0.29315174
000320 6b 39 7d 3e 4a 64 16 be 36 da e2 3e c2 0f c1 bd
       0.24728934 -0.14686695 0.44307107 -0.09426834
000330 a5 09 15 bf 70 e3 70 bd 6b 4f b7 be 66 05 b9 be
       -0.5821784 -0.05881065 -0.3580278 -0.3613693
000340 f7 19 0f 3e 54 3a f0 bd 8a a9 a8 3e 20 a5 28 be
       0.13974749 -0.11729875 0.32941848 -0.1646924
000350 68 39 19 bd f2 04 39 bf 39 e8 c4 3e b0 15 05 be
       -0.037408262 -0.7227317 0.38458422 -0.12996554
000360 aa bc d5 be b6 dc ef bc ce a6 b6 bb 57 af 42 3d
       -0.41745502 -0.029280048 -0.005574084 0.0475305
000370 ad 77 c2 3e 34 7b 91 3e c0 89 da bd 89 9d 98 3e
       0.3798193 0.2841431 -0.10670805 0.2980769
000380 da 72 e2 be 57 39 1e be f2 2a aa be 01 5d 8b 3e
       -0.4422825 -0.15451561 -0.3323589 0.27219394
000390 27 dd b6 bd 05 4e 25 bf 3d 2b 5f bf 89 4a 84 be
       -0.089289 -0.64572173 -0.8717535 -0.25838116
0003a0 f3 35 03 3f 8e 41 8d be e0 20 85 bf 42 08 91 3d
       0.51254195 -0.27589077 -1.0400658 0.07081653
0003b0 9e 6e 25 be 65 ce f3 3d ac e5 59 3e 97 bc 13 be
       -0.16155478 0.11904601 0.21279019 -0.1442741
0003c0 d8 fc e4 bd 20 39 a1 bc a4 f6 e5 be e6 13 50 be
       -0.111810386 -0.01968056 -0.44914734 -0.2032009
0003d0 10 ba d3 be d6 1b ae be 41 aa e0 be ff 26 b0 3e
       -0.41352892 -0.34005612 -0.43879893 0.34404752
0003e0 cb a8 10 3f 1d 15 1e 3f b4 04 d4 3e c8 a9 9c be
       0.5650756 0.61750966 0.41409838 -0.30598283
0003f0 90 8a c7 3d 78 25 f9 be e0 08 9c 3e 43 b7 32 3e
       0.097432256 -0.486614 0.3047552 0.17452721

fc_layers.0.bias f4 [32]
000000 a5 03 0e be 90 21 0f 3e 1d 33 54 be 44 17 12 3e
       -0.13868578 0.13977647 -0.20722623 0.14266688
000010 ce 5a c2 bd 2b ce f8 3c 91 fd 2e be 66 ae 1d 3d
       -0.09489976 0.030371746 -0.17088915 0.038496397
000020 85 3f a9 bd 6b aa 14 be b1 15 60 bd a8 ae 53 be
       -0.082640685 -0.14518134 -0.054708187 -0.20672095
000030 08 ab 4a 3e 47 b0 a0 3d fb f7 c5 bd 88 8b 97 bd
       0.19791806 0.07846122 -0.09666439 -0.0739966
000040 28 f7 37 be 28 d9 e5 bd df 4a 46 be a0 8e 89 3d
       -0.17965376 -0.1122306 -0.19364499 0.06716657
000050 8b d7 28 3a d6 8e 09 be 96 9d a9 bb 08 9c d3 bd
       0.000644081 -0.13433394 -0.0051762564 -0.10332495
000060 5b 08 71 be 08 a1 77 be 42 24 67 3c 36 e0 6a be
       -0.23538344 -0.24182522 0.014107766 -0.22937092
000070 78 50 33 bd c1 76 23 bd 46 56 38 be 51 2d c7 bc
       -0.043777913 -0.039908174 -0.1800166 -0.0243136

fc_layers.1.weight f4 [16, 32]
000000 ed 27 42 3f ad 85 f7 bd ce f3 cc 3e 66 f1 82 bf
       0.7584217 -0.120860435 0.40029758 -1.0229919
000010 d8 20 c7 be a4 d3 50 be de 5b 9e be c9 e1 b6 3e
       -0.38892245 -0.20393234 -0.30929464 0.35719135
000020 43 d5 10 3f f1 79 61 3f 5a b3 a1 3d b8 dc 2c 3f
       0.5657541 0.8807669 0.07895537 0.6752429
000030 cc 97 f4 3c c0 d9 1b 3f cd 10 37 3f 94 36 8b 3e
       0.029857539 0.60879135 0.7151001 0.27190077
000040 78 cd 5a be 0b 7e 04 3f 3b b6 f9 3d b0 db 51 3e
       -0.21367443 0.51754826 0.12192961 0.2049396
000050 ec 14 59 3f d6 68 2c 3d f9 c7 ca 3e bb 9b a0 3c
       0.8479755 0.042092167 0.39605692 0.019605508
000060 ed b9 3d 3e 72 a8 ee 3e d1 d5 bd 3e ca 35 03 3e
       0.18527956 0.4661289 0.3707719 0.12813488
000070 73 d8 1c bf 6c 1f f0 3e 8e 81 fa 3d a5 b1 26 3f
       -0.61267775 0.46898973 0.12231742 0.65114814
000080 9f c8 7d 3f 05 48 46 bf 71 52 19 3f d1 a8 24 3e
       0.9913425 -0.77453643 0.5989142 0.16080023
000090 82 e1 c1 3e a6 ad ba be a5 cd 2c 3e de 2f 11 3f
       0.3786736 -0.36460608 0.16875322 0.56713665
0000a0 4a 48 39 3f 59 88 36 3f 8e 32 e5 be 5a dc 48 3f
       0.7237593 0.713018 -0.44765133 0.7846123
0000b0 e4 7a 3e be 3e ee 15 3f ea 1e 51 3f 65 2e 1f 3e
       -0.18601567 0.58566654 0.81687796 0.15545042
0000c0 7c 1b b3 3e a1 19 8b 3f e5 93 9b 3e ad 41 d6 3e
       0.34981906 1.0867196 0.30386272 0.41846982
0000d0 e0 38 e8 3e 1c 9a 26 bd c0 19 a4 3e 4f ba 85 be
       0.45355892 -0.040674314 0.32050896 -0.26118705
0000e0 27 a6 b7 3e 3c 65 9c 3e cb bb 07 3e 63 c2 a6 3e
       0.35868952 0.30545986 0.13255231 0.3257018
0000f0 3f 5e 18 bd 6f f3 4f 3f 34 fb 09 3e 21 37 8a 3e
       -0.037199255 0.81230825 0.13474733 0.26995185
000100 4f c8 62 3f 85 cd 28 bf 67 70 2e 3f 41 48 b3 3d
       0.88586897 -0.659386 0.6814026 0.08754016
000110 08 7c a7 3e bb 2d a4 be 87 af 30 3e 1d d4 00 3f
       0.32711816 -0.3206614 0.17254458 0.5032366
000120 89 10 0f 3f 46 40 1c 3f f8 be 02 bf e2 65 3d 3f
       0.55884606 0.61035573 -0.51072645 0.73983586
000130 e1 c4 0b be b0 21 27 3f 94 af 53 3f f4 0c 89 3d
       -0.13649322 0.6528578 0.82689786 0.06691924
000140 55 d3 12 3f 53 15 8d 3f 7e 56 2f 3e f0 83 c4 3e
       0.5735372 1.1022133 0.17122838 0.3838191
000150 08 7f 07 3f ab 00 99 bc ab 8a 26 3e 13 23 d4 bd
       0.5292821 -0.018677076 0.16263835 -0.103582524
000160 05 72 dd 3e 8b eb e4 3e b2 92 0c 3e bf b6 b7 3b
       0.43251052 0.44710955 0.13727835 0.005606502
000170 64 83 26 3e 5b 7e 4d 3f d9 ea 83 3d 9b b8 b6 3e
       0.16261059 0.8027093 0.06441278 0.35687718
000180 aa 09 8d be 5b 7e 65 3e 2a 3f 6c bf 6d e9 20 3f
       -0.27546436 0.22411482 -0.9228388 0.6285618
000190 cb d8 3d bf 5e b9 0d 3f 12 3d ac bf 8f 11 83 3f
       -0.74158925 0.5536097 -1.3456137 1.0239733
0001a0 cc 81 f9 bc 36 0b 3a 3d b9 7d 93 bf c8 e7 8e 3d
       -0.0304574 0.045420848 -1.1522743 0.069778025
0001b0 7a c6 61 3f df 2d 47 3f fe 55 33 3f 28 83 33 bf
       0.88193476 0.7780437 0.7005309 -0.70122004
0001c0 9f 9c ac bf 85 b8 e7 3e a1 e8 cc be 25 59 69 3f
       -1.3485297 0.45257965 -0.40021232 0.9115165
0001d0 65 90 34 3e aa 9b 79 bf 6c cf a3 bf 7d a6 95 bf
       0.17633207 -0.9750315 -1.2797675 -1.1691433
0001e0 c2 9b 47 bf a8 91 1f bf 3a cc cf be 3f 89 3a bf
       -0.7797204 -0.6233163 -0.405855 -0.7286567
0001f0 bd 50 67 bf 58 77 3c bf 3d cb 44 bf 54 fa 0f 3f
       -0.9035757 -0.73619604 -0.76872617 0.56241345
000200 48 4d 08 bf b4 6b 88 3e 5d 0f 9b bf 0b 7c c1 3e
       -0.5324292 0.2664467 -1.2114064 0.3778995
000210 ae 75 c1 3e 09 f0 6e 3f 1e ca 2a bf b5 c2 34 3f
       0.37785095 0.93335015 -0.66714656 0.706096
000220 77 6a 1e 3f 68 af a6 bd fe db f7 bf d3 c8 84 3f
       0.618812 -0.08138925 -1.9364011 1.0373787
000230 90 52 51 3f 1a 12 e0 3e 9b 69 75 bd 7c 40 a2 be
       0.81766605 0.4376381 -0.059915166 -0.31689823
000240 a8 c0 e9 be 8b af 4b bf 34 f8 52 bf 92 b1 7d be
       -0.45654798 -0.7956473 -0.8240998 -0.24774769
000250 4b df 9e 3e e6 1b b2 be 0f f4 35 3e c6 4a 98 be
       0.31029734 -0.3478691 0.17768882 -0.29744548
000260 aa cf 25 bf 03 22 26 3c c7 76 e7 bf 50 28 81 3e
       -0.64769995 0.010139945 -1.8083123 0.25226068
000270 6f fc e2 3e b5 49 95 bf d3 28 45 bf c6 71 2a 3f
       0.44333217 -1.1663119 -0.7701542 0.66579854
000280 5d d5 20 3f 2a 05 0e c0 91 cf b9 bc ad fd 14 bf
       0.62825567 -2.2190652 -0.022681983 -0.5819958
000290 3b ac 51 be ec 01 a4 bf 77 7f 85 3e 6e 6a 73 3e
       -0.20475857 -1.2813087 0.2607381 0.23771068
0002a0 84 92 55 3e 00 d8 fa 3d 9a 78 90 3e f4 e7 6d 3e
       0.20856673 0.1224823 0.28217012 0.23233014
0002b0 74 e8 2b be f1 8d 3a 3f 86 f4 79 3e 49 aa de bd
       -0.16787893 0.72872835 0.24409685 -0.10872323
0002c0 48 ea d0 be e7 03 7e 3e 8a b0 79 3f bb 35 0e 3e
       -0.40803742 0.24806176 0.97535 0.13887684
0002d0 57 0f 21 3f 03 a5 8e 3e 29 67 a1 3e 6e e2 85 3e
       0.6291403 0.2786027 0.31524017 0.26149315
0002e0 9f bd 18 3e ab 0a 13 3f 95 c2 ec 3e 2d 3d 39 3f
       0.14916085 0.57438153 0.46242204 0.7235897
0002f0 d3 55 2f be 3a c4 96 3e 73 b7 0c 3f 90 ab 91 3f
       -0.17122583 0.29446584 0.5496742 1.1380482
000300 3a d3 37 be c9 37 52 3e 6e f0 e6 3e 0f c6 53 3f
       -0.1795167 0.20529093 0.45105308 0.8272409
000310 77 c9 0a c0 13 66 2e 3f 3a ea 89 3f 05 91 0d bf
       -2.1685464 0.681245 1.0774605 -0.5529941
000320 b1 6a bf bf 8e be 0f be 14 33 1d 3f 77 a3 9d 3d
       -1.4954435 -0.14037535 0.61406064 0.07697194
000330 06 de 8a 3d b3 09 37 be 4d ac 24 bd ac a4 9d 3f
       0.06780629 -0.17874794 -0.04020338 1.2315879
000340 a4 ab 14 3f 81 55 4b bf 25 37 b6 3e 97 57 e4 be
       0.580744 -0.79427344 0.35588947 -0.44598076
000350 c5 36 36 bf 16 cf 05 3f 79 7b 0c 3f 3d 15 5a 3f
       -0.7117732 0.52269113 0.54875904 0.8518866
000360 83 13 2d bf ad 41 9a be ef ec 65 3f f3 06 0e bf
       -0.676079 -0.30128232 0.89814657 -0.55479354
000370 cf 69 2e 3f ec 6f a8 3e c5 13 06 3f 6b fe eb bf
       0.681302 0.3289789 0.52373916 -1.8437017
000380 af 7f ae 3e d3 54 fa 3e 7b 3c 02 bf d9 e5 0b 3f
       0.3408179 0.4889284 -0.50873536 0.54647595
000390 1e 4f 82 bf 2d f2 12 3f c3 3a 8f bf 89 c3 38 3f
       -1.0180395 0.5740078 -1.1189808 0.7217336
0003a0 55 ca 63 3d 8f 7f b4 bf 01 82 ba bf a2 bf 95 be
       0.05561288 -1.4101428 -1.4570924 -0.29247767
0003b0 f7 5b 1b 3f d0 37 4b 3f 7f 64 bd be 96 ac 20 c0
       0.606872 0.7938204 -0.36990735 -2.5105338
0003c0 42 b7 af 3d f5 d6 13 bf 7d 08 7a bf e1 40 2b 3f
       0.085798755 -0.57749873 -0.976692 0.6689587
0003d0 f9 75 f4 3e 66 68 fc bc af 3b 3b be e3 5b 84 bf
       0.47746256 -0.0308115 -0.18284486 -1.0340542
0003e0 24 80 db be 5c 6a de bd 94 aa 16 bf 95 99 19 be
       -0.428712 -0.1086013 -0.5885403 -0.14999993
0003f0 73 52 57 bf df fb 58 bf 41 94 9a be 52 cb 38 3f
       -0.8411018 -0.84759325 -0.30191234 0.7218524

fc_layers.1.bias f4 [16]
000000 90 f3 06 be 5c 3b 15 3d 55 bc 33 bb f6 d9 f2 3d
       -0.13178849 0.036433563 -0.0027425487 0.11857979
000010 a4 f5 16 3e ee 53 6d be f1 d1 0f bb 74 89 9b 3c
       0.14742142 -0.23176548 -0.0021945203 0.018986441
000020 ac e1 74 3d a6 d2 17 3e 9b 84 61 3d a0 d6 dd bc
       0.05978553 0.1482645 0.055058103 -0.02707988
000030 9b 19 b6 3b d5 c4 bb bb 1f 6d 36 bc 2b f9 92 bd
       0.0055572516 -0.0057302513 -0.011134415 -0.07176431

affine_output.weight f4 [1, 48]
000000 aa bb 57 bf 2e a0 26 bf e5 a4 23 bf 06 7c 2b 40
       -0.8427073 -0.65088165 -0.63923484 2.6794448
000010 a4 25 ff 3f 2a 9f d1 bf 35 29 f0 3f be 0a 0f 40
       1.9933362 -1.6376698 1.8762575 2.2350307
000020 cb 8c eb 3f 8c 6e 02 40 88 b7 5a bf 2b aa 20 40
       1.8402342 2.0379972 -0.85436296 2.5103862
000030 8d 29 30 40 68 ea 0d 40 e7 29 27 bf 55 cc 4b bf
       2.752536 2.217432 -0.6529831 -0.7960866
000040 7c 9b 45 3f a5 84 74 bf 6c df 84 bf 3e 91 59 3f
       0.77190375 -0.955149 -1.0380683 0.84987247
000050 f4 03 5a bf 87 66 63 bf 4f f0 71 bf 36 05 4d 3f
       -0.8516228 -0.8882832 -0.94507307 0.80086076
000060 71 e9 6d bf 1d 0f 2d 3f 2d 85 57 bf fe 6e 7b bf
       -0.9293433 0.67601186 -0.84187585 -0.98216236
000070 12 a0 95 3f ca a1 77 3f 1a 00 4f bf d5 74 4b 3f
       1.1689475 0.96731246 -0.8085953 0.79475147
000080 82 e7 6d 3f e7 58 85 3f 79 b7 58 3f 00 d6 16 3f
       0.9293138 1.0417756 0.8465496 0.5892029
000090 6a 87 5c 3f 34 20 a6 3f 51 e3 82 3f 1a 13 4e bf
       0.86144125 1.2978578 1.0225621 -0.80497897
0000a0 e5 91 81 3f ab f3 90 3f 71 68 5b 3f dd 23 8f 3f
       1.0122648 1.1324362 0.8570624 1.118282
0000b0 63 1b 85 3f f8 df 6c bf e8 55 84 3f f8 7d 6f 3f
       1.0398983 -0.9252925 1.0338717 0.9355159
