checkpoints/NeuMF_Epoch10_HR0.2001_NDCG0.1902.model (torch, 510215 bytes, 9 tensors)

embedding_user_MF.weight f4 [51, 32]
00000000: 02b2 49bf 7066 24be 136b b23f 5bc7 b8bf
00000010: 261d 18c0 b51f 9ebf c532 953f 00f5 ef3e
00000020: 0569 5ebf b357 4d3e 4b30 74bf 26e8 75bf
00000030: e373 923f 80f1 783d 156d ba3f 21db 20bf
00000040: 531a 94bf 3f9d 79bf f84a f73e 3d7d 593f
00000050: 7caf 6c3d edef 40be d73d 853f 9c63 ca3d
00000060: 0670 c4bf c383 f43f 4e83 28be d496 be3f
00000070: a344 ca3e 9060 07bd e94f af3f 29b8 903f
00000080: c795 09c0 a0d0 663f 83df 953f fc4b 953f
00000090: c206 02c0 d4fd 77bf 7574 fbbf 5d86 583f
000000a0: da44 63be 182f 9dbf 1ab5 a5be f73c 24bf
000000b0: ead6 bbbf d07e 10bf 8b65 8b3f f776 72c0
000000c0: cd89 20c0 1f27 ee3f cbfa 1040 cbc7 22bf
000000d0: f69a cf3e fd59 c2be 39c1 9fbe 62ad 543d
000000e0: a109 97bf 772d cd3f 0d02 563d 80fd 81bf
000000f0: 1a72 55bf 4a2b 0ebe 9081 2e40 f4b3 a53e
00000100: e29f da3e 4e2b 843d 9f3f 43bf 44c7 5d3e
00000110: c2a0 a03f 6056 353f 9c59 0c3f 1bec 8b3f
00000120: b366 8cbf 19ac f63c f3e4 9c3f 9d0b c1bf
00000130: 714f fb3e 0d4c a43f 0223 aa3f 9a79 2fbf
00000140: 6a29 54bc 6ef9 aabf 8ae6 fa3e a0c5 2e3f
00000150: a7ec ab3e 1c75 f3bf 8e4f 1dbf d78b f73e
00000160: 637d f7be ac93 083f af6c 463f 5bf8 54bf
00000170: 0d4c 1bbf 043b 903f 35c6 d1bd 6d07 2f3f
00000180: 587f 1dbf 38a3 cbbf c17d bb3f acd8 173f
00000190: fa35 88be d13e cf3b 3f70 08bd 5267 523f
000001a0: cba8 cabe 6a82 cfbe 73a8 79bf 9fea 9f3f
000001b0: fc0e c2bf cfa8 573e be52 383f e594 7b3d
000001c0: f745 06c0 3b8d 153f b179 95bf 1652 70bf
000001d0: 264e e5bf efd8 963c 624a 9a3f 2f72 ccbe
000001e0: b8d6 95be 699d 783f 9db0 e13f 7538 863f
000001f0: 3460 6d3f 8f33 973f 4e94 e3be 397c 99bf
00000200: c303 05c0 fe24 23bf 0f79 583f d6a7 ed3d
00000210: 73d8 fdbf e24a 0ec0 6681 833e 43d6 8fbe
00000220: caee 0d40 2660 5040 67c1 3f3f b799 093e
00000230: 4820 94bd c5d5 a4be 5cfb 5fbe f234 263f
00000240: 74dd 3140 663c 4e40 a964 e3bf 95fc 7940
00000250: fc06 7740 d36d 46c0 4840 103f 0e33 edbe
00000260: b400 37bf f2fc 55bf 1cc6 a23f 0a9c 8abe
00000270: 92b3 babd 21d8 a6bf 4d23 f53e 0168 913e
00000280: d0e9 5bbf e3c3 8a3f fd63 c6bb baea ad3e
00000290: b622 bcbe ef77 8d3f 8d40 ecbf 9682 f0bf
000002a0: 27b2 4abf de25 1740 3a4f 40bf d750 9fbf
000002b0: a0a9 91bc d1e9 62bf 782a 023f e10c cdbf
000002c0: 7559 cb3f 82df af3e 8eff 20c0 db54 9e3f
000002d0: 91f0 8dbf 95e9 3cbe 5599 d5be 207f 3f3f
000002e0: 71fd 56bf a61e b53f 99aa 13bf e746 dc3e
000002f0: b33d 0340 9d44 8b3f ad13 e3be 829a cf3f
00000300: b28b b4bf 648b 17be b665 263f 466e 403f
00000310: 8e1a 1f3f 8bdc 853f 0576 213e 5ca2 b3be
00000320: 9640 c2be 4ed7 86bf ed83 17bf 7953 173f
00000330: b241 1e3f 9fbd b2be 9ea2 08c0 c1e3 9ebf
00000340: 65b5 88bf 7fda 573f 73ab 99bf 27bd 393f
00000350: 6e9a b63e 823a acbf 4649 06c0 4be9 863e
00000360: e8ce 593f c5b8 2abe 300e 543d 73b6 67be
00000370: f8aa fabd c06d d93e 967b ab3f 574c bbbf
00000380: 7344 b9be 72ae 3240 56d5 90bf 4f41 bbbf
00000390: 53dd f8be b5ec 0c3e b7dd 9d3f fa15 5bbf
000003a0: 0b4c 3fbe b3e1 1a40 2dd8 833f d10c 4ec0
000003b0: 9809 babf 8ab8 ff3e db4d c8bd 96b6 583f
000003c0: c179 29c0 cfac 3d40 124e b4bf c6b3 ccbe
000003d0: 9800 5cbe 6f5e d03f fb04 543f edd6 9fbf
000003e0: a4af a7bf 9051 843f 856e a23f cdab 9ebf
000003f0: bc84 0840 b4a7 28bd 3ed9 a8bd e219 ab3f
-0.78787243 -0.16054702 1.3938926 -1.4435838 -2.376779 -1.2353426 1.1656119 0.46866608
-0.86879 0.20052986 -0.9538619 -0.96057355 1.1441616 0.060777187 1.4564539 -0.62834364
-1.1570534 -0.97505563 0.48299384 0.84956723 0.057784542 -0.18841524 1.0409497 0.0988228
-1.5346687 1.910271 -0.16456339 1.4889779 0.3950549 -0.033051074 1.3696262 1.1306201
-2.1497667 0.90162086 1.1708835 1.1663814 -2.0316625 -0.96871686 -1.9644915 0.8458002
-0.22194234 -1.2279997 -0.32364732 -0.64155525 -1.4674962 -0.564435 1.0890363 -3.788511
-2.5084107 1.8605689 2.2653072 -0.6358611 0.40547913 -0.3795928 -0.31202105 0.051923163
-1.1799814 1.60295 0.05224805 -1.0155487 -0.8337723 -0.13883701 2.7266579 0.32363856
0.42700106 0.06453572 -0.76268953 0.21658045 1.2549059 0.7083492 0.54824233 1.0931429
-1.0968841 0.03011136 1.225737 -1.5081669 0.49084046 1.2835709 1.3291934 -0.68544924
-0.012949327 -1.335737 0.49004012 0.682703 0.3357899 -1.9020114 -0.61449516 0.48348877
-0.4833785 0.5335033 0.7750959 -0.8319146 -0.6066292 1.126801 -0.10242883 0.68370706
-0.61522436 -1.5909185 1.4647752 0.5931499 -0.2660368 0.006324627 -0.03331017 0.82188904
-0.39581904 -0.40529186 -0.9752266 1.2493476 -1.5160823 0.21060489 0.72001255 0.061421294
-2.0980203 0.58418626 -1.1677762 -0.93875253 -1.7914474 0.018413989 1.205395 -0.39930865
-0.2926538 0.9711519 1.7632023 1.0485979 0.9272492 1.181261 -0.44449085 -1.1991035
-2.0783546 -0.6372832 0.8455972 0.11604278 -1.983168 -2.2233205 0.2568466 -0.28093156
2.2176995 3.2558684 0.74904484 0.13437544 -0.0723272 -0.32194343 -0.2187323 0.6492454
2.7791414 3.2224364 -1.7765094 3.9060414 3.8598013 -3.1004531 0.56348085 -0.46328014
-0.7148545 -0.8358909 1.2716708 -0.27072173 -0.091162816 -1.3034707 0.47878495 0.2839966
-0.85903645 1.084103 -0.0060544 0.33968145 -0.36745232 1.1052226 -1.8457199 -1.8789852
-0.7917809 2.3616862 -0.7512089 -1.2446545 -0.017781079 -0.88638026 0.5084605 -1.6019555
1.5886675 0.3435021 -2.5155978 1.2369646 -1.108904 -0.1844848 -0.41718546 0.7480335
-0.8398047 1.4149978 -0.57682186 0.43022844 2.0506408 1.0880314 -0.4435095 1.6219027
-1.4105132 -0.14799267 0.6499895 0.75168264 0.62149894 1.0457929 0.15767677 -0.35084808
-0.379399 -1.0534456 -0.5918568 0.59111744 0.61818993 -0.34910294 -2.1349254 -1.2413255
-1.0680357 0.84317774 -1.2005447 0.7255425 0.35664696 -1.3455355 -2.0982223 0.26349863
0.8508134 -0.16672046 0.051771343 -0.22628193 -0.12239641 0.42466545 1.339709 -1.4632672
-0.36185035 2.7918973 -1.1315105 -1.4629306 -0.48606357 0.13762172 1.2333287 -0.8558041
-0.18681352 2.4200256 1.0300347 -3.2195323 -1.4534178 0.4994548 -0.09780475 0.84653604
-2.6480563 2.9636724 -1.4086325 -0.39980906 -0.21484601 1.6278819 0.828201 -1.2487465
-1.3100476 1.0337391 1.2689978 -1.239618 2.1331015 -0.04117556 -0.08244561 1.3367274

embedding_item_MF.weight f4 [1889, 32]
00000000: 1d45 b9bf f503 17bf 999f 70bf 2f7a 15bf
00000010: 3c93 76bf b4cc a1bf 0c0d b0bf 95b6 bdbf
00000020: 8c26 103e 4a16 bbbf ee42 7dbf afe1 ce3f
00000030: ce1f 1740 ab63 d73e cf3f 623f acc9 21c0
00000040: 8a62 49c0 1f2b 3e3f 23f8 003f b7c8 9abf
00000050: b705 ad3f 8530 26bd 97f4 b53f 478d f8bf
00000060: cac7 b03f 40b2 8b3f ee0f efbe 5e3e 7a3f
00000070: a09f c2be ae03 c7be 4738 403f 98fb 82bf
00000080: 6f98 6c3f 7c16 dfbf e40d 80bf b5ab 0a3f
00000090: d58e 663e 8ee5 d43e 0041 aebf 50f6 97be
000000a0: 2853 dd3d 43ac 413f 7325 acbf 80aa 35bf
000000b0: a08f dd3f b86c e7bf 5256 05c0 c231 073f
000000c0: fee5 e63e 245e 14bf f6ec 58bf d6e2 883c
000000d0: cd64 07c0 3c54 eb3f 3bbb 69bd d83d 99bf
000000e0: 265a df3e db6c 2b40 dc2e f13e 5656 043f
000000f0: f942 2fbe 204d 4ebd 60e7 24bf cbba 563f
00000100: 82cc 993f 9d1e b8bf 3415 4a3f 3410 97bd
00000110: 9635 0040 7aca f0bf 6359 953f f465 74be
00000120: ba5b b3be bef4 fa3f 3d70 103f 7189 513f
00000130: 2bba af3d 9cc2 923e c8d9 17bf 3591 3d3f
00000140: bc1b 4c3f 6d71 45c0 27da 6abe e8a4 75bf
00000150: fef7 0140 a8bd 0fc0 cb1e a73f 09f8 14c0
00000160: 7105 193e f0d2 603f 5501 9b3f 51f4 973f
00000170: 6d61 063f f6f2 3240 d9ce 743e d003 cf3e
00000180: 8fd1 023c 6d89 313f e594 2f3d 99ae 12be
00000190: c7df 2e3d e7e7 c3bf d589 5f3e bbf4 003e
000001a0: 409c fd3f 831b dd3f 9780 23bf 1c78 e03f
000001b0: d7e2 91bc 56b1 03c0 b98d 0ebf 34a5 febe
000001c0: 4a3d e43e c3bb 063e e7fe 2cbd bb8e 57be
000001d0: 6519 eb3e 214e 8ebf 56dc 28bf 1836 a83f
000001e0: 591e 4ac0 9523 f8bd 4478 31c0 cdd2 263e
000001f0: 147b 3740 4978 41c0 5219 6b3e e9b1 a93f
00000200: 9bfb 55bf a8a6 0740 86df 3b3e 0a1d ba3f
00000210: 58d9 933f d41d cebf d763 a1bf 6bae 30be
00000220: 5375 bf3e 08fd a53e 879a da3f 2904 35bf
00000230: 11d2 ac3e 5deb 8040 d99f 41c0 ca0a 3f3f
00000240: dce1 03bf f955 edbf 0574 0b3f 94c3 dd3e
00000250: 5038 eabe 7dfa 95be 42df b5be 8c3c f8be
00000260: 25f5 103e 31c2 ba3e 225c 4e3f 5590 55be
00000270: cfa3 293f 4461 2fc0 d2c0 0fbf 4ddc ab3f
00000280: 1ae4 033f 1d3c 37bf bcdf 37bf fe1f 83bf
00000290: cc0e dbbe c697 e93f f81d 853d b90c 95bf
000002a0: bdc1 ff3f 32f8 e23f d8d4 79bf 2af8 c03e
000002b0: 56a8 eabe 6184 1440 10d9 e9bf ef91 fe3e
000002c0: a6c4 e8bd 2bf8 8b3f daaf 48bf 027d 7abe
000002d0: 24d3 cbbe 62c5 883f f563 38bf 1602 623f
000002e0: b03d 73bf 95eb 1d40 4cda c6bf d774 0cbf
000002f0: 71e9 743d 562f 763d 6b81 6e3f d958 14bf
00000300: 36bd f2be d01c 13bf ce86 a1bf 545e 10c0
00000310: 4653 633e 6bd2 c73f 4768 d3be 532a 1a3f
00000320: b11c ab3e c185 d1bf 066d 7c3f 6ba5 aebe
00000330: 225a f53f 3f83 31c0 0105 723e 1745 a43e
00000340: f4b1 dd3e 0489 0ac0 b5d1 86bf 9595 4bbf
00000350: 9794 95bf 361b ccbe 6eb7 933e c3f4 093f
00000360: dc67 39bd 0c1a 723f 0987 8d3f 6eb0 9fbf
00000370: 3488 893e 1c91 7f3d 1241 9cbf 0fb8 1bbe
00000380: 42c8 44c0 2b46 a63f 9367 0fc0 16dd a4bf
00000390: 1b2f 7a3f 5c7d fc3e 45cd 20bf d95c 543f
000003a0: d312 0a3f eaff 0d40 47bc 16be 547b 8a3e
000003b0: 33cb dcbf 01e6 553f d5a6 2f3e a47c cbbf
000003c0: 2e90 27bf 3117 b0bf 0235 debe 9560 003f
000003d0: 1d78 c63e c24c 7f3f f436 abbf 6a70 c03e
000003e0: 9da8 ecbe 3bb2 b63e 70f3 9b3d 5118 123f
000003f0: 7094 363f 3eb8 bdbb 0068 21c0 c8b9 a6bf
-1.4474217 -0.5899041 -0.93993527 -0.5838956 -0.9631841 -1.2640595 -1.3753982 -1.4821345
0.14077204 -1.4616177 -0.9893025 1.6162623 2.3613162 0.42068228 0.88378614 -2.527934
-3.1466393 0.7428455 0.50378627 -1.2092503 1.3517369 -0.040573616 1.4215268 -1.9418114
1.3810971 1.0913773 -0.4669184 0.97751415 -0.3801241 -0.38869995 0.7508587 -1.023303
0.92420095 -1.7428737 -1.0004239 0.54168254 0.22515424 0.41581386 -1.3613586 -0.2968011
0.108068764 0.75653476 -1.3448929 -0.7096329 1.7309456 -1.8080053 -2.0833936 0.528103
0.45097345 -0.5795615 -0.84736574 0.016709726 -2.1155274 1.8385081 -0.057063323 -1.1971998
0.43623465 2.678519 0.47106063 0.5169424 -0.17115392 -0.05036652 -0.6441555 0.83878773
1.2015536 -1.4384342 0.78938603 -0.073761374 2.0032706 -1.8811791 1.1667904 -0.23867017
-0.3503092 1.9605939 0.5642126 0.81850344 0.085804306 0.286641 -0.5931668 0.74049693
0.7972982 -3.085048 -0.22934781 -0.9595475 2.0307612 -2.2459507 1.3056272 -2.3276389
0.14943482 0.87821865 1.2109782 1.1871434 0.5249241 2.7960792 0.23907031 0.40432596
0.007984533 0.6935032 0.042866606 -0.14324416 0.04269388 -1.5305146 0.21829922 0.12593357
1.9813309 1.7274021 -0.6386809 1.7536654 -0.017808361 -2.0576987 -0.55685 -0.49735415
0.4457801 0.13157563 -0.04223528 -0.21050541 0.45917812 -1.1117593 -0.65961206 1.3141508
-3.1581023 -0.12116162 -2.7729654 0.16291352 2.866887 -3.0229666 0.22958878 1.3257419
-0.83587044 2.119547 0.18346986 1.4540112 1.1550703 -1.6102853 -1.2608594 -0.17254035
0.373942 0.3241961 1.7078408 -0.7070947 0.33754018 4.028731 -3.0253813 0.7462584
-0.5151651 -1.8541862 0.54473907 0.43313277 -0.45746088 -0.2929267 -0.35521895 -0.48483694
0.14156015 0.3647628 0.80609334 -0.2085584 0.6626558 -2.7403116 -0.56153595 1.3426605
0.5151993 -0.715761 -0.71825767 -1.0244138 -0.42784727 1.8249443 0.06499857 -1.1644508
1.9980999 1.7731993 -0.975904 0.37689334 -0.45831555 2.3205798 -1.8269367 0.49720713
-0.11365633 1.093511 -0.7839333 -0.24461749 -0.39809525 1.0685236 -0.7202752 0.8828443
-0.95016 2.4675038 -1.5535369 -0.54865783 0.05979294 0.060103737 0.93166226 -0.5794807
-0.4740998 -0.5746584 -1.2619264 -2.2557573 0.22199735 1.561109 -0.41290495 0.6022083
0.33420327 -1.6368943 0.98603857 -0.3411058 1.9168131 -2.7736356 0.23634721 0.3208396
0.4329983 -2.1646128 -1.0532748 -0.7952512 -1.1685971 -0.3986451 0.28850883 0.538891
-0.045265064 0.94570994 1.1056834 -1.2475717 0.26861727 0.062394246 -1.2207358 -0.15206932
-3.0747228 1.2990164 -2.2406967 -1.287997 0.9772813 0.49314392 -0.62813216 0.82954174
0.53934973 2.2187448 -0.1472026 0.27047217 -1.7249511 0.83554083 0.17153485 -1.5897412
-0.65454376 -1.3757077 -0.43399817 0.5014737 0.38763514 0.997265 -1.3376145 0.37585765
-0.46222392 0.35682854 0.076147914 0.57068354 0.7132025 -0.0057897856 -2.5219727 -1.3025446

embedding_user_MLP.weight f4 [51, 32]
00000000: 46fc b7bf eb17 b43f dff7 b5be 6018 88bf
00000010: 89cb b03e 6cf1 2fbf 715b 16bf 7ba4 96bf
00000020: c31f c43f 8682 e6bf 2de9 6fbe eef1 30bf
00000030: 3f21 bebd ef23 acbf 68cc ce3f 28d9 84bf
00000040: aeba 613e eab6 033e d43b 65be f7cb ec3e
00000050: fd60 9cbe b33a 94bf add6 9b3f 68c4 0fc0
00000060: 5eb9 31bf dd1e 3c3f ad2b 1f3e 4a6d dbbe
00000070: a3c1 34bd ecc0 33bf a34f 463e afa5 f63d
00000080: e442 153f e2e8 cfbe bbe7 61bf 9458 5a3d
00000090: e36f 833e 4cc2 c73e 1ec7 6b3f 36bb e0bf
000000a0: 2a44 fa3e 9715 36bf 8455 86bf 03ca 553b
000000b0: 6814 da3f 4b75 9fbf 99db 79bf a603 5c3e
000000c0: 82dd 5bbf 1050 d0be 1aa2 43c0 1a66 94be
000000d0: a730 9fbd dd27 e1be ec39 493f f5a4 ddbd
000000e0: b941 96bf c7eb aebe bb4f a23f 1e1c f3be
000000f0: 4c10 5e3f 9f6b cf3e d0f4 98bf 2377 ea3f
00000100: 32b8 983f 5262 2f3f 7280 a63f dfe5 be3e
00000110: a90c 6d3f b126 823f d63a efbf ba20 8b3f
00000120: 4622 2ebe b100 663f 3c33 ebbf c37c 58be
00000130: 515a 803e edf9 3d3f 9f42 473f 202b d7be
00000140: 2dbb d03e d271 cf3f 8c92 76bf dcfa 2d3f
00000150: b1e9 2f40 c11a 383f 185d 493f 451a 86bf
00000160: d847 df3e 0d75 a53e 0ac6 823f f19e 4bbe
00000170: dc25 0340 9961 973d 194f 613f 84e5 9c3f
00000180: a0ae 2abf 3180 c3be 7767 bebe 2b4d 8c3d
00000190: 3d19 62bf 35ed a0be 1304 2fbe 1cfb 84bf
000001a0: cfc1 9a3d 97f0 cf3e 4f13 bd3e fdd6 f0bf
000001b0: 967e 1ebf 11da 01bf 45eb 763f 96fe 32bf
000001c0: f43d 233f c394 ee3e 7acb 8ebf acbd 0540
000001d0: b3e5 a23f 3816 93be f262 3a3f c556 f03e
000001e0: f2f6 a5be 8441 c0be 8bdf 58bf 281f 8c3d
000001f0: 2802 37bd 3430 37be f5fc d3bf a000 2abf
00000200: d931 1c3f 6866 81be 89d1 a43f 3498 1a40
00000210: 8f97 ef3f 2223 35bf 372f 323e d4b8 c6bf
00000220: ff38 16bf cec7 9f3e bd10 be3f 41d9 f73f
00000230: 6854 d3bd b470 3fbe 4ad7 ad3e 5262 aa3f
00000240: 9393 933f fdfe 9c3f e91a a93e 9232 893f
00000250: e500 4cbf 82c0 2a40 6f56 5c3d 1356 773f
00000260: 1970 0cbf ad1e dc3e d178 2cbe bee1 103f
00000270: c75e 403f 2e5d 8a3f 9961 f23e 9e9a dc3e
00000280: fe52 a7be 999d b63f c630 d13f d933 0b3f
00000290: bda1 843f 100e 85bf bc60 573f 1ebe 82be
000002a0: e9d0 b6be 3ec9 43c0 f16b 98be e32a 873f
000002b0: f737 8d3e e460 a13f 4190 073f 990c 90bf
000002c0: a3eb 7f3f 6230 aebe d959 b8bf 2bc5 813f
000002d0: cd55 edbf 6001 3ebf 5fff 44c0 41df 91bf
000002e0: 52cb c2be 6f7e 17c0 1945 4540 bbf6 bf3f
000002f0: 0be2 903d 4102 01c0 502e b33e 7905 e53e
00000300: 576c 963e caad 6bbf 0909 653f 4e76 3fbf
00000310: 8e5b 1f3f d8f8 4dbf 800c 9bbf c205 983f
00000320: 9dcf 72bf 0b7c 193f 816d 24bf f7a5 70bd
00000330: 1aad 23c0 3003 c23e 950f 693f 4f2c 10bf
00000340: 4e21 883e c7c5 123b 789c bc3f 6bbc f9bf
00000350: 7958 bc3f 75f7 d33f a65a 9f3f 10a1 7e3f
00000360: ae22 24be dbde eebf 5125 f6bf 0d52 dfbd
00000370: e677 91bf 3f87 853f d3c3 06bf ab06 3b3f
00000380: 007b 09c0 d398 82bf e84a aabe 6a0c c73f
00000390: 36de ca3f c9de b63f b263 c53f ec61 06c0
000003a0: 4bb4 c6bf 0c66 303f 122b a63e 6607 91be
000003b0: e3a4 afbf a7a2 15c0 8a2d a13f 2dbe 743f
000003c0: 555c 80bd 62e5 69bf dd8b a9bf 127f 293f
000003d0: b2ee 18bf 0f07 603f 4374 08bf 9892 ce3f
000003e0: 6571 babf 3411 e2be a481 50bf 7981 62be
000003f0: c091 46bf d939 5dbf fc83 d53e 78a2 c1bf
-1.4373863 1.4069799 -0.35540673 -1.0632439 0.34530285 -0.68727756 -0.5873328 -1.1768945
1.5322193 -1.8008583 -0.23428793 -0.69119155 -0.09283685 -1.3448466 1.615613 -1.0378771
0.22043869 0.12862745 -0.22386104 0.46249363 -0.30542746 -1.1580414 1.2174889 -2.2463627
-0.6942347 0.73484594 0.15544005 -0.42856818 -0.04412998 -0.7021625 0.19366316 0.120433204
0.5830519 -0.40607363 -0.8824422 0.05330713 0.256713 0.39015424 0.92100704 -1.7557132
0.4888013 -0.71126693 -1.0494847 0.003262163 1.7037477 -1.245767 -0.97600704 0.21485767
-0.8588487 -0.40686083 -3.056769 -0.28984147 -0.077729516 -0.43975726 0.78604007 -0.10822479
-1.1738807 -0.3416426 1.2680582 -0.4748239 0.8674362 0.40511796 -1.1949711 1.8317608
1.1931212 0.685094 1.3007948 0.37284753 0.9259744 1.0168058 -1.868983 1.0869362
-0.17005262 0.89844805 -1.837501 -0.21141343 0.25068906 0.7420948 0.7783603 -0.4202509
0.40767804 1.620661 -0.9631736 0.67960906 2.7486384 0.71915823 0.78657675 -1.0476767
0.436095 0.32315865 1.0216687 -0.1988485 2.0491858 0.07391662 0.8801132 1.2257543
-0.66672707 -0.3818374 -0.37188312 0.06850656 -0.8831976 -0.31430975 -0.17091398 -1.0389132
0.07556497 0.40613243 0.36928794 -1.8815609 -0.61911905 -0.5072337 0.9645274 -0.6991972
0.6376641 0.4659787 -1.1155846 2.0897017 1.2726349 -0.2872789 0.7280723 0.469412
-0.32414967 -0.37549984 -0.847161 0.0684188 -0.04467979 -0.17889482 -1.6561571 -0.66407204
0.6101356 -0.25273442 1.2876445 2.4155397 1.8718127 -0.70756733 0.17400824 -1.5525155
-0.5868072 0.31207126 1.4848858 1.9363176 -0.103188336 -0.18695337 0.33953315 1.3311255
1.1529411 1.2265316 0.33028343 1.0718558 -0.79688865 2.6679997 0.053793367 0.96615714
-0.5485855 0.42992154 -0.16842963 0.56594455 0.7514462 1.0809686 0.47340086 0.43086714
-0.32680506 1.4266845 1.634301 0.5437599 1.0361859 -1.0394917 0.8413198 -0.25535673
-0.3570626 -3.0591578 -0.29769853 1.0559963 0.2758176 1.2607694 0.5295449 -1.1253844
0.9996893 -0.34021288 -1.4402419 1.0138296 -1.8541809 -0.7422085 -3.0780866 -1.1396257
-0.38045746 -2.367092 3.0823424 1.4997171 0.07074364 -2.0157626 0.3499627 0.44730738
0.29379532 -0.92062056 0.8946691 -0.74789894 0.62249076 -0.8045783 -1.211319 1.1876757
-0.9484804 0.599549 -0.6422959 -0.058752026 -2.5574403 0.37893057 0.910394 -0.5631761
0.2658791 0.0022395717 1.473525 -1.9510626 1.47145 1.6559893 1.2449539 0.9946451
-0.16028854 -1.866176 -1.9230138 -0.10904322 -1.1364715 1.0431899 -0.52642554 0.7305705
-2.1481323 -1.0202888 -0.33260274 1.5550663 1.5849063 1.4286739 1.542105 -2.0997267
-1.5523771 0.6890571 0.32454735 -0.28325957 -1.3722194 -2.3380525 1.2592022 0.95602685
-0.06267611 -0.91365635 -1.3245808 0.6620952 -0.5973922 0.8751077 -0.533024 1.6138487
-1.4565855 -0.4415375 -0.81447816 -0.22119702 -0.77566147 -0.86416394 0.4170226 -1.5127707

embedding_item_MLP.weight f4 [1889, 32]
00000000: 252a 1f40 91c4 0b40 ab89 843e cd50 0fc0
00000010: 45fb 253f 9457 8fbe abda b43f eb76 c4bd
00000020: d290 573f bebc 14bd dcf9 e5be 792e 32be
00000030: 6897 3ac0 f83e 603f 1de5 0ebf b6a5 cfbf
00000040: 9c21 af3f cfed ce3f 8c3c 59bf 89d9 2a3f
00000050: 6931 a13d 1faa 8abf 8e72 193f e00e 433f
00000060: f395 3fbe 6053 02c0 6806 443e a4e5 5cbf
00000070: 3efc 2c3f 05db 0140 bcca 63bf 0f22 603f
00000080: b4d2 413e 9640 093f 43ba 7f3f 58c3 01bf
00000090: b499 b8bf a159 50be e252 b83f b83d d73f
000000a0: fd38 33c0 45e8 943e 484d 6cbf 4cd9 633e
000000b0: 31f8 b4bf a1ed 863e 4776 ca3f 1980 39bf
000000c0: 7936 89bd 391b 45bf d63d c23f 4adc e6be
000000d0: a4e8 3bbe 1352 a33e 1501 2cbf d5d5 2bbf
000000e0: c12e 5c3f d1c2 80be be8f a83f ac29 b4be
000000f0: 768c 22bf 7746 8e3f 0720 ed3e 4ada 45bc
00000100: f455 d1be 12a1 283f 4840 893f 295c 87bf
00000110: f211 943f 6296 0640 f36f ce3f db26 883f
00000120: 0940 a53e 4d95 8cbf 864f 2440 b7f9 21bf
00000130: e539 103f e7fe 173f b3c4 14bf f496 973f
00000140: a957 db3c a108 593f 8699 883f c193 31c0
00000150: 2ec8 b03d 4033 bc3e 04d9 27bf 186d 3bbf
00000160: 0aad 803f 12fc 04bf d62e b13f aba8 103d
00000170: 90b9 253f a2bd 9abe c9b9 47bf 3058 c9be
00000180: 1008 f03f abc4 57be 7722 a2bf 3408 0a3f
00000190: f447 4b3e ec38 bdbf c234 523f 7b92 5e3f
000001a0: 321d ddbe 0d69 2d3f 6309 d1bf 8e01 353f
000001b0: 4730 523e 611f 0abf 5ad1 33bf 4aa3 ecbe
000001c0: f963 b53e 88f4 993e d1ed acbe ea47 d63f
000001d0: 9197 debf 6657 babe 0f66 8dbf 900a 153d
000001e0: 7ab3 36c0 897d d93e 7544 5ebe 6ea7 a63f
000001f0: 24f9 9ebf 1eb6 963e e363 37bf 420d 86bf
00000200: 552d 843f 9466 7bbf 0ea9 c8bf 0faf 98bf
00000210: cef6 aa3f 5d05 bcbd 1e4d 823f b215 22bf
00000220: 42c0 2540 7cdd fcbf 5b37 13bf b5e6 c6be
00000230: ce9f f1be f773 b6bf 089a 1d3e da96 a2bf
00000240: 5f5f 0cbd 377f 2abf 606c 2ebf 51ba dcbf
00000250: 136f 02be 70bf 89bf 4807 28c0 0147 9a3e
00000260: 7641 34bf 3880 04c0 5ccc 63bf c7a2 a03f
00000270: c2be 89bf 90e6 59bf ce39 353e 0fd6 ae3f
00000280: 3953 4cbf 3011 063e f847 dcbf 3921 b4bf
00000290: 2886 953e f344 e63f ffc5 ab3f c8ae c7bd
000002a0: a584 a23e a2dd 453c 610a 45bf 9b6c 55bf
000002b0: 488b 2740 787a bebe dcd2 87be f149 44bf
000002c0: 0f37 933f 07f2 643f 389a 0740 7a7e 26bf
000002d0: d87a b13e 0742 ab3f e38a e8be 2cb4 f73f
000002e0: c312 733f d6bc 813f 8d17 393f 0b8c 44bf
000002f0: 7d8a 03bf 638c e53e ac9a 18bf 415f 7c3f
00000300: 84a7 4fbf 3918 223f 031c a0bf 13ba 9c3e
00000310: 430c e53f 80b3 cf3f b767 993d 04f4 7fbf
00000320: e80b 89be b861 7cbf 2521 1fc0 1bb7 1c3f
00000330: b551 03c0 ed74 c93e d456 0d40 ac86 ccbd
00000340: 0660 e4bf c3bd 7ebf e7f0 bfbf 61e9 2c3f
00000350: 3a02 4b3e 48b7 8c3f afbc 1040 871f cebe
00000360: f6e5 86bf d9d6 e4bf 027c 033f 9b60 cd3f
00000370: fce0 4f3f 3b9a 2ebd 0f2d b7bf 169a c23f
00000380: 71c4 8f3f 4a8e d3be 68ea cdbe 776b 22bf
00000390: 7189 97bd e429 8b3d 095b 23bf b578 eebe
000003a0: 4773 9c3e 8ed4 5fbf f0c6 97be d9e6 0840
000003b0: 4a88 a4be f571 03c0 38eb 783f 2c5f a0bf
000003c0: 9cc0 043f 692d acbf 0b2d af3f 05ff 1dc0
000003d0: b126 b73e 9752 243e 8622 02bf 58c7 a6bf
000003e0: 517a 913f 42da 0abf 5c27 d63f b590 1ac0
000003f0: 62a5 803f b40f d3bf aa30 d33f 4fd2 bf3e
2.4869473 2.1838725 0.25886282 -2.2393067 0.6483653 -0.27996504 1.4129232 -0.09592994
0.84205353 -0.03631281 -0.4491719 -0.1740054 -2.915491 0.8759608 -0.5581835 -1.6222446
1.3682132 1.6166323 -0.8485801 0.6673818 0.07870752 -1.0833167 0.5994042 0.7619457
-0.18709545 -2.0363388 0.19143069 -0.86287904 0.6757239 2.028993 -0.88981223 0.8755197
0.18928033 0.53614175 0.9989359 -0.50688696 -1.4421906 -0.2034669 1.4400294 1.681571
-2.8003533 0.29083458 -0.9230542 0.22250861 -1.4138242 0.2635317 1.5817345 -0.72461087
-0.06699843 -0.76994663 1.5175121 -0.45089942 -0.18350464 0.31898555 -0.6718915 -0.67123157
0.8600884 -0.25148633 1.3168867 -0.35188043 -0.63495576 1.1115254 0.46313497 -0.01207597
-0.4088589 0.65870774 1.0722742 -1.0575 1.1567976 2.1029286 1.6127914 1.0636858
0.32275417 -1.0983063 2.5673537 -0.6327166 0.5633834 0.59373325 -0.5811264 1.1842942
0.026775198 0.8477879 1.0671852 -2.7746432 0.08631931 0.3675785 -0.65565515 -0.7321334
1.0052807 -0.5194713 1.3842418 0.035317104 0.6473627 -0.30222803 -0.7801786 -0.39325094
1.875246 -0.21071117 -1.2666768 0.53918767 0.19851667 -1.4782996 0.8211175 0.8694226
-0.43186337 0.6773842 -1.633099 0.707055 0.20526229 -0.5395413 -0.7024132 -0.4621833
0.35427836 0.30069375 -0.3377519 1.6740696 -1.7390004 -0.36394805 -1.1046771 0.036387026
-2.8547044 0.42478588 -0.21705802 1.3019845 -1.2419782 0.2943582 -0.7163679 -1.0472796
1.0326334 -0.98203397 -1.5676591 -1.1928424 1.3356569 -0.091807105 1.0179784 -0.63314354
2.5898595 -1.9755092 -0.5750634 -0.3884789 -0.47192234 -1.425414 0.1539079 -1.2702286
-0.03427064 -0.66600364 -0.6813412 -1.7244359 -0.12737684 -1.0761547 -2.6254444 0.30132297
-0.70412385 -2.0703259 -0.889837 1.2549676 -1.076134 -0.85117435 0.17697832 1.3659075
-0.7981449 0.13092494 -1.7209463 -1.4072639 0.29203916 1.7989792 1.3419799 -0.09750134
0.31741825 0.012076767 -0.7696896 -0.83368844 2.617876 -0.3720281 -0.2652806 -0.76675326
1.1501178 0.89431804 2.1187878 -0.6503674 0.34664035 1.3379525 -0.45418462 1.9351859
0.94950503 1.0135753 0.7230156 -0.7677619 -0.5138319 0.4483367 -0.5961101 0.98582846
-0.81114984 0.6331821 -1.2508548 0.30610713 1.7894367 1.6226654 0.07490485 -0.99981713
-0.26766896 -0.98586607 -2.486398 0.61216897 -2.051862 0.3934702 2.2084246 -0.09986624
-1.7841804 -0.99508303 -1.4995393 0.6754361 0.19825068 1.0993433 2.2615163 -0.40258428
-1.0538929 -1.7878066 0.51361096 1.6045107 0.81202674 -0.042627554 -1.4310626 1.5203273
1.1231824 -0.41319495 -0.402179 -0.6344523 -0.07399262 0.067950994 -0.63810784 -0.46576467
0.305567 -0.8743371 -0.29643965 2.1390898 -0.3213523 -2.0538304 0.97233915 -1.2529044
0.518564 -1.3451358 1.3685621 -2.4686902 0.35771707 0.1604713 -0.5083393 -1.3029585
1.1365453 -0.54239285 1.6730762 -2.4150822 1.0050471 -1.6489167 1.6499226 0.3746514

fc_layers.0.weight f4 [32, 64]
00000000: 7129 e23e acdd ba3d 4144 bfbe d2c2 1dbe
00000010: c23f bcbd 6883 19bf ebfa a33e 30a3 003f
00000020: 85a7 21be 60fa c83e 5284 653e dc27 80bc
00000030: 982d 683d 6270 ba3e 35bf efbe 0baa 0bbf
00000040: 1cde c43e 9c23 5cbe 45b2 c63d f675 01be
00000050: 0b4c 6a3e 50f3 d33e 9e6c 873e 09fe 943e
00000060: 3278 4e3f 2525 9cbe ddcf 78be d53e d2bd
00000070: 4419 753e 7cee 973d 60ee 523e 4509 4c3e
00000080: 50a3 123f 7451 053f 465e a0bb 3fa6 883e
00000090: 8a8f adbe 57fb 0cbf b97d c5bc 50de c63c
000000a0: d8d0 723f d30b a23e c6e0 0d3f ae73 81be
000000b0: b3f7 f53e 6fd9 0ebf 898f 883e 086c 443f
000000c0: d2bb 89bd 1891 5bbd d733 89bc 1f35 eb3e
000000d0: 1fd3 db3c ec78 b4bc 71ce 14bf 27ae 79be
000000e0: 839f 91be cfb5 8ebe 6c1e a0be c648 113f
000000f0: 3eaa a4be bc75 cb3e e678 533e 4b6f e7be
00000100: e0bf 503e 1c76 63be e0d4 e1be b5cc 083e
00000110: 6ae7 a63e 7113 643e 0f25 cebe a2bd cbbd
00000120: dcbc 30be e70e 243f d500 3f3e bb4d 593d
00000130: 08d5 98be 306b a7be a919 4cbe f2f9 01be
00000140: c666 303d ef3d c6bc c667 19bd e1e1 933d
00000150: bbd5 563d 15cf 97be 61f9 923d 015a dbbc
00000160: 01df 72be 5624 79bd 55dc 87be dbe0 8ebe
00000170: 5b26 6d3e 55e7 1a3f 7d90 ba3e 2b7b bc3e
00000180: 4cdb b9bd dcfd 9e3e 1b67 83be 9743 ad3e
00000190: 7942 fcbe 6d56 043e 5ce1 06bf 444a 1cbf
000001a0: eeb6 e4bd b235 f93e d0f2 d13e 3f4f aebf
000001b0: 6bc3 e43e 08e9 2ebe 1de0 283f b7ac d53d
000001c0: f0d1 67be 8bfb 3ebb 6779 2c3f e1a7 123e
000001d0: ed3c 483f f530 9d3e 1174 d53e cb39 01bf
000001e0: 27d9 f13d 272a 673e 198a 503d 7ecd d93e
000001f0: 6a2a 453e 6932 c2be 1f44 a83e ca23 df3e
00000200: 140f 7cbd 49d5 df3c b8a8 b8be 38da e43d
00000210: 0926 bf3e a874 51be 4d7b a73d db69 02bf
00000220: c367 483e a140 9e3e 766a b33e c38f 9abb
00000230: 8166 f0bd 06eb cfbe 00be f5be 7c3f 8d3e
00000240: f1d8 fa3e f20a 733e 42dd 08be f3d4 143e
00000250: 6a2e 823d 94d9 71bd 1bd2 a1be 1e5b ed3d
00000260: b970 96be b494 a1bd c355 bcbe f957 5fbe
00000270: 1901 a93d 220c 1f3f ef3d 7a3e 7ea2 3f3d
00000280: 8066 b13d 8370 d4be a84d 2dbd 33a3 1abf
00000290: 9a2a 1fbf 274c ed3e 7547 9e3e 763b c0be
000002a0: 38db 21be 3404 19bf c608 9abe 0133 d6be
000002b0: bb57 a23d f63c 4fbe 486a 433f bc58 243e
000002c0: ecaa 7b3e dc9d 08bd 60b5 23be 80e4 b33d
000002d0: 669e 52bf 6ccc 7b3f 5442 6ebe 19f9 f73e
000002e0: 0f2b 2f3e 9b3f ffbd c4fe 6abe c501 55bf
000002f0: 524f 57bf 03d8 743e a47e 123d ca51 afbd
00000300: 7ec7 963e c20c 0a3d dd75 68be 2959 673e
00000310: 86db f23d d9a3 0e3e c1ad 07be c4e0 963e
00000320: 0de5 7d3e 2fa7 15be 96a3 e33e 4c69 bfbd
00000330: 8bf6 14bf a2a4 6bbd 4335 b7be ac6f b8be
00000340: d0ee 0d3e 146c edbd 58b3 a73e b7a6 28be
00000350: db90 1dbd 1c32 39bf 8484 c43e 8603 06be
00000360: 7e35 d5be f310 f8bc 71f6 52bb b7fc 413d
00000370: c595 c23e 053b 923e 1c82 d5bd 4454 983e
00000380: 8cd5 e2be e679 1fbe cb20 a9be f5eb 8b3e
00000390: c7cf b6bd 6270 25bf 24a6 5fbf 98b8 83be
000003a0: d887 033f 3b9b 8cbe 9a5a 85bf 3bdb 8f3d
000003b0: a936 24be 3fff f63d 614f 583e db41 12be
000003c0: 2973 e4bd 3a8b b5bc 5867 e6be e6e7 4fbe
000003d0: 7753 d4be 9214 aebe e046 dfbe 9535 b03e
000003e0: 30b1 103f 259f 1d3f 227f d43e 85c9 9bbe
000003f0: 69ca c53d df06 f9be 7722 9c3e a214 323e
0.44172242 0.09124312 -0.3735676 -0.1540635 -0.09191848 -0.59966135 0.32027373 0.50249004
-0.1578656 0.3925352 0.22413757 -0.015644006 0.056684107 0.36413866 -0.46825567 -0.5455634
0.38450706 -0.21497959 0.09701971 -0.12642655 0.2288057 0.4139657 0.26450056 0.29100063
0.80652153 -0.3049709 -0.24298044 -0.102658905 0.2393542 0.07418534 0.20598745 0.19925411
0.57280445 0.5207741 -0.004894051 0.26689336 -0.33898574 -0.55071014 -0.0241078 0.024275929
0.9484992 0.31649646 0.554211 -0.2528357 0.48040542 -0.5580053 0.2667201 0.7672734
-0.06725277 -0.05360517 -0.016748352 0.45938966 0.026834069 -0.022030316 -0.58127505 -0.2438284
-0.2844201 -0.27873084 -0.3127321 0.5675167 -0.32161134 0.39738262 0.20651588 -0.45202097
0.20385695 -0.22213024 -0.44107723 0.1335934 0.3259843 0.22273041 -0.40262648 -0.09948279
-0.17259544 0.6408524 0.18652661 0.053052645 -0.2985003 -0.32698965 -0.19931664 -0.12693003
0.043066762 -0.024199454 -0.03745248 0.07220817 0.052449923 -0.2965018 0.071764715 -0.026776316
-0.23717882 -0.06082567 -0.26535287 -0.27905926 0.23159163 0.60509235 0.3643836 0.3681272
-0.09075031 0.31053054 -0.256646 0.3384063 -0.49269465 0.12923594 -0.5268762 -0.6105082
-0.111677036 0.4867378 0.41005564 -1.3617934 0.44680342 -0.17081082 0.6596697 0.10433333
-0.22638679 -0.002914163 0.67372745 0.14321853 0.78217965 0.30701414 0.41690114 -0.5047881
0.11808997 0.22574674 0.05091295 0.4253959 0.19254461 -0.37929085 0.32864472 0.43581992
-0.061537817 0.027323382 -0.36066222 0.111744344 0.37333706 -0.20454657 0.08177815 -0.5094277
0.19570832 0.30908683 0.3504216 -0.0047168448 -0.11738301 -0.40608996 -0.4799652 0.27587497
0.48993638 0.23734644 -0.13365653 0.14534359 0.06356509 -0.05904539 -0.3160561 0.11589645
-0.29382876 -0.07889691 -0.3678418 -0.21810903 0.082521625 0.6212789 0.24437688 0.046785824
0.086621284 -0.4149209 -0.042310387 -0.6040527 -0.6217438 0.46347162 0.30913892 -0.37545365
-0.15806282 -0.5977204 -0.3008482 -0.41835788 0.079268895 -0.20238099 0.7633405 0.16049474
0.2457692 -0.03335367 -0.15987158 0.08783817 -0.82272947 0.983588 -0.2326749 0.48432234
0.1710627 -0.12463304 -0.22948748 -0.83205825 -0.8410541 0.23910527 0.035765305 -0.08560522
0.29449075 0.033703573 -0.22701211 0.22592606 0.11858277 0.1392969 -0.13249876 0.29468358
0.24794407 -0.14614557 0.44460744 -0.09346256 -0.58188695 -0.057530053 -0.35782823 -0.360227
0.13860631 -0.1159288 0.32754016 -0.16469847 -0.038468223 -0.72342086 0.3838235 -0.13087282
-0.41642374 -0.03028152 -0.0032190348 0.04736015 0.3800489 0.28560653 -0.10425207 0.2975179
-0.44303548 -0.15573844 -0.33032832 0.27328458 -0.08926349 -0.6462461 -0.87362885 -0.2572677
0.51379156 -0.2746218 -1.0418274 0.07024237 -0.16036476 0.12060403 0.2112403 -0.14282934
-0.111547776 -0.022161115 -0.4500072 -0.20303306 -0.4146993 -0.3400007 -0.4360876 0.3441588
0.56520367 0.6157096 0.41503245 -0.30427185 0.09657747 -0.48638055 0.30495045 0.17390683

fc_layers.0.bias f4 [32]
00000000: fc28 0fbe b6cf 103e 3bd8 54be d1ea 113e
00000010: 989d c4bd 121f f33c e505 2ebe b3e4 183d
00000020: 6a33 acbd ff6f 15be 1f30 70bd 46ea 57be
00000030: 0edf 4c3e 52e4 9f3d f20d c6bd a7c1 95bd
00000040: 345a 39be 2a32 e6bd c686 46be 4f26 8c3d
00000050: 4096 ebb8 909c 09be 75f1 d9bb 37d9 d6bd
00000060: 793e 71be e5bb 79be 8cf2 5b3c dcc0 6bbe
00000070: bda0 2fbd 0783 28bd 72b4 38be d702 c6bc
-0.13980478 0.14141735 -0.2078561 0.14249732 -0.09600371 0.029677901 -0.16994436 0.03732748
-0.08408244 -0.14593504 -0.05863964 -0.21085462 0.20006964 0.078072205 -0.096706286 -0.07312327
-0.18100816 -0.11240037 -0.1938735 0.06843244 -0.000112336595 -0.1343863 -0.0066510984 -0.10490649
-0.23558988 -0.24388082 0.013424527 -0.23022789 -0.0428779 -0.041140582 -0.18037584 -0.024171276

fc_layers.1.weight f4 [16, 32]
00000000: d42c 423f 0c09 f8bd 6432 cd3e 630a 83bf
00000010: af5e c7be 341d 51be 3fa1 9fbe 926e b53e
00000020: cae6 103f 618d 613f 0ab6 9f3d 32de 2c3f
00000030: 47d4 f33c 72bf 1b3f 441c 373f 74a7 8a3e
00000040: 9180 5abe f37b 043f 1685 f93d 4cd7 523e
00000050: 7cc2 583f 1b50 2a3d edac ca3e 1691 9f3c
00000060: 50ed 3d3e 6998 ee3e f6d6 bd3e 0356 023e
00000070: 9e3c 1dbf 90fd ef3e be3c fb3d 74e2 263f
00000080: 18df 7d3f 2b58 46bf f271 193f 0be2 243e
00000090: 2fba c13e 87d2 babe 10ec 2a3e d4ba 103f
000000a0: 2a52 393f 8a96 363f 1859 e5be 43e0 483f
000000b0: 8293 3ebe 1f09 163f 8428 513f 504e 1e3e
000000c0: ce3c b33e f22a 8b3f c885 9b3e 2bff d63e
000000d0: 18be e73e 1227 27bd 1f09 a43e cdc4 85be
000000e0: 95d1 b73e 4671 9c3e 6303 083e 43b6 a63e
000000f0: 5641 19bd 67fe 4f3f 602c 0a3e 0990 8a3e
00000100: e8dd 623f 0fde 28bf 3f8f 2e3f 73b1 b33d
00000110: 6e51 a73e 3d52 a4be 71d6 2e3e 2361 003f
00000120: 981a 0f3f 2b4e 1c3f 06d3 02bf a169 3d3f
00000130: b2de 0bbe 0d3c 273f 05b9 533f d654 873d
00000140: 1ce4 123f 6226 8d3f d43b 2f3e c73d c53e
00000150: bc41 073f fa55 9abc 1c69 263e 4a52 d4bd
00000160: a59d dd3e 5ff7 e43e 3eda 0c3e 0dbd b43b
00000170: d64b 263e 1789 4d3f 3e4b 843d f80e b73e
00000180: d177 8dbe 41ff 653e 3b5e 6cbf 051c 213f
00000190: fe0c 3ebf fec2 0d3f ab54 acbf 3dcc 823f
000001a0: 1cb2 ffbc 6ee0 383d 16ab 93bf fb29 8e3d
000001b0: 68e1 613f 2b84 473f 1e96 333f 4c0c 34bf
000001c0: eed5 acbf 2ac1 e73e 3b04 cdbe 5090 693f
000001d0: c7d4 323e 2aa5 79bf 69df a3bf 61c9 95bf
000001e0: 02aa 47bf 6f9e 1fbf 835d d0be 1174 3abf
000001f0: f63f 67bf 9db0 3cbf 0be7 44bf 2ce1 0f3f
00000200: 4179 08bf 81ab 883e 7b22 9bbf 265c c13e
00000210: 2210 c23e f91b 6f3f 01f5 2abf 478f 343f
00000220: af7e 1e3f 346b a6bd fbfc f7bf cae7 843f
00000230: ca6f 513f 172d e03e 9da2 76bd 0183 a3be
00000240: 5b66 eabe bdfb 4bbf c4fb 52bf 02d8 7ebe
00000250: 373d 9e3e 701b b2be 4630 353e cb96 98be
00000260: 61e9 25bf 00d1 223c 9f8c e7bf 642f 813e
00000270: 39b4 e23e 1a87 95bf 423d 45bf 6f65 2a3f
00000280: 642b 213f cf0d 0ec0 69aa b7bc 44cf 14bf
00000290: b171 51be 1709 a4bf 590e 833e 461a 6e3e
000002a0: 22bc 553e 98af fb3d fbda 8f3e 2a2c 6e3e
000002b0: 735e 2bbe 9ac2 3a3f 1413 7a3e a760 e3bd
000002c0: 34ab d0be 4005 7e3e 16b0 793f f35d 123e
000002d0: db64 203f 3fa2 8e3e dc95 a03e e0ce 853e
000002e0: cbab 193e 7efd 123f af32 ed3e 2c91 393f
000002f0: b373 2ebe 0302 973e 50d7 0c3f 4ee8 913f
00000300: 1183 38be e354 523e 2939 e63e 6996 533f
00000310: 39d1 0ac0 3476 2e3f c4b3 8a3f 3bc1 0bbf
00000320: cc65 bfbf b6d0 10be faae 1d3f fbde 9d3d
00000330: d73e 8b3d 10ed 38be 7c53 28bd be34 9e3f
00000340: f9b6 143f d5a6 4bbf 7550 b63e cb14 e7be
00000350: d51c 35bf e41e 063f 84b9 0c3f c753 5a3f
00000360: cd38 2dbf 1738 9abe e0e6 653f 2a59 0ebf
00000370: ba19 2e3f 61a4 a83e d202 063f 2129 ecbf
00000380: b27a ae3e f1bb fa3e c13e 02bf f618 0c3f
00000390: 3e58 82bf 9803 133f ac3b 8fbf 32b5 383f
000003a0: e4de 643d d27c b4bf 39a1 babf d0d9 95be
000003b0: 6571 1b3f 4d9f 4b3f a826 bdbe ecae 20c0
000003c0: bfda ae3d 21c8 13bf 160c 7abf a8b5 2b3f
000003d0: d43c f43e e9d2 f9bc 12e2 3abe f35e 84bf
000003e0: 7c8b dbbe 7027 debd 0aa3 16bf 8e31 19be
000003f0: ca4b 57bf 8d1d 59bf d8da 9abe 7964 393f
0.7584965 -0.121111006 0.40077507 -1.0237545 -0.38939425 -0.20421296 -0.31177709 0.3543592
0.56602156 0.8810635 0.07798393 0.67526543 0.029764308 0.60839 0.71527505 0.27080882
-0.21338107 0.5175163 0.12183587 0.20589942 0.8467176 0.0415803 0.39585057 0.019478362
0.18547559 0.46600655 0.37078065 0.12728123 -0.6142062 0.4687314 0.12267445 0.6518929
0.9916854 -0.77478284 0.5993949 0.16101854 0.3783736 -0.36488745 0.16691613 0.5653508
0.72391 0.71323454 -0.44794536 0.78467196 -0.18610957 0.5860767 0.81702447 0.15459561
0.35007328 1.0872481 0.30375504 0.41991553 0.45262218 -0.040808745 0.3203821 -0.2612671
0.35902086 0.3055517 0.13282542 0.3256093 -0.037415825 0.8124756 0.1349349 0.27063015
0.8861985 -0.65963835 0.68187326 0.0877408 0.32679313 -0.32093993 0.1707399 0.5014822
0.55899954 0.61056775 -0.51103246 0.739893 -0.1365917 0.65326005 0.8270419 0.06607978
0.5737932 1.1027339 0.17112666 0.38523695 0.5283468 -0.018839825 0.16251034 -0.10367258
0.43284336 0.4471998 0.13755128 0.0055157007 0.16239867 0.8028731 0.06459664 0.35753608
-0.27630475 0.22460653 -0.92331284 0.6293338 -0.74238575 0.5537566 -1.3463339 1.0218579
-0.031212859 0.045135908 -1.1536586 0.06941601 0.8823457 0.7793605 0.70150936 -0.70331264
-1.3502786 0.4526456 -0.4004229 0.9123583 0.1746398 -0.97517645 -1.2802554 -1.1702081
-0.77993786 -0.62351125 -0.40696344 -0.72833353 -0.9033197 -0.7370699 -0.76915044 0.5620296
-0.5331002 0.26693347 -1.2119898 0.37765616 0.37902933 0.9340206 -0.66780096 0.70531124
0.61912054 -0.08125916 -1.9374079 1.0383236 0.818112 0.437844 -0.060213674 -0.31935886
-0.45781216 -0.79681 -0.82415414 -0.24887088 0.30906078 -0.34786558 0.17694196 -0.29802546
-0.6480923 0.009937525 -1.8089789 0.2523147 0.44278124 -1.1681855 -0.77046597 0.66561025
0.62956834 -2.2195928 -0.022420125 -0.5812876 -0.20453526 -1.2815274 0.25596884 0.2325221
0.20872548 0.12289351 0.28096756 0.23259035 -0.16735248 0.7295319 0.2442134 -0.11102419
-0.40755618 0.2480669 0.9753431 0.14293651 0.62653893 0.2785816 0.31364334 0.26134396
0.1500694 0.5741805 0.4632773 0.7248714 -0.17036323 0.29493722 0.5501604 1.1399019
-0.18018748 0.20540194 0.44965485 0.8265138 -2.16902 0.68149114 1.083611 -0.5459172
-1.4952941 -0.14142117 0.6159512 0.07708546 0.06799095 -0.18059182 -0.041095242 1.2359846
0.58091694 -0.7955144 0.3560826 -0.4513305 -0.7074712 0.52390885 0.54970574 0.85284084
-0.67664796 -0.30120918 0.8980541 -0.55604804 0.68008006 0.3293791 0.52348053 -1.8450052
0.34077984 0.48971513 -0.50877005 0.5472559 -1.0183179 0.5742736 -1.1190085 0.7215148
0.055876628 -1.4100592 -1.4580451 -0.2926774 0.607199 0.7953995 -0.36943555 -2.5106764
0.08537816 -0.5772725 -0.9767469 0.6707406 0.47702658 -0.030496078 -0.18250301 -1.0341476
-0.42879856 -0.10847366 -0.5884253 -0.1496031 -0.8410002 -0.84810716 -0.3024509 0.72418934

fc_layers.1.bias f4 [16]
00000000: bd3a 08be e6a4 113d 3c58 6cbb 49e0 f53d
00000010: af07 183e 7c47 6fbe 292f b7b9 1a0b a83c
00000020: 7043 7a3d f2a2 183e fef1 5c3d d6e9 d7bc
00000030: fcf2 e03b fc78 42bb 781f 46bc e829 95bd
-0.13303657 0.03555765 -0.0036063334 0.120056696 0.14846681 -0.23367113 -0.00034939617 0.020513106
0.06109947 0.14905909 0.05394172 -0.026356619 0.0068649035 -0.0029674163 -0.012092464 -0.072833836

affine_output.weight f4 [1, 48]
00000000: b622 58bf f633 27bf 694d 24bf 8ec5 2b40
00000010: 91e4 ff3f 06ca d1bf 9426 f13f b83b 0f40
00000020: 2193 ec3f 8db0 0240 c8ab 5abf 48d6 2040
00000030: 266d 3040 289a 0e40 274c 27bf 82bd 4cbf
00000040: 4d8c 443f b41c 74bf b881 84bf 0a60 583f
00000050: 9eea 59bf fae0 61bf 87e3 70bf 0c88 4b3f
00000060: 2305 6dbf d009 2c3f dcea 56bf ec22 7abf
00000070: ed56 953f 947d 763f c529 4ebf 874f 4a3f
00000080: 731a 6d3f 11e2 843f ed79 573f 7c47 163f
00000090: 327f 5b3f e4a7 a53f 3192 823f fbcd 4cbf
000000a0: 717d 803f a0b0 903f a217 5a3f 776b 8e3f
000000b0: 7105 853f 0854 6bbf a4d4 833f 4a3f 6e3f
-0.84427965 -0.6531366 -0.6418062 2.6839328 1.9991628 -1.6389778 1.8839898 2.23802
1.84824 2.0420258 -0.8541837 2.5130787 2.756662 2.228159 -0.65350574 -0.79976666
0.7677658 -0.953563 -1.0352087 0.84521544 -0.8512362 -0.8823391 -0.9409718 0.79504466
-0.92585963 0.6720247 -0.83952117 -0.97709537 1.1667153 0.96285367 -0.80532485 0.790276
0.92618483 1.038149 0.8417042 0.58702826 0.8574096 1.2941861 1.0200864 -0.800018
1.0038282 1.1303902 0.8519231 1.1126546 1.0392286 -0.91925097 1.0299268 0.9306532
