checkpoints/NeuMF_Epoch4_HR0.2014_NDCG0.1900.model (torch, 510215 bytes, 9 tensors)

embedding_user_MF.weight f4 [51, 32]
000000 dc a2 49 bf cb a0 24 be a5 6b b2 3f b0 c8 b8 bf
       -0.7876413 -0.16076963 1.39391 -1.4436245
000010 08 22 18 c0 4e 23 9e bf 23 32 95 3f 82 f7 ef 3e
       -2.377077 -1.2354524 1.1655926 0.4686852
000020 e9 5f 5e bf 39 71 4d 3e d2 3f 74 bf 7c ea 75 bf
       -0.868651 0.20062722 -0.9540988 -0.9606092
000030 2d 75 92 3f 5a 1f 79 3d 51 68 ba 3f dd d8 20 bf
       1.1442009 0.060820915 1.4563085 -0.6283091
000040 be 1e 94 bf aa a6 79 bf 58 69 f7 3e a0 72 59 3f
       -1.1571882 -0.97519934 0.48322558 0.8494053
000050 40 ef 6c 3d 92 f4 40 be 79 3f 85 3f ee 92 ca 3d
       0.057845354 -0.18843296 1.0409995 0.09891306
000060 1a 6f c4 bf 63 82 f4 3f 17 83 28 be 10 98 be 3f
       -1.5346406 1.9102291 -0.16456257 1.4890156
000070 0c 3f ca 3e 13 cf 06 bd 08 52 af 3f 6a b8 90 3f
       0.39501226 -0.032912325 1.3696909 1.1306279
000080 d5 8d 09 c0 59 bb 66 3f c8 e5 95 3f 53 53 95 3f
       -2.1492817 0.9012962 1.1710749 1.1666054
000090 c5 08 02 c0 0e 0d 78 bf 85 75 fb bf b4 79 58 3f
       -2.0317852 -0.9689492 -1.9645239 0.84560704
0000a0 42 31 63 be e3 36 9d bf 2a c1 a5 be 3a 40 24 bf
       -0.22186759 -1.2282375 -0.32373935 -0.641605
0000b0 86 f4 bb bf fa 7d 10 bf e9 5e 8b 3f 07 84 72 c0
       -1.4683998 -0.56442225 1.0888339 -3.7893083
0000c0 49 8e 20 c0 2a 25 ee 3f 62 03 11 40 da aa 22 bf
       -2.5086844 1.8605092 2.2658315 -0.6354195
0000d0 e8 57 cf 3e 79 49 c2 be 60 b4 9f be 8b 75 53 3d
       0.40496755 -0.3794668 -0.31192303 0.05162577
0000e0 40 07 97 bf 7d 38 cd 3f e0 59 55 3d 08 e1 81 bf
       -1.1799088 1.6032864 0.052087665 -1.0146799
0000f0 89 55 55 bf 4e e9 0d be bd 8a 2e 40 82 9e a5 3e
       -0.8333364 -0.1385853 2.727218 0.32347494
000100 64 0f db 3e c5 83 84 3d d0 72 43 bf 5a 3f 5e 3e
       0.4278518 0.064704455 -0.76347065 0.21703854
000110 76 8a a0 3f f3 5b 35 3f 84 89 0c 3f c9 ba 8b 3f
       1.2542255 0.7084343 0.5489733 1.0916377
000120 cc 7b 8c bf 2f e2 f0 3c 9a d8 9c 3f cd ff c0 bf
       -1.097528 0.029404728 1.2253602 -1.5078064
000130 08 e0 fa 3e 8e 4a a4 3f d4 21 aa 3f 1a b4 2f bf
       0.48999047 1.2835252 1.3291574 -0.6863419
000140 f8 c1 57 bc 0f 0c ab bf 76 68 fb 3e a2 ee 2e 3f
       -0.013168804 -1.3363055 0.49103135 0.68332875
000150 42 01 ac 3e 2d d0 f3 bf e3 b8 1d bf 4f 79 f7 3e
       0.3359471 -1.9047905 -0.6161024 0.4833474
000160 02 06 f8 be 4a 34 08 3f 6f 59 46 3f 35 ff 54 bf
       -0.48442084 0.53204787 0.77480215 -0.83201915
000170 4d f1 1b bf 52 43 90 3f 33 37 d0 bd c6 dc 2e 3f
       -0.6091507 1.1270545 -0.101667784 0.68305624
000180 75 7d 1d bf 25 a3 cb bf 94 7d bb 3f 18 d8 17 3f
       -0.6151956 -1.5909163 1.4647698 0.5931411
000190 2e 34 88 be 05 70 ce 3b 12 5d 08 bd f4 65 52 3f
       -0.2660231 0.006299975 -0.033291884 0.8218682
0001a0 a0 a5 ca be 61 83 cf be 98 aa 79 bf 39 ea 9f 3f
       -0.39579487 -0.40529922 -0.9752593 1.2493354
0001b0 05 0e c2 bf a7 a2 57 3e 23 52 38 3f 39 7b 7b 3d
       -1.5160528 0.2105814 0.7200033 0.06139681
0001c0 66 46 06 c0 25 8e 15 3f 41 79 95 bf 32 50 70 bf
       -2.0980468 0.5842002 -1.1677629 -0.9387237
0001d0 0a 4e e5 bf 12 cf 96 3c c5 49 9a 3f 4f 70 cc be
       -1.7914441 0.018409286 1.2053763 -0.39929435
0001e0 0d db 95 be a7 9b 78 3f 68 af e1 3f 28 38 86 3f
       -0.29268685 0.97112507 1.7631655 1.0485888
0001f0 66 62 6d 3f 54 33 97 3f b8 90 e3 be 8f 7c 99 bf
       0.9272827 1.1812539 -0.4444635 -1.1991137
000200 50 13 05 c0 25 56 23 bf 3b 15 59 3f a9 97 ec 3d
       -2.0793037 -0.6380332 0.8479802 0.115523644
000210 1a ee fd bf 4b 6a 0e c0 81 b6 83 3e cb 4a 8f be
       -1.9838288 -2.2252376 0.25725177 -0.2798675
000220 a8 14 0e 40 c6 53 50 40 c9 41 40 3f c5 e6 0a 3e
       2.2200108 3.2551131 0.7510038 0.13564594
000230 db 3d 96 bd c6 f9 a3 be a3 81 61 be 8b 7c 26 3f
       -0.07336017 -0.320265 -0.22022109 0.6503379
000240 a4 e7 31 40 b1 5f 4e 40 d2 8d e3 bf a7 12 7a 40
       2.7797632 3.2245905 -1.7777655 3.9073884
000250 88 02 77 40 c7 c0 46 c0 43 42 10 3f 09 90 ed be
       3.8595295 -3.1055162 0.5635111 -0.46398953
000260 ee 35 37 bf 3e 38 56 bf 21 ff a2 3f 5b 5d 89 be
       -0.71566665 -0.8367957 1.2734109 -0.26829037
000270 75 6d bb bd a8 ee a6 bf 38 c2 f4 3e 6b 1e 92 3e
       -0.09151737 -1.3041582 0.47804427 0.28538832
000280 04 fa 5b bf 49 b3 8a 3f 07 87 cf bb 7d 9a ad 3e
       -0.8592837 1.0835963 -0.006333235 0.33906928
000290 9c 6c bc be 9e 6a 8d 3f 88 5c ec bf 9a 7f f0 bf
       -0.36801612 1.1048162 -1.8465738 -1.8788941
0002a0 e0 86 4a bf 5c 30 17 40 5c 67 40 bf 36 50 9f bf
       -0.7911205 2.3623266 -0.75157714 -1.2446353
0002b0 f7 71 95 bc b1 01 63 bf 2f 3e 02 3f 1b 1b cd bf
       -0.01824282 -0.88674456 0.50876135 -1.6023897
0002c0 cd 55 cb 3f 04 be af 3e 68 ff 20 c0 8b 55 9e 3f
       1.5885559 0.34324658 -2.5155888 1.2369856
0002d0 ed fc 8d bf c5 06 3d be 63 bc d5 be 03 97 3f 3f
       -1.1092812 -0.18459614 -0.4174529 0.748398
0002e0 88 fc 56 bf be 1a b5 3f a2 a1 13 bf a1 84 dc 3e
       -0.8397908 1.4148786 -0.5766851 0.43069938
0002f0 4b 3f 03 40 78 43 8b 3f 5a 51 e3 be c6 a3 cf 3f
       2.050738 1.0879965 -0.44398004 1.6221855
000300 36 8d b4 bf ba 4e 17 be df 59 26 3f 04 6c 40 3f
       -1.4105594 -0.14776126 0.6498088 0.7516482
000310 e4 26 1f 3f f9 de 85 3f 8b bf 21 3e 15 a4 b3 be
       0.6216872 1.0458671 0.15795724 -0.35086122
000320 b5 43 c2 be 3b d5 86 bf 9a 92 17 bf 28 58 17 3f
       -0.3794228 -1.0533823 -0.5920807 0.5911889
000330 5b 49 1e 3f 10 b7 b2 be 2a a5 08 c0 ca e5 9e bf
       0.6183068 -0.3490529 -2.1350808 -1.2413876
000340 5b ac 88 bf 45 d7 57 3f 0f a9 99 bf f3 c5 39 3f
       -1.0677599 0.8431285 -1.2004718 0.7256767
000350 43 b2 b6 3e fb 3f ac bf d3 48 06 c0 32 e3 86 3e
       0.35682878 -1.3457025 -2.0981948 0.2634521
000360 cf db 59 3f 91 0e 2b be 2c a9 53 3d 1f 71 67 be
       0.85101026 -0.16704775 0.051675007 -0.22601746
000370 e3 05 fb bd 4c 61 d9 3e ed 77 ab 3f 94 51 bb bf
       -0.12256982 0.42457044 1.3395973 -1.4634271
000380 8f c6 b9 be d5 b8 32 40 5b f4 90 bf 80 56 bb bf
       -0.362843 2.7925313 -1.1324571 -1.4635773
000390 dd 8e f8 be 6d eb 0c 3e 8a e3 9d 3f ed ce 5a bf
       -0.48546496 0.13761683 1.2335064 -0.85471994
0003a0 71 d9 3f be 21 e9 1a 40 a9 d6 83 3f 08 15 4e c0
       -0.18735291 2.420479 1.0299884 -3.2200336
0003b0 29 27 ba bf cc 88 ff 3e 86 38 c8 bd c5 d9 58 3f
       -1.4543201 0.49909055 -0.09776406 0.8470729
0003c0 32 7d 29 c0 42 c9 3d 40 fd 49 b4 bf 74 bd cc be
       -2.6482663 2.9654088 -1.408508 -0.3998829
0003d0 77 93 5b be e1 98 d0 3f 4b 4e 54 3f 47 d9 9f bf
       -0.21442972 1.6296655 0.82931966 -1.2488183
0003e0 33 ae a7 bf d6 4a 84 3f 04 60 a2 3f fc bb 9e bf
       -1.3100036 1.0335338 1.2685552 -1.2401118
0003f0 fa 85 08 40 cb 07 2b bd ed fd a8 bd d0 3b ab 3f
       2.1331773 -0.04175548 -0.082515575 1.3377628

embedding_item_MF.weight f4 [1889, 32]
000000 1d 45 b9 bf f5 03 17 bf 99 9f 70 bf 2f 7a 15 bf
       -1.4474217 -0.5899041 -0.93993527 -0.5838956
000010 3c 93 76 bf b4 cc a1 bf 0c 0d b0 bf 95 b6 bd bf
       -0.9631841 -1.2640595 -1.3753982 -1.4821345
000020 8c 26 10 3e 4a 16 bb bf ee 42 7d bf af e1 ce 3f
       0.14077204 -1.4616177 -0.9893025 1.6162623
000030 ce 1f 17 40 ab 63 d7 3e cf 3f 62 3f ac c9 21 c0
       2.3613162 0.42068228 0.88378614 -2.527934
000040 8a 62 49 c0 1f 2b 3e 3f 23 f8 00 3f b7 c8 9a bf
       -3.1466393 0.7428455 0.50378627 -1.2092503
000050 b7 05 ad 3f 85 30 26 bd 97 f4 b5 3f 47 8d f8 bf
       1.3517369 -0.040573616 1.4215268 -1.9418114
000060 ca c7 b0 3f 40 b2 8b 3f ee 0f ef be 5e 3e 7a 3f
       1.3810971 1.0913773 -0.4669184 0.97751415
000070 a0 9f c2 be ae 03 c7 be 47 38 40 3f 98 fb 82 bf
       -0.3801241 -0.38869995 0.7508587 -1.023303
000080 70 99 6c 3f 9a 16 df bf aa 0c 80 bf cf ad 0a 3f
       0.9242163 -1.7428772 -1.0003865 0.5417146
000090 87 80 66 3e ad e1 d4 3e 14 40 ae bf 90 f7 97 be
       0.22509967 0.41578427 -1.3613305 -0.29681063
0000a0 73 47 dd 3d 07 ac 41 3f 1b 26 ac bf 19 ac 35 bf
       0.108046435 0.7565312 -1.3449129 -0.70965725
0000b0 81 8e dd 3f b8 6c e7 bf d2 55 05 c0 96 32 07 3f
       1.7309114 -1.8080053 -2.083363 0.52811563
0000c0 b8 e9 e6 3e 6c 5c 14 bf a0 ed 58 bf 7d c5 88 3c
       0.45100188 -0.57953525 -0.84737587 0.016695732
0000d0 cd 64 07 c0 77 54 eb 3f 07 da 69 bd d8 3d 99 bf
       -2.1155274 1.8385152 -0.057092693 -1.1971998
0000e0 ad 5f df 3e f6 6b 2b 40 59 2f f1 3e 75 53 04 3f
       0.43627682 2.6784644 0.47106436 0.51689845
0000f0 d0 45 2f be f1 4d 4e bd c3 e9 24 bf ff b8 56 3f
       -0.17116475 -0.0503673 -0.6441919 0.8387603
000100 4a c9 99 3f 42 21 b8 bf f1 1a 4a 3f c7 57 97 bd
       1.2014554 -1.438515 0.7894736 -0.07389789
000110 0b 35 00 40 7a ca f0 bf b6 55 95 3f c9 74 74 be
       2.0032375 -1.8811791 1.1666782 -0.23872675
000120 3e 5d b3 be 2a f3 fa 3f 06 6d 10 3f 04 80 51 3f
       -0.35032076 1.9605458 0.56416357 0.8183596
000130 e7 76 af 3d 81 b8 92 3e c9 da 17 bf 47 90 3d 3f
       0.08567601 0.2865639 -0.59318215 0.74048275
000140 bb 1c 4c 3f 0f 74 45 c0 3d c4 6a be 2e a8 75 bf
       0.7973134 -3.0852087 -0.22926421 -0.95959747
000150 39 f6 01 40 bf bc 0f c0 38 23 a7 3f 3d fb 14 c0
       2.0306532 -2.2458951 1.3057623 -2.3278344
000160 5d e0 18 3e f3 de 60 3f 55 01 9b 3f e1 ee 97 3f
       0.14929338 0.87840194 1.2109782 1.1869775
000170 1d 56 06 3f 05 f4 32 40 05 d2 74 3e 2c 00 cf 3e
       0.5247515 2.7961438 0.23908241 0.4042982
000180 86 09 04 3c 49 7b 31 3f 73 4d 30 3d 98 ae 12 be
       0.008058911 0.69328743 0.04304261 -0.14324415
000190 07 ce 2e 3d f9 eb c3 bf 99 65 5f 3e 35 13 01 3e
       0.04267695 -1.5306388 0.218161 0.12604983
0001a0 f2 9f fd 3f 20 13 dd 3f 8d 89 23 bf 1c 78 e0 3f
       1.9814436 1.7271461 -0.6388176 1.7536654
0001b0 5d 47 93 bc 5c b3 03 c0 74 93 0e bf 28 96 fe be
       -0.017978365 -2.0578222 -0.55693746 -0.49723935
0001c0 0d 18 e4 3e a5 a7 06 3e 15 8d 2d bd 15 91 57 be
       0.445496 0.13149889 -0.042370874 -0.21051438
0001d0 67 0e eb 3e fb 48 8e bf d8 df 28 bf 18 36 a8 3f
       0.45909426 -1.1116022 -0.6596656 1.3141508
0001e0 59 1e 4a c0 ed dc f7 bd 14 7b 31 c0 00 a8 26 3e
       -3.1581023 -0.12102685 -2.773137 0.16275024
0001f0 2e 7d 37 40 1f 77 41 c0 b5 be 6a 3e c5 aa a9 3f
       2.8670154 -3.0228956 0.22924311 1.325524
000200 66 02 56 bf a5 a9 07 40 5e fc 3b 3e 37 12 ba 3f
       -0.8359741 2.1197293 0.18357989 1.4536809
000210 bb d2 93 3f 98 26 ce bf 68 5c a1 bf f3 e1 30 be
       1.1548685 -1.6105528 -1.2606325 -0.17273693
000220 81 79 bf 3e da 1f a6 3e 39 9e da 3f e5 f6 34 bf
       0.37397388 0.32446176 1.7079536 -0.7068923
000230 23 e2 ac 3e 5d ed 80 40 cd a3 41 c0 76 00 3f 3f
       0.3376628 4.028975 -3.0256226 0.7461008
000240 64 e3 03 bf bd 52 ed bf 0f 7d 0b 3f a9 b9 dd 3e
       -0.51518846 -1.8540875 0.544877 0.4330571
000250 11 69 ea be 85 09 96 be c0 1a b6 be 6e 1a f8 be
       -0.45783284 -0.29304138 -0.35567284 -0.48457664
000260 39 ae 10 3e ef 91 ba 3e 29 63 4e 3f fb b0 55 be
       0.1412896 0.36439463 0.80620056 -0.20868294
000270 58 9b 29 3f c9 61 2f c0 56 b1 0f bf 0e d6 ab 3f
       0.6625266 -2.7403433 -0.5612997 1.3424699
000280 d9 da 03 3f ac 3b 37 bf 1e db 37 bf b2 1c 83 bf
       0.5150581 -0.7157543 -0.7181872 -1.0243132
000290 16 31 db be ae 98 e9 3f fc dc 84 3d 3f 16 95 bf
       -0.42810887 1.8249719 0.06487462 -1.1647414
0002a0 02 c1 ff 3f 13 f8 e2 3f 5e d7 79 bf 7d 03 c1 3e
       1.9980776 1.7731956 -0.9759425 0.37697974
0002b0 dc 9e ea be 61 84 14 40 74 de e9 bf a9 b3 fe 3e
       -0.45824325 2.3205798 -1.8271012 0.49746445
0002c0 bc 1e e9 bd 15 fb 8b 3f b2 ba 48 bf 6a 95 7a be
       -0.11382815 1.0935999 -0.78409874 -0.2447106
0002d0 e0 bd cb be ac c5 88 3f 79 55 38 bf 52 03 62 3f
       -0.397933 1.0685325 -0.7200542 0.88286316
0002e0 e4 3f 73 bf d1 eb 1d 40 29 da c6 bf 1a 83 0c bf
       -0.95019364 2.467518 -1.5535327 -0.54887545
0002f0 55 03 74 3d 1e b8 75 3d fd 8c 6e 3f 35 53 14 bf
       0.05957349 0.05999004 0.9318388 -0.57939464
000300 e9 43 f2 be c9 6b 13 bf a8 c9 a1 bf 5b 74 10 c0
       -0.47317436 -0.5758634 -1.2639666 -2.2571018
000310 c2 04 63 3e e4 f9 c7 3f f9 0b d4 be 3a a6 1a 3f
       0.22169784 1.5623136 -0.41415384 0.6040989
000320 e2 40 aa 3e 22 9e d1 bf 4f 47 7c 3f b1 eb ae be
       0.33252627 -1.6376383 0.9854631 -0.34164193
000330 1e 42 f5 3f 23 6b 31 c0 1e ba 72 3e c7 ce a4 3e
       1.9160802 -2.772164 0.2370381 0.3218901
000340 77 ed de 3e 36 63 0a c0 a7 fc 86 bf 1d 06 4c bf
       0.43540546 -2.1623054 -1.0545853 -0.7969683
000350 50 d8 95 bf 6f da cc be 1f 3a 93 3e 46 1d 0a 3f
       -1.1706638 -0.40010402 0.2875528 0.5395092
000360 ff e1 35 bd 0c 6b 72 3f 1a 4f 8d 3f 7c f8 9f bf
       -0.04440498 0.9469459 1.1039765 -1.2497706
000370 63 cc 89 3e 18 33 84 3d cc 75 9c bf c1 28 1b be
       0.26913747 0.06455058 -1.2223449 -0.15152265
000380 8c c8 44 c0 52 46 a6 3f 93 67 0f c0 16 dd a4 bf
       -3.0747404 1.299021 -2.2406967 -1.287997
000390 c2 2d 7a 3f b6 7f fc 3e 4e cb 20 bf d8 5c 54 3f
       0.9772607 0.49316186 -0.6281022 0.8295417
0003a0 01 16 0a 3f ea ff 0d 40 7a b7 16 be 5d 75 8a 3e
       0.53939825 2.2187448 -0.14718428 0.27042666
0003b0 07 cb dc bf 2d e6 55 3f 84 ab 2f 3e 9d 7d cb bf
       -1.7249459 0.83554345 0.17155272 -1.5897709
0003c0 6b 91 27 bf 5c 18 b0 bf 02 31 de be 63 61 00 3f
       -0.65456265 -1.3757434 -0.43396765 0.501486
0003d0 4e 78 c6 3e 7b 4b 7f 3f 57 38 ab bf ef 6e c0 3e
       0.3876366 0.9972455 -1.3376569 0.37584636
0003e0 4f ac ec be af b2 b6 3e e6 f4 9b 3d 51 18 12 3f
       -0.4622521 0.356832 0.0761507 0.57068354
0003f0 a0 95 36 3f 66 83 be bb 7c 67 21 c0 a4 b9 a6 bf
       0.7132206 -0.0058140038 -2.5219412 -1.3025403

embedding_user_MLP.weight f4 [51, 32]
000000 a0 de b7 bf e0 04 b4 3f b3 38 b6 be 9f fc 87 bf
       -1.4364815 1.4063988 -0.35590133 -1.0623969
000010 35 5f b0 3e 5c e5 2f bf 4a 77 16 bf 6e a3 96 bf
       0.34447637 -0.6870935 -0.5877577 -1.1768625
000020 69 0d c4 3f e9 8f e6 bf f0 f0 6f be 09 c1 30 bf
       1.5316592 -1.8012668 -0.23431754 -0.6904455
000030 68 2a bf bd 54 44 ac bf 33 c4 ce 3f 65 c5 84 bf
       -0.0933426 -1.3458352 1.6153625 -1.037274
000040 76 09 61 3e 14 7b 03 3e 32 1a 64 be 6d c8 ec 3e
       0.21976265 0.1283992 -0.22275618 0.46246663
000050 88 b5 9c be 93 4a 94 bf d6 ee 9b 3f 46 bf 0f c0
       -0.30607247 -1.1585258 1.2182262 -2.2460494
000060 82 cd 31 bf 78 11 3c 3f 23 82 1e 3e 02 52 db be
       -0.69454205 0.73464155 0.1547933 -0.42836004
000070 cf 08 37 bd ce 9d 33 bf 46 45 47 3e 95 1d f6 3d
       -0.044686135 -0.70162666 0.1946002 0.12017361
000080 0a 79 15 3f dc 2b d0 be fa d2 61 bf 7e 1f 54 3d
       0.58387816 -0.40658462 -0.8821255 0.051787846
000090 32 b0 81 3e b4 8f c8 3e 83 e5 6b 3f 51 30 e0 bf
       0.2532974 0.39172137 0.9214708 -1.7514745
0000a0 b6 de fa 3e 2c 10 36 bf ec 7a 86 bf d6 ea 9d 3a
       0.4899804 -0.71118426 -1.0506263 0.0012048136
0000b0 1f 1f da 3f 59 fd 9e bf 41 de 79 bf 1d 04 5d 3e
       1.7040747 -1.2421066 -0.9760476 0.215836
0000c0 22 f8 5b bf 3c 78 cf be b0 a4 43 c0 d3 d9 95 be
       -0.85925496 -0.4052142 -3.0569267 -0.2926775
0000d0 5d 7a a2 bd 2e 45 e1 be 18 3b 49 3f e6 b5 dc bd
       -0.07933495 -0.43998092 0.78605795 -0.10776882
0000e0 ad 33 96 bf 81 82 ae be 1c 7a a2 3f f3 6b f2 be
       -1.173452 -0.34083942 1.2693515 -0.47347984
0000f0 77 5a 5d 3f c5 de ce 3e f1 e2 98 bf 5e 44 ea 3f
       0.86466163 0.40404335 -1.1944257 1.8302114
000100 f4 b2 98 3f 0c 60 2e 3f 9a ea a5 3f d8 a3 be 3e
       1.1929612 0.68115306 1.296222 0.37234378
000110 17 ae 6c 3f 71 d7 81 3f f7 09 ef bf ec fb 8a 3f
       0.9245314 1.0143872 -1.8674916 1.085813
000120 f0 a5 2e be 7d a3 66 3f f5 d2 ea bf a7 fd 57 be
       -0.17055488 0.90093213 -1.8345629 -0.21092854
000130 1f 97 80 3e 2e 38 3e 3f 34 3f 46 3f c9 f5 d6 be
       0.25115296 0.74304473 0.7744019 -0.41984394
000140 7b b7 d2 3e c6 61 cf 3f ca 94 76 bf 27 2e 2e 3f
       0.4115561 1.6201713 -0.96320784 0.6803917
000150 5d f9 2f 40 b4 ad 37 3f 21 1d 4a 3f c9 17 86 bf
       2.749595 0.71749425 0.789507 -1.0476009
000160 ea c4 df 3e aa c7 a4 3e 5e ac 82 3f 5b bb 4a be
       0.4370492 0.32183582 1.0208852 -0.19798033
000170 b6 de 02 40 f9 20 a5 3d b6 8a 61 3f fe 45 9c 3f
       2.0448432 0.0806293 0.8810228 1.220886
000180 b9 b1 2a bf 5b 72 c3 be 81 6d be be 75 2f 8c 3d
       -0.66677433 -0.38173184 -0.3719292 0.06844989
000190 a7 17 62 bf 84 f3 a0 be ec e7 2e be b6 f7 84 bf
       -0.8831734 -0.31435788 -0.17080659 -1.0388095
0001a0 7c e2 9a 3d 9b f2 cf 3e 40 13 bd 3e c0 da f0 bf
       0.0756273 0.4061478 0.3692875 -1.8816757
0001b0 28 82 1e bf 21 d4 01 bf d8 e8 76 3f 39 f9 32 bf
       -0.6191735 -0.5071431 0.9644904 -0.69911534
0001c0 a8 3e 23 3f 04 a0 ee 3e 55 c6 8e bf 90 ba 05 40
       0.6376748 0.46606457 -1.1154276 2.0895119
0001d0 7f e5 a2 3f e5 0b 93 be c6 6b 3a 3f 57 6a f0 3e
       1.2726287 -0.28720012 0.728207 0.4695613
0001e0 a2 fb a5 be aa 19 c0 be 5d e1 58 bf 13 01 8c 3d
       -0.32418543 -0.3751958 -0.8471888 0.068361424
0001f0 2f 0c 38 bd 0a 33 37 be 42 fc d3 bf c5 f5 29 bf
       -0.044933494 -0.17890564 -1.6561358 -0.6639064
000200 d8 cd 1b 3f 1f 71 80 be c6 d8 a4 3f 52 ad 1a 40
       0.6086097 -0.25086305 1.2878654 2.4168286
000210 c5 d6 ef 3f cf c0 35 bf 63 3b 30 3e 1c 04 c7 bf
       1.8737417 -0.7099733 0.17210154 -1.5548129
000220 d8 dd 15 bf 6e 73 9d 3e 41 c5 bd 3f ef 56 f7 3f
       -0.5854163 0.30752128 1.4825822 1.9323405
000230 cf f4 d2 bd 04 63 42 be 87 1a b0 3e 2b 5d aa 3f
       -0.103006 -0.18983084 0.3439524 1.3309683
000240 2f 7e 93 3f 40 df 9c 3f aa 04 a9 3e 32 fc 88 3f
       1.1522883 1.225563 0.3301137 1.0701964
000250 3b 79 4b bf c2 c7 2a 40 f4 e6 66 3d 06 5e 77 3f
       -0.7948186 2.6684422 0.056372598 0.96627843
000260 a1 92 0c bf e9 30 db 3e e5 4c 28 be e6 43 11 3f
       -0.5491124 0.42810753 -0.16435583 0.5674423
000270 df 10 41 3f 71 79 8a 3f 3f ca ef 3e 19 70 dc 3e
       0.7541637 1.0818311 0.4683399 0.43054274
000280 14 5e a7 be 97 79 b6 3f c4 21 d1 3f e9 5e 0b 3f
       -0.32688963 1.4255856 1.633843 0.54441696
000290 ed 9d 84 3f 23 1d 85 bf 96 92 57 3f 75 25 82 be
       1.0360695 -1.0399517 0.8420805 -0.25419202
0002a0 44 f7 b6 be 05 b8 43 c0 db d3 98 be 61 17 87 3f
       -0.35735524 -3.0581067 -0.29849133 1.055401
0002b0 f8 d7 8d 3e 09 75 a1 3f 56 57 07 3f 23 ca 8f bf
       0.27703834 1.2613841 0.5286764 -1.1233562
0002c0 ec 0b 80 3f fa e6 ad be d6 5b b8 bf 6b c6 81 3f
       1.0003638 -0.33965284 -1.4403026 1.0138677
0002d0 f7 3c ed bf 64 10 3e bf 66 07 45 c0 04 c2 91 bf
       -1.853423 -0.7424376 -3.0785766 -1.1387334
0002e0 e7 79 c2 be ca 7a 17 c0 33 48 45 40 8d 0f c0 3f
       -0.3798363 -2.3668694 3.0825317 1.5004746
0002f0 12 9b 8c 3d 52 02 01 c0 57 23 b3 3e b7 49 e4 3e
       0.06865515 -2.0157666 0.349879 0.4458749
000300 cf dc 96 3e 0b 88 6c bf 69 10 65 3f 54 8d 3f bf
       0.2946534 -0.92395085 0.89478165 -0.74825025
000310 b3 6e 1e 3f 32 98 4d bf 7d fc 9a bf 81 3e 98 3f
       0.61887664 -0.80310357 -1.2108303 1.1894075
000320 cf c2 72 bf 09 8e 19 3f af c0 24 bf 39 f7 6f bd
       -0.94828504 0.59982353 -0.6435651 -0.05858538
000330 6f 9b 23 c0 b2 dc c2 3e 44 3f 69 3f c3 ac 0f bf
       -2.556362 0.38059002 0.9111216 -0.5612299
000340 e6 53 88 3e c3 17 82 3b e4 a3 bc 3f b9 9b f9 bf
       0.2662651 0.003970118 1.4737515 -1.9500648
000350 44 5d bc 3f 2f 8c d3 3f b3 62 9f 3f c8 7a 7e 3f
       1.4715962 1.6527156 1.2451996 0.994061
000360 d0 e8 22 be 6d 00 ef bf 5a 2f f6 bf 19 29 df bd
       -0.15909123 -1.8672005 -1.92332 -0.10896511
000370 46 e9 91 bf 2c 93 85 3f c2 f3 06 bf a5 cc 3a 3f
       -1.1399314 1.0435538 -0.52715695 0.7296851
000380 4c 6b 09 c0 44 8c 82 bf d5 4a ab be 95 3c c7 3f
       -2.147174 -1.0199056 -0.3345553 1.5565363
000390 3d d6 ca 3f 78 d2 b6 3f 27 00 c5 3f ca 54 06 c0
       1.584663 1.428298 1.5390671 -2.098925
0003a0 41 e3 c6 bf ef 7a 30 3f 33 59 a6 3e b0 e5 90 be
       -1.5538102 0.6893758 0.3248993 -0.28300238
0003b0 be b3 af bf a6 ab 15 c0 99 79 a1 3f 18 b6 74 3f
       -1.3726728 -2.3386016 1.2615234 0.95590353
0003c0 47 2e 85 bd 90 f6 69 bf 07 84 a9 bf e3 72 29 3f
       -0.06502967 -0.9139185 -1.3243417 0.6619093
0003d0 c8 ec 18 bf 2a 55 60 3f ab 1d 08 bf db 78 ce 3f
       -0.597363 0.8762995 -0.5317027 1.6130632
0003e0 df 64 ba bf ef 37 e2 be 43 67 50 bf dc 6b 63 be
       -1.4562033 -0.441833 -0.81407565 -0.22209114
0003f0 f2 00 46 bf f4 d6 5c bf 1f bc d5 3e 68 67 c1 bf
       -0.7734519 -0.8626549 0.41745088 -1.5109682

embedding_item_MLP.weight f4 [1889, 32]
000000 25 2a 1f 40 91 c4 0b 40 ab 89 84 3e cd 50 0f c0
       2.4869473 2.1838725 0.25886282 -2.2393067
000010 45 fb 25 3f 94 57 8f be ab da b4 3f eb 76 c4 bd
       0.6483653 -0.27996504 1.4129232 -0.09592994
000020 d2 90 57 3f f9 bb 14 bd dc f9 e5 be 79 2e 32 be
       0.84205353 -0.036312077 -0.4491719 -0.1740054
000030 68 97 3a c0 f8 3e 60 3f 1d e5 0e bf b6 a5 cf bf
       -2.915491 0.8759608 -0.5581835 -1.6222446
000040 9c 21 af 3f cf ed ce 3f 8c 3c 59 bf 89 d9 2a 3f
       1.3682132 1.6166323 -0.8485801 0.6673818
000050 69 31 a1 3d 1f aa 8a bf 8e 72 19 3f e0 0e 43 3f
       0.07870752 -1.0833167 0.5994042 0.7619457
000060 f3 95 3f be 60 53 02 c0 68 06 44 3e a4 e5 5c bf
       -0.18709545 -2.0363388 0.19143069 -0.86287904
000070 3e fc 2c 3f 05 db 01 40 bc ca 63 bf 0f 22 60 3f
       0.6757239 2.028993 -0.88981223 0.8755197
000080 64 43 42 3e 4f 41 09 3f 71 a9 7f 3f 65 bc 01 bf
       0.1897102 0.5361528 0.9986792 -0.5067809
000090 90 9a b8 bf 3f 5b 50 be f4 4b b8 3f e9 41 d7 3f
       -1.4422169 -0.20347308 1.4398179 1.6816989
0000a0 1e 3c 33 c0 ca a7 94 3e 2e 4b 6c bf 61 03 64 3e
       -2.8005443 0.29034263 -0.92302215 0.22266914
0000b0 0f 02 b5 bf 4f a3 86 3e 80 80 ca 3f 49 89 39 bf
       -1.4141253 0.2629647 1.5820465 -0.72475106
0000c0 0f 8f 89 bd 5b 2e 45 bf 49 43 c2 3f fc cf e6 be
       -0.067167394 -0.7702386 1.5176784 -0.45080554
0000d0 15 a5 3b be 4e 75 a3 3e 34 14 2c bf 62 c6 2b bf
       -0.18324693 0.31925434 -0.6721833 -0.67099583
0000e0 21 3d 5c 3f 92 9a 80 be d3 87 a8 3f 26 42 b4 be
       0.86030775 -0.25117928 1.316645 -0.35206717
0000f0 20 74 22 bf 3b 45 8e 3f 88 28 ed 3e 9b 1c 3f bc
       -0.6345844 1.1114877 0.46319985 -0.011664535
000100 57 36 d1 be d7 58 28 3f 80 40 89 3f d5 64 87 bf
       -0.4086177 0.6576056 1.0722809 -1.0577646
000110 cf 0e 94 3f fa 92 06 40 01 7e ce 3f 1e 33 88 3f
       1.1567019 2.1027207 1.6132203 1.06406
000120 20 4f a5 3e de 92 8c bf 7a 42 24 40 bf 03 22 bf
       0.3228693 -1.098232 2.5665574 -0.63286966
000130 33 56 10 3f 81 0e 18 3f c6 c5 14 bf 59 8c 97 3f
       0.5638153 0.5939713 -0.5811428 1.1839706
000140 b7 fc d9 3c ed 00 59 3f 8a 89 88 3f 75 97 31 c0
       0.026609762 0.8476704 1.0666974 -2.7748692
000150 56 9c b0 3d 2e ae bc 3e 5b d4 27 bf df 56 3b bf
       0.08623569 0.3685164 -0.65558404 -0.7317943
000160 4e b0 80 3f a1 ed 04 bf 9e 25 b1 3f c2 e2 10 3d
       1.0053804 -0.5192509 1.3839605 0.035372503
000170 4a 96 25 3f dc dd 9a be 99 a3 47 bf cc 11 c9 be
       0.6468245 -0.3024739 -0.77984005 -0.3927139
000180 53 05 f0 3f f7 9c 57 be b0 25 a2 bf 31 1b 0a 3f
       1.8751625 -0.21055971 -1.2667751 0.5394774
000190 72 ef 4a 3e a2 2f bd bf 62 4e 52 3f 1f 6d 5e 3f
       0.19817904 -1.4780161 0.8215085 0.86885256
0001a0 01 a3 dc be 03 6d 2d 3f 9c e5 d0 bf af e0 34 3f
       -0.43093112 0.67744464 -1.6320071 0.7065534
0001b0 40 65 51 3e 11 12 0a bf 6c bb 33 bf 72 c5 ec be
       0.2044878 -0.5393382 -0.7020786 -0.4624439
0001c0 fd 63 b5 3e cd bc 99 3e 55 3e ac be e1 5e d6 3f
       0.35427848 0.30026856 -0.33641306 1.6747705
0001d0 35 89 de bf fc f5 b9 be d5 60 8d bf b7 a9 14 3d
       -1.7385622 -0.36320484 -1.1045176 0.036294665
0001e0 29 b8 36 c0 5b 69 d9 3e a6 6c 5e be 75 9c a6 3f
       -2.8549902 0.42463192 -0.21721134 1.3016497
0001f0 0c 12 9f bf e9 99 96 3e cc 4f 37 bf 63 01 86 bf
       -1.2427382 0.294143 -0.71606135 -1.0469173
000200 ed aa 83 3f 5f 80 7b bf 1a bc c8 bf be 82 98 bf
       1.0286537 -0.98242754 -1.5682404 -1.1914899
000210 2e d5 aa 3f 9d a2 bf bd 16 e8 81 3f 4a 47 22 bf
       1.3346307 -0.09357188 1.0148952 -0.6339003
000220 e6 dc 25 40 83 84 fc bf 20 d0 13 bf 43 69 c6 be
       2.5916076 -1.9727939 -0.5773945 -0.38752183
000230 c3 fb f0 be 1c 39 b6 bf c3 40 1c 3e d5 c4 a2 bf
       -0.4706708 -1.4236178 0.1525908 -1.2716318
000240 75 b8 0e bd 1c 3d 2a bf ab b8 2e bf c8 c6 dc bf
       -0.03484388 -0.66499496 -0.6825053 -1.7248163
000250 1e df 02 be b3 b9 89 bf 43 0c 28 c0 25 0b 9b 3e
       -0.12780425 -1.0759796 -2.6257484 0.3028194
000260 94 0a 34 bf 23 4e 04 c0 d5 74 63 bf 14 f8 a0 3f
       -0.7032864 -2.067269 -0.88850147 1.2575707
000270 db ed 89 bf d1 7a 5a bf b5 32 35 3e 79 e3 ae 3f
       -1.0775713 -0.8534365 0.17695124 1.3663169
000280 6e 1c 4c bf f5 9e 04 3e d4 4b dc bf fd 25 b4 bf
       -0.7973088 0.12951262 -1.7210641 -1.4074093
000290 6a 9d 95 3e fd 40 e6 3f 9c b7 ab 3f 13 6b c7 bd
       0.2922166 1.7988583 1.3415408 -0.0973722
0002a0 0c 37 a2 3e 03 3e 53 3c 9d 10 45 bf 6b 1e 55 bf
       0.31682622 0.012893203 -0.76978475 -0.8324954
0002b0 65 92 27 40 44 01 bf be bf d7 87 be 2e 3a 44 bf
       2.6183102 -0.37305653 -0.2653179 -0.76651275
0002c0 5b 41 93 3f 21 ab 64 3f 50 97 07 40 28 86 26 bf
       1.150432 0.8932362 2.1186104 -0.65048456
0002d0 85 e4 b1 3e 7b 4a ab 3f 5c bf e8 be 62 a7 f7 3f
       0.3474466 1.3382105 -0.45458496 1.9347956
0002e0 ff 1e 73 3f 4c a7 81 3f a2 2d 39 3f a9 60 44 bf
       0.9496917 1.012918 0.72335255 -0.7670999
0002f0 92 76 03 bf 59 b2 e5 3e 4e c6 18 bf a3 3d 7c 3f
       -0.513528 0.4486263 -0.5967759 0.9853155
000300 09 e6 4f bf 7e 8f 22 3f cf 0b a0 bf 82 c2 9d 3e
       -0.8121038 0.635002 -1.2503604 0.3081246
000310 e5 24 e5 3f df 51 cf 3f e0 2d 91 3d ae 10 80 bf
       1.7901884 1.619686 0.07088828 -1.000509
000320 90 ab 88 be 85 0e 7c bf 5b f9 1e c0 8f 12 1d 3f
       -0.26693392 -0.98459655 -2.4839694 0.61356443
000330 55 42 03 c0 45 60 c9 3e eb 6e 0d 40 b8 a7 cd bd
       -2.0509236 0.3933126 2.209895 -0.100417554
000340 4e 7f e4 bf d8 65 7e bf 3b ac bf bf f0 3f 2c 3f
       -1.785135 -0.9937415 -1.4974436 0.6728506
000350 77 cb 4c 3e 20 f3 8c 3f b9 cf 10 40 cd 36 cf be
       0.1999949 1.1011696 2.2626784 -0.40471497
000360 13 14 87 bf 2f 60 e4 bf 02 9e 03 3f 9d bc cd 3f
       -1.0553001 -1.7841853 0.51412976 1.6073185
000370 5e 69 4f 3f b6 bd 3c bd 2f 16 b7 bf 70 7c c2 3f
       0.8102015 -0.04607936 -1.4303645 1.5194225
000380 11 bf 8f 3f d0 83 d3 be 3f e5 cd be fb 66 22 bf
       1.1230184 -0.41311502 -0.40213963 -0.63438386
000390 f0 99 97 bd 99 ed 8a 3d 1d 67 23 bf c5 7a ee be
       -0.07402408 0.067835994 -0.63829213 -0.4657804
0003a0 9e 8d 9c 3e 1d e4 5f bf 3a d7 97 be 03 ea 08 40
       0.30576795 -0.8745745 -0.29656392 2.139283
0003b0 2a 85 a4 be 05 6e 03 c0 06 f7 78 3f 3e 64 a0 bf
       -0.32132846 -2.05359 0.9725193 -1.2530591
0003c0 02 b9 04 3f 0a 24 ac bf eb 2a af 3f fd fe 1d c0
       0.518448 -1.3448498 1.3684973 -2.4686882
0003d0 2c 29 b7 3e 2a f2 23 3e 11 28 02 bf 60 c5 a6 bf
       0.357736 0.16010347 -0.50842386 -1.3028984
0003e0 d6 76 91 3f fd da 0a bf 3b 30 d6 3f 9c 90 1a c0
       1.1364391 -0.542404 1.6733469 -2.4150763
0003f0 70 9f 80 3f e2 0f d3 bf 5b 2d d3 3f d0 c3 bf 3e
       1.0048656 -1.6489222 1.6498216 0.3745408

fc_layers.0.weight f4 [32, 64]
000000 3f 69 e3 3e d3 51 c0 3d ca a6 c1 be 6c c9 13 be
       0.44416234 0.09390607 -0.37822562 -0.14432305
000010 9f 40 c1 bd 48 67 19 bf 38 2a 9e 3e 48 8f 02 3f
       -0.094361536 -0.5992322 0.30891585 0.5099988
000020 55 29 1f be 72 81 c2 3e eb 8d 56 3e 2f bf 73 bc
       -0.1554311 0.37989384 0.20952575 -0.014877125
000030 df ae 51 3d d4 dc b6 3e eb b6 ed be 9c ae 0d bf
       0.05119216 0.35715353 -0.46428618 -0.5534456
000040 1b 89 c1 3e 3b 92 5f be 96 bf d6 3d 45 65 06 be
       0.37799916 -0.21833126 0.10485761 -0.13124569
000050 04 ce 71 3e 10 0f d0 3e 70 b8 8a 3e e2 03 93 3e
       0.23613745 0.40636492 0.2709384 0.287139
000060 a6 91 4d 3f af 1d a2 be 6a c8 7c be ec 52 d9 bd
       0.80300367 -0.31663272 -0.24685827 -0.10611519
000070 fd b0 6f 3e a8 da a5 3d 34 22 54 3e df 4b 44 3e
       0.2340736 0.08098346 0.20716172 0.19169568
000080 98 6e 12 3f c6 a1 07 3f 62 93 04 bb da 3a 87 3e
       0.572 0.5298122 -0.0020229449 0.26412088
000090 a4 1a b1 be df 32 0c bf 39 51 c6 bc 8d 9a 03 3d
       -0.34590638 -0.54765123 -0.024208652 0.032129813
0000a0 2c 70 70 3f 80 61 a0 3e ea 6b 0f 3f 96 23 7d be
       0.9392116 0.31324387 0.5602404 -0.24720606
0000b0 44 14 f4 3e a6 d8 0e bf 5f 54 87 3e 34 39 41 3f
       0.4767171 -0.5579933 0.26431558 0.7547791
0000c0 92 72 93 bd 2c a5 54 bd 5a 86 d8 bb 1d c7 f1 3e
       -0.07199587 -0.051915333 -0.006607813 0.47222224
0000d0 a2 ff 92 3c 52 65 25 bd 9b 57 16 bf a1 62 70 be
       0.01794416 -0.04037983 -0.58727425 -0.23475124
0000e0 df c9 94 be c9 92 96 be 60 73 a3 be 94 e3 11 3f
       -0.29060265 -0.29408863 -0.31923962 0.5698788
0000f0 f2 c2 a5 be 97 25 c8 3e 22 a5 50 3e 4b cf e9 be
       -0.32375294 0.3909118 0.20375493 -0.45665964
000100 66 08 4e 3e 28 b5 5d be 83 b0 e2 be 6d be 06 3e
       0.20120391 -0.21651137 -0.44275293 0.13158579
000110 0b 60 9e 3e c2 c1 5e 3e b4 4d cd be 7c 8e d4 bd
       0.3093265 0.217536 -0.40098345 -0.10378739
000120 40 7d 34 be 15 ac 23 3f 4e 62 44 3e 9e cb 2c 3d
       -0.17625904 0.6393445 0.19178125 0.042186372
000130 ea ed 9b be 74 2d aa be fe 62 50 be 2e 7e e6 bd
       -0.30454952 -0.33237803 -0.20350263 -0.112545356
000140 36 2b 01 3d af c3 98 bc 72 dd 18 bd fe 2d a6 3d
       0.03153535 -0.018647997 -0.03732056 0.08114241
000150 60 c1 70 3d 10 97 91 be 45 eb 98 3d bd c2 d6 bc
       0.058778167 -0.28435564 0.07466749 -0.026215905
000160 7d 4f 65 be 3d 27 75 bd 59 4d 8b be 31 68 8c be
       -0.22393604 -0.059851874 -0.2720745 -0.27423242
000170 10 12 64 3e 4a bb 1b 3f d7 f6 b5 3e d9 79 bc 3e
       0.22272515 0.60832655 0.35539886 0.36811712
000180 df fe d6 bd b6 4a a3 3e 56 7e 73 be 45 1e af 3e
       -0.104978316 0.31892937 -0.23778662 0.3420278
000190 a0 a6 fd be 49 bc 12 3e 00 63 06 bf 63 d0 1c bf
       -0.49541187 0.14329638 -0.5249481 -0.6125547
0001a0 66 51 f0 bd be da f6 3e aa d7 ce 3e 75 e5 ad bf
       -0.117342755 0.48213762 0.40398914 -1.358565
0001b0 ce 7d dd 3e 78 10 31 be d0 e3 2c 3f 9b 15 b8 3d
       0.43260044 -0.17291439 0.67535114 0.08988496
0001c0 05 f8 77 be 57 4a 33 bb 21 7c 2c 3f 18 19 14 3e
       -0.24215706 -0.0027357542 0.67376906 0.14462698
0001d0 5e ea 48 3f d9 65 9c 3e b6 15 d9 3e 67 90 01 bf
       0.78482616 0.30546454 0.42399377 -0.50610965
0001e0 68 f0 f8 3d 42 81 53 3e 68 87 5f 3d 80 ce de 3e
       0.12155229 0.20654777 0.054572493 0.43516922
0001f0 2e fd 44 3e ab 6a ba be 72 1a ab 3e 7e 69 de 3e
       0.19237205 -0.36409506 0.33418614 0.4343986
000200 f6 31 71 bd 7c a2 e2 3c f2 97 b9 be c9 ad 04 3e
       -0.058885537 0.02766537 -0.36248738 0.12956919
000210 04 43 be 3e b6 0f 59 be d2 c8 86 3d 95 d2 00 bf
       0.37160504 -0.211974 0.06581272 -0.5032132
000220 54 6a 4d 3e 7e 1a 9e 3e 4d b1 b5 3e 87 8b a6 3a
       0.20060092 0.30879587 0.35486832 0.0012706377
000230 10 5f e2 bd 35 10 d0 be bc 5c f2 be c7 24 8b 3e
       -0.11053288 -0.40637365 -0.47336376 0.27176496
000240 f0 eb fb 3e 9f 85 6f 3e b3 df 1f be 2d 48 12 3e
       0.49203444 0.23390816 -0.15612678 0.14285345
000250 b9 5d b2 3d 5d d7 83 bd 90 aa 98 be e9 37 f6 3d
       0.087092824 -0.06437562 -0.2981763 0.12022383
000260 fb a6 92 be 7f 9e a7 bd 84 ae b9 be 3a 41 65 be
       -0.2864302 -0.081845276 -0.36265957 -0.22388163
000270 bf db b0 3d 05 df 23 3f 9b e3 80 3e 0a 93 f7 3c
       0.08635663 0.64012176 0.2517365 0.03022148
000280 3d bf 9d 3d 46 d0 cb be bb 86 1a bd c3 71 18 bf
       0.077024914 -0.39807338 -0.037726145 -0.59548587
000290 bd 6c 1e bf a1 8c e9 3e 68 55 9c 3e 5f f0 bc be
       -0.6188467 0.45615104 0.3053391 -0.3690214
0002a0 7e 64 1c be af 8b 15 bf 3e b2 97 be 67 7a d4 be
       -0.1527271 -0.58416265 -0.29628175 -0.41499636
0002b0 81 0a d5 3d 5d c5 4d be b3 26 40 3f 39 16 26 3e
       0.10402394 -0.2009482 0.7505905 0.16219415
0002c0 c5 3e 7d 3e 64 9b 36 bd 4a c7 2c be 52 5d c4 3d
       0.24730976 -0.044581786 -0.16872898 0.09588112
0002d0 43 59 55 bf 33 7d 7d 3f b1 02 60 be d3 fd f5 3e
       -0.8333933 0.99019164 -0.21876027 0.48045215
0002e0 27 07 32 3e 3b 70 02 be 49 0b 5e be a6 c0 52 bf
       0.17385541 -0.12738125 -0.21683992 -0.8232521
0002f0 a0 b2 56 bf 0d 63 7a 3e 15 4b fe 3c 8a 21 a4 bd
       -0.8386631 0.24451847 0.031041661 -0.080142096
000300 bf df 91 3e 25 a9 35 3d c8 11 60 be 52 5f 60 3e
       0.28491017 0.044350762 -0.21881783 0.21911362
000310 19 06 06 3e 7b 71 0d 3e 44 45 00 be e7 5b 8c 3e
       0.13088264 0.1381282 -0.12526423 0.27413866
000320 e5 36 74 3e e2 60 1a be 7b 94 e5 3e 93 e1 be bd
       0.23849066 -0.1507602 0.44839844 -0.093203686
000330 1a c2 11 bf b0 e8 6a bd af 6f b7 be ea 0f b8 be
       -0.569368 -0.057350814 -0.35827395 -0.3594964
000340 e5 0d 0b 3e da 06 f4 bd 67 3a a7 3e ef 1e 27 be
       0.13579519 -0.11915369 0.32661745 -0.16320394
000350 ee 2c 3b bd b2 a1 38 bf 41 10 c7 3e 75 de ff bd
       -0.045697145 -0.7212173 0.38879588 -0.12493602
000360 44 a8 d7 be 69 76 d2 bc 51 76 1b bc 09 79 4e 3d
       -0.42120564 -0.025691228 -0.009488658 0.050408397
000370 62 1e c3 3e 6d 37 8f 3e 76 7c e8 bd bc 12 99 3e
       0.38109118 0.27971974 -0.11351864 0.29897106
000380 f5 ed d8 be e5 35 17 be 10 bf b4 be ec 95 88 3e
       -0.42369047 -0.14766653 -0.3530202 0.2667688
000390 ad f5 b0 bd c8 84 24 bf b3 53 5b bf d1 b2 8f be
       -0.08640609 -0.6426511 -0.8567459 -0.28066114
0003a0 33 a7 03 3f f8 9c 92 be 19 e0 84 bf d6 e9 84 3d
       0.51427 -0.28635383 -1.0380889 0.06489913
0003b0 2a 14 25 be b7 7a e8 3d ae cf 5b 3e 40 a7 13 be
       -0.16120973 0.11351531 0.21465942 -0.1441927
0003c0 c4 c8 e6 bd 4e c2 98 bb 31 3a e5 be dd ae 4d be
       -0.11268762 -0.004661835 -0.4477096 -0.20086236
0003d0 f4 03 d1 be ca 85 af be d4 e2 dc be af 1e b1 3e
       -0.40823328 -0.3428176 -0.43141806 0.34593722
0003e0 3c 43 12 3f c0 75 20 3f dd 41 d5 3e d9 91 a1 be
       0.5713384 0.6267967 0.41651812 -0.31556585
0003f0 12 55 de 3d 39 e1 f5 be bd e7 9c 3e d5 02 35 3e
       0.108560696 -0.48023394 0.30645552 0.17676862

fc_layers.0.bias f4 [32]
000000 6c 29 01 be 53 ef fa 3d d4 08 47 be 3b 48 0d 3e
       -0.12613457 0.12252679 -0.19436961 0.13797085
000010 e0 49 ae bd d5 cb 18 3d f7 d5 2b be 43 99 ef 3c
       -0.08510184 0.037303764 -0.1678084 0.029247886
000020 19 df 8a bd 00 37 07 be 71 96 01 bd 76 39 42 be
       -0.06780834 -0.13204575 -0.031637613 -0.18967232
000030 3d cc 3b 3e 7f f4 a3 3d 4a 21 b0 bd 48 60 99 bd
       0.1833963 0.08005618 -0.086000994 -0.07489067
000040 08 c0 32 be 64 12 e7 bd ab 12 43 be cf f2 82 3d
       -0.17456067 -0.112828046 -0.1905009 0.06393968
000050 3b a5 5d 3c 62 43 00 be 55 13 15 3b 01 2d b4 bd
       0.013528164 -0.12525705 0.0022747118 -0.08797646
000060 54 bf 6e be b2 9b 70 be 53 98 9d 3c 11 3d 64 be
       -0.23315173 -0.23496893 0.019237673 -0.2228892
000070 6b 7c 47 bd 09 87 fc bc ac 49 32 be 4a 24 b2 bc
       -0.04870264 -0.030826109 -0.17410916 -0.02174582

fc_layers.1.weight f4 [16, 32]
000000 41 79 41 3f 8c 03 fb bd 46 16 cd 3e 75 69 82 bf
       0.75575644 -0.12256536 0.40056056 -1.0188433
000010 6a ea c7 be f3 b9 4c be fb 1c 9d be 19 e2 b7 3e
       -0.3904603 -0.19992809 -0.30686173 0.35914686
000020 47 9a 0f 3f c5 2a 62 3f fa b7 ac 3d ce 6e 2e 3f
       0.56094784 0.8834651 0.08433528 0.68137825
000030 e3 65 09 3d 5d 29 1c 3f f4 32 37 3f e0 f2 8b 3e
       0.033544432 0.61000615 0.71562123 0.27333736
000040 07 87 60 be 13 75 04 3f 5c bc 00 3e 8e ad 4a 3e
       -0.21926509 0.5174114 0.12571853 0.19792768
000050 33 3c 58 3f 3c c7 3d 3d d3 d5 c8 3e ba 1b 90 3c
       0.84466857 0.046332583 0.39225635 0.017591346
000060 f1 cc 38 3e c8 77 ec 3e 1e 79 bc 3e fb 4b 04 3e
       0.18046929 0.46185136 0.36811155 0.12919609
000070 c7 64 1a bf 0a 42 f2 3e 24 29 f8 3d 78 4a 27 3f
       -0.60310024 0.4731601 0.12117222 0.65348005
000080 11 b8 7c 3f cd 79 46 bf 26 28 19 3f 78 e5 23 3e
       0.98718363 -0.77529603 0.59826887 0.16005504
000090 60 70 c1 3e 5a 39 b8 be 65 e5 2d 3e 65 df 10 3f
       0.37781048 -0.35981256 0.16982038 0.56590873
0000a0 45 72 38 3f c1 06 37 3f 4c ff e4 be 3b fd 49 3f
       0.7204936 0.7149468 -0.44726026 0.78902024
0000b0 d5 0b 3b be 7a 35 15 3f e6 37 51 3f 81 53 20 3e
       -0.18266232 0.58284724 0.8172592 0.15656854
0000c0 0f c2 b0 3e 4e 9e 8a 3f 06 21 9d 3e 48 c1 d1 3e
       0.34523055 1.0829561 0.30689257 0.40967774
0000d0 bf ce e6 3e eb d9 21 bd f1 7d a2 3e a1 91 86 be
       0.4507961 -0.039514463 0.3173671 -0.2628298
0000e0 a8 99 b5 3e d6 4d 9a 3e 70 0c 05 3e 9e 8a a6 3e
       0.35468793 0.3013751 0.12993026 0.32527632
0000f0 7c 91 09 bd e1 20 50 3f 07 c6 09 3e 48 57 8b 3e
       -0.03358601 0.8130017 0.13454448 0.27215028
000100 3b bf 61 3f de f9 28 bf bf 46 2e 3f 41 f7 b1 3d
       0.8818242 -0.6600627 0.680767 0.08689738
000110 e0 24 a7 3e 5e c2 a1 be 99 c2 31 3e 1d 85 00 3f
       0.3264532 -0.31593603 0.1735939 0.50203115
000120 b4 3e 0e 3f 27 bc 1c 3f a6 9d 02 bf 7b 82 3e 3f
       0.5556443 0.612246 -0.510218 0.7441785
000130 be 5d 08 be 7a 6b 26 3f 59 c8 53 3f 0a 4b 8b 3d
       -0.1331701 0.65007746 0.8272758 0.06801422
000140 c3 ab 11 3f 4d 9c 8c 3f a4 60 32 3e ab 1b c0 3e
       0.5690271 1.0985199 0.17419678 0.3752111
000150 09 d3 06 3f a4 31 8e bc 77 5c 23 3e ff 47 d7 bd
       0.52665764 -0.017357655 0.15953241 -0.10511779
000160 fa 6b db 3e e5 dd e2 3e 61 ea 09 3e f2 f2 a9 3b
       0.42855817 0.44309917 0.13468315 0.005186432
000170 22 25 2a 3e e5 aa 4d 3f 86 81 83 3d 66 da b7 3e
       0.16615728 0.8033889 0.06421189 0.35908812
000180 cd 79 84 be 5c c1 64 3e df b6 6a bf 2c c8 1f 3f
       -0.25874177 0.22339386 -0.9168529 0.62414813
000190 a9 42 39 bf f6 8d 0d 3f 61 71 ab bf 8e b5 80 3f
       -0.7236734 0.5529474 -1.3393975 1.0055406
0001a0 65 d8 f2 bc f0 b4 27 3d 7d 91 92 bf b6 58 90 3d
       -0.0296442 0.04094404 -1.145065 0.0704817
0001b0 81 37 60 3f 8d f1 43 3f 91 db 30 3f 14 69 35 bf
       0.8758469 0.7654045 0.6908503 -0.7086346
0001c0 ce ef a9 bf 17 93 e8 3e 93 5f cc be ae c7 66 3f
       -1.3276308 0.4542472 -0.39916667 0.9014844
0001d0 c8 fe 3b 3e 67 ae 79 bf 21 42 a3 bf d7 6c 94 bf
       0.1835891 -0.9753174 -1.2754556 -1.1595715
0001e0 78 3b 47 bf 19 06 20 bf d8 95 ca be 0c f1 39 bf
       -0.7782512 -0.62509304 -0.39567447 -0.72633433
0001f0 3f c2 66 bf 5b 9c 39 bf 61 a5 43 bf 06 a4 09 3f
       -0.90140146 -0.72504205 -0.76424223 0.53765905
000200 23 55 05 bf 55 fb 86 3e 55 4f 9a bf 23 b8 c5 3e
       -0.52083033 0.26363626 -1.205546 0.38617048
000210 d3 df bd 3e 85 50 6c 3f 41 f7 29 bf 97 a6 30 3f
       0.37084827 0.92310363 -0.66392905 0.69004196
000220 c4 87 1c 3f a9 d3 b7 bd e0 d8 f6 bf 4c 44 82 3f
       0.6114466 -0.08975918 -1.9284935 1.0177093
000230 74 df 4f 3f a7 68 e4 3e f3 57 7e bd 0b d7 a2 be
       0.8120034 0.44611093 -0.062095594 -0.3180469
000240 71 50 e3 be b0 c5 48 bf 32 a2 52 bf bf 58 71 be
       -0.4439731 -0.7842665 -0.8227874 -0.2356901
000250 f0 25 a1 3e ea 9f b1 be 62 87 39 3e ed 89 94 be
       0.31474257 -0.34692317 0.1811805 -0.2901148
000260 b2 e9 23 bf d9 bc 27 3c 74 72 e6 bf d4 97 85 3e
       -0.64028466 0.010237896 -1.8003678 0.26092398
000270 45 9b e8 3e 3f b6 92 bf 87 a4 44 bf 12 22 26 3f
       0.4543096 -1.1461867 -0.7681355 0.6489574
000280 47 68 1c 3f 1c f7 0d c0 05 dc 9e bc 27 5a 15 bf
       0.61096615 -2.2182074 -0.019392023 -0.58340687
000290 6b 9a 5c be 8f 94 a3 bf 07 29 89 3e 16 eb 76 3e
       -0.21543281 -1.2779711 0.26789114 0.24113116
0002a0 5b 05 57 3e 36 bf 00 3e c7 d3 92 3e c7 b5 70 3e
       0.20998137 0.12572941 0.28677198 0.23506843
0002b0 05 58 2a be 81 a9 38 3f 36 13 7b 3e c4 b2 d9 bd
       -0.1663514 0.7213364 0.24519047 -0.106298
0002c0 7c ee d4 be 82 50 7f 3e d0 93 7a 3f 58 77 fe 3d
       -0.415882 0.24933055 0.97881794 0.12425107
0002d0 6c 46 1f 3f 3d 33 8f 3e c0 2a a5 3e 7d ce 83 3e
       0.6221683 0.2796878 0.32259178 0.25743476
0002e0 98 98 13 3e 41 71 12 3f 4c 5c eb 3e 44 35 35 3f
       0.14413679 0.5720406 0.45968854 0.707844
0002f0 f9 cd 35 be c3 e7 96 3e ba 68 0c 3f 01 a5 92 3f
       -0.17754354 0.29473695 0.548473 1.1456605
000300 56 65 3d be 36 ac 46 3e a6 e3 e6 3e 65 8c 52 3f
       -0.18495688 0.19401631 0.45095557 0.82245475
000310 96 41 0a c0 e5 ce 2c 3f d4 ee 87 3f d4 f9 0b bf
       -2.160253 0.67503196 1.061976 -0.5467808
000320 eb da bf bf 86 d6 0e be 48 5a 1b 3f 83 6b 6d 3d
       -1.4988683 -0.13949022 0.60684633 0.05796386
000330 a4 9a 6a 3d 9f bc 2c be a3 36 25 bd 21 9f 9a 3f
       0.057276383 -0.16868828 -0.04033531 1.2079812
000340 79 15 11 3f 78 e7 49 bf 32 96 b1 3e a3 8b df be
       0.5667339 -0.7886882 0.34684902 -0.43661222
000350 ff 3b 37 bf 29 1e 03 3f f2 ed 0a 3f 0a 38 58 3f
       -0.7157592 0.51217896 0.54269326 0.8446051
000360 2a a5 2c bf 69 d5 99 be e6 87 64 3f 96 1a 0b bf
       -0.6743952 -0.30045632 0.89269865 -0.5433744
000370 68 60 30 3f 03 aa a2 3e 7d 66 05 3f fc 6e eb bf
       0.68897104 0.31770334 0.5210951 -1.8393245
000380 6c eb b6 3e ad 1d f9 3e fb 90 03 bf 03 c2 0a 3f
       0.35726488 0.48655453 -0.513931 0.5420229
000390 b0 5b 81 bf 4e 85 12 3f 50 34 8f bf f1 dc 39 3f
       -1.0106106 0.57234657 -1.118784 0.72602755
0003a0 b1 23 4e 3d 10 bc b4 bf c8 04 ba bf b1 2e 95 be
       0.050327007 -1.4119892 -1.4532709 -0.29137185
0003b0 ce 14 1a 3f 5d dd 46 3f 4f e5 bf be 7e 19 20 c0
       0.60187995 0.77681524 -0.37479636 -2.501556
0003c0 b9 8c cc 3d c3 5f 14 bf 5f 37 7a bf 55 64 29 3f
       0.09987778 -0.5795862 -0.9774074 0.6616872
0003d0 1d 94 f4 3e 43 de 0a bd 88 89 3f be c6 81 84 bf
       0.4776925 -0.03390337 -0.18704808 -1.0352104
0003e0 4a d7 da be fc 55 e0 bd f0 6c 17 bf 3e 21 15 be
       -0.42742378 -0.109539 -0.591506 -0.14563462
0003f0 8b b8 56 bf 60 0c 57 bf 31 ab 98 be 7f ab 34 3f
       -0.8387534 -0.8400326 -0.2981811 0.7057418

fc_layers.1.bias f4 [16]
000000 f1 f8 f9 bd 78 d1 32 3d 5d 0b 8f 3b 67 a7 cc 3d
       -0.12205685 0.043656796 0.0043653683 0.09992867
000010 f7 e1 09 3e b8 59 5c be 07 41 8c bc eb e6 f8 3b
       0.13465105 -0.215186 -0.017120851 0.007595887
000020 86 48 54 3d af af 0b 3e d6 12 83 3d 89 45 24 bd
       0.051826976 0.13641237 0.06400077 -0.040105376
000030 ef 26 b7 bb 12 cb ca bc 61 ba 6d bb 9f fe 81 bd
       -0.005589358 -0.024755035 -0.003627442 -0.06347393

affine_output.weight f4 [1, 48]
000000 82 26 54 bf 4e 38 1f bf 4d 04 1c bf ff 78 27 40
       -0.8287126 -0.6219529 -0.6094406 2.61676
000010 eb ac f5 3f 7c 04 d0 bf a0 0e e7 3f e0 4e 0d 40
       1.9193395 -1.6251369 1.8051338 2.2079391
000020 08 b7 e5 3f ef d7 fe 3f 7f 5c 56 bf 67 2c 1e 40
       1.7946482 1.9909648 -0.8373489 2.47146
000030 db 60 2d 40 f7 58 0a 40 af 56 23 bf a9 9f 42 bf
       2.7090366 2.16168 -0.63804144 -0.7602487
000040 65 41 4f 3f 4e 57 7a bf e5 25 8a bf d6 12 66 3f
       0.8095916 -0.97789466 -1.0792814 0.8987249
000050 a7 88 5e bf 32 e4 6f bf d2 9b 7b bf 5e 39 55 3f
       -0.86927265 -0.93707573 -0.9828464 0.8329066
000060 ec 6d 77 bf 10 42 3c 3f 9c 33 5c bf 63 b9 83 bf
       -0.966521 0.73538303 -0.8601625 -1.029095
000070 f5 f8 97 3f 3c ab 7f 3f 7b a1 57 bf d4 54 51 3f
       1.1872851 0.9987066 -0.84230775 0.8177006
000080 66 dd 75 3f e7 80 8a 3f 24 b5 60 3f a9 bf 1f 3f
       0.9604095 1.0820588 0.877764 0.62401825
000090 c6 01 6a 3f fb dc ab 3f fc 3d 87 3f 9c b6 59 bf
       0.91408956 1.3426813 1.0565791 -0.85044265
0000a0 94 a6 85 3f d2 56 95 3f 03 dc 69 3f a0 3b 93 3f
       1.0441461 1.166712 0.91351336 1.1502571
0000b0 51 4a 8a 3f 5e fb 76 bf 6b 87 88 3f 35 70 77 3f
       1.080393 -0.96477306 1.0666326 0.9665559
