checkpoints/NeuMF_Epoch7_HR0.2022_NDCG0.1922.model (torch, 510215 bytes, 9 tensors)

embedding_user_MF.weight f4 [51, 32]
0	0xbf49ada7	-0.787806
1	0xbe2469ea	-0.16056028
2	0x3fb26b6d	1.3939034
3	0xbfb8c86e	-1.4436166
4	0xc0181e28	-2.3768406
5	0xbf9e2151	-1.2353917
6	0x3f9532c5	1.1656119
7	0x3eeff52d	0.46866742
8	0xbf5e6691	-0.86875254
9	0x3e4d5fa3	0.20056014
10	0xbf7433f1	-0.95391756
11	0xbf75ea2b	-0.96060437
12	0x3f9273e1	1.1441613
13	0x3d78f3e8	0.060779482
14	0x3fba6c40	1.4564285
15	0xbf20d99f	-0.62832063
16	0xbf941b4f	-1.1570834
17	0xbf799f18	-0.9750838
18	0x3ef7527b	0.48305115
19	0x3f5979cb	0.84951466
20	0x3d6cc659	0.057806347
21	0xbe40e8e5	-0.18838842
22	0x3f853e8f	1.0409716
23	0x3dca77b6	0.09886114
24	0xbfc46f52	-1.5346472
25	0x3ff48509	1.9103099
26	0xbe28876c	-0.1645791
27	0x3fbe96e4	1.4889798
28	0x3eca3f8a	0.395016
29	0xbd0749e8	-0.033029467
30	0x3faf502a	1.3696339
31	0x3f90b829	1.1306201
32	0xc0099277	-2.1495645
33	0x3f66c866	0.90149534
34	0x3f95e197	1.170947
35	0x3f954e48	1.1664515
36	0xc0020710	-2.031681
37	0xbf7803c9	-0.96880776
38	0xbffb75a4	-1.9645276
39	0x3f588005	0.8457034
40	0xbe633fb2	-0.22192267
41	0xbf9d3338	-1.2281256
42	0xbea5ba9c	-0.32368934
43	0xbf243c6e	-0.6415471
44	0xbfbbe16e	-1.4678171
45	0xbf108020	-0.56445503
46	0x3f8b627d	1.0889431
47	0xc0727a4c	-3.7887144
48	0xc0208b43	-2.5084999
49	0x3fee25cf	1.8605288
50	0x4010fd2e	2.2654529
51	0xbf22bb3d	-0.6356695
52	0x3ecf80d1	0.40527967
53	0xbec255e2	-0.37956148
54	0xbe9fc9c4	-0.31208622
55	0x3d546f0c	0.051863715
56	0xbf9707c0	-1.179924
57	0x3fcd3178	1.6030722
58	0x3d55f3b6	0.052234374
59	0xbf81f317	-1.015231
60	0xbf556ab8	-0.83365965
61	0xbe0e11e7	-0.13874017
62	0x402e83e9	2.7268012
63	0x3ea5b057	0.323611
64	0x3edac3ff	0.42727658
65	0x3d84585d	0.064621665
66	0xbf43536a	-0.76299155
67	0x3e5df55c	0.21675628
68	0x3fa096aa	1.2545979
69	0x3f3557f5	0.70837337
70	0x3f0c6c61	0.54852873
71	0x3f8bda4b	1.0925993
72	0xbf8c6de0	-1.0971031
73	0x3cf4beb5	0.029876092
74	0x3f9ce018	1.2255888
75	0xbfc107d2	-1.5080512
76	0x3efb2809	0.49053982
77	0x3fa44b17	1.2835416
78	0x3faa22b0	1.3291836
79	0xbf2f8ca3	-0.6857397
80	0xbc55cecd	-0.013049793
81	0xbfaaffc4	-1.3359303
82	0x3efb10e8	0.49036336
83	0x3f2ed34e	0.68291175
84	0x3eabf2da	0.3358372
85	0xbff395ef	-1.9030131
86	0xbf1d7739	-0.61510044
87	0x3ef77eef	0.4833903
88	0xbef7b6a9	-0.48381546
89	0x3f086f26	0.532946
90	0x3f4663c7	0.77496
91	0xbf54fd92	-0.8319942
92	0xbf1b82a6	-0.6074623
93	0x3f904022	1.1269572
94	0xbdd13f27	-0.102171235
95	0x3f2ef6c4	0.68345284
96	0xbf1d7e6c	-0.6152103
97	0xbfcba338	-1.5909185
98	0x3fbb7db4	1.4647737
99	0x3f17d867	0.5931458
100	0xbe88357d	-0.26603308
101	0x3bcedb1a	0.00631274
102	0xbd08685c	-0.03330265
103	0x3f5266df	0.8218822
104	0xbecaa71b	-0.39580616
105	0xbecf82b3	-0.40529403
106	0xbf79a99a	-0.97524416
107	0x3f9fea67	1.2493409
108	0xbfc20e81	-1.5160676
109	0x3e57a61a	0.21059456
110	0x3f385286	0.7200092
111	0x3d7b86b3	0.061407756
112	0xc006462a	-2.0980325
113	0x3f158db0	0.5841932
114	0xbf95797e	-1.1677701
115	0xbf705120	-0.93873787
116	0xbfe54e2a	-1.7914479
117	0x3c96d2d5	0.01841108
118	0x3f9a4a25	1.2053877
119	0xbecc71bc	-0.39930522
120	0xbe95d8eb	-0.29267058
121	0x3f789c8e	0.97113883
122	0x3fe1b01f	1.7631873
123	0x3f863866	1.0485961
124	0x3f6d6144	0.9272654
125	0x3f97338f	1.181261
126	0xbee39224	-0.44447434
127	0xbf997c6c	-1.1991096
128	0xc00507af	-2.078594
129	0xbf232a87	-0.63736767
130	0x3f589907	0.846085
131	0x3ded46a9	0.11585743
132	0xbffddefd	-1.9833676
133	0xc00e52c9	-2.2238028
134	0x3e83a3e9	0.2571099
135	0xbe8fbd15	-0.28073946
136	0x400df6f7	2.2181985
137	0x40505c60	3.2556381
138	0x3f3fe332	0.7495605
139	0x3e09d724	0.13460976
140	0xbd94859c	-0.072520465
141	0xbea4ad4f	-0.32163474
142	0xbe6049b2	-0.21903113
143	0x3f264724	0.649523
144	0x4031dfb0	2.7792778
145	0x404e45ad	3.2230027
146	0xbfe37149	-1.7768947
147	0x407a0319	3.906439
148	0x4077081d	3.8598702
149	0xc0468133	-3.1016357
150	0x3f1044a9	0.5635477
151	0xbeed3f82	-0.46337515
152	0xbf3708da	-0.7149788
153	0xbf561132	-0.8361999
154	0x3fa2d506	1.272126
155	0xbe8a58dc	-0.2702092
156	0xbdbb216c	-0.09137234
157	0xbfa6e134	-1.3037477
158	0x3ef50155	0.4785258
159	0x3e91947a	0.2843359
160	0xbf5bf0b8	-0.8591418
161	0x3f8abd7a	1.0839074
162	0xbbca1a69	-0.006167699
163	0x3eadca50	0.33943415
164	0xbebc3dd0	-0.3676591
165	0x3f8d72e9	1.1050693
166	0xbfec4a9e	-1.8460271
167	0xbff080c3	-1.8789295
168	0xbf4aa1be	-0.7915305
169	0x401729cd	2.3619263
170	0xbf405a61	-0.7513791
171	0xbf9f5030	-1.2446346
172	0xbc932a24	-0.01796443
173	0xbf62f2b9	-0.88651615
174	0x3f0231e0	0.50857353
175	0xbfcd1294	-1.6021295
176	0x3fcb577f	1.5886077
177	0x3eafd09a	0.34338838
178	0xc020ff8c	-2.5155973
179	0x3f9e5580	1.2369843
180	0xbf8df57b	-1.109054
181	0xbe3cf713	-0.18453626
182	0xbed5a62a	-0.41728336
183	0x3f3f87a0	0.7481632
184	0xbf56fbe8	-0.8397813
185	0x3fb51cb0	1.414938
186	0xbf13a884	-0.5767901
187	0x3edc5b97	0.43038628
188	0x40033e56	2.0506797
189	0x3f8b438d	1.087999
190	0xbee32d58	-0.44370532
191	0x3fcf9ca5	1.6219679
192	0xbfb48b8f	-1.410509
193	0xbe176642	-0.14785102
194	0x3f265e92	0.6498805
195	0x3f406b8b	0.751641
196	0x3f1f1d7a	0.6215435
197	0x3f85deba	1.0458596
198	0x3e21964d	0.15779991
199	0xbeb39e43	-0.35081682
200	0xbec24f88	-0.37951303
201	0xbf86d6f2	-1.0534346
202	0xbf178b73	-0.5919716
203	0x3f17584d	0.5911911
204	0x3f1e42fe	0.6182097
205	0xbeb2b8ac	-0.34906518
206	0xc008a40a	-2.1350121
207	0xbf9ee4ab	-1.2413534
208	0xbf88b2b6	-1.0679538
209	0x3f57da72	0.84317696
210	0xbf99aa6c	-1.2005134
211	0x3f39c11f	0.72560304
212	0x3eb6a2ef	0.35671183
213	0xbfac3f5a	-1.3456833
214	0xc006484e	-2.0981631
215	0x3e86e8a3	0.26349363
216	0x3f59d55c	0.85091186
217	0xbe2aedba	-0.16692248
218	0x3d53da5c	0.051721916
219	0xbe679635	-0.22615893
220	0xbdfab56f	-0.12241637
221	0x3ed965a8	0.4246037
222	0x3fab7a60	1.3396721
223	0xbfbb4f80	-1.4633636
224	0xbeb969b2	-0.36213452
225	0x4032b1e3	2.7921073
226	0xbf90df91	-1.1318227
227	0xbfbb48b2	-1.463156
228	0xbef8b9ee	-0.48579353
229	0x3e0ceefb	0.13763039
230	0x3f9de0df	1.233425
231	0xbf5aff10	-0.85545444
232	0xbe3f6c01	-0.18693544
233	0x401ae559	2.4202483
234	0x3f83d770	1.0300121
235	0xc04e0e48	-3.2196217
236	0xbfba16d8	-1.4538221
237	0x3effadd7	0.49937317
238	0xbdc873d5	-0.09787718
239	0x3f58c66c	0.8467777
240	0xc0297a26	-2.6480803
241	0x403db446	2.964128
242	0xbfb44cfa	-1.4085991
243	0xbeccb416	-0.39981145
244	0xbe5bdd59	-0.21471156
245	0x3fd07038	1.6284246
246	0x3f541df9	0.82858235
247	0xbf9fd68e	-1.2487352
248	0xbfa7af9d	-1.3100468
249	0x3f84526f	1.0337657
250	0x3fa2696c	1.2688422
251	0xbf9eb050	-1.2397556
252	0x400883df	2.1330488
253	0xbd29b66e	-0.041433744
254	0xbda8eed9	-0.082486816
255	0x3fab25a5	1.3370863

embedding_item_MF.weight f4 [1889, 32]
0	0xbfb9451d	-1.4474217
1	0xbf1703f5	-0.5899041
2	0xbf709f99	-0.93993527
3	0xbf157a2f	-0.5838956
4	0xbf76933c	-0.9631841
5	0xbfa1ccb4	-1.2640595
6	0xbfb00d0c	-1.3753982
7	0xbfbdb695	-1.4821345
8	0x3e10268c	0.14077204
9	0xbfbb164a	-1.4616177
10	0xbf7d42ee	-0.9893025
11	0x3fcee1af	1.6162623
12	0x40171fce	2.3613162
13	0x3ed763ab	0.42068228
14	0x3f623fcf	0.88378614
15	0xc021c9ac	-2.527934
16	0xc049628a	-3.1466393
17	0x3f3e2b1f	0.7428455
18	0x3f00f823	0.50378627
19	0xbf9ac8b7	-1.2092503
20	0x3fad05b7	1.3517369
21	0xbd263085	-0.040573616
22	0x3fb5f497	1.4215268
23	0xbff88d47	-1.9418114
24	0x3fb0c7ca	1.3810971
25	0x3f8bb240	1.0913773
26	0xbeef0fee	-0.4669184
27	0x3f7a3e5e	0.97751415
28	0xbec29fa0	-0.3801241
29	0xbec703ae	-0.38869995
30	0x3f403847	0.7508587
31	0xbf82fb98	-1.023303
32	0x3f6c986f	0.92420095
33	0xbfdf167c	-1.7428737
34	0xbf800de4	-1.0004239
35	0x3f0aabb5	0.54168254
36	0x3e668e57	0.22515236
37	0x3ed4e58e	0.41581386
38	0xbfae4100	-1.3613586
39	0xbe97f650	-0.2968011
40	0x3ddd52aa	0.108067825
41	0x3f41ac43	0.75653476
42	0xbfac2573	-1.3448929
43	0xbf35aa80	-0.7096329
44	0x3fdd8fa0	1.7309456
45	0xbfe76cb8	-1.8080053
46	0xc0055652	-2.0833936
47	0x3f0731c2	0.528103
48	0x3ee6e5fe	0.45097345
49	0xbf145e24	-0.5795615
50	0xbf58ecf6	-0.84736574
51	0x3c88e19e	0.016709145
52	0xc00764cd	-2.1155274
53	0x3feb543c	1.8385081
54	0xbd69bca4	-0.057064667
55	0xbf993dd8	-1.1971998
56	0x3edf5a4b	0.43623576
57	0x402b6cdb	2.678519
58	0x3ef12edc	0.47106063
59	0x3f045656	0.5169424
60	0xbe2f42f9	-0.17115392
61	0xbd4e4d20	-0.05036652
62	0xbf24e760	-0.6441555
63	0x3f56bacb	0.83878773
64	0x3f99cb89	1.2015239
65	0xbfb81f96	-1.4384639
66	0x3f4a1722	0.7894155
67	0xbd9725c6	-0.073802516
68	0x40003596	2.0032706
69	0xbff0ca7a	-1.8811791
70	0x3f955861	1.1667596
71	0xbe746a7e	-0.23868749
72	0xbeb35cb2	-0.35031658
73	0x3ffaf45a	1.960582
74	0x3f106f44	0.5641978
75	0x3f518669	0.8184572
76	0x3dafa5d6	0.085765526
77	0x3e92bfea	0.28662044
78	0xbf17d9d0	-0.5931673
79	0x3f3d9134	0.7404969
80	0x3f4c1bbc	0.7972982
81	0xc0457266	-3.0851073
82	0xbe6ad3eb	-0.22932403
83	0xbf75a5e1	-0.95956236
84	0x4001f771	2.0307276
85	0xc00fbda8	-2.2459507
86	0x3fa71fff	1.305664
87	0xc014f902	-2.3276982
88	0x3e18fa3c	0.14939207
89	0x3f60d61a	0.87826693
90	0x3f9b0155	1.2109782
91	0x3f97f29d	1.1870915
92	0x3f065dd8	0.52486944
93	0x4032f30c	2.7960844
94	0x3e74cff4	0.23907453
95	0x3ecf030a	0.40432006
96	0x3c03617d	0.0080188485
97	0x3f31856a	0.693442
98	0x3d2fc82c	0.04291551
99	0xbe12ae9b	-0.14324419
100	0x3d2ec83b	0.042671423
101	0xbfc3e9bf	-1.5305709
102	0x3e5f82ac	0.21827191
103	0x3e00fc27	0.12596188
104	0x3ffd9e18	1.9813871
105	0x3fdd1980	1.7273407
106	0xbf2382df	-0.6387157
107	0x3fe0781c	1.7536654
108	0xbc9230fe	-0.017845627
109	0xc003b156	-2.0576987
110	0xbf0e8e1a	-0.5568558
111	0xbefea2cd	-0.49733582
112	0x3ee43151	0.44568875
113	0x3e06adb1	0.13152196
114	0xbd2d0cf9	-0.0422487
115	0xbe579659	-0.21053447
116	0x3eeb11f0	0.45912123
117	0xbf8e4b5c	-1.1116748
118	0xbf28dca3	-0.65961665
119	0x3fa83618	1.3141508
120	0xc04a1e59	-3.1581023
121	0xbdf80e71	-0.121121295
122	0xc031784c	-2.7729673
123	0x3e26ca7e	0.16288182
124	0x40377b17	2.8668878
125	0xc0417849	-3.0229666
126	0x3e6b03c0	0.2295065
127	0x3fa9b0c8	1.3257074
128	0xbf55fe3b	-0.8359105
129	0x4007a7dc	2.1196203
130	0x3e3beab8	0.18351257
131	0x3fba18dc	1.4538836
132	0x3f93d6ca	1.1549923
133	0xbfce2142	-1.61039
134	0xbfa160f7	-1.2607716
135	0xbe30c26d	-0.17261668
136	0x3ebf76ec	0.37395418
137	0x3ea60a69	0.32429817
138	0x3fda9c03	1.7078861
139	0xbf34fefc	-0.70701575
140	0x3eacd858	0.33758807
141	0x4080ec39	4.028836
142	0xc041a16a	-3.025477
143	0x3f3f06c6	0.7461971
144	0xbf03e260	-0.51517296
145	0xbfed54ae	-1.8541467
146	0x3f0b778c	0.5447929
147	0x3eddbfc4	0.43310368
148	0xbeea4b25	-0.45760456
149	0xbe960054	-0.29297125
150	0xbeb5f66c	-0.35539567
151	0xbef82f5e	-0.48473638
152	0x3e10d989	0.14145483
153	0x3ebaaf68	0.3646195
154	0x3f4e5edb	0.8061349
155	0xbe559d10	-0.20860696
156	0x3f29a07f	0.6626052
157	0xc02f616c	-2.7403212
158	0xbf0fbad8	-0.56144476
159	0x3fabd9e2	1.3425868
160	0x3f03dcd1	0.51508814
161	0xbf373bd7	-0.71575683
162	0xbf37df05	-0.71824676
163	0xbf831f03	-1.0243839
164	0xbedb1fec	-0.42797792
165	0x3fe99953	1.8249916
166	0x3d84e24e	0.06488477
167	0xbf951318	-1.1646452
168	0x3fffc1be	1.9981
169	0x3fe2f833	1.7731994
170	0xbf79d534	-0.9759095
171	0x3ec103a9	0.37698105
172	0xbeea9ced	-0.4582285
173	0x40148461	2.3205798
174	0xbfe9de85	-1.8271033
175	0x3efea7e4	0.49737465
176	0xbde91109	-0.11380202
177	0x3f8bf90f	1.0935382
178	0xbf48b69f	-0.7840366
179	0xbe7a8ab4	-0.24466974
180	0xbecbc411	-0.39798024
181	0x3f88c560	1.0685234
182	0xbf3857d4	-0.72009015
183	0x3f62028d	0.8828514
184	0xbf7342aa	-0.95023596
185	0x401dec89	2.467562
186	0xbfc6da4f	-1.5535372
187	0xbf0c7bee	-0.548766
188	0x3d745644	0.05965258
189	0x3d75de97	0.06002673
190	0x3f6e8c72	0.9318305
191	0xbf145316	-0.5793928
192	0xbef2a4bd	-0.4739131
193	0xbf132c42	-0.5748941
194	0xbfa19481	-1.2623445
195	0xc0106137	-2.2559335
196	0x3e635380	0.22199821
197	0x3fc7d99c	1.5613284
198	0xbed38ce2	-0.41318423
199	0x3f1a4383	0.60259265
200	0x3eaaf77c	0.3339194
201	0xbfd189df	-1.63702
202	0x3f7c68ec	0.985976
203	0xbeaeb421	-0.34121802
204	0x3ff55763	1.9167293
205	0xc0318089	-2.7734702
206	0x3e721641	0.23641302
207	0x3ea46186	0.32105654
208	0x3edded3a	0.43345052
209	0xc00a829b	-2.1642215
210	0xbf86d93b	-1.0535043
211	0xbf4ba797	-0.79552597
212	0xbf95a18f	-1.1689929
213	0xbecc3b8a	-0.39889175
214	0x3e939c50	0.28830194
215	0x3f09fa2f	0.53897375
216	0xbd390d64	-0.045178786
217	0x3f7229f3	0.9459526
218	0x3f8d7fa0	1.1054573
219	0xbf9fbe99	-1.2480041
220	0x3e899720	0.26873112
221	0x3d806c91	0.062707074
222	0xbf9c48c7	-1.220971
223	0xbe1b8e5b	-0.15191023
224	0xc044c871	-3.074734
225	0x3fa64651	1.2990209
226	0xc00f6793	-2.2406967
227	0xbfa4dd16	-1.287997
228	0x3f7a2e32	0.9772674
229	0x3efc7e98	0.49315333
230	0xbf20cc2f	-0.6281156
231	0x3f545cd9	0.82954174
232	0x3f0a14a5	0.5393775
233	0x400dffea	2.2187448
234	0xbe16b948	-0.14719117
235	0x3e8a7808	0.27044702
236	0xbfdccb07	-1.7249459
237	0x3f55e62d	0.83554345
238	0x3e2fa899	0.17154159
239	0xbfcb7d19	-1.5897552
240	0xbf2790e7	-0.6545548
241	0xbfb017d8	-1.3757277
242	0xbede33cc	-0.43398893
243	0x3f0060ed	0.50147897
244	0x3ec677fe	0.38763422
245	0x3f7f4bff	0.99725336
246	0xbfab37c5	-1.3376395
247	0x3ec06f8c	0.37585104
248	0xbeeca9ce	-0.462233
249	0x3eb6b30e	0.35683483
250	0x3d9bf332	0.07614745
251	0x3f121851	0.57068354
252	0x3f36951b	0.71321267
253	0xbbbe1edd	-0.005802019
254	0xc02167c2	-2.5219579
255	0xbfa6b9a3	-1.3025402

embedding_user_MLP.weight f4 [51, 32]
0	0xbfb7f842	-1.4372637
1	0x3fb411b2	1.40679
2	0xbeb60ba8	-0.35555768
3	0xbf881070	-1.0630016
4	0x3eb0b4a3	0.34512815
5	0xbf2fec7a	-0.6872021
6	0xbf166874	-0.5875313
7	0xbf96a40e	-1.1768816
8	0x3fc4190b	1.5320143
9	0xbfe68107	-1.8008126
10	0xbe6fdcda	-0.23424092
11	0xbf30e5c9	-0.69100624
12	0xbdbe4995	-0.092913784
13	0xbfac2f6a	-1.345197
14	0x3fcece6b	1.6156744
15	0xbf84d6ea	-1.0378087
16	0x3e618668	0.22023928
17	0x3e03be1e	0.12865493
18	0xbe6519b9	-0.22373094
19	0x3eecc19a	0.46241456
20	0xbe9c72d9	-0.30556372
21	0xbf94388e	-1.1579759
22	0x3f9bda27	1.217595
23	0xc00fc27b	-2.2462451
24	0xbf31bfde	-0.6943339
25	0x3f3c17f5	0.73474056
26	0x3e1f0944	0.15530878
27	0xbedb7054	-0.42859137
28	0xbd34ab37	-0.044108596
29	0xbf33af18	-0.70189047
30	0x3e469be1	0.193954
31	0x3df689d1	0.12038005
32	0x3f155efe	0.5834807
33	0xbed008d5	-0.40631738
34	0xbf61db50	-0.8822527
35	0x3d585445	0.05281474
36	0x3e82ac14	0.2552191
37	0x3ec809c3	0.39069948
38	0x3f6be3e0	0.92144585
39	0xbfe08a41	-1.7542192
40	0x3efa7972	0.4892078
41	0xbf361146	-0.7112011
42	0xbf86636a	-1.0499089
43	0x3b219630	0.002465617
44	0x3fda1a4a	1.7039273
45	0xbf9f41b7	-1.244193
46	0xbf79dadd	-0.97599584
47	0x3e5c756f	0.21529172
48	0xbf5bdefd	-0.8588713
49	0xbecff06f	-0.40613124
50	0xc043a615	-3.0570118
51	0xbe95046b	-0.29104933
52	0xbda08547	-0.07837921
53	0xbee113f3	-0.43960533
54	0x3f494183	0.7861559
55	0xbddcc24f	-0.10779249
56	0xbf9638d0	-1.1736088
57	0xbeaeb481	-0.3412209
58	0x3fa262a8	1.2686357
59	0xbef2cb2b	-0.4742063
60	0x3f5dbbf3	0.8661491
61	0x3ecf30a2	0.4046679
62	0xbf98ed10	-1.1947346
63	0x3fea5e54	1.8310037
64	0x3f98b90c	1.1931472
65	0x3f2f2006	0.6840824
66	0x3fa6486f	1.2990855
67	0x3ebee0c4	0.37280858
68	0x3f6d00e3	0.9257948
69	0x3f820272	1.0156996
70	0xbfef2705	-1.8683783
71	0x3f8b0782	1.0861666
72	0xbe2e4f5b	-0.17022459
73	0x3f662ec9	0.8991514
74	0xbfeb10f9	-1.8364555
75	0xbe5872ac	-0.21137494
76	0x3e8046ba	0.2505396
77	0x3f3dfef5	0.7421716
78	0x3f46d9ac	0.7767589
79	0xbed72ee4	-0.42027962
80	0x3ed17b8e	0.40914577
81	0x3fcf5bf9	1.6199943
82	0xbf7693d4	-0.9631932
83	0x3f2e03f5	0.6797479
84	0x402ff31a	2.7492127
85	0x3f37f795	0.71862155
86	0x3f499a1c	0.7875078
87	0xbf862167	-1.0478944
88	0x3edf69ca	0.43635398
89	0x3ea50af3	0.32234916
90	0x3f82af7f	1.0209807
91	0xbe4b68f1	-0.1986425
92	0x400311ec	2.0479689
93	0x3d9bfaa5	0.07616166
94	0x3f615076	0.880134
95	0x3f9cab9d	1.2239872
96	0xbf2ab0f6	-0.6667627
97	0xbec37544	-0.38175404
98	0xbebe6a58	-0.3719051
99	0x3d8c3db0	0.068477035
100	0xbf6216c7	-0.88316005
101	0xbea0f170	-0.31434202
102	0xbe2ef73b	-0.17086498
103	0xbf84f9c4	-1.0388722
104	0x3d9ad047	0.07559257
105	0x3ecff04a	0.40613014
106	0x3ebd1500	0.36930084
107	0xbff0d920	-1.8816261
108	0xbf1e80db	-0.6191537
109	0xbf01d81b	-0.50720376
110	0x3f76e9da	0.9645058
111	0xbf32fccd	-0.69916993
112	0x3f233cb6	0.6376451
113	0x3eee9867	0.4660065
114	0xbf8ec901	-1.1155092
115	0x4005bbe2	2.0895925
116	0x3fa2e5b8	1.2726355
117	0xbe930d42	-0.28721052
118	0x3f3a66c0	0.72813034
119	0x3ef05f0e	0.4694752
120	0xbea5fa77	-0.32417652
121	0xbec02c24	-0.37533677
122	0xbf58e0ac	-0.8471782
123	0x3d8c1285	0.0683947
124	0xbd376976	-0.04477831
125	0xbe3735b1	-0.17891575
126	0xbfd3fd9a	-1.6561768
127	0xbf29fb31	-0.6639891
128	0x3f1c2216	0.6098951
129	0xbe812e0f	-0.25230452
130	0x3fa4cdf6	1.2875354
131	0x401aa2c5	2.4161847
132	0x3fefae0b	1.8724989
133	0xbf354397	-0.7080626
134	0x3e31164c	0.17293662
135	0xbfc6d13d	-1.5532604
136	0xbf161b29	-0.58635193
137	0x3e9f1e08	0.310776
138	0x3fbdf7a2	1.4841197
139	0x3ff7b1a5	1.9351088
140	0xbdd3dc21	-0.10344721
141	0xbe407c59	-0.18797435
142	0x3eae765b	0.34074673
143	0x3faa54f9	1.3307182
144	0x3f938750	1.1525669
145	0x3f9cf8d9	1.2263442
146	0x3ea91001	0.33020023
147	0x3f891f09	1.0712596
148	0xbf4be6c9	-0.79649025
149	0x402ac0c3	2.6680152
150	0x3d5f059a	0.0544487
151	0x3f7764f6	0.9663843
152	0xbf0c7116	-0.54860055
153	0x3edbd7c7	0.42938063
154	0xbe2b0d86	-0.16704378
155	0x3f10e690	0.5660181
156	0x3f40aa28	0.7525964
157	0x3f8a6b0e	1.081392
158	0x3ef1a065	0.47192684
159	0x3edcb651	0.43107846
160	0xbea767bb	-0.32696328
161	0x3fb69415	1.4263941
162	0x3fd125a7	1.6339616
163	0x3f0b3c6b	0.54389066
164	0x3f84a361	1.0362359
165	0xbf8515d5	-1.0397288
166	0x3f577be3	0.8417341
167	0xbe82845d	-0.2549161
168	0xbeb6dc15	-0.35714784
169	0xc043c066	-3.058618
170	0xbe989000	-0.29797363
171	0x3f871fad	1.0556542
172	0x3e8d7e06	0.2763521
173	0x3fa16b38	1.2610846
174	0x3f0773eb	0.5291125
175	0xbf8ff21d	-1.1245762
176	0x3f800015	1.0000025
177	0xbeae14f0	-0.3400035
178	0xbfb859e9	-1.4402438
179	0x3f81c484	1.0138097
180	0xbfed4cff	-1.8539122
181	0xbf3e0637	-0.74228233
182	0xc04503c0	-3.078354
183	0xbf91cfbd	-1.1391522
184	0xbec2a9f8	-0.380203
185	0xc0177a93	-2.3668563
186	0x40454742	3.0824742
187	0x3fc00045	1.5000082
188	0x3d8f1816	0.06987016
189	0xc001029a	-2.0157838
190	0x3eb319a1	0.3498049
191	0x3ee4c092	0.4467817
192	0x3e96a832	0.29425198
193	0xbf6bfb83	-0.9218065
194	0x3f650e4b	0.89474934
195	0xbf3f51f2	-0.74734414
196	0x3f1f006f	0.62110037
197	0xbf4dd168	-0.80397654
198	0xbf9b0ff8	-1.2114248
199	0x3f981a58	1.188304
200	0xbf72ce9c	-0.9484651
201	0x3f197d2e	0.59956634
202	0xbf249010	-0.6428232
203	0xbd7032f1	-0.05864233
204	0xc023a804	-2.5571299
205	0x3ec20d2d	0.37900677
206	0x3f69351d	0.9109667
207	0xbf0ff65c	-0.5623529
208	0x3e880393	0.26565227
209	0x3b3ced53	0.002882798
210	0x3fbca50c	1.4737868
211	0xbff9b218	-1.9507475
212	0x3fbc5acf	1.4715213
213	0x3fd3d813	1.6550316
214	0x3f9f6132	1.2451537
215	0x3f7e8e62	0.9943601
216	0xbe238435	-0.15968402
217	0xbfeeecd9	-1.866603
218	0xbff62761	-1.9230767
219	0xbddf4fc6	-0.109038875
220	0xbf919c87	-1.1375893
221	0x3f858a84	1.0432897
222	0xbf06e697	-0.526956
223	0x3f3af38e	0.73027885
224	0xc00977d6	-2.1479392
225	0xbf82957f	-1.0201873
226	0xbeaaaab7	-0.3333337
227	0x3fc713b8	1.5552893
228	0x3fcad9cc	1.5847716
229	0x3fb6db65	1.4285704
230	0x3fc544ee	1.5411661
231	0xc0065b7c	-2.0993338
232	0xbfc6c5dd	-1.5529133
233	0x3f308226	0.6894859
234	0x3ea632d6	0.3246066
235	0xbe910ca5	-0.2832996
236	0xbfafa2f6	-1.3721607
237	0xc015a013	-2.3378952
238	0x3fa146fc	1.2599788
239	0x3f74c26c	0.95609164
240	0xbd823ea3	-0.06359603
241	0xbf69f2a8	-0.9138589
242	0xbfa9911f	-1.3247412
243	0x3f29776e	0.6619786
244	0xbf18ee4c	-0.5973861
245	0x3f602591	0.8755732
246	0xbf085fc7	-0.53271145
247	0x3fce8711	1.6134969
248	0xbfba6dc1	-1.4564744
249	0xbee206af	-0.44145724
250	0xbf50815c	-0.81447387
251	0xbe62b2c8	-0.22138512
252	0xbf466d55	-0.7751058
253	0xbf5d1fe2	-0.86376774
254	0x3ed5ab52	0.4173227
255	0xbfc18f79	-1.5121909

embedding_item_MLP.weight f4 [1889, 32]
0	0x401f2a25	2.4869473
1	0x400bc491	2.1838725
2	0x3e8489ab	0.25886282
3	0xc00f50cd	-2.2393067
4	0x3f25fb45	0.6483653
5	0xbe8f5794	-0.27996504
6	0x3fb4daab	1.4129232
7	0xbdc476eb	-0.09592994
8	0x3f5790d2	0.84205353
9	0xbd14bc11	-0.036312167
10	0xbee5f9dc	-0.4491719
11	0xbe322e79	-0.1740054
12	0xc03a9768	-2.915491
13	0x3f603ef8	0.8759608
14	0xbf0ee51d	-0.5581835
15	0xbfcfa5b6	-1.6222446
16	0x3faf219c	1.3682132
17	0x3fceedcf	1.6166323
18	0xbf593c8c	-0.8485801
19	0x3f2ad989	0.6673818
20	0x3da13169	0.07870752
21	0xbf8aaa1f	-1.0833167
22	0x3f19728e	0.5994042
23	0x3f430ee0	0.7619457
24	0xbe3f95f3	-0.18709545
25	0xc0025360	-2.0363388
26	0x3e440668	0.19143069
27	0xbf5ce5a4	-0.86287904
28	0x3f2cfc3e	0.6757239
29	0x4001db05	2.028993
30	0xbf63cabc	-0.88981223
31	0x3f60220f	0.8755197
32	0x3e41d7b9	0.18929948
33	0x3f094096	0.53614175
34	0x3f7fb9a0	0.99892616
35	0xbf01c2da	-0.50687945
36	0xbfb899b4	-1.4421906
37	0xbe5059a1	-0.2034669
38	0x3fb85264	1.4400144
39	0x3fd73db8	1.681571
40	0xc03338fd	-2.8003533
41	0x3e94e56c	0.29081285
42	0xbf6c4d48	-0.9230542
43	0x3e63db21	0.2225156
44	0xbfb4f8af	-1.4138392
45	0x3e86ea40	0.26350594
46	0x3fca76c5	1.5817496
47	0xbf398097	-0.7246184
48	0xbd893a86	-0.067006156
49	0xbf451c35	-0.76996166
50	0x3fc23e04	1.5175176
51	0xbee6dbcc	-0.45089567
52	0xbe3be5bc	-0.18349355
53	0x3ea35393	0.318997
54	0xbf2c0211	-0.67190653
55	0xbf2bd532	-0.67122185
56	0x3f5c2f40	0.860096
57	0xbe80c0e8	-0.25147176
58	0x3fa88f40	1.3168716
59	0xbeb42aab	-0.35188803
60	0xbf228b77	-0.63494056
61	0x3f8e4677	1.1115254
62	0x3eed2085	0.46313873
63	0xbc458e61	-0.012057872
64	0xbed14bae	-0.40878052
65	0x3f288b3b	0.6583745
66	0x3f89409d	1.0722843
67	0xbf875ef8	-1.0575857
68	0x3f941137	1.1567754
69	0x40069569	2.1028693
70	0x3fce7409	1.6129161
71	0x3f882a5f	1.0637931
72	0x3ea544cb	0.32279047
73	0xbf8c942f	-1.0982722
74	0x40244b70	2.5671043
75	0xbf21fd10	-0.6327677
76	0x3f10427a	0.56351435
77	0x3f1803f8	0.59381056
78	0xbf14c4f0	-0.58113
79	0x3f979401	1.1842042
80	0x3cdaefe6	0.02672572
81	0x3f59062b	0.84775037
82	0x3f889486	1.0670326
83	0xc03194c9	-2.7747061
84	0x3db0bad5	0.086293854
85	0x3ebc5944	0.36786854
86	0xbf27d7a3	-0.6556341
87	0xbf3b6690	-0.7320337
88	0x3f80add8	1.0053053
89	0xbf04f841	-0.51941305
90	0x3fb12bd8	1.3841505
91	0x3d10b966	0.03533306
92	0x3f25af6e	0.6472081
93	0xbe9ac7ae	-0.3023047
94	0xbf47b295	-0.7800687
95	0xbec9427b	-0.39308533
96	0x3ff008eb	1.8752722
97	0xbe57b42e	-0.21064827
98	0xbfa223bb	-1.2667154
99	0x3f0a0c9b	0.53925484
100	0x3e4b0f91	0.19830157
101	0xbfbd353b	-1.478187
102	0x3f523ddc	0.8212564
103	0x3f5e8b5b	0.8693139
104	0xbedd007e	-0.43164438
105	0x3f2d619b	0.6772706
106	0xbfd0ff38	-1.6327887
107	0x3f34f6ec	0.7068927
108	0x3e51f747	0.20504485
109	0xbf0a2169	-0.5395723
110	0xbf33cb5e	-0.7023219
111	0xbeeca0b5	-0.4621636
112	0x3eb55f94	0.35424483
113	0x3e99ec51	0.30063108
114	0xbeacb3c7	-0.3373091
115	0x3fd64f0f	1.6742877
116	0xbfde9720	-1.738987
117	0xbeba349b	-0.3636826
118	0xbf8d631b	-1.104587
119	0x3d156982	0.036477573
120	0xc036b3ac	-2.8547163
121	0x3ed9752a	0.42472202
122	0xbe5e4a0c	-0.21707934
123	0x3fa6a001	1.3017579
124	0xbf9f02cc	-1.2422729
125	0x3e96b4ca	0.29434806
126	0xbf375986	-0.71620977
127	0xbf860b55	-1.0472208
128	0x3f83f993	1.0310539
129	0xbf7b715b	-0.9821984
130	0xbfc8b0de	-1.5678976
131	0xbf989df0	-1.1923199
132	0x3faae9a8	1.3352556
133	0xbdbd721f	-0.092502825
134	0x3f8224f8	1.0167532
135	0xbf2228d3	-0.6334354
136	0x4025cb6a	2.5905404
137	0xbffcbaa0	-1.9744453
138	0xbf137450	-0.57599354
139	0xbec6b3e1	-0.38809112
140	0xbef1608e	-0.47143978
141	0xbfb65ca5	-1.4247023
142	0x3e1d10ca	0.15338436
143	0xbfa2a939	-1.2707893
144	0xbd0d57ea	-0.03450767
145	0xbf2a6525	-0.66560584
146	0xbf2e8a6e	-0.68179977
147	0xbfdcbf52	-1.7245886
148	0xbe029bc2	-0.1275473
149	0xbf89bd19	-1.0760833
150	0xc0280919	-2.6255553
151	0x3e9a9588	0.30192208
152	0xbf342bca	-0.70379317
153	0xc0046c9a	-2.0691285
154	0xbf63a9b3	-0.88930815
155	0x3fa0c43c	1.2559886
156	0xbf89d15f	-1.076702
157	0xbf5a210c	-0.85206676
158	0x3e35355d	0.17696138
159	0x3faedbd1	1.3660833
160	0xbf4c2ca5	-0.7975562
161	0x3e055b1a	0.13023034
162	0xbfdc489b	-1.7209657
163	0xbfb421ff	-1.4072875
164	0x3e95e33c	0.2927493
165	0x3fe6351c	1.7984958
166	0x3fabb114	1.3413415
167	0xbdc78809	-0.097427435
168	0x3ea2a3ae	0.31765503
169	0x3c509b2f	0.012732311
170	0xbf4512dc	-0.769819
171	0xbf554cc0	-0.83320236
172	0x40278760	2.6176376
173	0xbebed4c2	-0.37271696
174	0xbe87a6e7	-0.26494524
175	0xbf4442e7	-0.76664585
176	0x3f9342b3	1.150473
177	0x3f64da42	0.89395535
178	0x400794a0	2.1184464
179	0xbf267180	-0.6501694
180	0x3eb1d65d	0.3473386
181	0x3fab47e1	1.3381311
182	0xbee8e2ba	-0.4548548
183	0x3ff79e2b	1.9345144
184	0x3f731f47	0.949696
185	0x3f81b3ca	1.0132992
186	0x3f393a1b	0.72354287
187	0xbf445eab	-0.7670695
188	0xbf036b2c	-0.51335406
189	0x3ee5b842	0.4486714
190	0xbf18d2f6	-0.596969
191	0x3f7c59e1	0.98574644
192	0xbf4fc15c	-0.8115442
193	0x3f222e3e	0.6335181
194	0xbfa021a2	-1.2510264
195	0x3e9ce371	0.30642274
196	0x3fe50a63	1.7893795
197	0x3fcfa3a5	1.6221815
198	0x3d97deec	0.07415566
199	0xbf8001cb	-1.0000547
200	0xbe88eb7f	-0.2674217
201	0xbf7c5138	-0.9856143
202	0xc01f17a1	-2.4858172
203	0x3f1cb786	0.61217535
204	0xc0034c2f	-2.0515249
205	0x3ec987aa	0.39361316
206	0x400d5c73	2.2087677
207	0xbdccf832	-0.10008277
208	0xbfe46789	-1.7844096
209	0xbf7ea972	-0.99477303
210	0xbfbfe0fa	-1.4990532
211	0x3f2cc81c	0.6749284
212	0x3e4b7eee	0.19872639
213	0x3f8cc3ef	1.0997294
214	0x4010c0ba	2.261763
215	0xbece4abb	-0.4029139
216	0xbf86f2f2	-1.0542891
217	0xbfe4bdfa	-1.7870476
218	0x3f03820f	0.5137033
219	0x3fcd7701	1.6051942
220	0x3f4fc5e9	0.8116136
221	0xbd30f2b7	-0.04320022
222	0xbfb725f6	-1.430846
223	0x3fc29732	1.5202391
224	0x3f8fc160	1.1230888
225	0xbed38957	-0.4131572
226	0xbecde8b2	-0.40216595
227	0xbf2269a4	-0.63442445
228	0xbd979908	-0.07402235
229	0x3d8b0cdf	0.06789564
230	0xbf23621b	-0.6382157
231	0xbeee78df	-0.46576592
232	0x3e9c8121	0.30567268
233	0xbf5fddce	-0.8744782
234	0xbe97cf53	-0.29650363
235	0x4008e8b4	2.139203
236	0xbea4859d	-0.3213319
237	0xc0036ff2	-2.0537076
238	0x3f78f29c	0.9724519
239	0xbfa0622d	-1.2529961
240	0x3f04bd55	0.518514
241	0xbfac2916	-1.3450038
242	0x3faf2be2	1.3685267
243	0xc01dfefd	-2.4686882
244	0x3eb72868	0.35773015
245	0x3e2421c6	0.16028509
246	0xbf0225c5	-0.5083888
247	0xbfa6c611	-1.3029195
248	0x3f917856	1.1364849
249	0xbf0ada8d	-0.5423973
250	0x3fd62c48	1.6732264
251	0xc01a909c	-2.4150763
252	0x3f80a1f7	1.0049428
253	0xbfd30f27	-1.6488999
254	0x3fd32ea6	1.6498611
255	0x3ebfcb62	0.37459856

fc_layers.0.weight f4 [32, 64]
0	0x3ee2d67d	0.44304267
1	0x3db9b936	0.09068529
2	0xbec0bcb4	-0.3764397
3	0xbe19f906	-0.15036401
4	0xbdc087de	-0.094009146
5	0xbf191d0b	-0.5980994
6	0x3ea1757d	0.3153495
7	0x3f012cae	0.504588
8	0xbe20ba02	-0.15695956
9	0x3ec6c3fe	0.38821405
10	0x3e5f4863	0.21804957
11	0xbc5fd62e	-0.013661904
12	0x3d63f5ef	0.055654462
13	0x3eb9b76c	0.36272752
14	0xbeeed935	-0.4665009
15	0xbf0c85cb	-0.5489165
16	0x3ec37768	0.38177037
17	0xbe5c9c35	-0.21543963
18	0x3dccebef	0.10005938
19	0xbe027547	-0.1274005
20	0x3e6bd2b1	0.23029591
21	0x3ed2cc13	0.4117132
22	0x3e896351	0.26833585
23	0x3e94bd1a	0.29050523
24	0x3f4e5ca1	0.8061009
25	0xbe9e4f89	-0.30920056
26	0xbe79e786	-0.24404725
27	0xbdd3d415	-0.10343186
28	0x3e72fabc	0.2372846
29	0x3d9cfe59	0.076657005
30	0x3e544d89	0.20732702
31	0x3e499550	0.19685864
32	0x3f1268af	0.57190984
33	0x3f06b0c9	0.526135
34	0xbb0d979c	-0.0021605259
35	0x3e87b875	0.26507917
36	0xbeaea17d	-0.3410758
37	0xbf0c2a96	-0.5475248
38	0xbcc64cdb	-0.02420657
39	0x3cd2a940	0.02571547
40	0x3f721156	0.945577
41	0x3ea21b82	0.31661612
42	0x3f0e984f	0.55701154
43	0xbe817bed	-0.2528986
44	0x3ef563ca	0.47927696
45	0xbf0ec3dc	-0.5576761
46	0x3e8907ab	0.26763663
47	0x3f4359ff	0.763092
48	0xbd8fa7e3	-0.07014444
49	0xbd54fe00	-0.052000046
50	0xbc3fa1c5	-0.011696284
51	0x3eed6a4b	0.46370158
52	0x3caf02b3	0.021363592
53	0xbcee0c41	-0.029058577
54	0xbf14e64f	-0.58163923
55	0xbe74f4b3	-0.2392147
56	0xbe927796	-0.28606862
57	0xbe92c90b	-0.2866901
58	0xbea1507a	-0.3150671
59	0x3f115d82	0.56783307
60	0xbea56884	-0.32306302
61	0x3ecb4303	0.39699563
62	0x3e52d2fb	0.20588295
63	0xbee90ee1	-0.45519164
64	0x3e50540d	0.20344563
65	0xbe609178	-0.21930492
66	0xbee24164	-0.44190514
67	0x3e081c02	0.13291934
68	0x3ea3cf01	0.3199387
69	0x3e644221	0.22290851
70	0xbecd57a7	-0.40105936
71	0xbdd5254e	-0.10407506
72	0xbe3319a4	-0.1749025
73	0x3f247ec8	0.6425595
74	0x3e42bb6d	0.1901681
75	0x3d531591	0.05153424
76	0xbe99df38	-0.30053115
77	0xbea8ca8f	-0.3296704
78	0xbe4bfb29	-0.19920029
79	0xbdf7fd0c	-0.12108812
80	0x3d25696b	0.040383738
81	0xbc99f8db	-0.018795421
82	0xbd177d79	-0.036984894
83	0x3d9aa1e1	0.07550407
84	0x3d5ae6e8	0.053442866
85	0xbe960897	-0.2930343
86	0x3d974762	0.07386662
87	0xbcdf327a	-0.027245749
88	0xbe6ecbb3	-0.23319893
89	0xbd7931bb	-0.060838442
90	0xbe8aaa6d	-0.2708315
91	0xbe8de9c7	-0.2771742
92	0x3e670438	0.22560203
93	0x3f1ba48f	0.6079797
94	0x3eb9067d	0.36137763
95	0x3ebc5896	0.36786336
96	0xbdc6ff8c	-0.097167104
97	0x3ea151f4	0.31507838
98	0xbe7f946e	-0.24958965
99	0x3eadaebd	0.33922377
100	0xbefe25ee	-0.49638313
101	0x3e06abe6	0.13151512
102	0xbf059661	-0.52182585
103	0xbf1cca76	-0.6124643
104	0xbdec45c9	-0.11536748
105	0x3ef7af15	0.48375764
106	0x3ed1da22	0.40986735
107	0xbfae09ff	-1.35968
108	0x3ee03349	0.43789127
109	0xbe2c8b4d	-0.16850014
110	0x3f29e738	0.66368437
111	0x3dc7a1cd	0.09747658
112	0xbe6b6552	-0.2298787
113	0xbb144a3a	-0.002262725
114	0x3f2cac6a	0.67450583
115	0x3e13f980	0.14450645
116	0x3f48e64a	0.78476393
117	0x3e9c594d	0.3053688
118	0x3ed41d96	0.41428822
119	0xbf00f43d	-0.5037268
120	0x3def98e6	0.11699085
121	0x3e607713	0.21920423
122	0x3d528600	0.051397324
123	0x3ed82a2c	0.42219675
124	0x3e44437e	0.19166371
125	0xbec057ce	-0.3756699
126	0x3ea77d09	0.32712582
127	0x3eddfca7	0.4335682
128	0xbd7389ee	-0.059457712
129	0x3cdc189e	0.026867207
130	0xbeb9a035	-0.3625504
131	0x3decda1b	0.11565038
132	0x3ebe44eb	0.37161955
133	0xbe53259c	-0.20619816
134	0x3d982f9d	0.074309565
135	0xbf01c7e9	-0.50695664
136	0x3e49d550	0.19710279
137	0x3e9f14a5	0.31070438
138	0x3eb3dfd9	0.3513172
139	0xbb163da2	-0.002292492
140	0xbded67ae	-0.11592041
141	0xbece4a54	-0.40291083
142	0xbef48f49	-0.47765568
143	0x3e8c7be0	0.2743826
144	0x3efb7cae	0.4911856
145	0x3e7383f6	0.23780808
146	0xbe0e56a2	-0.13900235
147	0x3e1417ac	0.14462155
148	0x3d8ffa9b	0.07030221
149	0xbd78c4ef	-0.060734686
150	0xbe9f5326	-0.31118125
151	0x3ded5f38	0.11590427
152	0xbe95be09	-0.29246548
153	0xbda18861	-0.0788734
154	0xbebab328	-0.3646481
155	0xbe61215d	-0.21985383
156	0x3dabcb5a	0.083883956
157	0x3f20ae5f	0.6276607
158	0x3e7db0a3	0.24774413
159	0x3d335fad	0.043792415
160	0x3db3202f	0.08746373
161	0xbed15ba5	-0.40890232
162	0xbd26786e	-0.040642194
163	0xbf1a47e9	-0.60265976
164	0xbf1ed42d	-0.62042505
165	0x3eec0578	0.46097922
166	0x3e9cac5a	0.30600244
167	0xbebf7e44	-0.3740102
168	0xbe20c30f	-0.15699409
169	0xbf182112	-0.5942546
170	0xbe995240	-0.29945564
171	0xbed6379a	-0.41839296
172	0x3db00894	0.08595386
173	0xbe4e4b41	-0.20145895
174	0x3f425626	0.759127
175	0x3e272110	0.16321206
176	0x3e7b278d	0.24526806
177	0xbd11db41	-0.035609487
178	0xbe261396	-0.16218409
179	0x3db6f3df	0.089332335
180	0xbf5440b2	-0.8291122
181	0x3f7bac67	0.9830994
182	0xbe684c67	-0.22685395
183	0x3ef84110	0.4848714
184	0x3e2df03d	0.16986175
185	0xbdfe4bc5	-0.12416796
186	0xbe65fa16	-0.22458681
187	0xbf53db62	-0.82756627
188	0xbf56924b	-0.83816975
189	0x3e76b9de	0.2409434
190	0x3d143bff	0.03619003
191	0xbdae748a	-0.08518322
192	0x3e9602d9	0.29299048
193	0x3d125fe5	0.035735983
194	0xbe6560f5	-0.22400267
195	0x3e658c0c	0.22416705
196	0x3dfe608a	0.12420757
197	0x3e0e07c7	0.13870154
198	0xbe04c144	-0.1296435
199	0x3e94a54c	0.29032362
200	0x3e7b25f3	0.24526195
201	0xbe17aa7e	-0.14811131
202	0x3ee30a41	0.4434376
203	0xbdc41989	-0.09575183
204	0xbf14868d	-0.5801781
205	0xbd6f80e9	-0.058472548
206	0xbeb79c14	-0.35861266
207	0xbeb9305d	-0.3616971
208	0x3e0ef708	0.13961422
209	0xbdf1c9df	-0.11806082
210	0x3ea99bb9	0.3312662
211	0xbe295061	-0.16534568
212	0xbd206beb	-0.03916542
213	0xbf392a7a	-0.7233044
214	0x3ec4d4e8	0.38443685
215	0xbe03c1d5	-0.1286691
216	0xbed685b5	-0.41898885
217	0xbce066e7	-0.027392818
218	0xbbedd993	-0.007258603
219	0x3d48d082	0.049026974
220	0x3ec37d63	0.381816
221	0x3e906f67	0.28209993
222	0xbddea7fa	-0.10871883
223	0x3e991ea4	0.2990619
224	0xbee00384	-0.43752682
225	0xbe1d4544	-0.15358454
226	0xbeacba9c	-0.33736122
227	0x3e8a3801	0.26995853
228	0xbdb79c23	-0.089653276
229	0xbf25206f	-0.64502615
230	0xbf5de16a	-0.8667208
231	0xbe8633cd	-0.26211396
232	0x3f0283b7	0.5098223
233	0xbe8e0090	-0.27734804
234	0xbf84bf86	-1.0370948
235	0x3d8e4720	0.0694716
236	0xbe27997e	-0.16367146
237	0x3dee41ac	0.1163362
238	0x3e59bc0a	0.21263137
239	0xbe15aa29	-0.14615692
240	0xbde62a4e	-0.11238538
241	0xbc6da043	-0.014503541
242	0xbee648c7	-0.449774
243	0xbe505d67	-0.2034813
244	0xbed20355	-0.41018167
245	0xbead91ee	-0.33900398
246	0xbee0afaa	-0.4388402
247	0x3eaffe24	0.3437358
248	0x3f10b425	0.5652488
249	0x3f1f42ce	0.6221131
250	0x3ed3de85	0.41380706
251	0xbe9d3c5f	-0.30710122
252	0x3dcc1978	0.09965795
253	0xbef82cba	-0.48471624
254	0x3e9c4f8f	0.30529448
255	0x3e33f205	0.17572792

fc_layers.0.bias f4 [32]
0	0xbe0a4545	-0.13502987
1	0x3e08bda1	0.13353588
2	0xbe519a0c	-0.2046892
3	0x3e102ede	0.14080378
4	0xbdbb568c	-0.09147367
5	0x3cfe7d4c	0.031065606
6	0xbe2dbb06	-0.16965875
7	0x3d1fcfe4	0.03901662
8	0xbd9f440e	-0.07776652
9	0xbe114a4b	-0.14188497
10	0xbd412672	-0.047155805
11	0xbe4d572b	-0.20052783
12	0x3e44bb86	0.1921216
13	0x3da277ac	0.07932982
14	0xbdc11e73	-0.09429636
15	0xbd9c2570	-0.07624328
16	0xbe369e9e	-0.17833945
17	0xbde63637	-0.112408094
18	0xbe458f64	-0.1929298
19	0x3d87e824	0.06636074
20	0x3b7c39b0	0.0038486533
21	0xbe0726cb	-0.13198392
22	0xbb239fc5	-0.0024967056
23	0xbdc8b701	-0.0980053
24	0xbe707b87	-0.23484622
25	0xbe747161	-0.23871376
26	0x3c7d38f1	0.01545547
27	0xbe681dae	-0.22667572
28	0xbd38a222	-0.045076497
29	0xbd189dfb	-0.037260037
30	0xbe373bb5	-0.1789387
31	0xbcbff9cb	-0.02343454

fc_layers.1.weight f4 [16, 32]
0	0x3f425761	0.7591458
1	0xbdf55822	-0.119797006
2	0x3eccdb87	0.40011236
3	0xbf829b87	-1.0203713
4	0xbec6c314	-0.38820708
5	0xbe4fb175	-0.20282538
6	0xbe9d4549	-0.30716923
7	0x3eb773cd	0.35830536
8	0x3f10b1e3	0.56521434
9	0x3f618d8d	0.88106614
10	0x3da5eacc	0.081014246
11	0x3f2d33f6	0.6765741
12	0x3cfea7b9	0.031085836
13	0x3f1c33f2	0.6101676
14	0x3f373b2a	0.7157465
15	0x3e8bca6b	0.2730287
16	0xbe5acfd6	-0.21368346
17	0x3f048fd5	0.5178197
18	0x3dfb48b9	0.1226973
19	0x3e51ef57	0.20501457
20	0x3f5913c2	0.84795773
21	0x3d31ef99	0.04344139
22	0x3ecaadbb	0.3958567
23	0x3ca1a2e5	0.019730994
24	0x3e3d9159	0.18512477
25	0x3eeead5e	0.46616644
26	0x3ebdefe7	0.37097093
27	0x3e051518	0.12996328
28	0xbf1bdac2	-0.6088067
29	0x3ef0b94f	0.4701638
30	0x3dfa1b21	0.12212206
31	0x3f264ba9	0.649592
32	0x3f7db7f7	0.99108833
33	0xbf460b01	-0.7736054
34	0x3f19358e	0.5984734
35	0x3e2460e3	0.16052584
36	0x3ec22fab	0.37926993
37	0xbeba0f3f	-0.36339757
38	0x3e2e3ed6	0.17016158
39	0x3f111ef4	0.56687856
40	0x3f393476	0.72345674
41	0x3f36957c	0.71321845
42	0xbee4f585	-0.44718567
43	0x3f491636	0.78549516
44	0xbe3d66d9	-0.18496265
45	0x3f15a949	0.58461434
46	0x3f513ecd	0.8173645
47	0x3e2016f9	0.15633763
48	0x3eb30b61	0.3496962
49	0x3f8af231	1.0855161
50	0x3e9be6b8	0.30449462
51	0x3ed53ebc	0.41649425
52	0x3ee8304b	0.45349345
53	0xbd24ebe0	-0.04026401
54	0x3ea3facc	0.3202728
55	0xbe85b2f1	-0.26113084
56	0x3eb74f04	0.35802472
57	0x3e9c28e6	0.30499953
58	0x3e07191b	0.1319317
59	0x3ea6aba4	0.32552826
60	0xbd1833ff	-0.037158962
61	0x3f4fe939	0.81215245
62	0x3e0a0f2a	0.13482347
63	0x3e8991a8	0.2686894
64	0x3f62b8d0	0.8856325
65	0xbf288fed	-0.65844613
66	0x3f2e5423	0.6809713
67	0x3db2cc29	0.08730347
68	0x3ea7d1b8	0.3277719
69	0xbea390e2	-0.31946474
70	0x3e321a21	0.1739278
71	0x3f00c365	0.5029815
72	0x3f0efcfa	0.5585476
73	0x3f1c4d32	0.6105529
74	0xbf029d88	-0.51021624
75	0x3f3d9ef6	0.7407068
76	0xbe0ab24c	-0.13544577
77	0x3f26dd9e	0.6518191
78	0x3f53ceda	0.82737505
79	0x3d8ad5a7	0.06779032
80	0x3f12cb66	0.5734161
81	0x3f8ceead	1.1010338
82	0x3e2ff8a7	0.17184697
83	0x3ec38646	0.3818838
84	0x3f077d3f	0.52925485
85	0xbc952512	-0.018206153
86	0x3e264c39	0.16240014
87	0xbdd3f6d2	-0.103498116
88	0x3edd1aed	0.43184605
89	0x3ee4b034	0.44665682
90	0x3e0bf0f7	0.1366614
91	0x3bb20ca6	0.0054336367
92	0x3e268e21	0.16265155
93	0x3f4d7440	0.8025551
94	0x3d841160	0.064486265
95	0x3eb6195a	0.35566217
96	0xbe8c52dd	-0.2740697
97	0x3e63baac	0.22239178
98	0xbf6bbbb7	-0.92083305
99	0x3f2057cb	0.6263396
100	0xbf3cfee7	-0.7382645
101	0x3f0dac98	0.5534148
102	0xbfac10f7	-1.3442677
103	0x3f832894	1.0246758
104	0xbceecb8c	-0.029149793
105	0x3d36dda3	0.044644963
106	0xbf933284	-1.1499791
107	0x3d8ea443	0.06964924
108	0x3f612f6e	0.87962997
109	0x3f463980	0.7743149
110	0x3f328db5	0.6974748
111	0xbf32f977	-0.69911903
112	0xbfac0d36	-1.3441532
113	0x3ee7beb1	0.45262673
114	0xbecc99d2	-0.39961106
115	0x3f68ada8	0.9088998
116	0x3e37c16d	0.1794488
117	0xbf799fc0	-0.97509384
118	0xbfa3acaf	-1.2787074
119	0xbf954c22	-1.1663859
120	0xbf477ae3	-0.77921885
121	0xbf1fb703	-0.6238863
122	0xbecddcf2	-0.4020763
123	0xbf3ad2f8	-0.7297816
124	0xbf67678d	-0.9039238
125	0xbf3bbce7	-0.7333512
126	0xbf448ba3	-0.7677557
127	0x3f105138	0.5637393
128	0xbf07d881	-0.53064734
129	0x3e87705e	0.26452917
130	0xbf9ad4be	-1.2096174
131	0x3ec3d775	0.38250318
132	0x3ebfe62a	0.3748029
133	0x3f6e535b	0.9309594
134	0xbf2a8e11	-0.66623026
135	0x3f34f59d	0.70687276
136	0x3f1e1968	0.61757517
137	0xbda9e720	-0.08296037
138	0xbff79eeb	-1.9345373
139	0x3f844239	1.033271
140	0x3f50bb26	0.81535566
141	0x3ee1e0c2	0.4411679
142	0xbd77ce5c	-0.060499534
143	0xbea0aa66	-0.31380004
144	0xbee8580a	-0.45379668
145	0xbf4a9543	-0.79134005
146	0xbf52e4e3	-0.82380503
147	0xbe780c22	-0.24223378
148	0x3e9fd133	0.31214294
149	0xbeb22bbe	-0.34798998
150	0x3e375777	0.17904459
151	0xbe97a278	-0.2961614
152	0xbf250786	-0.64464605
153	0x3c2fc8fb	0.01072907
154	0xbfe6e56f	-1.8038768
155	0x3e831a6e	0.25606102
156	0x3ee76fd6	0.45202512
157	0xbf947e69	-1.1601077
158	0xbf451036	-0.7697786
159	0x3f2a7326	0.6658195
160	0x3f203133	0.6257507
161	0xc00df08a	-2.2178063
162	0xbcb7a5bd	-0.022417897
163	0xbf1558c1	-0.5833855
164	0xbe5340b2	-0.20630148
165	0xbfa3de9e	-1.2802312
166	0x3e875f10	0.26439714
167	0x3e73d6fc	0.23812479
168	0x3e5596a5	0.20858248
169	0x3dfb87e7	0.12281781
170	0x3e91be2f	0.2846541
171	0x3e6ef961	0.23337318
172	0xbe2b8e98	-0.16753614
173	0x3f39e84d	0.7262009
174	0x3e7b80a4	0.24560791
175	0xbddb2f73	-0.107024096
176	0xbed1053b	-0.40824303
177	0x3e7e0f65	0.2481056
178	0x3f79ea4a	0.9762312
179	0x3e076f3b	0.13226025
180	0x3f20fbf1	0.6288443
181	0x3e8efb38	0.2792604
182	0x3ea2845d	0.3174161
183	0x3e85f078	0.26160026
184	0x3e16a58f	0.14711593
185	0x3f12e6be	0.57383335
186	0x3eebc2c6	0.46047038
187	0x3f37f6cd	0.71860963
188	0xbe33c4f3	-0.17555599
189	0x3e968007	0.29394552
190	0x3f0cbab6	0.549724
191	0x3f913605	1.134461
192	0xbe3835b2	-0.17989233
193	0x3e509f3b	0.20373242
194	0x3ee76510	0.45194292
195	0x3f53f42e	0.82794464
196	0xc00ab528	-2.167307
197	0x3f2e029a	0.6797272
198	0x3f892406	1.0714118
199	0xbf0e150f	-0.5550088
200	0xbfbf8c11	-1.496462
201	0xbe0e7765	-0.13912733
202	0x3f1c5314	0.6106427
203	0x3d93a281	0.072087295
204	0x3d86d124	0.06582859
205	0xbe321dcf	-0.17394184
206	0xbd29eca0	-0.04148543
207	0x3f9c6f94	1.2221551
208	0x3f13bc04	0.57708764
209	0xbf4aa1fe	-0.7915343
210	0x3eb56362	0.35427386
211	0xbee11067	-0.43957826
212	0xbf372d44	-0.71553445
213	0x3f0503f3	0.5195915
214	0x3f0c360c	0.5476997
215	0x3f59969a	0.84995425
216	0xbf2cda19	-0.6752029
217	0xbe99eb8f	-0.3006253
218	0x3f65c1f2	0.8974906
219	0xbf0cb7fa	-0.54968226
220	0x3f2fb5ec	0.68636966
221	0x3ea7805a	0.32715112
222	0x3f05e295	0.5229886
223	0xbfebdfc0	-1.8427658
224	0x3eaefbf8	0.34176612
225	0x3ef95cb9	0.48703554
226	0xbf027074	-0.5095284
227	0x3f0b6a2e	0.5445889
228	0xbf822680	-1.0167999
229	0x3f12cf6a	0.5734774
230	0xbf8f3a47	-1.118966
231	0x3f385f38	0.7202029
232	0x3d609723	0.054831635
233	0xbfb4951d	-1.4108006
234	0xbfba4f07	-1.4555367
235	0xbe95c1f3	-0.29249534
236	0x3f1ae9ef	0.60513204
237	0x3f49bf45	0.7880748
238	0xbebe1d1b	-0.3713158
239	0xc020a24d	-2.509906
240	0x3db3fe30	0.08788717
241	0xbf13f4e3	-0.5779554
242	0xbf7a0ea8	-0.97678614
243	0x3f2a3487	0.664864
244	0x3ef52724	0.47881424
245	0xbd00be5c	-0.03143154
246	0xbe3c0c27	-0.18364011
247	0xbf846552	-1.034342
248	0xbedb6f0c	-0.4285816
249	0xbde02179	-0.109438844
250	0xbf16942f	-0.5881986
251	0xbe1ab4ea	-0.15108076
252	0xbf5779d4	-0.8417027
253	0xbf589c67	-0.8461365
254	0xbe9a00f1	-0.30078843
255	0x3f3751cb	0.7160918

fc_layers.1.bias f4 [16]
0	0xbe03ed1d	-0.1288342
1	0x3d1d7f98	0.03845176
2	0xba4554e8	-0.00075276056
3	0x3dea6560	0.11445117
4	0x3e145b18	0.14487875
5	0xbe6926ea	-0.22768751
6	0xbbd4cbae	-0.006494007
7	0x3c74c9ed	0.014940721
8	0x3d6f2250	0.058382332
9	0x3e1490c1	0.14508344
10	0x3d6c3a26	0.057672642
11	0xbcf0fd53	-0.02941767
12	0x3b142c17	0.0022609287
13	0xbc3432f6	-0.010998478
14	0xbc116e77	-0.0088764345
15	0xbd8ded38	-0.069300115

affine_output.weight f4 [1, 48]
0	0xbf56c742	-0.83897793
1	0xbf24ea62	-0.6442014
2	0xbf21d80a	-0.63220274
3	0x402aa8a2	2.6665425
4	0x3ffcf681	1.9762727
5	0xbfd0a10a	-1.6299145
6	0x3fedd36f	1.858015
7	0x400e89f7	2.2271707
8	0x3fe9d985	1.8269507
9	0x4001acd6	2.026174
10	0xbf59bb23	-0.8505117
11	0x402026a6	2.502359
12	0x402f7966	2.7417846
13	0x400cea20	2.2017899
14	0xbf266940	-0.6500435
15	0xbf49a24b	-0.78763264
16	0x3f47dbde	0.78069866
17	0xbf75cfda	-0.9602028
18	0xbf85dd88	-1.0458231
19	0x3f5c4560	0.8604336
20	0xbf5b2760	-0.85606956
21	0xbf66ebc6	-0.9020351
22	0xbf745ccd	-0.954541
23	0x3f4ef7aa	0.80846655
24	0xbf707d75	-0.9394143
25	0x3f301118	0.68776083
26	0xbf58f707	-0.84751934
27	0xbf7eadb0	-0.99483776
28	0x3f962845	1.1731039
29	0x3f7a2710	0.97715855
30	0xbf514e7e	-0.81760395
31	0x3f4d4b76	0.8019327
32	0x3f6fd577	0.93685097
33	0x3f8686d8	1.0509901
34	0x3f5b9598	0.85775137
35	0x3f1901aa	0.59768164
36	0x3f5f56f3	0.8724205
37	0x3fa76922	1.3078959
38	0x3f83d763	1.0300106
39	0xbf511d5c	-0.81685424
40	0x3f82f378	1.0230551
41	0x3f919ee0	1.137661
42	0x3f5eb852	0.87
43	0x3f901fdf	1.1259726
44	0x3f85c938	1.0452032
45	0xbf6f67d2	-0.9351779
46	0x3f854a6c	1.0413337
47	0x3f71c4a1	0.94440657
